name: "GoogleNet"
<<<<<<< HEAD
<<<<<<< HEAD
<<<<<<< HEAD
<<<<<<< HEAD
<<<<<<< HEAD
<<<<<<< HEAD
<<<<<<< HEAD
<<<<<<< HEAD
<<<<<<< HEAD
<<<<<<< HEAD
<<<<<<< HEAD
<<<<<<< HEAD
<<<<<<< HEAD
=======
<<<<<<< HEAD
<<<<<<< HEAD
<<<<<<< HEAD
<<<<<<< HEAD
=======
>>>>>>> caffe
>>>>>>> pod-caffe-pod.hpp-merge
=======
<<<<<<< HEAD
=======
>>>>>>> caffe
>>>>>>> pod-caffe-pod.hpp-merge
=======
>>>>>>> caffe
>>>>>>> pod/caffe-merge
=======
>>>>>>> caffe
>>>>>>> pod/caffe-merge
=======
=======
>>>>>>> pod/device/blob.hpp
=======
<<<<<<< HEAD
<<<<<<< HEAD
=======
>>>>>>> caffe
>>>>>>> pod-caffe-pod.hpp-merge
<<<<<<< HEAD
>>>>>>> pod/device/blob.hpp
=======
>>>>>>> BVLC/device-abstraction
=======
=======
>>>>>>> caffe
>>>>>>> pod-caffe-pod.hpp-merge
=======
=======
>>>>>>> caffe
>>>>>>> pod/caffe-merge
=======
=======
>>>>>>> pod/device/blob.hpp
=======
>>>>>>> pod/device/blob.hpp
=======
<<<<<<< HEAD
<<<<<<< HEAD
=======
>>>>>>> caffe
>>>>>>> pod-caffe-pod.hpp-merge
<<<<<<< HEAD
<<<<<<< HEAD
>>>>>>> pod/device/blob.hpp
=======
=======
>>>>>>> caffe
>>>>>>> pod-caffe-pod.hpp-merge
=======
>>>>>>> pod/device/blob.hpp
=======
>>>>>>> pod/device/blob.hpp
=======
>>>>>>> BVLC/device-abstraction
=======
>>>>>>> pod/device/blob.hpp
=======
>>>>>>> BVLC/device-abstraction
layer {
  name: "data"
  type: "Data"
  top: "data"
  top: "label"
<<<<<<< HEAD
<<<<<<< HEAD
<<<<<<< HEAD
<<<<<<< HEAD
<<<<<<< HEAD
<<<<<<< HEAD
<<<<<<< HEAD
<<<<<<< HEAD
<<<<<<< HEAD
<<<<<<< HEAD
<<<<<<< HEAD
=======
<<<<<<< HEAD
<<<<<<< HEAD
<<<<<<< HEAD
<<<<<<< HEAD
<<<<<<< HEAD
=======
=======
>>>>>>> pod-caffe-pod.hpp-merge
=======
>>>>>>> pod/caffe-merge
=======
>>>>>>> pod/caffe-merge
=======
=======
>>>>>>> pod/device/blob.hpp
=======
=======
>>>>>>> pod-caffe-pod.hpp-merge
=======
=======
>>>>>>> pod/caffe-merge
=======
=======
<<<<<<< HEAD
=======
>>>>>>> pod/device/blob.hpp
=======
=======
>>>>>>> pod-caffe-pod.hpp-merge
=======
=======
<<<<<<< HEAD
=======
>>>>>>> pod/device/blob.hpp
=======
=======
<<<<<<< HEAD
=======
>>>>>>> pod/device/blob.hpp
=======
=======
<<<<<<< HEAD
=======
>>>>>>> pod/device/blob.hpp
layers {
  top: "data"
  top: "label"
  name: "data"
  type: DATA
  data_param {
    source: "examples/imagenet/ilsvrc12_train_lmdb"
    batch_size: 32
    backend: LMDB
  }
>>>>>>> origin/BVLC/parallel
=======
>>>>>>> caffe
<<<<<<< HEAD
<<<<<<< HEAD
<<<<<<< HEAD
<<<<<<< HEAD
<<<<<<< HEAD
<<<<<<< HEAD
<<<<<<< HEAD
<<<<<<< HEAD
<<<<<<< HEAD
<<<<<<< HEAD
<<<<<<< HEAD
>>>>>>> pod-caffe-pod.hpp-merge
=======
>>>>>>> pod-caffe-pod.hpp-merge
=======
>>>>>>> pod/caffe-merge
=======
>>>>>>> pod/caffe-merge
=======
>>>>>>> pod-caffe-pod.hpp-merge
>>>>>>> pod/device/blob.hpp
=======
>>>>>>> BVLC/device-abstraction
=======
>>>>>>> pod-caffe-pod.hpp-merge
=======
>>>>>>> pod/caffe-merge
=======
>>>>>>> pod-caffe-pod.hpp-merge
>>>>>>> pod/device/blob.hpp
=======
=======
>>>>>>> pod/device/blob.hpp
=======
>>>>>>> pod/device/blob.hpp
>>>>>>> pod-caffe-pod.hpp-merge
=======
>>>>>>> BVLC/device-abstraction
=======
>>>>>>> pod-caffe-pod.hpp-merge
>>>>>>> pod/device/blob.hpp
=======
>>>>>>> BVLC/device-abstraction
  include {
    phase: TRAIN
  }
  transform_param {
    mirror: true
    crop_size: 224
    mean_value: 104
    mean_value: 117
    mean_value: 123
  }
<<<<<<< HEAD
<<<<<<< HEAD
<<<<<<< HEAD
<<<<<<< HEAD
<<<<<<< HEAD
<<<<<<< HEAD
<<<<<<< HEAD
<<<<<<< HEAD
<<<<<<< HEAD
<<<<<<< HEAD
<<<<<<< HEAD
<<<<<<< HEAD
<<<<<<< HEAD
=======
<<<<<<< HEAD
<<<<<<< HEAD
<<<<<<< HEAD
<<<<<<< HEAD
=======
>>>>>>> caffe
>>>>>>> pod-caffe-pod.hpp-merge
=======
<<<<<<< HEAD
=======
>>>>>>> caffe
>>>>>>> pod-caffe-pod.hpp-merge
=======
>>>>>>> caffe
>>>>>>> pod/caffe-merge
=======
>>>>>>> caffe
>>>>>>> pod/caffe-merge
=======
=======
>>>>>>> pod/device/blob.hpp
=======
<<<<<<< HEAD
<<<<<<< HEAD
=======
>>>>>>> caffe
>>>>>>> pod-caffe-pod.hpp-merge
<<<<<<< HEAD
>>>>>>> pod/device/blob.hpp
=======
>>>>>>> BVLC/device-abstraction
=======
=======
>>>>>>> caffe
>>>>>>> pod-caffe-pod.hpp-merge
=======
=======
>>>>>>> caffe
>>>>>>> pod/caffe-merge
=======
=======
>>>>>>> pod/device/blob.hpp
=======
>>>>>>> pod/device/blob.hpp
=======
<<<<<<< HEAD
<<<<<<< HEAD
=======
>>>>>>> caffe
>>>>>>> pod-caffe-pod.hpp-merge
<<<<<<< HEAD
<<<<<<< HEAD
>>>>>>> pod/device/blob.hpp
=======
=======
>>>>>>> caffe
>>>>>>> pod-caffe-pod.hpp-merge
=======
>>>>>>> pod/device/blob.hpp
=======
>>>>>>> pod/device/blob.hpp
=======
>>>>>>> BVLC/device-abstraction
=======
>>>>>>> pod/device/blob.hpp
=======
>>>>>>> BVLC/device-abstraction
  data_param {
    source: "examples/imagenet/ilsvrc12_train_lmdb"
    batch_size: 32
    backend: LMDB
  }
}
layer {
  name: "data"
  type: "Data"
  top: "data"
  top: "label"
<<<<<<< HEAD
<<<<<<< HEAD
<<<<<<< HEAD
<<<<<<< HEAD
<<<<<<< HEAD
<<<<<<< HEAD
<<<<<<< HEAD
<<<<<<< HEAD
<<<<<<< HEAD
<<<<<<< HEAD
<<<<<<< HEAD
=======
<<<<<<< HEAD
<<<<<<< HEAD
<<<<<<< HEAD
<<<<<<< HEAD
<<<<<<< HEAD
=======
=======
>>>>>>> pod-caffe-pod.hpp-merge
=======
>>>>>>> pod/caffe-merge
=======
>>>>>>> pod/caffe-merge
=======
=======
>>>>>>> pod/device/blob.hpp
=======
=======
>>>>>>> pod-caffe-pod.hpp-merge
=======
=======
>>>>>>> pod/caffe-merge
=======
=======
<<<<<<< HEAD
=======
>>>>>>> pod/device/blob.hpp
=======
=======
>>>>>>> pod-caffe-pod.hpp-merge
=======
=======
<<<<<<< HEAD
=======
>>>>>>> pod/device/blob.hpp
=======
=======
<<<<<<< HEAD
=======
>>>>>>> pod/device/blob.hpp
=======
=======
<<<<<<< HEAD
=======
>>>>>>> pod/device/blob.hpp
}
layers {
  top: "data"
  top: "label"
  name: "data"
  type: DATA
  data_param {
    source: "examples/imagenet/ilsvrc12_val_lmdb"
    batch_size: 50
    backend: LMDB
  }
>>>>>>> origin/BVLC/parallel
=======
>>>>>>> caffe
<<<<<<< HEAD
<<<<<<< HEAD
<<<<<<< HEAD
<<<<<<< HEAD
<<<<<<< HEAD
<<<<<<< HEAD
<<<<<<< HEAD
<<<<<<< HEAD
<<<<<<< HEAD
<<<<<<< HEAD
<<<<<<< HEAD
>>>>>>> pod-caffe-pod.hpp-merge
=======
>>>>>>> pod-caffe-pod.hpp-merge
=======
>>>>>>> pod/caffe-merge
=======
>>>>>>> pod/caffe-merge
=======
>>>>>>> pod-caffe-pod.hpp-merge
>>>>>>> pod/device/blob.hpp
=======
>>>>>>> BVLC/device-abstraction
=======
>>>>>>> pod-caffe-pod.hpp-merge
=======
>>>>>>> pod/caffe-merge
=======
>>>>>>> pod-caffe-pod.hpp-merge
>>>>>>> pod/device/blob.hpp
=======
=======
>>>>>>> pod/device/blob.hpp
=======
>>>>>>> pod/device/blob.hpp
>>>>>>> pod-caffe-pod.hpp-merge
=======
>>>>>>> BVLC/device-abstraction
=======
>>>>>>> pod-caffe-pod.hpp-merge
>>>>>>> pod/device/blob.hpp
=======
>>>>>>> BVLC/device-abstraction
  include {
    phase: TEST
  }
  transform_param {
    mirror: false
    crop_size: 224
    mean_value: 104
    mean_value: 117
    mean_value: 123
  }
<<<<<<< HEAD
<<<<<<< HEAD
<<<<<<< HEAD
<<<<<<< HEAD
<<<<<<< HEAD
<<<<<<< HEAD
<<<<<<< HEAD
<<<<<<< HEAD
<<<<<<< HEAD
<<<<<<< HEAD
<<<<<<< HEAD
<<<<<<< HEAD
<<<<<<< HEAD
=======
<<<<<<< HEAD
<<<<<<< HEAD
<<<<<<< HEAD
<<<<<<< HEAD
=======
>>>>>>> caffe
>>>>>>> pod-caffe-pod.hpp-merge
=======
<<<<<<< HEAD
=======
>>>>>>> caffe
>>>>>>> pod-caffe-pod.hpp-merge
=======
>>>>>>> caffe
>>>>>>> pod/caffe-merge
=======
>>>>>>> caffe
>>>>>>> pod/caffe-merge
=======
=======
>>>>>>> pod/device/blob.hpp
=======
<<<<<<< HEAD
<<<<<<< HEAD
=======
>>>>>>> caffe
>>>>>>> pod-caffe-pod.hpp-merge
<<<<<<< HEAD
>>>>>>> pod/device/blob.hpp
=======
>>>>>>> BVLC/device-abstraction
=======
=======
>>>>>>> caffe
>>>>>>> pod-caffe-pod.hpp-merge
=======
=======
>>>>>>> caffe
>>>>>>> pod/caffe-merge
=======
=======
>>>>>>> pod/device/blob.hpp
=======
>>>>>>> pod/device/blob.hpp
=======
<<<<<<< HEAD
<<<<<<< HEAD
=======
>>>>>>> caffe
>>>>>>> pod-caffe-pod.hpp-merge
<<<<<<< HEAD
<<<<<<< HEAD
>>>>>>> pod/device/blob.hpp
=======
=======
>>>>>>> caffe
>>>>>>> pod-caffe-pod.hpp-merge
=======
>>>>>>> pod/device/blob.hpp
=======
>>>>>>> pod/device/blob.hpp
=======
>>>>>>> BVLC/device-abstraction
=======
>>>>>>> pod/device/blob.hpp
=======
>>>>>>> BVLC/device-abstraction
  data_param {
    source: "examples/imagenet/ilsvrc12_val_lmdb"
    batch_size: 50
    backend: LMDB
  }
}
layer {
  name: "conv1/7x7_s2"
  type: "Convolution"
  bottom: "data"
  top: "conv1/7x7_s2"
  param {
    lr_mult: 1
    decay_mult: 1
  }
  param {
    lr_mult: 2
    decay_mult: 0
  }
<<<<<<< HEAD
<<<<<<< HEAD
<<<<<<< HEAD
<<<<<<< HEAD
<<<<<<< HEAD
<<<<<<< HEAD
<<<<<<< HEAD
<<<<<<< HEAD
<<<<<<< HEAD
<<<<<<< HEAD
<<<<<<< HEAD
=======
<<<<<<< HEAD
<<<<<<< HEAD
<<<<<<< HEAD
<<<<<<< HEAD
<<<<<<< HEAD
=======
=======
>>>>>>> pod-caffe-pod.hpp-merge
=======
>>>>>>> pod/caffe-merge
=======
>>>>>>> pod/caffe-merge
=======
=======
>>>>>>> pod/device/blob.hpp
=======
=======
>>>>>>> pod-caffe-pod.hpp-merge
=======
=======
>>>>>>> pod/caffe-merge
=======
=======
<<<<<<< HEAD
=======
>>>>>>> pod/device/blob.hpp
=======
=======
>>>>>>> pod-caffe-pod.hpp-merge
=======
=======
<<<<<<< HEAD
=======
>>>>>>> pod/device/blob.hpp
=======
=======
<<<<<<< HEAD
=======
>>>>>>> pod/device/blob.hpp
=======
=======
<<<<<<< HEAD
=======
>>>>>>> pod/device/blob.hpp
}
layers {
  bottom: "data"
  top: "conv1/7x7_s2"
  name: "conv1/7x7_s2"
  type: CONVOLUTION
  blobs_lr: 1
  blobs_lr: 2
  weight_decay: 1
  weight_decay: 0
>>>>>>> origin/BVLC/parallel
=======
>>>>>>> caffe
<<<<<<< HEAD
<<<<<<< HEAD
<<<<<<< HEAD
<<<<<<< HEAD
<<<<<<< HEAD
<<<<<<< HEAD
<<<<<<< HEAD
<<<<<<< HEAD
<<<<<<< HEAD
<<<<<<< HEAD
<<<<<<< HEAD
>>>>>>> pod-caffe-pod.hpp-merge
=======
>>>>>>> pod-caffe-pod.hpp-merge
=======
>>>>>>> pod/caffe-merge
=======
>>>>>>> pod/caffe-merge
=======
>>>>>>> pod-caffe-pod.hpp-merge
>>>>>>> pod/device/blob.hpp
=======
>>>>>>> BVLC/device-abstraction
=======
>>>>>>> pod-caffe-pod.hpp-merge
=======
>>>>>>> pod/caffe-merge
=======
>>>>>>> pod-caffe-pod.hpp-merge
>>>>>>> pod/device/blob.hpp
=======
=======
>>>>>>> pod/device/blob.hpp
=======
>>>>>>> pod/device/blob.hpp
>>>>>>> pod-caffe-pod.hpp-merge
=======
>>>>>>> BVLC/device-abstraction
=======
>>>>>>> pod-caffe-pod.hpp-merge
>>>>>>> pod/device/blob.hpp
=======
>>>>>>> BVLC/device-abstraction
  convolution_param {
    num_output: 64
    pad: 3
    kernel_size: 7
    stride: 2
    weight_filler {
      type: "xavier"
<<<<<<< HEAD
<<<<<<< HEAD
<<<<<<< HEAD
<<<<<<< HEAD
<<<<<<< HEAD
<<<<<<< HEAD
<<<<<<< HEAD
<<<<<<< HEAD
<<<<<<< HEAD
<<<<<<< HEAD
<<<<<<< HEAD
<<<<<<< HEAD
<<<<<<< HEAD
=======
<<<<<<< HEAD
<<<<<<< HEAD
<<<<<<< HEAD
=======
>>>>>>> pod-caffe-pod.hpp-merge
<<<<<<< HEAD
=======
=======
>>>>>>> pod/caffe-merge
=======
>>>>>>> pod/caffe-merge
=======
=======
<<<<<<< HEAD
<<<<<<< HEAD
=======
>>>>>>> pod/device/blob.hpp
=======
=======
>>>>>>> pod-caffe-pod.hpp-merge
=======
=======
>>>>>>> pod/caffe-merge
=======
=======
>>>>>>> pod/device/blob.hpp
=======
<<<<<<< HEAD
<<<<<<< HEAD
=======
<<<<<<< HEAD
>>>>>>> pod/device/blob.hpp
=======
=======
>>>>>>> pod/device/blob.hpp
=======
<<<<<<< HEAD
<<<<<<< HEAD
=======
<<<<<<< HEAD
>>>>>>> pod/device/blob.hpp
=======
>>>>>>> pod/device/blob.hpp
=======
>>>>>>> pod/device/blob.hpp
      std: 0.1
>>>>>>> origin/BVLC/parallel
=======
>>>>>>> caffe
<<<<<<< HEAD
<<<<<<< HEAD
<<<<<<< HEAD
<<<<<<< HEAD
<<<<<<< HEAD
<<<<<<< HEAD
<<<<<<< HEAD
<<<<<<< HEAD
<<<<<<< HEAD
<<<<<<< HEAD
>>>>>>> pod-caffe-pod.hpp-merge
=======
>>>>>>> pod-caffe-pod.hpp-merge
=======
>>>>>>> pod/caffe-merge
=======
>>>>>>> pod/caffe-merge
=======
>>>>>>> pod-caffe-pod.hpp-merge
>>>>>>> pod/device/blob.hpp
=======
>>>>>>> BVLC/device-abstraction
=======
>>>>>>> pod-caffe-pod.hpp-merge
=======
>>>>>>> pod/caffe-merge
=======
>>>>>>> pod-caffe-pod.hpp-merge
>>>>>>> pod/device/blob.hpp
=======
=======
      std: 0.1
>>>>>>> origin/BVLC/parallel
=======
>>>>>>> caffe
=======
>>>>>>> pod-caffe-pod.hpp-merge
>>>>>>> pod/device/blob.hpp
=======
>>>>>>> pod-caffe-pod.hpp-merge
>>>>>>> pod/device/blob.hpp
=======
>>>>>>> BVLC/device-abstraction
=======
>>>>>>> pod-caffe-pod.hpp-merge
>>>>>>> pod/device/blob.hpp
=======
>>>>>>> BVLC/device-abstraction
    }
    bias_filler {
      type: "constant"
      value: 0.2
    }
  }
}
<<<<<<< HEAD
<<<<<<< HEAD
<<<<<<< HEAD
<<<<<<< HEAD
<<<<<<< HEAD
<<<<<<< HEAD
<<<<<<< HEAD
=======
>>>>>>> caffe
=======
=======
>>>>>>> pod/device/blob.hpp
=======
>>>>>>> pod/device/blob.hpp
=======
<<<<<<< HEAD
<<<<<<< HEAD
=======
>>>>>>> caffe
>>>>>>> pod-caffe-pod.hpp-merge
<<<<<<< HEAD
<<<<<<< HEAD
>>>>>>> pod/device/blob.hpp
=======
>>>>>>> pod/device/blob.hpp
=======
>>>>>>> BVLC/device-abstraction
=======
>>>>>>> pod/device/blob.hpp
=======
>>>>>>> BVLC/device-abstraction
layer {
  name: "conv1/relu_7x7"
  type: "ReLU"
  bottom: "conv1/7x7_s2"
  top: "conv1/7x7_s2"
}
layer {
  name: "pool1/3x3_s2"
  type: "Pooling"
  bottom: "conv1/7x7_s2"
  top: "pool1/3x3_s2"
<<<<<<< HEAD
<<<<<<< HEAD
<<<<<<< HEAD
<<<<<<< HEAD
=======
<<<<<<< HEAD
=======
<<<<<<< HEAD
<<<<<<< HEAD
=======
>>>>>>> pod/device/blob.hpp
=======
>>>>>>> pod/device/blob.hpp
=======
=======
<<<<<<< HEAD
=======
>>>>>>> pod/device/blob.hpp
layers {
  bottom: "conv1/7x7_s2"
  top: "conv1/7x7_s2"
  name: "conv1/relu_7x7"
  type: RELU
}
layers {
  bottom: "conv1/7x7_s2"
  top: "pool1/3x3_s2"
  name: "pool1/3x3_s2"
  type: POOLING
>>>>>>> origin/BVLC/parallel
=======
>>>>>>> caffe
<<<<<<< HEAD
<<<<<<< HEAD
<<<<<<< HEAD
=======
>>>>>>> pod-caffe-pod.hpp-merge
>>>>>>> pod/device/blob.hpp
=======
>>>>>>> pod-caffe-pod.hpp-merge
>>>>>>> pod/device/blob.hpp
=======
>>>>>>> BVLC/device-abstraction
=======
>>>>>>> pod-caffe-pod.hpp-merge
>>>>>>> pod/device/blob.hpp
=======
>>>>>>> BVLC/device-abstraction
  pooling_param {
    pool: MAX
    kernel_size: 3
    stride: 2
  }
}
<<<<<<< HEAD
<<<<<<< HEAD
<<<<<<< HEAD
<<<<<<< HEAD
<<<<<<< HEAD
<<<<<<< HEAD
<<<<<<< HEAD
=======
>>>>>>> caffe
=======
=======
>>>>>>> pod/device/blob.hpp
=======
>>>>>>> pod/device/blob.hpp
=======
<<<<<<< HEAD
<<<<<<< HEAD
=======
>>>>>>> caffe
>>>>>>> pod-caffe-pod.hpp-merge
<<<<<<< HEAD
<<<<<<< HEAD
>>>>>>> pod/device/blob.hpp
=======
>>>>>>> pod/device/blob.hpp
=======
>>>>>>> BVLC/device-abstraction
=======
>>>>>>> pod/device/blob.hpp
=======
>>>>>>> BVLC/device-abstraction
layer {
  name: "pool1/norm1"
  type: "LRN"
  bottom: "pool1/3x3_s2"
  top: "pool1/norm1"
<<<<<<< HEAD
<<<<<<< HEAD
<<<<<<< HEAD
<<<<<<< HEAD
=======
<<<<<<< HEAD
=======
<<<<<<< HEAD
<<<<<<< HEAD
=======
>>>>>>> pod/device/blob.hpp
=======
>>>>>>> pod/device/blob.hpp
=======
=======
<<<<<<< HEAD
=======
>>>>>>> pod/device/blob.hpp
layers {
  bottom: "pool1/3x3_s2"
  top: "pool1/norm1"
  name: "pool1/norm1"
  type: LRN
>>>>>>> origin/BVLC/parallel
=======
>>>>>>> caffe
<<<<<<< HEAD
<<<<<<< HEAD
<<<<<<< HEAD
=======
>>>>>>> pod-caffe-pod.hpp-merge
>>>>>>> pod/device/blob.hpp
=======
>>>>>>> pod-caffe-pod.hpp-merge
>>>>>>> pod/device/blob.hpp
=======
>>>>>>> BVLC/device-abstraction
=======
>>>>>>> pod-caffe-pod.hpp-merge
>>>>>>> pod/device/blob.hpp
=======
>>>>>>> BVLC/device-abstraction
  lrn_param {
    local_size: 5
    alpha: 0.0001
    beta: 0.75
  }
}
<<<<<<< HEAD
<<<<<<< HEAD
<<<<<<< HEAD
<<<<<<< HEAD
<<<<<<< HEAD
<<<<<<< HEAD
<<<<<<< HEAD
=======
>>>>>>> caffe
=======
=======
>>>>>>> pod/device/blob.hpp
=======
>>>>>>> pod/device/blob.hpp
=======
<<<<<<< HEAD
<<<<<<< HEAD
=======
>>>>>>> caffe
>>>>>>> pod-caffe-pod.hpp-merge
<<<<<<< HEAD
<<<<<<< HEAD
>>>>>>> pod/device/blob.hpp
=======
>>>>>>> pod/device/blob.hpp
=======
>>>>>>> BVLC/device-abstraction
=======
>>>>>>> pod/device/blob.hpp
=======
>>>>>>> BVLC/device-abstraction
layer {
  name: "conv2/3x3_reduce"
  type: "Convolution"
  bottom: "pool1/norm1"
  top: "conv2/3x3_reduce"
  param {
    lr_mult: 1
    decay_mult: 1
  }
  param {
    lr_mult: 2
    decay_mult: 0
  }
<<<<<<< HEAD
<<<<<<< HEAD
<<<<<<< HEAD
<<<<<<< HEAD
=======
<<<<<<< HEAD
=======
<<<<<<< HEAD
<<<<<<< HEAD
=======
>>>>>>> pod/device/blob.hpp
=======
>>>>>>> pod/device/blob.hpp
=======
=======
<<<<<<< HEAD
=======
>>>>>>> pod/device/blob.hpp
layers {
  bottom: "pool1/norm1"
  top: "conv2/3x3_reduce"
  name: "conv2/3x3_reduce"
  type: CONVOLUTION
  blobs_lr: 1
  blobs_lr: 2
  weight_decay: 1
  weight_decay: 0
>>>>>>> origin/BVLC/parallel
=======
>>>>>>> caffe
<<<<<<< HEAD
<<<<<<< HEAD
<<<<<<< HEAD
=======
>>>>>>> pod-caffe-pod.hpp-merge
>>>>>>> pod/device/blob.hpp
=======
>>>>>>> pod-caffe-pod.hpp-merge
>>>>>>> pod/device/blob.hpp
=======
>>>>>>> BVLC/device-abstraction
=======
>>>>>>> pod-caffe-pod.hpp-merge
>>>>>>> pod/device/blob.hpp
=======
>>>>>>> BVLC/device-abstraction
  convolution_param {
    num_output: 64
    kernel_size: 1
    weight_filler {
      type: "xavier"
<<<<<<< HEAD
<<<<<<< HEAD
<<<<<<< HEAD
<<<<<<< HEAD
<<<<<<< HEAD
<<<<<<< HEAD
=======
=======
<<<<<<< HEAD
>>>>>>> pod/device/blob.hpp
=======
=======
<<<<<<< HEAD
>>>>>>> pod/device/blob.hpp
=======
=======
<<<<<<< HEAD
>>>>>>> pod/device/blob.hpp
<<<<<<< HEAD
=======
      std: 0.1
>>>>>>> origin/BVLC/parallel
=======
>>>>>>> caffe
>>>>>>> pod-caffe-pod.hpp-merge
<<<<<<< HEAD
=======
>>>>>>> BVLC/device-abstraction
=======
>>>>>>> pod/device/blob.hpp
=======
>>>>>>> BVLC/device-abstraction
    }
    bias_filler {
      type: "constant"
      value: 0.2
    }
  }
}
<<<<<<< HEAD
<<<<<<< HEAD
<<<<<<< HEAD
<<<<<<< HEAD
<<<<<<< HEAD
<<<<<<< HEAD
<<<<<<< HEAD
<<<<<<< HEAD
<<<<<<< HEAD
<<<<<<< HEAD
<<<<<<< HEAD
<<<<<<< HEAD
<<<<<<< HEAD
=======
<<<<<<< HEAD
<<<<<<< HEAD
<<<<<<< HEAD
<<<<<<< HEAD
=======
>>>>>>> caffe
>>>>>>> pod-caffe-pod.hpp-merge
=======
<<<<<<< HEAD
=======
>>>>>>> caffe
>>>>>>> pod-caffe-pod.hpp-merge
=======
>>>>>>> caffe
>>>>>>> pod/caffe-merge
=======
>>>>>>> caffe
>>>>>>> pod/caffe-merge
=======
=======
>>>>>>> pod/device/blob.hpp
=======
>>>>>>> pod/device/blob.hpp
=======
>>>>>>> pod/device/blob.hpp
=======
<<<<<<< HEAD
<<<<<<< HEAD
=======
>>>>>>> caffe
>>>>>>> pod-caffe-pod.hpp-merge
<<<<<<< HEAD
<<<<<<< HEAD
<<<<<<< HEAD
>>>>>>> pod/device/blob.hpp
=======
>>>>>>> BVLC/device-abstraction
=======
=======
>>>>>>> caffe
>>>>>>> pod-caffe-pod.hpp-merge
=======
=======
>>>>>>> caffe
>>>>>>> pod/caffe-merge
=======
=======
=======
=======
>>>>>>> caffe
=======
>>>>>>> pod/device/blob.hpp
=======
>>>>>>> pod/device/blob.hpp
=======
>>>>>>> BVLC/device-abstraction
=======
>>>>>>> pod/device/blob.hpp
=======
>>>>>>> BVLC/device-abstraction
layer {
  name: "conv2/relu_3x3_reduce"
  type: "ReLU"
  bottom: "conv2/3x3_reduce"
  top: "conv2/3x3_reduce"
}
layer {
  name: "conv2/3x3"
  type: "Convolution"
  bottom: "conv2/3x3_reduce"
  top: "conv2/3x3"
  param {
    lr_mult: 1
    decay_mult: 1
  }
  param {
    lr_mult: 2
    decay_mult: 0
  }
<<<<<<< HEAD
<<<<<<< HEAD
<<<<<<< HEAD
<<<<<<< HEAD
=======
<<<<<<< HEAD
=======
<<<<<<< HEAD
<<<<<<< HEAD
=======
>>>>>>> pod/device/blob.hpp
=======
>>>>>>> pod/device/blob.hpp
=======
=======
<<<<<<< HEAD
=======
>>>>>>> pod/device/blob.hpp
layers {
  bottom: "conv2/3x3_reduce"
  top: "conv2/3x3_reduce"
  name: "conv2/relu_3x3_reduce"
  type: RELU
}
layers {
  bottom: "conv2/3x3_reduce"
  top: "conv2/3x3"
  name: "conv2/3x3"
  type: CONVOLUTION
  blobs_lr: 1
  blobs_lr: 2
  weight_decay: 1
  weight_decay: 0
>>>>>>> origin/BVLC/parallel
=======
>>>>>>> caffe
<<<<<<< HEAD
<<<<<<< HEAD
<<<<<<< HEAD
=======
>>>>>>> pod-caffe-pod.hpp-merge
>>>>>>> pod/device/blob.hpp
=======
>>>>>>> pod-caffe-pod.hpp-merge
>>>>>>> pod/device/blob.hpp
=======
>>>>>>> BVLC/device-abstraction
=======
>>>>>>> pod-caffe-pod.hpp-merge
>>>>>>> pod/device/blob.hpp
=======
>>>>>>> BVLC/device-abstraction
  convolution_param {
    num_output: 192
    pad: 1
    kernel_size: 3
    weight_filler {
      type: "xavier"
<<<<<<< HEAD
<<<<<<< HEAD
<<<<<<< HEAD
<<<<<<< HEAD
<<<<<<< HEAD
<<<<<<< HEAD
=======
=======
<<<<<<< HEAD
>>>>>>> pod/device/blob.hpp
=======
=======
<<<<<<< HEAD
>>>>>>> pod/device/blob.hpp
=======
=======
<<<<<<< HEAD
>>>>>>> pod/device/blob.hpp
<<<<<<< HEAD
=======
      std: 0.03
>>>>>>> origin/BVLC/parallel
=======
>>>>>>> caffe
<<<<<<< HEAD
<<<<<<< HEAD
<<<<<<< HEAD
=======
>>>>>>> pod-caffe-pod.hpp-merge
>>>>>>> pod/device/blob.hpp
=======
>>>>>>> pod-caffe-pod.hpp-merge
>>>>>>> pod/device/blob.hpp
=======
>>>>>>> BVLC/device-abstraction
=======
>>>>>>> pod-caffe-pod.hpp-merge
>>>>>>> pod/device/blob.hpp
=======
>>>>>>> BVLC/device-abstraction
    }
    bias_filler {
      type: "constant"
      value: 0.2
    }
  }
}
<<<<<<< HEAD
<<<<<<< HEAD
<<<<<<< HEAD
<<<<<<< HEAD
<<<<<<< HEAD
>>>>>>> pod-caffe-pod.hpp-merge
<<<<<<< HEAD
<<<<<<< HEAD
=======
>>>>>>> caffe
<<<<<<< HEAD
>>>>>>> pod-caffe-pod.hpp-merge
>>>>>>> pod/device/blob.hpp
layer {
  name: "conv1/relu_7x7"
  type: "ReLU"
  bottom: "conv1/7x7_s2"
  top: "conv1/7x7_s2"
}
layer {
  name: "pool1/3x3_s2"
  type: "Pooling"
  bottom: "conv1/7x7_s2"
  top: "pool1/3x3_s2"
<<<<<<< HEAD
<<<<<<< HEAD
<<<<<<< HEAD
<<<<<<< HEAD
<<<<<<< HEAD
=======
<<<<<<< HEAD
<<<<<<< HEAD
<<<<<<< HEAD
<<<<<<< HEAD
<<<<<<< HEAD
=======
=======
>>>>>>> pod-caffe-pod.hpp-merge
=======
>>>>>>> pod/caffe-merge
=======
>>>>>>> pod/caffe-merge
=======
=======
>>>>>>> pod/device/blob.hpp
=======
=======
>>>>>>> pod-caffe-pod.hpp-merge
=======
=======
>>>>>>> pod/caffe-merge
=======
=======
<<<<<<< HEAD
=======
>>>>>>> pod/device/blob.hpp
layers {
  bottom: "conv1/7x7_s2"
  top: "conv1/7x7_s2"
  name: "conv1/relu_7x7"
  type: RELU
}
layers {
  bottom: "conv1/7x7_s2"
  top: "pool1/3x3_s2"
  name: "pool1/3x3_s2"
  type: POOLING
>>>>>>> origin/BVLC/parallel
=======
>>>>>>> caffe
<<<<<<< HEAD
<<<<<<< HEAD
<<<<<<< HEAD
<<<<<<< HEAD
<<<<<<< HEAD
<<<<<<< HEAD
<<<<<<< HEAD
>>>>>>> pod-caffe-pod.hpp-merge
=======
>>>>>>> pod-caffe-pod.hpp-merge
=======
>>>>>>> pod/caffe-merge
=======
>>>>>>> pod/caffe-merge
=======
>>>>>>> pod-caffe-pod.hpp-merge
>>>>>>> pod/device/blob.hpp
=======
>>>>>>> BVLC/device-abstraction
=======
>>>>>>> pod-caffe-pod.hpp-merge
=======
>>>>>>> pod/caffe-merge
=======
>>>>>>> pod-caffe-pod.hpp-merge
>>>>>>> pod/device/blob.hpp
=======
=======
<<<<<<< HEAD
=======
>>>>>>> pod/device/blob.hpp
=======
<<<<<<< HEAD
<<<<<<< HEAD
=======
>>>>>>> caffe
>>>>>>> pod-caffe-pod.hpp-merge
<<<<<<< HEAD
>>>>>>> pod/device/blob.hpp
=======
>>>>>>> pod/device/blob.hpp
=======
>>>>>>> BVLC/device-abstraction
=======
=======
<<<<<<< HEAD
<<<<<<< HEAD
=======
>>>>>>> caffe
>>>>>>> pod-caffe-pod.hpp-merge
>>>>>>> pod/device/blob.hpp
=======
>>>>>>> BVLC/device-abstraction
layer {
  name: "conv2/relu_3x3"
  type: "ReLU"
  bottom: "conv2/3x3"
  top: "conv2/3x3"
}
layer {
  name: "conv2/norm2"
  type: "LRN"
  bottom: "conv2/3x3"
  top: "conv2/norm2"
<<<<<<< HEAD
<<<<<<< HEAD
<<<<<<< HEAD
<<<<<<< HEAD
=======
<<<<<<< HEAD
=======
<<<<<<< HEAD
<<<<<<< HEAD
=======
>>>>>>> pod/device/blob.hpp
=======
>>>>>>> pod/device/blob.hpp
=======
=======
<<<<<<< HEAD
=======
>>>>>>> pod/device/blob.hpp
layers {
  bottom: "conv2/3x3"
  top: "conv2/3x3"
  name: "conv2/relu_3x3"
  type: RELU
}
layers {
  bottom: "conv2/3x3"
  top: "conv2/norm2"
  name: "conv2/norm2"
  type: LRN
>>>>>>> origin/BVLC/parallel
=======
>>>>>>> caffe
<<<<<<< HEAD
<<<<<<< HEAD
<<<<<<< HEAD
=======
>>>>>>> pod-caffe-pod.hpp-merge
>>>>>>> pod/device/blob.hpp
=======
>>>>>>> pod-caffe-pod.hpp-merge
>>>>>>> pod/device/blob.hpp
=======
>>>>>>> BVLC/device-abstraction
=======
>>>>>>> pod-caffe-pod.hpp-merge
>>>>>>> pod/device/blob.hpp
=======
>>>>>>> BVLC/device-abstraction
  lrn_param {
    local_size: 5
    alpha: 0.0001
    beta: 0.75
  }
}
<<<<<<< HEAD
<<<<<<< HEAD
<<<<<<< HEAD
<<<<<<< HEAD
<<<<<<< HEAD
<<<<<<< HEAD
<<<<<<< HEAD
=======
>>>>>>> caffe
=======
=======
>>>>>>> pod/device/blob.hpp
=======
>>>>>>> pod/device/blob.hpp
=======
<<<<<<< HEAD
<<<<<<< HEAD
=======
>>>>>>> caffe
>>>>>>> pod-caffe-pod.hpp-merge
<<<<<<< HEAD
<<<<<<< HEAD
>>>>>>> pod/device/blob.hpp
=======
>>>>>>> pod/device/blob.hpp
=======
>>>>>>> BVLC/device-abstraction
=======
>>>>>>> pod/device/blob.hpp
=======
>>>>>>> BVLC/device-abstraction
layer {
  name: "pool2/3x3_s2"
  type: "Pooling"
  bottom: "conv2/norm2"
  top: "pool2/3x3_s2"
<<<<<<< HEAD
<<<<<<< HEAD
<<<<<<< HEAD
<<<<<<< HEAD
=======
<<<<<<< HEAD
=======
<<<<<<< HEAD
<<<<<<< HEAD
=======
>>>>>>> pod/device/blob.hpp
=======
>>>>>>> pod/device/blob.hpp
=======
=======
<<<<<<< HEAD
=======
>>>>>>> pod/device/blob.hpp
layers {
  bottom: "conv2/norm2"
  top: "pool2/3x3_s2"
  name: "pool2/3x3_s2"
  type: POOLING
>>>>>>> origin/BVLC/parallel
=======
>>>>>>> caffe
>>>>>>> pod-caffe-pod.hpp-merge
<<<<<<< HEAD
=======
>>>>>>> BVLC/device-abstraction
=======
>>>>>>> pod/device/blob.hpp
=======
>>>>>>> BVLC/device-abstraction
  pooling_param {
    pool: MAX
    kernel_size: 3
    stride: 2
  }
}
<<<<<<< HEAD
<<<<<<< HEAD
<<<<<<< HEAD
<<<<<<< HEAD
<<<<<<< HEAD
<<<<<<< HEAD
<<<<<<< HEAD
<<<<<<< HEAD
<<<<<<< HEAD
<<<<<<< HEAD
<<<<<<< HEAD
<<<<<<< HEAD
<<<<<<< HEAD
=======
<<<<<<< HEAD
<<<<<<< HEAD
<<<<<<< HEAD
<<<<<<< HEAD
=======
>>>>>>> caffe
>>>>>>> pod-caffe-pod.hpp-merge
=======
<<<<<<< HEAD
=======
>>>>>>> caffe
>>>>>>> pod-caffe-pod.hpp-merge
=======
>>>>>>> caffe
>>>>>>> pod/caffe-merge
=======
>>>>>>> caffe
>>>>>>> pod/caffe-merge
=======
=======
<<<<<<< HEAD
<<<<<<< HEAD
=======
>>>>>>> caffe
>>>>>>> pod-caffe-pod.hpp-merge
>>>>>>> pod/device/blob.hpp
=======
>>>>>>> BVLC/device-abstraction
=======
=======
>>>>>>> caffe
>>>>>>> pod-caffe-pod.hpp-merge
layer {
  name: "pool1/norm1"
  type: "LRN"
  bottom: "pool1/3x3_s2"
  top: "pool1/norm1"
<<<<<<< HEAD
<<<<<<< HEAD
<<<<<<< HEAD
=======
<<<<<<< HEAD
<<<<<<< HEAD
<<<<<<< HEAD
<<<<<<< HEAD
<<<<<<< HEAD
=======
=======
>>>>>>> pod-caffe-pod.hpp-merge
=======
>>>>>>> pod/caffe-merge
=======
>>>>>>> pod/caffe-merge
=======
=======
>>>>>>> pod/device/blob.hpp
=======
=======
>>>>>>> pod-caffe-pod.hpp-merge
=======
=======
>>>>>>> caffe
=======
=======
>>>>>>> pod/device/blob.hpp
=======
>>>>>>> pod/device/blob.hpp
=======
<<<<<<< HEAD
<<<<<<< HEAD
=======
>>>>>>> caffe
>>>>>>> pod-caffe-pod.hpp-merge
<<<<<<< HEAD
<<<<<<< HEAD
>>>>>>> pod/device/blob.hpp
layer {
  name: "pool1/norm1"
  type: "LRN"
  bottom: "pool1/3x3_s2"
  top: "pool1/norm1"
<<<<<<< HEAD
=======
<<<<<<< HEAD
>>>>>>> pod/caffe-merge
=======
<<<<<<< HEAD
=======
>>>>>>> pod/device/blob.hpp
layers {
  bottom: "pool1/3x3_s2"
  top: "pool1/norm1"
  name: "pool1/norm1"
  type: LRN
>>>>>>> origin/BVLC/parallel
=======
>>>>>>> caffe
<<<<<<< HEAD
<<<<<<< HEAD
<<<<<<< HEAD
<<<<<<< HEAD
<<<<<<< HEAD
<<<<<<< HEAD
<<<<<<< HEAD
>>>>>>> pod-caffe-pod.hpp-merge
=======
>>>>>>> pod-caffe-pod.hpp-merge
=======
>>>>>>> pod/caffe-merge
=======
>>>>>>> pod/caffe-merge
=======
>>>>>>> pod-caffe-pod.hpp-merge
>>>>>>> pod/device/blob.hpp
=======
>>>>>>> BVLC/device-abstraction
=======
>>>>>>> pod-caffe-pod.hpp-merge
=======
>>>>>>> pod/caffe-merge
=======
>>>>>>> pod-caffe-pod.hpp-merge
>>>>>>> pod/device/blob.hpp
  lrn_param {
    local_size: 5
    alpha: 0.0001
    beta: 0.75
=======
=======
>>>>>>> caffe
=======
>>>>>>> pod/device/blob.hpp
=======
>>>>>>> pod/device/blob.hpp
=======
>>>>>>> BVLC/device-abstraction
=======
=======
<<<<<<< HEAD
<<<<<<< HEAD
=======
>>>>>>> caffe
>>>>>>> pod-caffe-pod.hpp-merge
>>>>>>> pod/device/blob.hpp
=======
>>>>>>> BVLC/device-abstraction
layer {
  name: "inception_3a/1x1"
  type: "Convolution"
  bottom: "pool2/3x3_s2"
  top: "inception_3a/1x1"
  param {
    lr_mult: 1
    decay_mult: 1
  }
  param {
    lr_mult: 2
    decay_mult: 0
  }
<<<<<<< HEAD
<<<<<<< HEAD
<<<<<<< HEAD
<<<<<<< HEAD
=======
<<<<<<< HEAD
=======
<<<<<<< HEAD
<<<<<<< HEAD
=======
>>>>>>> pod/device/blob.hpp
=======
>>>>>>> pod/device/blob.hpp
=======
=======
<<<<<<< HEAD
=======
>>>>>>> pod/device/blob.hpp
layers {
  bottom: "pool2/3x3_s2"
  top: "inception_3a/1x1"
  name: "inception_3a/1x1"
  type: CONVOLUTION
  blobs_lr: 1
  blobs_lr: 2
  weight_decay: 1
  weight_decay: 0
>>>>>>> origin/BVLC/parallel
=======
>>>>>>> caffe
<<<<<<< HEAD
<<<<<<< HEAD
<<<<<<< HEAD
=======
>>>>>>> pod-caffe-pod.hpp-merge
>>>>>>> pod/device/blob.hpp
=======
>>>>>>> pod-caffe-pod.hpp-merge
>>>>>>> pod/device/blob.hpp
=======
>>>>>>> BVLC/device-abstraction
=======
>>>>>>> pod-caffe-pod.hpp-merge
>>>>>>> pod/device/blob.hpp
=======
>>>>>>> BVLC/device-abstraction
  convolution_param {
    num_output: 64
    kernel_size: 1
    weight_filler {
      type: "xavier"
<<<<<<< HEAD
<<<<<<< HEAD
<<<<<<< HEAD
<<<<<<< HEAD
<<<<<<< HEAD
<<<<<<< HEAD
=======
=======
<<<<<<< HEAD
>>>>>>> pod/device/blob.hpp
=======
=======
<<<<<<< HEAD
>>>>>>> pod/device/blob.hpp
=======
=======
<<<<<<< HEAD
>>>>>>> pod/device/blob.hpp
<<<<<<< HEAD
=======
      std: 0.03
>>>>>>> origin/BVLC/parallel
=======
>>>>>>> caffe
<<<<<<< HEAD
<<<<<<< HEAD
<<<<<<< HEAD
=======
>>>>>>> pod-caffe-pod.hpp-merge
>>>>>>> pod/device/blob.hpp
=======
>>>>>>> pod-caffe-pod.hpp-merge
>>>>>>> pod/device/blob.hpp
=======
>>>>>>> BVLC/device-abstraction
=======
>>>>>>> pod-caffe-pod.hpp-merge
>>>>>>> pod/device/blob.hpp
=======
>>>>>>> BVLC/device-abstraction
    }
    bias_filler {
      type: "constant"
      value: 0.2
    }
<<<<<<< HEAD
<<<<<<< HEAD
>>>>>>> pod-caffe-pod.hpp-merge
  }
}
<<<<<<< HEAD
<<<<<<< HEAD
<<<<<<< HEAD
<<<<<<< HEAD
<<<<<<< HEAD
<<<<<<< HEAD
<<<<<<< HEAD
<<<<<<< HEAD
<<<<<<< HEAD
<<<<<<< HEAD
=======
<<<<<<< HEAD
<<<<<<< HEAD
<<<<<<< HEAD
<<<<<<< HEAD
=======
>>>>>>> caffe
>>>>>>> pod-caffe-pod.hpp-merge
=======
<<<<<<< HEAD
=======
>>>>>>> caffe
>>>>>>> pod-caffe-pod.hpp-merge
=======
>>>>>>> caffe
>>>>>>> pod/caffe-merge
=======
>>>>>>> caffe
>>>>>>> pod/caffe-merge
=======
=======
<<<<<<< HEAD
<<<<<<< HEAD
=======
>>>>>>> caffe
>>>>>>> pod-caffe-pod.hpp-merge
>>>>>>> pod/device/blob.hpp
=======
>>>>>>> BVLC/device-abstraction
=======
=======
>>>>>>> caffe
>>>>>>> pod-caffe-pod.hpp-merge
=======
=======
>>>>>>> caffe
>>>>>>> pod/caffe-merge
=======
=======
<<<<<<< HEAD
<<<<<<< HEAD
=======
>>>>>>> caffe
>>>>>>> pod-caffe-pod.hpp-merge
>>>>>>> pod/device/blob.hpp
layer {
  name: "conv2/3x3_reduce"
  type: "Convolution"
  bottom: "pool1/norm1"
  top: "conv2/3x3_reduce"
=======
=======
>>>>>>> caffe
=======
=======
>>>>>>> pod/device/blob.hpp
=======
<<<<<<< HEAD
<<<<<<< HEAD
=======
>>>>>>> caffe
>>>>>>> pod-caffe-pod.hpp-merge
<<<<<<< HEAD
>>>>>>> pod/device/blob.hpp
=======
>>>>>>> pod/device/blob.hpp
=======
  }
}
<<<<<<< HEAD
>>>>>>> BVLC/device-abstraction
=======
<<<<<<< HEAD
=======
<<<<<<< HEAD
<<<<<<< HEAD
=======
>>>>>>> caffe
>>>>>>> pod-caffe-pod.hpp-merge
>>>>>>> pod/device/blob.hpp
=======
  }
}
>>>>>>> BVLC/device-abstraction
layer {
  name: "inception_3a/relu_1x1"
  type: "ReLU"
  bottom: "inception_3a/1x1"
  top: "inception_3a/1x1"
}
layer {
  name: "inception_3a/3x3_reduce"
  type: "Convolution"
  bottom: "pool2/3x3_s2"
  top: "inception_3a/3x3_reduce"
<<<<<<< HEAD
<<<<<<< HEAD
>>>>>>> pod-caffe-pod.hpp-merge
=======
>>>>>>> BVLC/device-abstraction
=======
>>>>>>> BVLC/device-abstraction
  param {
    lr_mult: 1
    decay_mult: 1
  }
  param {
    lr_mult: 2
    decay_mult: 0
  }
<<<<<<< HEAD
<<<<<<< HEAD
<<<<<<< HEAD
<<<<<<< HEAD
<<<<<<< HEAD
<<<<<<< HEAD
<<<<<<< HEAD
<<<<<<< HEAD
<<<<<<< HEAD
<<<<<<< HEAD
<<<<<<< HEAD
=======
<<<<<<< HEAD
<<<<<<< HEAD
<<<<<<< HEAD
<<<<<<< HEAD
<<<<<<< HEAD
=======
=======
>>>>>>> pod-caffe-pod.hpp-merge
=======
>>>>>>> pod/caffe-merge
=======
>>>>>>> pod/caffe-merge
=======
=======
>>>>>>> pod/device/blob.hpp
=======
=======
>>>>>>> pod-caffe-pod.hpp-merge
=======
=======
>>>>>>> pod/caffe-merge
=======
=======
<<<<<<< HEAD
=======
>>>>>>> pod/device/blob.hpp
layers {
  bottom: "pool1/norm1"
  top: "conv2/3x3_reduce"
  name: "conv2/3x3_reduce"
=======
=======
=======
<<<<<<< HEAD
>>>>>>> pod/device/blob.hpp
=======
=======
<<<<<<< HEAD
>>>>>>> pod/device/blob.hpp
=======
=======
<<<<<<< HEAD
>>>>>>> pod/device/blob.hpp
=======
layers {
  bottom: "inception_3a/1x1"
  top: "inception_3a/1x1"
  name: "inception_3a/relu_1x1"
  type: RELU
}
layers {
  bottom: "pool2/3x3_s2"
  top: "inception_3a/3x3_reduce"
  name: "inception_3a/3x3_reduce"
<<<<<<< HEAD
<<<<<<< HEAD
<<<<<<< HEAD
>>>>>>> pod-caffe-pod.hpp-merge
=======
>>>>>>> pod/device/blob.hpp
=======
>>>>>>> pod/device/blob.hpp
=======
>>>>>>> pod/device/blob.hpp
  type: CONVOLUTION
  blobs_lr: 1
  blobs_lr: 2
  weight_decay: 1
  weight_decay: 0
>>>>>>> origin/BVLC/parallel
=======
>>>>>>> caffe
<<<<<<< HEAD
<<<<<<< HEAD
<<<<<<< HEAD
<<<<<<< HEAD
<<<<<<< HEAD
<<<<<<< HEAD
<<<<<<< HEAD
<<<<<<< HEAD
<<<<<<< HEAD
<<<<<<< HEAD
<<<<<<< HEAD
>>>>>>> pod-caffe-pod.hpp-merge
=======
>>>>>>> pod-caffe-pod.hpp-merge
=======
>>>>>>> pod/caffe-merge
=======
>>>>>>> pod/caffe-merge
=======
>>>>>>> pod-caffe-pod.hpp-merge
>>>>>>> pod/device/blob.hpp
=======
>>>>>>> BVLC/device-abstraction
=======
>>>>>>> pod-caffe-pod.hpp-merge
=======
>>>>>>> pod/caffe-merge
=======
>>>>>>> pod-caffe-pod.hpp-merge
>>>>>>> pod/device/blob.hpp
  convolution_param {
    num_output: 64
=======
=======
>>>>>>> pod-caffe-pod.hpp-merge
>>>>>>> pod/device/blob.hpp
=======
>>>>>>> pod-caffe-pod.hpp-merge
>>>>>>> pod/device/blob.hpp
  convolution_param {
    num_output: 96
>>>>>>> pod-caffe-pod.hpp-merge
    kernel_size: 1
    weight_filler {
      type: "xavier"
<<<<<<< HEAD
<<<<<<< HEAD
<<<<<<< HEAD
<<<<<<< HEAD
<<<<<<< HEAD
<<<<<<< HEAD
<<<<<<< HEAD
<<<<<<< HEAD
<<<<<<< HEAD
<<<<<<< HEAD
=======
<<<<<<< HEAD
<<<<<<< HEAD
<<<<<<< HEAD
=======
>>>>>>> pod-caffe-pod.hpp-merge
<<<<<<< HEAD
=======
=======
>>>>>>> pod/caffe-merge
=======
>>>>>>> pod/caffe-merge
=======
=======
<<<<<<< HEAD
<<<<<<< HEAD
=======
>>>>>>> pod/device/blob.hpp
=======
=======
>>>>>>> pod-caffe-pod.hpp-merge
=======
=======
>>>>>>> pod/caffe-merge
=======
=======
<<<<<<< HEAD
<<<<<<< HEAD
=======
>>>>>>> pod/device/blob.hpp
      std: 0.1
>>>>>>> origin/BVLC/parallel
=======
>>>>>>> caffe
<<<<<<< HEAD
<<<<<<< HEAD
<<<<<<< HEAD
<<<<<<< HEAD
<<<<<<< HEAD
<<<<<<< HEAD
<<<<<<< HEAD
>>>>>>> pod-caffe-pod.hpp-merge
=======
>>>>>>> pod-caffe-pod.hpp-merge
=======
>>>>>>> pod/caffe-merge
=======
>>>>>>> pod/caffe-merge
=======
>>>>>>> pod-caffe-pod.hpp-merge
>>>>>>> pod/device/blob.hpp
=======
>>>>>>> BVLC/device-abstraction
=======
>>>>>>> pod-caffe-pod.hpp-merge
=======
>>>>>>> pod/caffe-merge
=======
>>>>>>> pod-caffe-pod.hpp-merge
>>>>>>> pod/device/blob.hpp
=======
=======
=======
<<<<<<< HEAD
<<<<<<< HEAD
>>>>>>> pod/device/blob.hpp
=======
=======
<<<<<<< HEAD
<<<<<<< HEAD
>>>>>>> pod/device/blob.hpp
=======
      std: 0.09
>>>>>>> origin/BVLC/parallel
=======
>>>>>>> caffe
>>>>>>> pod-caffe-pod.hpp-merge
=======
=======
>>>>>>> pod-caffe-pod.hpp-merge
>>>>>>> pod/device/blob.hpp
=======
>>>>>>> BVLC/device-abstraction
  convolution_param {
    num_output: 96
    kernel_size: 1
    weight_filler {
      type: "xavier"
<<<<<<< HEAD
<<<<<<< HEAD
>>>>>>> BVLC/device-abstraction
=======
<<<<<<< HEAD
=======
<<<<<<< HEAD
<<<<<<< HEAD
=======
      std: 0.09
>>>>>>> origin/BVLC/parallel
=======
>>>>>>> caffe
>>>>>>> pod-caffe-pod.hpp-merge
>>>>>>> pod/device/blob.hpp
=======
>>>>>>> BVLC/device-abstraction
    }
    bias_filler {
      type: "constant"
      value: 0.2
    }
  }
}
<<<<<<< HEAD
<<<<<<< HEAD
<<<<<<< HEAD
<<<<<<< HEAD
<<<<<<< HEAD
<<<<<<< HEAD
<<<<<<< HEAD
<<<<<<< HEAD
<<<<<<< HEAD
<<<<<<< HEAD
<<<<<<< HEAD
<<<<<<< HEAD
<<<<<<< HEAD
=======
<<<<<<< HEAD
<<<<<<< HEAD
<<<<<<< HEAD
<<<<<<< HEAD
=======
>>>>>>> caffe
>>>>>>> pod-caffe-pod.hpp-merge
=======
<<<<<<< HEAD
=======
>>>>>>> caffe
>>>>>>> pod-caffe-pod.hpp-merge
=======
>>>>>>> caffe
>>>>>>> pod/caffe-merge
=======
>>>>>>> caffe
>>>>>>> pod/caffe-merge
=======
=======
>>>>>>> pod/device/blob.hpp
=======
>>>>>>> pod/device/blob.hpp
=======
>>>>>>> pod/device/blob.hpp
=======
<<<<<<< HEAD
<<<<<<< HEAD
=======
>>>>>>> caffe
>>>>>>> pod-caffe-pod.hpp-merge
<<<<<<< HEAD
<<<<<<< HEAD
<<<<<<< HEAD
>>>>>>> pod/device/blob.hpp
=======
>>>>>>> BVLC/device-abstraction
=======
=======
>>>>>>> caffe
>>>>>>> pod-caffe-pod.hpp-merge
=======
=======
>>>>>>> caffe
>>>>>>> pod/caffe-merge
=======
=======
=======
=======
>>>>>>> caffe
=======
>>>>>>> pod/device/blob.hpp
=======
>>>>>>> pod/device/blob.hpp
=======
>>>>>>> BVLC/device-abstraction
=======
>>>>>>> pod/device/blob.hpp
=======
>>>>>>> BVLC/device-abstraction
layer {
  name: "inception_3a/relu_3x3_reduce"
  type: "ReLU"
  bottom: "inception_3a/3x3_reduce"
  top: "inception_3a/3x3_reduce"
}
layer {
  name: "inception_3a/3x3"
  type: "Convolution"
  bottom: "inception_3a/3x3_reduce"
  top: "inception_3a/3x3"
  param {
    lr_mult: 1
    decay_mult: 1
  }
  param {
    lr_mult: 2
    decay_mult: 0
  }
<<<<<<< HEAD
<<<<<<< HEAD
<<<<<<< HEAD
<<<<<<< HEAD
=======
<<<<<<< HEAD
=======
<<<<<<< HEAD
<<<<<<< HEAD
=======
>>>>>>> pod/device/blob.hpp
=======
>>>>>>> pod/device/blob.hpp
=======
=======
<<<<<<< HEAD
=======
>>>>>>> pod/device/blob.hpp
layers {
  bottom: "inception_3a/3x3_reduce"
  top: "inception_3a/3x3_reduce"
  name: "inception_3a/relu_3x3_reduce"
  type: RELU
}
layers {
  bottom: "inception_3a/3x3_reduce"
  top: "inception_3a/3x3"
  name: "inception_3a/3x3"
  type: CONVOLUTION
  blobs_lr: 1
  blobs_lr: 2
  weight_decay: 1
  weight_decay: 0
>>>>>>> origin/BVLC/parallel
=======
>>>>>>> caffe
<<<<<<< HEAD
<<<<<<< HEAD
<<<<<<< HEAD
=======
>>>>>>> pod-caffe-pod.hpp-merge
>>>>>>> pod/device/blob.hpp
=======
>>>>>>> pod-caffe-pod.hpp-merge
>>>>>>> pod/device/blob.hpp
=======
>>>>>>> BVLC/device-abstraction
=======
>>>>>>> pod-caffe-pod.hpp-merge
>>>>>>> pod/device/blob.hpp
=======
>>>>>>> BVLC/device-abstraction
  convolution_param {
    num_output: 128
    pad: 1
    kernel_size: 3
    weight_filler {
      type: "xavier"
<<<<<<< HEAD
<<<<<<< HEAD
<<<<<<< HEAD
<<<<<<< HEAD
<<<<<<< HEAD
<<<<<<< HEAD
=======
=======
<<<<<<< HEAD
>>>>>>> pod/device/blob.hpp
=======
=======
<<<<<<< HEAD
>>>>>>> pod/device/blob.hpp
=======
=======
<<<<<<< HEAD
>>>>>>> pod/device/blob.hpp
<<<<<<< HEAD
=======
      std: 0.03
>>>>>>> origin/BVLC/parallel
=======
>>>>>>> caffe
<<<<<<< HEAD
<<<<<<< HEAD
<<<<<<< HEAD
=======
>>>>>>> pod-caffe-pod.hpp-merge
>>>>>>> pod/device/blob.hpp
=======
>>>>>>> pod-caffe-pod.hpp-merge
>>>>>>> pod/device/blob.hpp
=======
>>>>>>> BVLC/device-abstraction
=======
>>>>>>> pod-caffe-pod.hpp-merge
>>>>>>> pod/device/blob.hpp
=======
>>>>>>> BVLC/device-abstraction
    }
    bias_filler {
      type: "constant"
      value: 0.2
    }
  }
}
<<<<<<< HEAD
<<<<<<< HEAD
<<<<<<< HEAD
<<<<<<< HEAD
<<<<<<< HEAD
>>>>>>> pod-caffe-pod.hpp-merge
=======
<<<<<<< HEAD
=======
>>>>>>> pod/device/blob.hpp
=======
=======
>>>>>>> pod/device/blob.hpp
=======
=======
>>>>>>> pod/device/blob.hpp
<<<<<<< HEAD
<<<<<<< HEAD
=======
>>>>>>> caffe
<<<<<<< HEAD
<<<<<<< HEAD
<<<<<<< HEAD
<<<<<<< HEAD
>>>>>>> pod-caffe-pod.hpp-merge
>>>>>>> pod/device/blob.hpp
layer {
  name: "conv2/relu_3x3_reduce"
  type: "ReLU"
  bottom: "conv2/3x3_reduce"
  top: "conv2/3x3_reduce"
}
layer {
  name: "conv2/3x3"
  type: "Convolution"
  bottom: "conv2/3x3_reduce"
  top: "conv2/3x3"
=======
=======
>>>>>>> pod-caffe-pod.hpp-merge
>>>>>>> pod/device/blob.hpp
=======
>>>>>>> pod-caffe-pod.hpp-merge
>>>>>>> pod/device/blob.hpp
=======
>>>>>>> BVLC/device-abstraction
=======
>>>>>>> pod-caffe-pod.hpp-merge
>>>>>>> pod/device/blob.hpp
=======
>>>>>>> BVLC/device-abstraction
layer {
  name: "inception_3a/relu_3x3"
  type: "ReLU"
  bottom: "inception_3a/3x3"
  top: "inception_3a/3x3"
}
layer {
  name: "inception_3a/5x5_reduce"
  type: "Convolution"
  bottom: "pool2/3x3_s2"
  top: "inception_3a/5x5_reduce"
<<<<<<< HEAD
<<<<<<< HEAD
>>>>>>> pod-caffe-pod.hpp-merge
=======
>>>>>>> BVLC/device-abstraction
=======
>>>>>>> BVLC/device-abstraction
  param {
    lr_mult: 1
    decay_mult: 1
  }
  param {
    lr_mult: 2
    decay_mult: 0
  }
<<<<<<< HEAD
<<<<<<< HEAD
<<<<<<< HEAD
<<<<<<< HEAD
<<<<<<< HEAD
<<<<<<< HEAD
<<<<<<< HEAD
<<<<<<< HEAD
<<<<<<< HEAD
<<<<<<< HEAD
<<<<<<< HEAD
=======
<<<<<<< HEAD
<<<<<<< HEAD
<<<<<<< HEAD
<<<<<<< HEAD
<<<<<<< HEAD
=======
=======
>>>>>>> pod-caffe-pod.hpp-merge
=======
>>>>>>> pod/caffe-merge
=======
>>>>>>> pod/caffe-merge
=======
=======
>>>>>>> pod/device/blob.hpp
=======
=======
>>>>>>> pod-caffe-pod.hpp-merge
=======
=======
>>>>>>> pod/caffe-merge
=======
=======
<<<<<<< HEAD
=======
>>>>>>> pod/device/blob.hpp
layers {
  bottom: "conv2/3x3_reduce"
  top: "conv2/3x3_reduce"
  name: "conv2/relu_3x3_reduce"
  type: RELU
}
layers {
  bottom: "conv2/3x3_reduce"
  top: "conv2/3x3"
  name: "conv2/3x3"
=======
=======
=======
=======
<<<<<<< HEAD
=======
>>>>>>> pod/device/blob.hpp
=======
=======
<<<<<<< HEAD
=======
>>>>>>> pod/device/blob.hpp
=======
=======
<<<<<<< HEAD
=======
>>>>>>> pod/device/blob.hpp
layers {
  bottom: "inception_3a/3x3"
  top: "inception_3a/3x3"
  name: "inception_3a/relu_3x3"
  type: RELU
}
layers {
  bottom: "pool2/3x3_s2"
  top: "inception_3a/5x5_reduce"
  name: "inception_3a/5x5_reduce"
<<<<<<< HEAD
<<<<<<< HEAD
<<<<<<< HEAD
>>>>>>> pod-caffe-pod.hpp-merge
=======
>>>>>>> pod/device/blob.hpp
=======
>>>>>>> pod/device/blob.hpp
=======
>>>>>>> pod/device/blob.hpp
  type: CONVOLUTION
  blobs_lr: 1
  blobs_lr: 2
  weight_decay: 1
  weight_decay: 0
>>>>>>> origin/BVLC/parallel
=======
>>>>>>> caffe
<<<<<<< HEAD
<<<<<<< HEAD
<<<<<<< HEAD
<<<<<<< HEAD
<<<<<<< HEAD
<<<<<<< HEAD
<<<<<<< HEAD
<<<<<<< HEAD
<<<<<<< HEAD
<<<<<<< HEAD
<<<<<<< HEAD
>>>>>>> pod-caffe-pod.hpp-merge
=======
>>>>>>> pod-caffe-pod.hpp-merge
=======
>>>>>>> pod/caffe-merge
=======
>>>>>>> pod/caffe-merge
=======
>>>>>>> pod-caffe-pod.hpp-merge
>>>>>>> pod/device/blob.hpp
=======
>>>>>>> BVLC/device-abstraction
=======
>>>>>>> pod-caffe-pod.hpp-merge
=======
>>>>>>> pod/caffe-merge
=======
>>>>>>> pod-caffe-pod.hpp-merge
>>>>>>> pod/device/blob.hpp
  convolution_param {
    num_output: 192
    pad: 1
    kernel_size: 3
=======
=======
>>>>>>> pod-caffe-pod.hpp-merge
>>>>>>> pod/device/blob.hpp
=======
>>>>>>> pod-caffe-pod.hpp-merge
>>>>>>> pod/device/blob.hpp
  convolution_param {
    num_output: 16
    kernel_size: 1
>>>>>>> pod-caffe-pod.hpp-merge
    weight_filler {
      type: "xavier"
<<<<<<< HEAD
<<<<<<< HEAD
<<<<<<< HEAD
<<<<<<< HEAD
<<<<<<< HEAD
<<<<<<< HEAD
<<<<<<< HEAD
<<<<<<< HEAD
<<<<<<< HEAD
<<<<<<< HEAD
=======
<<<<<<< HEAD
<<<<<<< HEAD
<<<<<<< HEAD
=======
>>>>>>> pod-caffe-pod.hpp-merge
<<<<<<< HEAD
=======
=======
>>>>>>> pod/caffe-merge
=======
>>>>>>> pod/caffe-merge
=======
=======
<<<<<<< HEAD
<<<<<<< HEAD
=======
>>>>>>> pod/device/blob.hpp
=======
=======
>>>>>>> pod-caffe-pod.hpp-merge
=======
=======
>>>>>>> pod/caffe-merge
=======
=======
<<<<<<< HEAD
<<<<<<< HEAD
=======
>>>>>>> pod/device/blob.hpp
      std: 0.03
>>>>>>> origin/BVLC/parallel
=======
>>>>>>> caffe
<<<<<<< HEAD
<<<<<<< HEAD
<<<<<<< HEAD
<<<<<<< HEAD
<<<<<<< HEAD
<<<<<<< HEAD
<<<<<<< HEAD
>>>>>>> pod-caffe-pod.hpp-merge
=======
>>>>>>> pod-caffe-pod.hpp-merge
=======
>>>>>>> pod/caffe-merge
=======
>>>>>>> pod/caffe-merge
=======
>>>>>>> pod-caffe-pod.hpp-merge
>>>>>>> pod/device/blob.hpp
=======
>>>>>>> BVLC/device-abstraction
=======
>>>>>>> pod-caffe-pod.hpp-merge
=======
>>>>>>> pod/caffe-merge
=======
>>>>>>> pod-caffe-pod.hpp-merge
>>>>>>> pod/device/blob.hpp
=======
=======
=======
<<<<<<< HEAD
<<<<<<< HEAD
>>>>>>> pod/device/blob.hpp
=======
=======
<<<<<<< HEAD
<<<<<<< HEAD
>>>>>>> pod/device/blob.hpp
=======
      std: 0.2
>>>>>>> origin/BVLC/parallel
=======
>>>>>>> caffe
>>>>>>> pod-caffe-pod.hpp-merge
=======
=======
>>>>>>> pod-caffe-pod.hpp-merge
>>>>>>> pod/device/blob.hpp
=======
>>>>>>> BVLC/device-abstraction
  convolution_param {
    num_output: 16
    kernel_size: 1
    weight_filler {
      type: "xavier"
<<<<<<< HEAD
<<<<<<< HEAD
>>>>>>> BVLC/device-abstraction
=======
<<<<<<< HEAD
=======
<<<<<<< HEAD
<<<<<<< HEAD
=======
      std: 0.2
>>>>>>> origin/BVLC/parallel
=======
>>>>>>> caffe
>>>>>>> pod-caffe-pod.hpp-merge
>>>>>>> pod/device/blob.hpp
=======
>>>>>>> BVLC/device-abstraction
    }
    bias_filler {
      type: "constant"
      value: 0.2
    }
  }
}
<<<<<<< HEAD
<<<<<<< HEAD
<<<<<<< HEAD
<<<<<<< HEAD
<<<<<<< HEAD
<<<<<<< HEAD
<<<<<<< HEAD
<<<<<<< HEAD
<<<<<<< HEAD
<<<<<<< HEAD
<<<<<<< HEAD
<<<<<<< HEAD
<<<<<<< HEAD
=======
<<<<<<< HEAD
<<<<<<< HEAD
<<<<<<< HEAD
<<<<<<< HEAD
=======
>>>>>>> caffe
>>>>>>> pod-caffe-pod.hpp-merge
=======
<<<<<<< HEAD
=======
>>>>>>> caffe
>>>>>>> pod-caffe-pod.hpp-merge
=======
>>>>>>> caffe
>>>>>>> pod/caffe-merge
=======
>>>>>>> caffe
>>>>>>> pod/caffe-merge
=======
=======
>>>>>>> pod/device/blob.hpp
=======
>>>>>>> pod/device/blob.hpp
=======
>>>>>>> pod/device/blob.hpp
=======
<<<<<<< HEAD
<<<<<<< HEAD
=======
>>>>>>> caffe
>>>>>>> pod-caffe-pod.hpp-merge
<<<<<<< HEAD
<<<<<<< HEAD
<<<<<<< HEAD
>>>>>>> pod/device/blob.hpp
=======
>>>>>>> BVLC/device-abstraction
=======
=======
>>>>>>> caffe
>>>>>>> pod-caffe-pod.hpp-merge
=======
=======
>>>>>>> caffe
>>>>>>> pod/caffe-merge
=======
=======
=======
=======
>>>>>>> caffe
=======
>>>>>>> pod/device/blob.hpp
=======
>>>>>>> pod/device/blob.hpp
=======
>>>>>>> BVLC/device-abstraction
=======
>>>>>>> pod/device/blob.hpp
=======
>>>>>>> BVLC/device-abstraction
layer {
  name: "inception_3a/relu_5x5_reduce"
  type: "ReLU"
  bottom: "inception_3a/5x5_reduce"
  top: "inception_3a/5x5_reduce"
}
layer {
  name: "inception_3a/5x5"
  type: "Convolution"
  bottom: "inception_3a/5x5_reduce"
  top: "inception_3a/5x5"
  param {
    lr_mult: 1
    decay_mult: 1
  }
  param {
    lr_mult: 2
    decay_mult: 0
  }
<<<<<<< HEAD
<<<<<<< HEAD
<<<<<<< HEAD
<<<<<<< HEAD
=======
<<<<<<< HEAD
=======
<<<<<<< HEAD
<<<<<<< HEAD
=======
>>>>>>> pod/device/blob.hpp
=======
>>>>>>> pod/device/blob.hpp
=======
=======
<<<<<<< HEAD
=======
>>>>>>> pod/device/blob.hpp
layers {
  bottom: "inception_3a/5x5_reduce"
  top: "inception_3a/5x5_reduce"
  name: "inception_3a/relu_5x5_reduce"
  type: RELU
}
layers {
  bottom: "inception_3a/5x5_reduce"
  top: "inception_3a/5x5"
  name: "inception_3a/5x5"
  type: CONVOLUTION
  blobs_lr: 1
  blobs_lr: 2
  weight_decay: 1
  weight_decay: 0
>>>>>>> origin/BVLC/parallel
=======
>>>>>>> caffe
<<<<<<< HEAD
<<<<<<< HEAD
<<<<<<< HEAD
=======
>>>>>>> pod-caffe-pod.hpp-merge
>>>>>>> pod/device/blob.hpp
=======
>>>>>>> pod-caffe-pod.hpp-merge
>>>>>>> pod/device/blob.hpp
=======
>>>>>>> BVLC/device-abstraction
=======
>>>>>>> pod-caffe-pod.hpp-merge
>>>>>>> pod/device/blob.hpp
=======
>>>>>>> BVLC/device-abstraction
  convolution_param {
    num_output: 32
    pad: 2
    kernel_size: 5
    weight_filler {
      type: "xavier"
<<<<<<< HEAD
<<<<<<< HEAD
<<<<<<< HEAD
<<<<<<< HEAD
<<<<<<< HEAD
<<<<<<< HEAD
=======
=======
<<<<<<< HEAD
>>>>>>> pod/device/blob.hpp
=======
=======
<<<<<<< HEAD
>>>>>>> pod/device/blob.hpp
=======
=======
<<<<<<< HEAD
>>>>>>> pod/device/blob.hpp
<<<<<<< HEAD
=======
      std: 0.03
>>>>>>> origin/BVLC/parallel
=======
>>>>>>> caffe
<<<<<<< HEAD
<<<<<<< HEAD
<<<<<<< HEAD
=======
>>>>>>> pod-caffe-pod.hpp-merge
>>>>>>> pod/device/blob.hpp
=======
>>>>>>> pod-caffe-pod.hpp-merge
>>>>>>> pod/device/blob.hpp
=======
>>>>>>> BVLC/device-abstraction
=======
>>>>>>> pod-caffe-pod.hpp-merge
>>>>>>> pod/device/blob.hpp
=======
>>>>>>> BVLC/device-abstraction
    }
    bias_filler {
      type: "constant"
      value: 0.2
    }
  }
}
<<<<<<< HEAD
<<<<<<< HEAD
<<<<<<< HEAD
<<<<<<< HEAD
<<<<<<< HEAD
>>>>>>> pod-caffe-pod.hpp-merge
<<<<<<< HEAD
<<<<<<< HEAD
=======
>>>>>>> caffe
<<<<<<< HEAD
>>>>>>> pod-caffe-pod.hpp-merge
>>>>>>> pod/device/blob.hpp
layer {
  name: "conv2/relu_3x3"
  type: "ReLU"
  bottom: "conv2/3x3"
  top: "conv2/3x3"
}
layer {
  name: "conv2/norm2"
  type: "LRN"
  bottom: "conv2/3x3"
  top: "conv2/norm2"
<<<<<<< HEAD
<<<<<<< HEAD
<<<<<<< HEAD
<<<<<<< HEAD
=======
>>>>>>> pod/device/blob.hpp
<<<<<<< HEAD
=======
<<<<<<< HEAD
<<<<<<< HEAD
<<<<<<< HEAD
<<<<<<< HEAD
<<<<<<< HEAD
<<<<<<< HEAD
=======
=======
>>>>>>> pod-caffe-pod.hpp-merge
=======
>>>>>>> pod/caffe-merge
=======
>>>>>>> pod/caffe-merge
=======
=======
>>>>>>> pod/device/blob.hpp
=======
=======
>>>>>>> pod-caffe-pod.hpp-merge
=======
=======
>>>>>>> pod/caffe-merge
=======
=======
<<<<<<< HEAD
=======
>>>>>>> pod/device/blob.hpp
layers {
  bottom: "conv2/3x3"
  top: "conv2/3x3"
  name: "conv2/relu_3x3"
  type: RELU
}
layers {
  bottom: "conv2/3x3"
  top: "conv2/norm2"
  name: "conv2/norm2"
  type: LRN
>>>>>>> origin/BVLC/parallel
=======
>>>>>>> caffe
<<<<<<< HEAD
<<<<<<< HEAD
<<<<<<< HEAD
<<<<<<< HEAD
<<<<<<< HEAD
<<<<<<< HEAD
<<<<<<< HEAD
>>>>>>> pod-caffe-pod.hpp-merge
=======
>>>>>>> pod-caffe-pod.hpp-merge
=======
>>>>>>> pod/caffe-merge
=======
>>>>>>> pod/caffe-merge
=======
>>>>>>> pod-caffe-pod.hpp-merge
>>>>>>> pod/device/blob.hpp
=======
>>>>>>> BVLC/device-abstraction
=======
>>>>>>> pod-caffe-pod.hpp-merge
  lrn_param {
    local_size: 5
    alpha: 0.0001
    beta: 0.75
=======
=======
=======
>>>>>>> caffe
>>>>>>> pod-caffe-pod.hpp-merge
>>>>>>> pod/device/blob.hpp
=======
=======
>>>>>>> pod/device/blob.hpp
=======
<<<<<<< HEAD
<<<<<<< HEAD
=======
>>>>>>> caffe
>>>>>>> pod-caffe-pod.hpp-merge
<<<<<<< HEAD
>>>>>>> pod/device/blob.hpp
=======
>>>>>>> BVLC/device-abstraction
=======
>>>>>>> pod/device/blob.hpp
=======
>>>>>>> BVLC/device-abstraction
layer {
  name: "inception_3a/relu_5x5"
  type: "ReLU"
  bottom: "inception_3a/5x5"
  top: "inception_3a/5x5"
}
layer {
  name: "inception_3a/pool"
  type: "Pooling"
  bottom: "pool2/3x3_s2"
  top: "inception_3a/pool"
<<<<<<< HEAD
<<<<<<< HEAD
<<<<<<< HEAD
<<<<<<< HEAD
=======
<<<<<<< HEAD
=======
<<<<<<< HEAD
<<<<<<< HEAD
=======
>>>>>>> pod/device/blob.hpp
=======
>>>>>>> pod/device/blob.hpp
=======
=======
<<<<<<< HEAD
=======
>>>>>>> pod/device/blob.hpp
layers {
  bottom: "inception_3a/5x5"
  top: "inception_3a/5x5"
  name: "inception_3a/relu_5x5"
  type: RELU
}
layers {
  bottom: "pool2/3x3_s2"
  top: "inception_3a/pool"
  name: "inception_3a/pool"
  type: POOLING
>>>>>>> origin/BVLC/parallel
=======
>>>>>>> caffe
<<<<<<< HEAD
<<<<<<< HEAD
<<<<<<< HEAD
=======
>>>>>>> pod-caffe-pod.hpp-merge
>>>>>>> pod/device/blob.hpp
=======
>>>>>>> pod-caffe-pod.hpp-merge
>>>>>>> pod/device/blob.hpp
=======
>>>>>>> BVLC/device-abstraction
=======
>>>>>>> pod-caffe-pod.hpp-merge
>>>>>>> pod/device/blob.hpp
=======
>>>>>>> BVLC/device-abstraction
  pooling_param {
    pool: MAX
    kernel_size: 3
    stride: 1
    pad: 1
<<<<<<< HEAD
<<<<<<< HEAD
>>>>>>> pod-caffe-pod.hpp-merge
  }
}
<<<<<<< HEAD
<<<<<<< HEAD
<<<<<<< HEAD
<<<<<<< HEAD
<<<<<<< HEAD
<<<<<<< HEAD
<<<<<<< HEAD
<<<<<<< HEAD
=======
<<<<<<< HEAD
<<<<<<< HEAD
<<<<<<< HEAD
<<<<<<< HEAD
=======
>>>>>>> caffe
>>>>>>> pod-caffe-pod.hpp-merge
=======
<<<<<<< HEAD
=======
>>>>>>> caffe
>>>>>>> pod-caffe-pod.hpp-merge
=======
>>>>>>> caffe
>>>>>>> pod/caffe-merge
=======
>>>>>>> caffe
>>>>>>> pod/caffe-merge
=======
=======
>>>>>>> pod/device/blob.hpp
=======
>>>>>>> pod/device/blob.hpp
=======
<<<<<<< HEAD
<<<<<<< HEAD
=======
>>>>>>> caffe
>>>>>>> pod-caffe-pod.hpp-merge
<<<<<<< HEAD
<<<<<<< HEAD
>>>>>>> pod/device/blob.hpp
=======
>>>>>>> BVLC/device-abstraction
=======
=======
>>>>>>> caffe
>>>>>>> pod-caffe-pod.hpp-merge
=======
=======
>>>>>>> pod-caffe-pod.hpp-merge
>>>>>>> pod/device/blob.hpp
  lrn_param {
    local_size: 5
    alpha: 0.0001
    beta: 0.75
=======
=======
>>>>>>> caffe
=======
>>>>>>> pod/device/blob.hpp
=======
>>>>>>> pod/device/blob.hpp
=======
  }
}
<<<<<<< HEAD
>>>>>>> BVLC/device-abstraction
=======
<<<<<<< HEAD
=======
<<<<<<< HEAD
<<<<<<< HEAD
=======
>>>>>>> caffe
>>>>>>> pod-caffe-pod.hpp-merge
>>>>>>> pod/device/blob.hpp
=======
  }
}
>>>>>>> BVLC/device-abstraction
layer {
  name: "inception_3a/pool_proj"
  type: "Convolution"
  bottom: "inception_3a/pool"
  top: "inception_3a/pool_proj"
  param {
    lr_mult: 1
    decay_mult: 1
  }
  param {
    lr_mult: 2
    decay_mult: 0
  }
<<<<<<< HEAD
<<<<<<< HEAD
<<<<<<< HEAD
<<<<<<< HEAD
=======
<<<<<<< HEAD
=======
<<<<<<< HEAD
<<<<<<< HEAD
=======
>>>>>>> pod/device/blob.hpp
=======
>>>>>>> pod/device/blob.hpp
=======
=======
<<<<<<< HEAD
=======
>>>>>>> pod/device/blob.hpp
layers {
  bottom: "inception_3a/pool"
  top: "inception_3a/pool_proj"
  name: "inception_3a/pool_proj"
  type: CONVOLUTION
  blobs_lr: 1
  blobs_lr: 2
  weight_decay: 1
  weight_decay: 0
>>>>>>> origin/BVLC/parallel
=======
>>>>>>> caffe
<<<<<<< HEAD
<<<<<<< HEAD
<<<<<<< HEAD
=======
>>>>>>> pod-caffe-pod.hpp-merge
>>>>>>> pod/device/blob.hpp
=======
>>>>>>> pod-caffe-pod.hpp-merge
>>>>>>> pod/device/blob.hpp
=======
>>>>>>> BVLC/device-abstraction
=======
>>>>>>> pod-caffe-pod.hpp-merge
>>>>>>> pod/device/blob.hpp
=======
>>>>>>> BVLC/device-abstraction
  convolution_param {
    num_output: 32
    kernel_size: 1
    weight_filler {
      type: "xavier"
<<<<<<< HEAD
<<<<<<< HEAD
<<<<<<< HEAD
<<<<<<< HEAD
<<<<<<< HEAD
<<<<<<< HEAD
=======
=======
<<<<<<< HEAD
>>>>>>> pod/device/blob.hpp
=======
=======
<<<<<<< HEAD
>>>>>>> pod/device/blob.hpp
=======
=======
<<<<<<< HEAD
>>>>>>> pod/device/blob.hpp
<<<<<<< HEAD
=======
      std: 0.1
>>>>>>> origin/BVLC/parallel
=======
>>>>>>> caffe
<<<<<<< HEAD
<<<<<<< HEAD
<<<<<<< HEAD
=======
>>>>>>> pod-caffe-pod.hpp-merge
>>>>>>> pod/device/blob.hpp
=======
>>>>>>> pod-caffe-pod.hpp-merge
>>>>>>> pod/device/blob.hpp
=======
>>>>>>> BVLC/device-abstraction
=======
>>>>>>> pod-caffe-pod.hpp-merge
>>>>>>> pod/device/blob.hpp
=======
>>>>>>> BVLC/device-abstraction
    }
    bias_filler {
      type: "constant"
      value: 0.2
    }
<<<<<<< HEAD
<<<<<<< HEAD
>>>>>>> pod-caffe-pod.hpp-merge
  }
}
<<<<<<< HEAD
<<<<<<< HEAD
<<<<<<< HEAD
<<<<<<< HEAD
=======
>>>>>>> caffe
>>>>>>> pod/caffe-merge
=======
=======
<<<<<<< HEAD
<<<<<<< HEAD
=======
>>>>>>> caffe
>>>>>>> pod-caffe-pod.hpp-merge
>>>>>>> pod/device/blob.hpp
layer {
  name: "pool2/3x3_s2"
  type: "Pooling"
  bottom: "conv2/norm2"
  top: "pool2/3x3_s2"
<<<<<<< HEAD
<<<<<<< HEAD
<<<<<<< HEAD
<<<<<<< HEAD
<<<<<<< HEAD
=======
<<<<<<< HEAD
<<<<<<< HEAD
<<<<<<< HEAD
<<<<<<< HEAD
<<<<<<< HEAD
=======
=======
>>>>>>> pod-caffe-pod.hpp-merge
=======
>>>>>>> pod/caffe-merge
=======
>>>>>>> pod/caffe-merge
=======
=======
>>>>>>> pod/device/blob.hpp
=======
=======
>>>>>>> pod-caffe-pod.hpp-merge
=======
=======
>>>>>>> pod/caffe-merge
=======
=======
<<<<<<< HEAD
=======
>>>>>>> pod/device/blob.hpp
layers {
  bottom: "conv2/norm2"
  top: "pool2/3x3_s2"
  name: "pool2/3x3_s2"
  type: POOLING
>>>>>>> origin/BVLC/parallel
=======
>>>>>>> caffe
<<<<<<< HEAD
<<<<<<< HEAD
<<<<<<< HEAD
<<<<<<< HEAD
<<<<<<< HEAD
<<<<<<< HEAD
<<<<<<< HEAD
>>>>>>> pod-caffe-pod.hpp-merge
=======
>>>>>>> pod-caffe-pod.hpp-merge
=======
>>>>>>> pod/caffe-merge
=======
>>>>>>> pod/caffe-merge
=======
>>>>>>> pod-caffe-pod.hpp-merge
>>>>>>> pod/device/blob.hpp
=======
>>>>>>> BVLC/device-abstraction
=======
>>>>>>> pod-caffe-pod.hpp-merge
=======
>>>>>>> pod/caffe-merge
=======
>>>>>>> pod-caffe-pod.hpp-merge
>>>>>>> pod/device/blob.hpp
  pooling_param {
    pool: MAX
    kernel_size: 3
    stride: 2
  }
}
<<<<<<< HEAD
<<<<<<< HEAD
<<<<<<< HEAD
<<<<<<< HEAD
<<<<<<< HEAD
<<<<<<< HEAD
<<<<<<< HEAD
<<<<<<< HEAD
<<<<<<< HEAD
=======
<<<<<<< HEAD
<<<<<<< HEAD
<<<<<<< HEAD
<<<<<<< HEAD
=======
>>>>>>> caffe
>>>>>>> pod-caffe-pod.hpp-merge
=======
<<<<<<< HEAD
=======
>>>>>>> caffe
>>>>>>> pod-caffe-pod.hpp-merge
=======
>>>>>>> caffe
>>>>>>> pod/caffe-merge
=======
>>>>>>> caffe
>>>>>>> pod/caffe-merge
=======
=======
<<<<<<< HEAD
<<<<<<< HEAD
=======
>>>>>>> caffe
>>>>>>> pod-caffe-pod.hpp-merge
>>>>>>> pod/device/blob.hpp
=======
>>>>>>> BVLC/device-abstraction
=======
=======
>>>>>>> caffe
>>>>>>> pod-caffe-pod.hpp-merge
=======
=======
>>>>>>> caffe
>>>>>>> pod/caffe-merge
=======
=======
=======
=======
>>>>>>> caffe
=======
=======
>>>>>>> pod/device/blob.hpp
=======
<<<<<<< HEAD
<<<<<<< HEAD
=======
>>>>>>> caffe
>>>>>>> pod-caffe-pod.hpp-merge
<<<<<<< HEAD
>>>>>>> pod/device/blob.hpp
=======
>>>>>>> pod/device/blob.hpp
=======
  }
}
<<<<<<< HEAD
>>>>>>> BVLC/device-abstraction
=======
<<<<<<< HEAD
=======
<<<<<<< HEAD
<<<<<<< HEAD
=======
>>>>>>> caffe
>>>>>>> pod-caffe-pod.hpp-merge
>>>>>>> pod/device/blob.hpp
=======
  }
}
>>>>>>> BVLC/device-abstraction
layer {
  name: "inception_3a/relu_pool_proj"
  type: "ReLU"
  bottom: "inception_3a/pool_proj"
  top: "inception_3a/pool_proj"
}
layer {
  name: "inception_3a/output"
  type: "Concat"
<<<<<<< HEAD
<<<<<<< HEAD
<<<<<<< HEAD
<<<<<<< HEAD
=======
<<<<<<< HEAD
=======
<<<<<<< HEAD
<<<<<<< HEAD
=======
>>>>>>> pod/device/blob.hpp
=======
>>>>>>> pod/device/blob.hpp
=======
=======
<<<<<<< HEAD
=======
>>>>>>> pod/device/blob.hpp
layers {
  bottom: "inception_3a/pool_proj"
  top: "inception_3a/pool_proj"
  name: "inception_3a/relu_pool_proj"
  type: RELU
}
layers {
>>>>>>> origin/BVLC/parallel
=======
>>>>>>> caffe
<<<<<<< HEAD
<<<<<<< HEAD
<<<<<<< HEAD
=======
>>>>>>> pod-caffe-pod.hpp-merge
>>>>>>> pod/device/blob.hpp
=======
>>>>>>> pod-caffe-pod.hpp-merge
>>>>>>> pod/device/blob.hpp
=======
>>>>>>> BVLC/device-abstraction
=======
>>>>>>> pod-caffe-pod.hpp-merge
>>>>>>> pod/device/blob.hpp
=======
>>>>>>> BVLC/device-abstraction
  bottom: "inception_3a/1x1"
  bottom: "inception_3a/3x3"
  bottom: "inception_3a/5x5"
  bottom: "inception_3a/pool_proj"
  top: "inception_3a/output"
<<<<<<< HEAD
<<<<<<< HEAD
<<<<<<< HEAD
<<<<<<< HEAD
<<<<<<< HEAD
>>>>>>> pod-caffe-pod.hpp-merge
=======
<<<<<<< HEAD
=======
>>>>>>> pod/device/blob.hpp
=======
=======
>>>>>>> pod/device/blob.hpp
=======
=======
>>>>>>> pod/device/blob.hpp
<<<<<<< HEAD
<<<<<<< HEAD
=======
>>>>>>> caffe
<<<<<<< HEAD
<<<<<<< HEAD
<<<<<<< HEAD
<<<<<<< HEAD
>>>>>>> pod-caffe-pod.hpp-merge
>>>>>>> pod/device/blob.hpp
layer {
  name: "inception_3a/1x1"
  type: "Convolution"
  bottom: "pool2/3x3_s2"
  top: "inception_3a/1x1"
=======
=======
>>>>>>> pod-caffe-pod.hpp-merge
>>>>>>> pod/device/blob.hpp
=======
>>>>>>> pod-caffe-pod.hpp-merge
>>>>>>> pod/device/blob.hpp
=======
>>>>>>> BVLC/device-abstraction
=======
>>>>>>> pod-caffe-pod.hpp-merge
>>>>>>> pod/device/blob.hpp
=======
>>>>>>> BVLC/device-abstraction
}
layer {
  name: "inception_3b/1x1"
  type: "Convolution"
  bottom: "inception_3a/output"
  top: "inception_3b/1x1"
<<<<<<< HEAD
<<<<<<< HEAD
>>>>>>> pod-caffe-pod.hpp-merge
=======
>>>>>>> BVLC/device-abstraction
=======
>>>>>>> BVLC/device-abstraction
  param {
    lr_mult: 1
    decay_mult: 1
  }
  param {
    lr_mult: 2
    decay_mult: 0
  }
<<<<<<< HEAD
<<<<<<< HEAD
<<<<<<< HEAD
<<<<<<< HEAD
<<<<<<< HEAD
<<<<<<< HEAD
<<<<<<< HEAD
<<<<<<< HEAD
<<<<<<< HEAD
<<<<<<< HEAD
<<<<<<< HEAD
=======
<<<<<<< HEAD
<<<<<<< HEAD
<<<<<<< HEAD
<<<<<<< HEAD
<<<<<<< HEAD
=======
=======
>>>>>>> pod-caffe-pod.hpp-merge
=======
>>>>>>> pod/caffe-merge
=======
>>>>>>> pod/caffe-merge
=======
=======
>>>>>>> pod/device/blob.hpp
=======
=======
>>>>>>> pod-caffe-pod.hpp-merge
=======
=======
>>>>>>> pod/caffe-merge
=======
=======
<<<<<<< HEAD
=======
>>>>>>> pod/device/blob.hpp
layers {
  bottom: "pool2/3x3_s2"
  top: "inception_3a/1x1"
  name: "inception_3a/1x1"
=======
=======
=======
<<<<<<< HEAD
>>>>>>> pod/device/blob.hpp
=======
=======
<<<<<<< HEAD
>>>>>>> pod/device/blob.hpp
=======
=======
<<<<<<< HEAD
>>>>>>> pod/device/blob.hpp
=======
  name: "inception_3a/output"
  type: CONCAT
}
layers {
  bottom: "inception_3a/output"
  top: "inception_3b/1x1"
  name: "inception_3b/1x1"
<<<<<<< HEAD
<<<<<<< HEAD
<<<<<<< HEAD
>>>>>>> pod-caffe-pod.hpp-merge
=======
>>>>>>> pod/device/blob.hpp
=======
>>>>>>> pod/device/blob.hpp
=======
>>>>>>> pod/device/blob.hpp
  type: CONVOLUTION
  blobs_lr: 1
  blobs_lr: 2
  weight_decay: 1
  weight_decay: 0
>>>>>>> origin/BVLC/parallel
=======
>>>>>>> caffe
<<<<<<< HEAD
<<<<<<< HEAD
<<<<<<< HEAD
<<<<<<< HEAD
<<<<<<< HEAD
<<<<<<< HEAD
<<<<<<< HEAD
<<<<<<< HEAD
<<<<<<< HEAD
<<<<<<< HEAD
<<<<<<< HEAD
>>>>>>> pod-caffe-pod.hpp-merge
=======
>>>>>>> pod-caffe-pod.hpp-merge
=======
>>>>>>> pod/caffe-merge
=======
>>>>>>> pod/caffe-merge
=======
>>>>>>> pod-caffe-pod.hpp-merge
>>>>>>> pod/device/blob.hpp
=======
>>>>>>> BVLC/device-abstraction
=======
>>>>>>> pod-caffe-pod.hpp-merge
=======
>>>>>>> pod/caffe-merge
=======
>>>>>>> pod-caffe-pod.hpp-merge
>>>>>>> pod/device/blob.hpp
  convolution_param {
    num_output: 64
=======
=======
>>>>>>> pod-caffe-pod.hpp-merge
>>>>>>> pod/device/blob.hpp
=======
>>>>>>> pod-caffe-pod.hpp-merge
>>>>>>> pod/device/blob.hpp
  convolution_param {
    num_output: 128
>>>>>>> pod-caffe-pod.hpp-merge
    kernel_size: 1
    weight_filler {
      type: "xavier"
<<<<<<< HEAD
<<<<<<< HEAD
<<<<<<< HEAD
<<<<<<< HEAD
<<<<<<< HEAD
<<<<<<< HEAD
<<<<<<< HEAD
<<<<<<< HEAD
<<<<<<< HEAD
<<<<<<< HEAD
=======
<<<<<<< HEAD
<<<<<<< HEAD
<<<<<<< HEAD
=======
>>>>>>> pod-caffe-pod.hpp-merge
<<<<<<< HEAD
=======
=======
>>>>>>> pod/caffe-merge
=======
>>>>>>> pod/caffe-merge
=======
=======
<<<<<<< HEAD
<<<<<<< HEAD
=======
>>>>>>> pod/device/blob.hpp
=======
=======
<<<<<<< HEAD
<<<<<<< HEAD
=======
>>>>>>> pod/device/blob.hpp
=======
=======
<<<<<<< HEAD
<<<<<<< HEAD
=======
>>>>>>> pod/device/blob.hpp
      std: 0.03
>>>>>>> origin/BVLC/parallel
=======
>>>>>>> caffe
<<<<<<< HEAD
<<<<<<< HEAD
<<<<<<< HEAD
<<<<<<< HEAD
<<<<<<< HEAD
<<<<<<< HEAD
>>>>>>> pod-caffe-pod.hpp-merge
=======
>>>>>>> pod-caffe-pod.hpp-merge
=======
>>>>>>> pod/caffe-merge
=======
>>>>>>> pod/caffe-merge
=======
>>>>>>> pod-caffe-pod.hpp-merge
>>>>>>> pod/device/blob.hpp
=======
>>>>>>> BVLC/device-abstraction
=======
=======
>>>>>>> pod/caffe-merge
=======
=======
<<<<<<< HEAD
<<<<<<< HEAD
>>>>>>> pod/device/blob.hpp
=======
      std: 0.03
>>>>>>> origin/BVLC/parallel
=======
>>>>>>> caffe
<<<<<<< HEAD
<<<<<<< HEAD
>>>>>>> pod-caffe-pod.hpp-merge
=======
>>>>>>> pod/caffe-merge
=======
>>>>>>> pod-caffe-pod.hpp-merge
>>>>>>> pod/device/blob.hpp
=======
=======
      std: 0.03
>>>>>>> origin/BVLC/parallel
=======
>>>>>>> caffe
=======
>>>>>>> pod-caffe-pod.hpp-merge
>>>>>>> pod/device/blob.hpp
=======
>>>>>>> pod-caffe-pod.hpp-merge
>>>>>>> pod/device/blob.hpp
=======
=======
>>>>>>> pod-caffe-pod.hpp-merge
>>>>>>> pod/device/blob.hpp
=======
>>>>>>> BVLC/device-abstraction
  convolution_param {
    num_output: 128
    kernel_size: 1
    weight_filler {
      type: "xavier"
<<<<<<< HEAD
<<<<<<< HEAD
>>>>>>> BVLC/device-abstraction
=======
<<<<<<< HEAD
=======
<<<<<<< HEAD
<<<<<<< HEAD
=======
      std: 0.03
>>>>>>> origin/BVLC/parallel
=======
>>>>>>> caffe
>>>>>>> pod-caffe-pod.hpp-merge
>>>>>>> pod/device/blob.hpp
=======
>>>>>>> BVLC/device-abstraction
    }
    bias_filler {
      type: "constant"
      value: 0.2
    }
  }
}
<<<<<<< HEAD
<<<<<<< HEAD
<<<<<<< HEAD
<<<<<<< HEAD
<<<<<<< HEAD
<<<<<<< HEAD
<<<<<<< HEAD
=======
>>>>>>> caffe
=======
=======
>>>>>>> pod/device/blob.hpp
=======
>>>>>>> pod/device/blob.hpp
=======
<<<<<<< HEAD
<<<<<<< HEAD
=======
>>>>>>> caffe
>>>>>>> pod-caffe-pod.hpp-merge
<<<<<<< HEAD
<<<<<<< HEAD
>>>>>>> pod/device/blob.hpp
=======
>>>>>>> pod/device/blob.hpp
=======
>>>>>>> BVLC/device-abstraction
=======
>>>>>>> pod/device/blob.hpp
=======
>>>>>>> BVLC/device-abstraction
layer {
  name: "inception_3b/relu_1x1"
  type: "ReLU"
  bottom: "inception_3b/1x1"
  top: "inception_3b/1x1"
}
layer {
  name: "inception_3b/3x3_reduce"
  type: "Convolution"
  bottom: "inception_3a/output"
  top: "inception_3b/3x3_reduce"
  param {
    lr_mult: 1
    decay_mult: 1
  }
  param {
    lr_mult: 2
    decay_mult: 0
  }
<<<<<<< HEAD
<<<<<<< HEAD
<<<<<<< HEAD
<<<<<<< HEAD
=======
<<<<<<< HEAD
=======
<<<<<<< HEAD
<<<<<<< HEAD
=======
>>>>>>> pod/device/blob.hpp
=======
>>>>>>> pod/device/blob.hpp
=======
=======
<<<<<<< HEAD
=======
>>>>>>> pod/device/blob.hpp
layers {
  bottom: "inception_3b/1x1"
  top: "inception_3b/1x1"
  name: "inception_3b/relu_1x1"
  type: RELU
}
layers {
  bottom: "inception_3a/output"
  top: "inception_3b/3x3_reduce"
  name: "inception_3b/3x3_reduce"
  type: CONVOLUTION
  blobs_lr: 1
  blobs_lr: 2
  weight_decay: 1
  weight_decay: 0
>>>>>>> origin/BVLC/parallel
=======
>>>>>>> caffe
<<<<<<< HEAD
<<<<<<< HEAD
<<<<<<< HEAD
=======
>>>>>>> pod-caffe-pod.hpp-merge
>>>>>>> pod/device/blob.hpp
=======
>>>>>>> pod-caffe-pod.hpp-merge
>>>>>>> pod/device/blob.hpp
=======
>>>>>>> BVLC/device-abstraction
=======
>>>>>>> pod-caffe-pod.hpp-merge
>>>>>>> pod/device/blob.hpp
=======
>>>>>>> BVLC/device-abstraction
  convolution_param {
    num_output: 128
    kernel_size: 1
    weight_filler {
      type: "xavier"
<<<<<<< HEAD
<<<<<<< HEAD
<<<<<<< HEAD
<<<<<<< HEAD
<<<<<<< HEAD
<<<<<<< HEAD
=======
=======
<<<<<<< HEAD
>>>>>>> pod/device/blob.hpp
=======
=======
<<<<<<< HEAD
>>>>>>> pod/device/blob.hpp
=======
=======
<<<<<<< HEAD
>>>>>>> pod/device/blob.hpp
<<<<<<< HEAD
=======
      std: 0.09
>>>>>>> origin/BVLC/parallel
=======
>>>>>>> caffe
>>>>>>> pod-caffe-pod.hpp-merge
<<<<<<< HEAD
=======
>>>>>>> BVLC/device-abstraction
=======
>>>>>>> pod/device/blob.hpp
=======
>>>>>>> BVLC/device-abstraction
    }
    bias_filler {
      type: "constant"
      value: 0.2
    }
  }
}
<<<<<<< HEAD
<<<<<<< HEAD
<<<<<<< HEAD
<<<<<<< HEAD
<<<<<<< HEAD
<<<<<<< HEAD
<<<<<<< HEAD
<<<<<<< HEAD
<<<<<<< HEAD
<<<<<<< HEAD
<<<<<<< HEAD
<<<<<<< HEAD
<<<<<<< HEAD
=======
<<<<<<< HEAD
<<<<<<< HEAD
<<<<<<< HEAD
<<<<<<< HEAD
=======
>>>>>>> caffe
>>>>>>> pod-caffe-pod.hpp-merge
=======
<<<<<<< HEAD
=======
>>>>>>> caffe
>>>>>>> pod-caffe-pod.hpp-merge
=======
>>>>>>> caffe
>>>>>>> pod/caffe-merge
=======
>>>>>>> caffe
>>>>>>> pod/caffe-merge
=======
=======
>>>>>>> pod/device/blob.hpp
=======
>>>>>>> pod/device/blob.hpp
=======
>>>>>>> pod/device/blob.hpp
=======
<<<<<<< HEAD
<<<<<<< HEAD
=======
>>>>>>> caffe
>>>>>>> pod-caffe-pod.hpp-merge
<<<<<<< HEAD
<<<<<<< HEAD
<<<<<<< HEAD
>>>>>>> pod/device/blob.hpp
=======
>>>>>>> BVLC/device-abstraction
=======
=======
>>>>>>> caffe
>>>>>>> pod-caffe-pod.hpp-merge
=======
=======
>>>>>>> caffe
>>>>>>> pod/caffe-merge
=======
=======
=======
=======
>>>>>>> caffe
=======
>>>>>>> pod/device/blob.hpp
=======
>>>>>>> pod/device/blob.hpp
=======
>>>>>>> BVLC/device-abstraction
=======
>>>>>>> pod/device/blob.hpp
=======
>>>>>>> BVLC/device-abstraction
layer {
  name: "inception_3b/relu_3x3_reduce"
  type: "ReLU"
  bottom: "inception_3b/3x3_reduce"
  top: "inception_3b/3x3_reduce"
}
layer {
  name: "inception_3b/3x3"
  type: "Convolution"
  bottom: "inception_3b/3x3_reduce"
  top: "inception_3b/3x3"
  param {
    lr_mult: 1
    decay_mult: 1
  }
  param {
    lr_mult: 2
    decay_mult: 0
  }
<<<<<<< HEAD
<<<<<<< HEAD
<<<<<<< HEAD
<<<<<<< HEAD
=======
<<<<<<< HEAD
=======
<<<<<<< HEAD
<<<<<<< HEAD
=======
>>>>>>> pod/device/blob.hpp
=======
>>>>>>> pod/device/blob.hpp
=======
=======
<<<<<<< HEAD
=======
>>>>>>> pod/device/blob.hpp
layers {
  bottom: "inception_3b/3x3_reduce"
  top: "inception_3b/3x3_reduce"
  name: "inception_3b/relu_3x3_reduce"
  type: RELU
}
layers {
  bottom: "inception_3b/3x3_reduce"
  top: "inception_3b/3x3"
  name: "inception_3b/3x3"
  type: CONVOLUTION
  blobs_lr: 1
  blobs_lr: 2
  weight_decay: 1
  weight_decay: 0
>>>>>>> origin/BVLC/parallel
=======
>>>>>>> caffe
<<<<<<< HEAD
<<<<<<< HEAD
<<<<<<< HEAD
=======
>>>>>>> pod-caffe-pod.hpp-merge
>>>>>>> pod/device/blob.hpp
=======
>>>>>>> pod-caffe-pod.hpp-merge
>>>>>>> pod/device/blob.hpp
=======
>>>>>>> BVLC/device-abstraction
=======
>>>>>>> pod-caffe-pod.hpp-merge
>>>>>>> pod/device/blob.hpp
=======
>>>>>>> BVLC/device-abstraction
  convolution_param {
    num_output: 192
    pad: 1
    kernel_size: 3
    weight_filler {
      type: "xavier"
<<<<<<< HEAD
<<<<<<< HEAD
<<<<<<< HEAD
<<<<<<< HEAD
<<<<<<< HEAD
<<<<<<< HEAD
=======
=======
<<<<<<< HEAD
>>>>>>> pod/device/blob.hpp
=======
=======
<<<<<<< HEAD
>>>>>>> pod/device/blob.hpp
=======
=======
<<<<<<< HEAD
>>>>>>> pod/device/blob.hpp
<<<<<<< HEAD
=======
      std: 0.03
>>>>>>> origin/BVLC/parallel
=======
>>>>>>> caffe
<<<<<<< HEAD
<<<<<<< HEAD
<<<<<<< HEAD
=======
>>>>>>> pod-caffe-pod.hpp-merge
>>>>>>> pod/device/blob.hpp
=======
>>>>>>> pod-caffe-pod.hpp-merge
>>>>>>> pod/device/blob.hpp
=======
>>>>>>> BVLC/device-abstraction
=======
>>>>>>> pod-caffe-pod.hpp-merge
>>>>>>> pod/device/blob.hpp
=======
>>>>>>> BVLC/device-abstraction
    }
    bias_filler {
      type: "constant"
      value: 0.2
    }
  }
}
<<<<<<< HEAD
<<<<<<< HEAD
<<<<<<< HEAD
<<<<<<< HEAD
<<<<<<< HEAD
>>>>>>> pod-caffe-pod.hpp-merge
=======
<<<<<<< HEAD
=======
>>>>>>> pod/device/blob.hpp
=======
=======
>>>>>>> pod/device/blob.hpp
=======
=======
>>>>>>> pod/device/blob.hpp
<<<<<<< HEAD
<<<<<<< HEAD
=======
>>>>>>> caffe
<<<<<<< HEAD
<<<<<<< HEAD
<<<<<<< HEAD
<<<<<<< HEAD
>>>>>>> pod-caffe-pod.hpp-merge
>>>>>>> pod/device/blob.hpp
=======
>>>>>>> pod-caffe-pod.hpp-merge
>>>>>>> pod/device/blob.hpp
layer {
  name: "inception_3a/relu_1x1"
  type: "ReLU"
  bottom: "inception_3a/1x1"
  top: "inception_3a/1x1"
}
layer {
  name: "inception_3a/3x3_reduce"
  type: "Convolution"
  bottom: "pool2/3x3_s2"
  top: "inception_3a/3x3_reduce"
=======
=======
>>>>>>> pod-caffe-pod.hpp-merge
>>>>>>> pod/device/blob.hpp
=======
>>>>>>> pod-caffe-pod.hpp-merge
>>>>>>> pod/device/blob.hpp
=======
>>>>>>> BVLC/device-abstraction
layer {
  name: "inception_3b/relu_3x3"
=======
layer {
  name: "inception_3b/relu_3x3"
>>>>>>> BVLC/device-abstraction
  type: "ReLU"
  bottom: "inception_3b/3x3"
  top: "inception_3b/3x3"
}
layer {
  name: "inception_3b/5x5_reduce"
  type: "Convolution"
  bottom: "inception_3a/output"
  top: "inception_3b/5x5_reduce"
<<<<<<< HEAD
<<<<<<< HEAD
>>>>>>> pod-caffe-pod.hpp-merge
=======
>>>>>>> BVLC/device-abstraction
=======
>>>>>>> BVLC/device-abstraction
  param {
    lr_mult: 1
    decay_mult: 1
  }
  param {
    lr_mult: 2
    decay_mult: 0
  }
<<<<<<< HEAD
<<<<<<< HEAD
<<<<<<< HEAD
<<<<<<< HEAD
<<<<<<< HEAD
<<<<<<< HEAD
<<<<<<< HEAD
<<<<<<< HEAD
<<<<<<< HEAD
<<<<<<< HEAD
<<<<<<< HEAD
=======
<<<<<<< HEAD
<<<<<<< HEAD
<<<<<<< HEAD
<<<<<<< HEAD
<<<<<<< HEAD
=======
=======
>>>>>>> pod-caffe-pod.hpp-merge
=======
>>>>>>> pod/caffe-merge
=======
>>>>>>> pod/caffe-merge
=======
=======
>>>>>>> pod/device/blob.hpp
=======
=======
>>>>>>> pod-caffe-pod.hpp-merge
=======
=======
>>>>>>> pod/caffe-merge
=======
=======
<<<<<<< HEAD
=======
>>>>>>> pod/device/blob.hpp
layers {
  bottom: "inception_3a/1x1"
  top: "inception_3a/1x1"
  name: "inception_3a/relu_1x1"
  type: RELU
}
layers {
  bottom: "pool2/3x3_s2"
  top: "inception_3a/3x3_reduce"
  name: "inception_3a/3x3_reduce"
=======
=======
=======
=======
<<<<<<< HEAD
=======
>>>>>>> pod/device/blob.hpp
=======
=======
<<<<<<< HEAD
=======
>>>>>>> pod/device/blob.hpp
=======
=======
<<<<<<< HEAD
=======
>>>>>>> pod/device/blob.hpp
layers {
  bottom: "inception_3b/3x3"
  top: "inception_3b/3x3"
  name: "inception_3b/relu_3x3"
  type: RELU
}
layers {
  bottom: "inception_3a/output"
  top: "inception_3b/5x5_reduce"
  name: "inception_3b/5x5_reduce"
<<<<<<< HEAD
<<<<<<< HEAD
<<<<<<< HEAD
>>>>>>> pod-caffe-pod.hpp-merge
=======
>>>>>>> pod/device/blob.hpp
=======
>>>>>>> pod/device/blob.hpp
=======
>>>>>>> pod/device/blob.hpp
  type: CONVOLUTION
  blobs_lr: 1
  blobs_lr: 2
  weight_decay: 1
  weight_decay: 0
>>>>>>> origin/BVLC/parallel
=======
>>>>>>> caffe
<<<<<<< HEAD
<<<<<<< HEAD
<<<<<<< HEAD
<<<<<<< HEAD
<<<<<<< HEAD
<<<<<<< HEAD
<<<<<<< HEAD
<<<<<<< HEAD
<<<<<<< HEAD
<<<<<<< HEAD
<<<<<<< HEAD
>>>>>>> pod-caffe-pod.hpp-merge
=======
>>>>>>> pod-caffe-pod.hpp-merge
=======
>>>>>>> pod/caffe-merge
=======
>>>>>>> pod/caffe-merge
=======
>>>>>>> pod-caffe-pod.hpp-merge
>>>>>>> pod/device/blob.hpp
=======
>>>>>>> BVLC/device-abstraction
=======
>>>>>>> pod-caffe-pod.hpp-merge
=======
>>>>>>> pod/caffe-merge
=======
>>>>>>> pod-caffe-pod.hpp-merge
>>>>>>> pod/device/blob.hpp
  convolution_param {
    num_output: 96
=======
>>>>>>> pod-caffe-pod.hpp-merge
  convolution_param {
    num_output: 32
>>>>>>> pod/device/blob.hpp
=======
>>>>>>> pod-caffe-pod.hpp-merge
  convolution_param {
    num_output: 32
>>>>>>> pod/device/blob.hpp
    kernel_size: 1
    weight_filler {
      type: "xavier"
<<<<<<< HEAD
<<<<<<< HEAD
<<<<<<< HEAD
<<<<<<< HEAD
<<<<<<< HEAD
<<<<<<< HEAD
<<<<<<< HEAD
<<<<<<< HEAD
<<<<<<< HEAD
=======
<<<<<<< HEAD
<<<<<<< HEAD
<<<<<<< HEAD
=======
>>>>>>> pod-caffe-pod.hpp-merge
<<<<<<< HEAD
=======
=======
>>>>>>> pod/caffe-merge
=======
>>>>>>> pod/caffe-merge
=======
=======
>>>>>>> pod/device/blob.hpp
=======
<<<<<<< HEAD
<<<<<<< HEAD
=======
<<<<<<< HEAD
>>>>>>> pod/device/blob.hpp
=======
=======
>>>>>>> pod-caffe-pod.hpp-merge
=======
=======
>>>>>>> pod/caffe-merge
=======
=======
>>>>>>> pod/device/blob.hpp
=======
<<<<<<< HEAD
<<<<<<< HEAD
=======
<<<<<<< HEAD
>>>>>>> pod/device/blob.hpp
      std: 0.09
>>>>>>> origin/BVLC/parallel
=======
>>>>>>> caffe
<<<<<<< HEAD
<<<<<<< HEAD
<<<<<<< HEAD
<<<<<<< HEAD
<<<<<<< HEAD
<<<<<<< HEAD
<<<<<<< HEAD
>>>>>>> pod-caffe-pod.hpp-merge
=======
>>>>>>> pod-caffe-pod.hpp-merge
=======
>>>>>>> pod/caffe-merge
=======
>>>>>>> pod/caffe-merge
=======
>>>>>>> pod-caffe-pod.hpp-merge
>>>>>>> pod/device/blob.hpp
=======
>>>>>>> BVLC/device-abstraction
=======
>>>>>>> pod-caffe-pod.hpp-merge
=======
>>>>>>> pod/caffe-merge
=======
>>>>>>> pod-caffe-pod.hpp-merge
>>>>>>> pod/device/blob.hpp
=======
=======
>>>>>>> BVLC/device-abstraction
=======
>>>>>>> pod-caffe-pod.hpp-merge
>>>>>>> pod/device/blob.hpp
=======
>>>>>>> BVLC/device-abstraction
  convolution_param {
    num_output: 32
    kernel_size: 1
    weight_filler {
      type: "xavier"
<<<<<<< HEAD
<<<<<<< HEAD
<<<<<<< HEAD
<<<<<<< HEAD
<<<<<<< HEAD
=======
=======
>>>>>>> pod/device/blob.hpp
=======
>>>>>>> pod/device/blob.hpp
=======
=======
<<<<<<< HEAD
<<<<<<< HEAD
=======
>>>>>>> pod/device/blob.hpp
      std: 0.2
>>>>>>> origin/BVLC/parallel
=======
>>>>>>> caffe
>>>>>>> pod-caffe-pod.hpp-merge
<<<<<<< HEAD
=======
>>>>>>> BVLC/device-abstraction
=======
>>>>>>> pod/device/blob.hpp
=======
>>>>>>> BVLC/device-abstraction
    }
    bias_filler {
      type: "constant"
      value: 0.2
    }
  }
}
<<<<<<< HEAD
<<<<<<< HEAD
<<<<<<< HEAD
<<<<<<< HEAD
<<<<<<< HEAD
<<<<<<< HEAD
<<<<<<< HEAD
<<<<<<< HEAD
<<<<<<< HEAD
<<<<<<< HEAD
<<<<<<< HEAD
<<<<<<< HEAD
<<<<<<< HEAD
=======
<<<<<<< HEAD
<<<<<<< HEAD
<<<<<<< HEAD
<<<<<<< HEAD
=======
>>>>>>> caffe
>>>>>>> pod-caffe-pod.hpp-merge
=======
<<<<<<< HEAD
=======
>>>>>>> caffe
>>>>>>> pod-caffe-pod.hpp-merge
=======
>>>>>>> caffe
>>>>>>> pod/caffe-merge
=======
>>>>>>> caffe
>>>>>>> pod/caffe-merge
=======
=======
>>>>>>> pod/device/blob.hpp
=======
>>>>>>> pod/device/blob.hpp
=======
<<<<<<< HEAD
<<<<<<< HEAD
=======
>>>>>>> caffe
>>>>>>> pod-caffe-pod.hpp-merge
<<<<<<< HEAD
<<<<<<< HEAD
>>>>>>> pod/device/blob.hpp
=======
>>>>>>> BVLC/device-abstraction
=======
=======
>>>>>>> caffe
>>>>>>> pod-caffe-pod.hpp-merge
=======
=======
>>>>>>> caffe
>>>>>>> pod/caffe-merge
=======
=======
<<<<<<< HEAD
<<<<<<< HEAD
=======
>>>>>>> caffe
>>>>>>> pod-caffe-pod.hpp-merge
>>>>>>> pod/device/blob.hpp
layer {
  name: "inception_3a/relu_3x3_reduce"
  type: "ReLU"
  bottom: "inception_3a/3x3_reduce"
  top: "inception_3a/3x3_reduce"
}
layer {
  name: "inception_3a/3x3"
  type: "Convolution"
  bottom: "inception_3a/3x3_reduce"
  top: "inception_3a/3x3"
=======
=======
>>>>>>> caffe
=======
>>>>>>> pod/device/blob.hpp
=======
>>>>>>> pod/device/blob.hpp
=======
>>>>>>> BVLC/device-abstraction
=======
=======
<<<<<<< HEAD
<<<<<<< HEAD
=======
>>>>>>> caffe
>>>>>>> pod-caffe-pod.hpp-merge
>>>>>>> pod/device/blob.hpp
=======
>>>>>>> BVLC/device-abstraction
layer {
  name: "inception_3b/relu_5x5_reduce"
  type: "ReLU"
  bottom: "inception_3b/5x5_reduce"
  top: "inception_3b/5x5_reduce"
}
layer {
  name: "inception_3b/5x5"
  type: "Convolution"
  bottom: "inception_3b/5x5_reduce"
  top: "inception_3b/5x5"
<<<<<<< HEAD
<<<<<<< HEAD
>>>>>>> pod-caffe-pod.hpp-merge
=======
>>>>>>> BVLC/device-abstraction
=======
>>>>>>> BVLC/device-abstraction
  param {
    lr_mult: 1
    decay_mult: 1
  }
  param {
    lr_mult: 2
    decay_mult: 0
  }
<<<<<<< HEAD
<<<<<<< HEAD
<<<<<<< HEAD
<<<<<<< HEAD
<<<<<<< HEAD
<<<<<<< HEAD
<<<<<<< HEAD
<<<<<<< HEAD
<<<<<<< HEAD
<<<<<<< HEAD
<<<<<<< HEAD
=======
<<<<<<< HEAD
<<<<<<< HEAD
<<<<<<< HEAD
<<<<<<< HEAD
<<<<<<< HEAD
=======
=======
>>>>>>> pod-caffe-pod.hpp-merge
=======
>>>>>>> pod/caffe-merge
=======
>>>>>>> pod/caffe-merge
=======
=======
>>>>>>> pod/device/blob.hpp
=======
=======
>>>>>>> pod-caffe-pod.hpp-merge
=======
=======
>>>>>>> pod/caffe-merge
=======
=======
<<<<<<< HEAD
=======
>>>>>>> pod/device/blob.hpp
layers {
  bottom: "inception_3a/3x3_reduce"
  top: "inception_3a/3x3_reduce"
  name: "inception_3a/relu_3x3_reduce"
  type: RELU
}
layers {
  bottom: "inception_3a/3x3_reduce"
  top: "inception_3a/3x3"
  name: "inception_3a/3x3"
=======
=======
=======
=======
<<<<<<< HEAD
=======
>>>>>>> pod/device/blob.hpp
=======
=======
<<<<<<< HEAD
=======
>>>>>>> pod/device/blob.hpp
=======
=======
<<<<<<< HEAD
=======
>>>>>>> pod/device/blob.hpp
layers {
  bottom: "inception_3b/5x5_reduce"
  top: "inception_3b/5x5_reduce"
  name: "inception_3b/relu_5x5_reduce"
  type: RELU
}
layers {
  bottom: "inception_3b/5x5_reduce"
  top: "inception_3b/5x5"
  name: "inception_3b/5x5"
<<<<<<< HEAD
<<<<<<< HEAD
<<<<<<< HEAD
>>>>>>> pod-caffe-pod.hpp-merge
=======
>>>>>>> pod/device/blob.hpp
=======
>>>>>>> pod/device/blob.hpp
=======
>>>>>>> pod/device/blob.hpp
  type: CONVOLUTION
  blobs_lr: 1
  blobs_lr: 2
  weight_decay: 1
  weight_decay: 0
>>>>>>> origin/BVLC/parallel
=======
>>>>>>> caffe
<<<<<<< HEAD
<<<<<<< HEAD
<<<<<<< HEAD
<<<<<<< HEAD
<<<<<<< HEAD
<<<<<<< HEAD
<<<<<<< HEAD
<<<<<<< HEAD
<<<<<<< HEAD
<<<<<<< HEAD
<<<<<<< HEAD
>>>>>>> pod-caffe-pod.hpp-merge
=======
>>>>>>> pod-caffe-pod.hpp-merge
=======
>>>>>>> pod/caffe-merge
=======
>>>>>>> pod/caffe-merge
=======
>>>>>>> pod-caffe-pod.hpp-merge
>>>>>>> pod/device/blob.hpp
=======
>>>>>>> BVLC/device-abstraction
=======
>>>>>>> pod-caffe-pod.hpp-merge
=======
>>>>>>> pod/caffe-merge
=======
>>>>>>> pod-caffe-pod.hpp-merge
>>>>>>> pod/device/blob.hpp
  convolution_param {
    num_output: 128
    pad: 1
    kernel_size: 3
=======
=======
>>>>>>> pod-caffe-pod.hpp-merge
>>>>>>> pod/device/blob.hpp
=======
>>>>>>> pod-caffe-pod.hpp-merge
>>>>>>> pod/device/blob.hpp
=======
>>>>>>> BVLC/device-abstraction
=======
>>>>>>> pod-caffe-pod.hpp-merge
>>>>>>> pod/device/blob.hpp
=======
>>>>>>> BVLC/device-abstraction
  convolution_param {
    num_output: 96
    pad: 2
    kernel_size: 5
<<<<<<< HEAD
<<<<<<< HEAD
>>>>>>> pod-caffe-pod.hpp-merge
    weight_filler {
      type: "xavier"
<<<<<<< HEAD
<<<<<<< HEAD
<<<<<<< HEAD
<<<<<<< HEAD
<<<<<<< HEAD
<<<<<<< HEAD
<<<<<<< HEAD
<<<<<<< HEAD
<<<<<<< HEAD
<<<<<<< HEAD
<<<<<<< HEAD
=======
<<<<<<< HEAD
<<<<<<< HEAD
<<<<<<< HEAD
=======
>>>>>>> pod-caffe-pod.hpp-merge
<<<<<<< HEAD
=======
=======
>>>>>>> pod/caffe-merge
=======
>>>>>>> pod/caffe-merge
=======
=======
<<<<<<< HEAD
<<<<<<< HEAD
=======
>>>>>>> pod/device/blob.hpp
=======
=======
>>>>>>> pod-caffe-pod.hpp-merge
=======
=======
>>>>>>> pod/caffe-merge
=======
=======
<<<<<<< HEAD
<<<<<<< HEAD
=======
>>>>>>> pod/device/blob.hpp
=======
=======
>>>>>>> pod-caffe-pod.hpp-merge
=======
=======
>>>>>>> pod/device/blob.hpp
=======
<<<<<<< HEAD
<<<<<<< HEAD
=======
<<<<<<< HEAD
>>>>>>> pod/device/blob.hpp
=======
=======
<<<<<<< HEAD
<<<<<<< HEAD
=======
>>>>>>> pod/device/blob.hpp
=======
>>>>>>> pod/device/blob.hpp
      std: 0.03
>>>>>>> origin/BVLC/parallel
=======
>>>>>>> caffe
<<<<<<< HEAD
<<<<<<< HEAD
<<<<<<< HEAD
<<<<<<< HEAD
<<<<<<< HEAD
<<<<<<< HEAD
<<<<<<< HEAD
<<<<<<< HEAD
<<<<<<< HEAD
<<<<<<< HEAD
<<<<<<< HEAD
>>>>>>> pod-caffe-pod.hpp-merge
=======
>>>>>>> pod-caffe-pod.hpp-merge
=======
>>>>>>> pod/caffe-merge
=======
>>>>>>> pod/caffe-merge
=======
>>>>>>> pod-caffe-pod.hpp-merge
>>>>>>> pod/device/blob.hpp
=======
>>>>>>> BVLC/device-abstraction
=======
>>>>>>> pod-caffe-pod.hpp-merge
=======
>>>>>>> pod/caffe-merge
=======
>>>>>>> pod-caffe-pod.hpp-merge
>>>>>>> pod/device/blob.hpp
=======
=======
>>>>>>> pod/device/blob.hpp
=======
>>>>>>> pod/device/blob.hpp
>>>>>>> pod-caffe-pod.hpp-merge
=======
    weight_filler {
      type: "xavier"
>>>>>>> BVLC/device-abstraction
=======
>>>>>>> pod-caffe-pod.hpp-merge
>>>>>>> pod/device/blob.hpp
=======
    weight_filler {
      type: "xavier"
>>>>>>> BVLC/device-abstraction
    }
    bias_filler {
      type: "constant"
      value: 0.2
    }
  }
}
<<<<<<< HEAD
<<<<<<< HEAD
<<<<<<< HEAD
<<<<<<< HEAD
<<<<<<< HEAD
<<<<<<< HEAD
<<<<<<< HEAD
<<<<<<< HEAD
<<<<<<< HEAD
<<<<<<< HEAD
<<<<<<< HEAD
<<<<<<< HEAD
<<<<<<< HEAD
=======
<<<<<<< HEAD
<<<<<<< HEAD
<<<<<<< HEAD
<<<<<<< HEAD
=======
>>>>>>> caffe
>>>>>>> pod-caffe-pod.hpp-merge
=======
<<<<<<< HEAD
=======
>>>>>>> caffe
>>>>>>> pod-caffe-pod.hpp-merge
=======
>>>>>>> caffe
>>>>>>> pod/caffe-merge
=======
>>>>>>> caffe
>>>>>>> pod/caffe-merge
=======
=======
=======
=======
>>>>>>> caffe
=======
=======
>>>>>>> pod/device/blob.hpp
=======
<<<<<<< HEAD
<<<<<<< HEAD
=======
>>>>>>> caffe
>>>>>>> pod-caffe-pod.hpp-merge
<<<<<<< HEAD
>>>>>>> pod/device/blob.hpp
=======
>>>>>>> pod/device/blob.hpp
=======
>>>>>>> BVLC/device-abstraction
=======
=======
<<<<<<< HEAD
<<<<<<< HEAD
=======
>>>>>>> caffe
>>>>>>> pod-caffe-pod.hpp-merge
>>>>>>> pod/device/blob.hpp
=======
>>>>>>> BVLC/device-abstraction
layer {
  name: "inception_3b/relu_5x5"
  type: "ReLU"
  bottom: "inception_3b/5x5"
  top: "inception_3b/5x5"
}
layer {
  name: "inception_3b/pool"
  type: "Pooling"
  bottom: "inception_3a/output"
  top: "inception_3b/pool"
<<<<<<< HEAD
<<<<<<< HEAD
<<<<<<< HEAD
<<<<<<< HEAD
=======
<<<<<<< HEAD
=======
<<<<<<< HEAD
<<<<<<< HEAD
=======
>>>>>>> pod/device/blob.hpp
=======
>>>>>>> pod/device/blob.hpp
=======
=======
<<<<<<< HEAD
=======
>>>>>>> pod/device/blob.hpp
layers {
  bottom: "inception_3b/5x5"
  top: "inception_3b/5x5"
  name: "inception_3b/relu_5x5"
  type: RELU
}
layers {
  bottom: "inception_3a/output"
  top: "inception_3b/pool"
  name: "inception_3b/pool"
  type: POOLING
>>>>>>> origin/BVLC/parallel
=======
>>>>>>> caffe
<<<<<<< HEAD
<<<<<<< HEAD
<<<<<<< HEAD
=======
>>>>>>> pod-caffe-pod.hpp-merge
>>>>>>> pod/device/blob.hpp
=======
>>>>>>> pod-caffe-pod.hpp-merge
>>>>>>> pod/device/blob.hpp
=======
>>>>>>> BVLC/device-abstraction
=======
>>>>>>> pod-caffe-pod.hpp-merge
>>>>>>> pod/device/blob.hpp
=======
>>>>>>> BVLC/device-abstraction
  pooling_param {
    pool: MAX
    kernel_size: 3
    stride: 1
    pad: 1
  }
}
<<<<<<< HEAD
<<<<<<< HEAD
<<<<<<< HEAD
<<<<<<< HEAD
<<<<<<< HEAD
>>>>>>> pod-caffe-pod.hpp-merge
<<<<<<< HEAD
<<<<<<< HEAD
=======
>>>>>>> caffe
<<<<<<< HEAD
>>>>>>> pod-caffe-pod.hpp-merge
>>>>>>> pod/device/blob.hpp
=======
>>>>>>> BVLC/device-abstraction
=======
=======
>>>>>>> caffe
>>>>>>> pod-caffe-pod.hpp-merge
=======
=======
>>>>>>> caffe
>>>>>>> pod/caffe-merge
=======
=======
<<<<<<< HEAD
>>>>>>> pod/device/blob.hpp
=======
>>>>>>> pod/device/blob.hpp
=======
>>>>>>> pod/device/blob.hpp
=======
<<<<<<< HEAD
<<<<<<< HEAD
=======
>>>>>>> caffe
>>>>>>> pod-caffe-pod.hpp-merge
<<<<<<< HEAD
<<<<<<< HEAD
<<<<<<< HEAD
>>>>>>> pod/device/blob.hpp
layer {
  name: "inception_3a/relu_3x3"
  type: "ReLU"
  bottom: "inception_3a/3x3"
  top: "inception_3a/3x3"
}
layer {
  name: "inception_3a/5x5_reduce"
  type: "Convolution"
  bottom: "pool2/3x3_s2"
  top: "inception_3a/5x5_reduce"
=======
=======
>>>>>>> pod/device/blob.hpp
=======
>>>>>>> pod/device/blob.hpp
=======
>>>>>>> BVLC/device-abstraction
=======
>>>>>>> pod/device/blob.hpp
=======
>>>>>>> BVLC/device-abstraction
layer {
  name: "inception_3b/pool_proj"
  type: "Convolution"
  bottom: "inception_3b/pool"
  top: "inception_3b/pool_proj"
<<<<<<< HEAD
<<<<<<< HEAD
>>>>>>> pod-caffe-pod.hpp-merge
=======
>>>>>>> BVLC/device-abstraction
=======
>>>>>>> BVLC/device-abstraction
  param {
    lr_mult: 1
    decay_mult: 1
  }
  param {
    lr_mult: 2
    decay_mult: 0
  }
<<<<<<< HEAD
<<<<<<< HEAD
<<<<<<< HEAD
<<<<<<< HEAD
<<<<<<< HEAD
<<<<<<< HEAD
<<<<<<< HEAD
<<<<<<< HEAD
<<<<<<< HEAD
<<<<<<< HEAD
<<<<<<< HEAD
=======
<<<<<<< HEAD
<<<<<<< HEAD
<<<<<<< HEAD
<<<<<<< HEAD
<<<<<<< HEAD
=======
=======
>>>>>>> pod-caffe-pod.hpp-merge
=======
>>>>>>> pod/caffe-merge
=======
>>>>>>> pod/caffe-merge
=======
=======
>>>>>>> pod/device/blob.hpp
=======
=======
>>>>>>> pod-caffe-pod.hpp-merge
=======
=======
>>>>>>> pod/caffe-merge
=======
=======
<<<<<<< HEAD
=======
>>>>>>> pod/device/blob.hpp
layers {
  bottom: "inception_3a/3x3"
  top: "inception_3a/3x3"
  name: "inception_3a/relu_3x3"
  type: RELU
}
layers {
  bottom: "pool2/3x3_s2"
  top: "inception_3a/5x5_reduce"
  name: "inception_3a/5x5_reduce"
=======
=======
=======
<<<<<<< HEAD
>>>>>>> pod/device/blob.hpp
=======
=======
=======
<<<<<<< HEAD
=======
>>>>>>> pod/device/blob.hpp
=======
=======
<<<<<<< HEAD
=======
>>>>>>> pod/device/blob.hpp
layers {
  bottom: "inception_3b/pool"
  top: "inception_3b/pool_proj"
  name: "inception_3b/pool_proj"
<<<<<<< HEAD
<<<<<<< HEAD
<<<<<<< HEAD
>>>>>>> pod-caffe-pod.hpp-merge
=======
>>>>>>> pod/device/blob.hpp
=======
>>>>>>> pod/device/blob.hpp
=======
>>>>>>> pod/device/blob.hpp
  type: CONVOLUTION
  blobs_lr: 1
  blobs_lr: 2
  weight_decay: 1
  weight_decay: 0
>>>>>>> origin/BVLC/parallel
=======
>>>>>>> caffe
<<<<<<< HEAD
<<<<<<< HEAD
<<<<<<< HEAD
<<<<<<< HEAD
<<<<<<< HEAD
<<<<<<< HEAD
<<<<<<< HEAD
<<<<<<< HEAD
<<<<<<< HEAD
<<<<<<< HEAD
<<<<<<< HEAD
>>>>>>> pod-caffe-pod.hpp-merge
=======
>>>>>>> pod-caffe-pod.hpp-merge
=======
>>>>>>> pod/caffe-merge
=======
>>>>>>> pod/caffe-merge
=======
>>>>>>> pod-caffe-pod.hpp-merge
>>>>>>> pod/device/blob.hpp
=======
>>>>>>> BVLC/device-abstraction
=======
>>>>>>> pod-caffe-pod.hpp-merge
=======
>>>>>>> pod/caffe-merge
=======
>>>>>>> pod-caffe-pod.hpp-merge
>>>>>>> pod/device/blob.hpp
  convolution_param {
    num_output: 16
=======
=======
>>>>>>> pod-caffe-pod.hpp-merge
>>>>>>> pod/device/blob.hpp
=======
>>>>>>> pod-caffe-pod.hpp-merge
>>>>>>> pod/device/blob.hpp
=======
>>>>>>> pod-caffe-pod.hpp-merge
>>>>>>> pod/device/blob.hpp
  convolution_param {
    num_output: 64
>>>>>>> pod-caffe-pod.hpp-merge
    kernel_size: 1
    weight_filler {
      type: "xavier"
<<<<<<< HEAD
<<<<<<< HEAD
<<<<<<< HEAD
<<<<<<< HEAD
<<<<<<< HEAD
<<<<<<< HEAD
<<<<<<< HEAD
<<<<<<< HEAD
<<<<<<< HEAD
<<<<<<< HEAD
<<<<<<< HEAD
=======
<<<<<<< HEAD
<<<<<<< HEAD
<<<<<<< HEAD
=======
>>>>>>> pod-caffe-pod.hpp-merge
<<<<<<< HEAD
=======
=======
>>>>>>> pod/caffe-merge
=======
>>>>>>> pod/caffe-merge
=======
=======
<<<<<<< HEAD
<<<<<<< HEAD
=======
>>>>>>> pod/device/blob.hpp
=======
=======
>>>>>>> pod-caffe-pod.hpp-merge
=======
=======
>>>>>>> pod/caffe-merge
=======
=======
<<<<<<< HEAD
<<<<<<< HEAD
=======
>>>>>>> pod/device/blob.hpp
      std: 0.2
>>>>>>> origin/BVLC/parallel
=======
>>>>>>> caffe
<<<<<<< HEAD
<<<<<<< HEAD
<<<<<<< HEAD
<<<<<<< HEAD
<<<<<<< HEAD
<<<<<<< HEAD
<<<<<<< HEAD
>>>>>>> pod-caffe-pod.hpp-merge
=======
>>>>>>> pod-caffe-pod.hpp-merge
=======
>>>>>>> pod/caffe-merge
=======
>>>>>>> pod/caffe-merge
=======
>>>>>>> pod-caffe-pod.hpp-merge
>>>>>>> pod/device/blob.hpp
=======
>>>>>>> BVLC/device-abstraction
=======
>>>>>>> pod-caffe-pod.hpp-merge
=======
>>>>>>> pod/caffe-merge
=======
>>>>>>> pod-caffe-pod.hpp-merge
>>>>>>> pod/device/blob.hpp
=======
=======
=======
<<<<<<< HEAD
<<<<<<< HEAD
>>>>>>> pod/device/blob.hpp
=======
=======
<<<<<<< HEAD
<<<<<<< HEAD
>>>>>>> pod/device/blob.hpp
=======
=======
<<<<<<< HEAD
<<<<<<< HEAD
>>>>>>> pod/device/blob.hpp
=======
      std: 0.1
>>>>>>> origin/BVLC/parallel
=======
>>>>>>> caffe
>>>>>>> pod-caffe-pod.hpp-merge
<<<<<<< HEAD
=======
=======
>>>>>>> BVLC/device-abstraction
  convolution_param {
    num_output: 64
    kernel_size: 1
    weight_filler {
      type: "xavier"
<<<<<<< HEAD
>>>>>>> BVLC/device-abstraction
=======
>>>>>>> pod/device/blob.hpp
=======
>>>>>>> BVLC/device-abstraction
    }
    bias_filler {
      type: "constant"
      value: 0.2
    }
  }
}
<<<<<<< HEAD
<<<<<<< HEAD
<<<<<<< HEAD
<<<<<<< HEAD
<<<<<<< HEAD
<<<<<<< HEAD
<<<<<<< HEAD
<<<<<<< HEAD
<<<<<<< HEAD
<<<<<<< HEAD
<<<<<<< HEAD
<<<<<<< HEAD
<<<<<<< HEAD
=======
<<<<<<< HEAD
<<<<<<< HEAD
<<<<<<< HEAD
<<<<<<< HEAD
=======
>>>>>>> caffe
>>>>>>> pod-caffe-pod.hpp-merge
=======
<<<<<<< HEAD
=======
>>>>>>> caffe
>>>>>>> pod-caffe-pod.hpp-merge
=======
>>>>>>> caffe
>>>>>>> pod/caffe-merge
=======
>>>>>>> caffe
>>>>>>> pod/caffe-merge
=======
=======
=======
=======
>>>>>>> caffe
=======
=======
>>>>>>> pod/device/blob.hpp
=======
<<<<<<< HEAD
<<<<<<< HEAD
=======
>>>>>>> caffe
>>>>>>> pod-caffe-pod.hpp-merge
<<<<<<< HEAD
>>>>>>> pod/device/blob.hpp
=======
>>>>>>> pod/device/blob.hpp
=======
>>>>>>> BVLC/device-abstraction
=======
=======
<<<<<<< HEAD
<<<<<<< HEAD
=======
>>>>>>> caffe
>>>>>>> pod-caffe-pod.hpp-merge
>>>>>>> pod/device/blob.hpp
=======
>>>>>>> BVLC/device-abstraction
layer {
  name: "inception_3b/relu_pool_proj"
  type: "ReLU"
  bottom: "inception_3b/pool_proj"
  top: "inception_3b/pool_proj"
}
layer {
  name: "inception_3b/output"
  type: "Concat"
<<<<<<< HEAD
<<<<<<< HEAD
<<<<<<< HEAD
<<<<<<< HEAD
=======
<<<<<<< HEAD
=======
<<<<<<< HEAD
<<<<<<< HEAD
=======
>>>>>>> pod/device/blob.hpp
=======
>>>>>>> pod/device/blob.hpp
=======
=======
<<<<<<< HEAD
=======
>>>>>>> pod/device/blob.hpp
layers {
  bottom: "inception_3b/pool_proj"
  top: "inception_3b/pool_proj"
  name: "inception_3b/relu_pool_proj"
  type: RELU
}
layers {
>>>>>>> origin/BVLC/parallel
=======
>>>>>>> caffe
<<<<<<< HEAD
<<<<<<< HEAD
<<<<<<< HEAD
=======
>>>>>>> pod-caffe-pod.hpp-merge
>>>>>>> pod/device/blob.hpp
=======
>>>>>>> pod-caffe-pod.hpp-merge
>>>>>>> pod/device/blob.hpp
=======
>>>>>>> BVLC/device-abstraction
=======
>>>>>>> pod-caffe-pod.hpp-merge
>>>>>>> pod/device/blob.hpp
=======
>>>>>>> BVLC/device-abstraction
  bottom: "inception_3b/1x1"
  bottom: "inception_3b/3x3"
  bottom: "inception_3b/5x5"
  bottom: "inception_3b/pool_proj"
  top: "inception_3b/output"
<<<<<<< HEAD
<<<<<<< HEAD
<<<<<<< HEAD
<<<<<<< HEAD
<<<<<<< HEAD
>>>>>>> pod-caffe-pod.hpp-merge
<<<<<<< HEAD
<<<<<<< HEAD
=======
>>>>>>> caffe
<<<<<<< HEAD
>>>>>>> pod-caffe-pod.hpp-merge
>>>>>>> pod/device/blob.hpp
=======
>>>>>>> BVLC/device-abstraction
=======
=======
>>>>>>> caffe
>>>>>>> pod-caffe-pod.hpp-merge
=======
=======
>>>>>>> caffe
>>>>>>> pod/caffe-merge
=======
=======
=======
=======
<<<<<<< HEAD
=======
>>>>>>> pod/device/blob.hpp
=======
>>>>>>> pod/device/blob.hpp
=======
<<<<<<< HEAD
<<<<<<< HEAD
=======
>>>>>>> caffe
>>>>>>> pod-caffe-pod.hpp-merge
<<<<<<< HEAD
<<<<<<< HEAD
>>>>>>> pod/device/blob.hpp
=======
>>>>>>> pod/device/blob.hpp
=======
>>>>>>> BVLC/device-abstraction
=======
>>>>>>> pod/device/blob.hpp
=======
>>>>>>> BVLC/device-abstraction
}
layer {
  name: "pool3/3x3_s2"
  type: "Pooling"
  bottom: "inception_3b/output"
  top: "pool3/3x3_s2"
<<<<<<< HEAD
<<<<<<< HEAD
<<<<<<< HEAD
<<<<<<< HEAD
=======
<<<<<<< HEAD
=======
<<<<<<< HEAD
<<<<<<< HEAD
=======
>>>>>>> pod/device/blob.hpp
=======
>>>>>>> pod/device/blob.hpp
=======
=======
<<<<<<< HEAD
=======
>>>>>>> pod/device/blob.hpp
  name: "inception_3b/output"
  type: CONCAT
}
layers {
  bottom: "inception_3b/output"
  top: "pool3/3x3_s2"
  name: "pool3/3x3_s2"
  type: POOLING
>>>>>>> origin/BVLC/parallel
=======
>>>>>>> caffe
<<<<<<< HEAD
<<<<<<< HEAD
<<<<<<< HEAD
=======
>>>>>>> pod-caffe-pod.hpp-merge
>>>>>>> pod/device/blob.hpp
=======
>>>>>>> pod-caffe-pod.hpp-merge
>>>>>>> pod/device/blob.hpp
=======
>>>>>>> BVLC/device-abstraction
=======
>>>>>>> pod-caffe-pod.hpp-merge
>>>>>>> pod/device/blob.hpp
=======
>>>>>>> BVLC/device-abstraction
  pooling_param {
    pool: MAX
    kernel_size: 3
    stride: 2
  }
}
<<<<<<< HEAD
<<<<<<< HEAD
<<<<<<< HEAD
<<<<<<< HEAD
<<<<<<< HEAD
>>>>>>> pod-caffe-pod.hpp-merge
=======
<<<<<<< HEAD
=======
>>>>>>> pod/device/blob.hpp
=======
=======
>>>>>>> pod/device/blob.hpp
=======
=======
>>>>>>> pod/device/blob.hpp
<<<<<<< HEAD
<<<<<<< HEAD
=======
>>>>>>> caffe
<<<<<<< HEAD
<<<<<<< HEAD
<<<<<<< HEAD
<<<<<<< HEAD
>>>>>>> pod-caffe-pod.hpp-merge
>>>>>>> pod/device/blob.hpp
layer {
  name: "inception_3a/relu_5x5_reduce"
  type: "ReLU"
  bottom: "inception_3a/5x5_reduce"
  top: "inception_3a/5x5_reduce"
}
layer {
  name: "inception_3a/5x5"
  type: "Convolution"
  bottom: "inception_3a/5x5_reduce"
  top: "inception_3a/5x5"
=======
=======
>>>>>>> pod-caffe-pod.hpp-merge
>>>>>>> pod/device/blob.hpp
=======
>>>>>>> pod-caffe-pod.hpp-merge
>>>>>>> pod/device/blob.hpp
=======
>>>>>>> BVLC/device-abstraction
=======
>>>>>>> pod-caffe-pod.hpp-merge
>>>>>>> pod/device/blob.hpp
=======
>>>>>>> BVLC/device-abstraction
layer {
  name: "inception_4a/1x1"
  type: "Convolution"
  bottom: "pool3/3x3_s2"
  top: "inception_4a/1x1"
<<<<<<< HEAD
<<<<<<< HEAD
>>>>>>> pod-caffe-pod.hpp-merge
=======
>>>>>>> BVLC/device-abstraction
=======
>>>>>>> BVLC/device-abstraction
  param {
    lr_mult: 1
    decay_mult: 1
  }
  param {
    lr_mult: 2
    decay_mult: 0
  }
<<<<<<< HEAD
<<<<<<< HEAD
<<<<<<< HEAD
<<<<<<< HEAD
<<<<<<< HEAD
<<<<<<< HEAD
<<<<<<< HEAD
<<<<<<< HEAD
<<<<<<< HEAD
<<<<<<< HEAD
<<<<<<< HEAD
=======
<<<<<<< HEAD
<<<<<<< HEAD
<<<<<<< HEAD
<<<<<<< HEAD
<<<<<<< HEAD
=======
=======
>>>>>>> pod-caffe-pod.hpp-merge
=======
>>>>>>> pod/caffe-merge
=======
>>>>>>> pod/caffe-merge
=======
=======
>>>>>>> pod/device/blob.hpp
=======
=======
>>>>>>> pod-caffe-pod.hpp-merge
=======
=======
>>>>>>> pod/caffe-merge
=======
=======
<<<<<<< HEAD
=======
>>>>>>> pod/device/blob.hpp
layers {
  bottom: "inception_3a/5x5_reduce"
  top: "inception_3a/5x5_reduce"
  name: "inception_3a/relu_5x5_reduce"
  type: RELU
}
layers {
  bottom: "inception_3a/5x5_reduce"
  top: "inception_3a/5x5"
  name: "inception_3a/5x5"
=======
=======
=======
<<<<<<< HEAD
>>>>>>> pod/device/blob.hpp
=======
=======
=======
<<<<<<< HEAD
=======
>>>>>>> pod/device/blob.hpp
=======
=======
<<<<<<< HEAD
=======
>>>>>>> pod/device/blob.hpp
layers {
  bottom: "pool3/3x3_s2"
  top: "inception_4a/1x1"
  name: "inception_4a/1x1"
<<<<<<< HEAD
<<<<<<< HEAD
<<<<<<< HEAD
>>>>>>> pod-caffe-pod.hpp-merge
=======
>>>>>>> pod/device/blob.hpp
=======
>>>>>>> pod/device/blob.hpp
=======
>>>>>>> pod/device/blob.hpp
  type: CONVOLUTION
  blobs_lr: 1
  blobs_lr: 2
  weight_decay: 1
  weight_decay: 0
>>>>>>> origin/BVLC/parallel
=======
>>>>>>> caffe
<<<<<<< HEAD
<<<<<<< HEAD
<<<<<<< HEAD
<<<<<<< HEAD
<<<<<<< HEAD
<<<<<<< HEAD
<<<<<<< HEAD
<<<<<<< HEAD
<<<<<<< HEAD
<<<<<<< HEAD
<<<<<<< HEAD
>>>>>>> pod-caffe-pod.hpp-merge
=======
>>>>>>> pod-caffe-pod.hpp-merge
=======
>>>>>>> pod/caffe-merge
=======
>>>>>>> pod/caffe-merge
=======
>>>>>>> pod-caffe-pod.hpp-merge
>>>>>>> pod/device/blob.hpp
=======
>>>>>>> BVLC/device-abstraction
=======
>>>>>>> pod-caffe-pod.hpp-merge
=======
>>>>>>> pod/caffe-merge
=======
>>>>>>> pod-caffe-pod.hpp-merge
>>>>>>> pod/device/blob.hpp
  convolution_param {
    num_output: 32
    pad: 2
    kernel_size: 5
=======
=======
>>>>>>> pod-caffe-pod.hpp-merge
>>>>>>> pod/device/blob.hpp
=======
>>>>>>> pod-caffe-pod.hpp-merge
>>>>>>> pod/device/blob.hpp
  convolution_param {
    num_output: 192
    kernel_size: 1
>>>>>>> pod-caffe-pod.hpp-merge
    weight_filler {
      type: "xavier"
<<<<<<< HEAD
<<<<<<< HEAD
<<<<<<< HEAD
<<<<<<< HEAD
<<<<<<< HEAD
<<<<<<< HEAD
<<<<<<< HEAD
<<<<<<< HEAD
<<<<<<< HEAD
<<<<<<< HEAD
=======
<<<<<<< HEAD
<<<<<<< HEAD
<<<<<<< HEAD
=======
>>>>>>> pod-caffe-pod.hpp-merge
<<<<<<< HEAD
=======
=======
>>>>>>> pod/caffe-merge
=======
>>>>>>> pod/caffe-merge
=======
=======
<<<<<<< HEAD
<<<<<<< HEAD
=======
>>>>>>> pod/device/blob.hpp
=======
=======
>>>>>>> pod-caffe-pod.hpp-merge
=======
=======
>>>>>>> pod/caffe-merge
=======
=======
<<<<<<< HEAD
<<<<<<< HEAD
=======
>>>>>>> pod/device/blob.hpp
=======
=======
>>>>>>> pod-caffe-pod.hpp-merge
=======
=======
<<<<<<< HEAD
<<<<<<< HEAD
=======
>>>>>>> pod/device/blob.hpp
=======
=======
<<<<<<< HEAD
<<<<<<< HEAD
=======
>>>>>>> pod/device/blob.hpp
      std: 0.03
>>>>>>> origin/BVLC/parallel
=======
>>>>>>> caffe
<<<<<<< HEAD
<<<<<<< HEAD
<<<<<<< HEAD
<<<<<<< HEAD
<<<<<<< HEAD
<<<<<<< HEAD
<<<<<<< HEAD
<<<<<<< HEAD
<<<<<<< HEAD
<<<<<<< HEAD
>>>>>>> pod-caffe-pod.hpp-merge
=======
>>>>>>> pod-caffe-pod.hpp-merge
=======
>>>>>>> pod/caffe-merge
=======
>>>>>>> pod/caffe-merge
=======
>>>>>>> pod-caffe-pod.hpp-merge
>>>>>>> pod/device/blob.hpp
=======
>>>>>>> BVLC/device-abstraction
=======
>>>>>>> pod-caffe-pod.hpp-merge
=======
>>>>>>> pod/caffe-merge
=======
>>>>>>> pod-caffe-pod.hpp-merge
>>>>>>> pod/device/blob.hpp
=======
=======
>>>>>>> pod/device/blob.hpp
=======
>>>>>>> pod/device/blob.hpp
>>>>>>> pod-caffe-pod.hpp-merge
=======
=======
>>>>>>> pod-caffe-pod.hpp-merge
>>>>>>> pod/device/blob.hpp
=======
>>>>>>> BVLC/device-abstraction
  convolution_param {
    num_output: 192
    kernel_size: 1
    weight_filler {
      type: "xavier"
<<<<<<< HEAD
<<<<<<< HEAD
>>>>>>> BVLC/device-abstraction
=======
<<<<<<< HEAD
=======
<<<<<<< HEAD
<<<<<<< HEAD
=======
      std: 0.03
>>>>>>> origin/BVLC/parallel
=======
>>>>>>> caffe
>>>>>>> pod-caffe-pod.hpp-merge
>>>>>>> pod/device/blob.hpp
=======
>>>>>>> BVLC/device-abstraction
    }
    bias_filler {
      type: "constant"
      value: 0.2
    }
  }
}
<<<<<<< HEAD
<<<<<<< HEAD
<<<<<<< HEAD
<<<<<<< HEAD
<<<<<<< HEAD
<<<<<<< HEAD
<<<<<<< HEAD
<<<<<<< HEAD
<<<<<<< HEAD
<<<<<<< HEAD
<<<<<<< HEAD
<<<<<<< HEAD
<<<<<<< HEAD
=======
<<<<<<< HEAD
<<<<<<< HEAD
<<<<<<< HEAD
<<<<<<< HEAD
=======
>>>>>>> caffe
>>>>>>> pod-caffe-pod.hpp-merge
=======
<<<<<<< HEAD
=======
>>>>>>> caffe
>>>>>>> pod-caffe-pod.hpp-merge
=======
>>>>>>> caffe
>>>>>>> pod/caffe-merge
=======
>>>>>>> caffe
>>>>>>> pod/caffe-merge
=======
=======
<<<<<<< HEAD
<<<<<<< HEAD
=======
>>>>>>> caffe
>>>>>>> pod-caffe-pod.hpp-merge
>>>>>>> pod/device/blob.hpp
=======
>>>>>>> BVLC/device-abstraction
=======
=======
>>>>>>> caffe
>>>>>>> pod-caffe-pod.hpp-merge
=======
=======
>>>>>>> caffe
>>>>>>> pod/caffe-merge
=======
=======
<<<<<<< HEAD
<<<<<<< HEAD
=======
>>>>>>> caffe
>>>>>>> pod-caffe-pod.hpp-merge
>>>>>>> pod/device/blob.hpp
layer {
  name: "inception_3a/relu_5x5"
  type: "ReLU"
  bottom: "inception_3a/5x5"
  top: "inception_3a/5x5"
}
layer {
  name: "inception_3a/pool"
  type: "Pooling"
  bottom: "pool2/3x3_s2"
  top: "inception_3a/pool"
<<<<<<< HEAD
<<<<<<< HEAD
<<<<<<< HEAD
<<<<<<< HEAD
<<<<<<< HEAD
=======
<<<<<<< HEAD
<<<<<<< HEAD
<<<<<<< HEAD
<<<<<<< HEAD
<<<<<<< HEAD
=======
=======
>>>>>>> pod-caffe-pod.hpp-merge
=======
>>>>>>> pod/caffe-merge
=======
>>>>>>> pod/caffe-merge
=======
=======
>>>>>>> pod/device/blob.hpp
=======
=======
>>>>>>> pod-caffe-pod.hpp-merge
=======
=======
>>>>>>> pod/caffe-merge
=======
=======
<<<<<<< HEAD
=======
>>>>>>> pod/device/blob.hpp
layers {
  bottom: "inception_3a/5x5"
  top: "inception_3a/5x5"
  name: "inception_3a/relu_5x5"
  type: RELU
}
layers {
  bottom: "pool2/3x3_s2"
  top: "inception_3a/pool"
  name: "inception_3a/pool"
  type: POOLING
>>>>>>> origin/BVLC/parallel
=======
>>>>>>> caffe
<<<<<<< HEAD
<<<<<<< HEAD
<<<<<<< HEAD
<<<<<<< HEAD
<<<<<<< HEAD
<<<<<<< HEAD
<<<<<<< HEAD
>>>>>>> pod-caffe-pod.hpp-merge
=======
>>>>>>> pod-caffe-pod.hpp-merge
=======
>>>>>>> pod/caffe-merge
=======
>>>>>>> pod/caffe-merge
=======
>>>>>>> pod-caffe-pod.hpp-merge
>>>>>>> pod/device/blob.hpp
=======
>>>>>>> BVLC/device-abstraction
=======
>>>>>>> pod-caffe-pod.hpp-merge
=======
>>>>>>> pod/caffe-merge
=======
>>>>>>> pod-caffe-pod.hpp-merge
>>>>>>> pod/device/blob.hpp
  pooling_param {
    pool: MAX
    kernel_size: 3
    stride: 1
    pad: 1
=======
=======
>>>>>>> caffe
=======
=======
>>>>>>> pod/device/blob.hpp
=======
<<<<<<< HEAD
<<<<<<< HEAD
=======
>>>>>>> caffe
>>>>>>> pod-caffe-pod.hpp-merge
<<<<<<< HEAD
>>>>>>> pod/device/blob.hpp
=======
>>>>>>> pod/device/blob.hpp
=======
>>>>>>> BVLC/device-abstraction
=======
=======
<<<<<<< HEAD
<<<<<<< HEAD
=======
>>>>>>> caffe
>>>>>>> pod-caffe-pod.hpp-merge
>>>>>>> pod/device/blob.hpp
=======
>>>>>>> BVLC/device-abstraction
layer {
  name: "inception_4a/relu_1x1"
  type: "ReLU"
  bottom: "inception_4a/1x1"
  top: "inception_4a/1x1"
}
layer {
  name: "inception_4a/3x3_reduce"
  type: "Convolution"
  bottom: "pool3/3x3_s2"
  top: "inception_4a/3x3_reduce"
  param {
    lr_mult: 1
    decay_mult: 1
  }
  param {
    lr_mult: 2
    decay_mult: 0
  }
<<<<<<< HEAD
<<<<<<< HEAD
<<<<<<< HEAD
<<<<<<< HEAD
=======
<<<<<<< HEAD
=======
<<<<<<< HEAD
<<<<<<< HEAD
=======
>>>>>>> pod/device/blob.hpp
=======
>>>>>>> pod/device/blob.hpp
=======
=======
<<<<<<< HEAD
=======
>>>>>>> pod/device/blob.hpp
layers {
  bottom: "inception_4a/1x1"
  top: "inception_4a/1x1"
  name: "inception_4a/relu_1x1"
  type: RELU
}
layers {
  bottom: "pool3/3x3_s2"
  top: "inception_4a/3x3_reduce"
  name: "inception_4a/3x3_reduce"
  type: CONVOLUTION
  blobs_lr: 1
  blobs_lr: 2
  weight_decay: 1
  weight_decay: 0
>>>>>>> origin/BVLC/parallel
=======
>>>>>>> caffe
<<<<<<< HEAD
<<<<<<< HEAD
<<<<<<< HEAD
=======
>>>>>>> pod-caffe-pod.hpp-merge
>>>>>>> pod/device/blob.hpp
=======
>>>>>>> pod-caffe-pod.hpp-merge
>>>>>>> pod/device/blob.hpp
=======
>>>>>>> BVLC/device-abstraction
=======
>>>>>>> pod-caffe-pod.hpp-merge
>>>>>>> pod/device/blob.hpp
=======
>>>>>>> BVLC/device-abstraction
  convolution_param {
    num_output: 96
    kernel_size: 1
    weight_filler {
      type: "xavier"
<<<<<<< HEAD
<<<<<<< HEAD
<<<<<<< HEAD
<<<<<<< HEAD
<<<<<<< HEAD
<<<<<<< HEAD
=======
=======
<<<<<<< HEAD
>>>>>>> pod/device/blob.hpp
=======
=======
<<<<<<< HEAD
>>>>>>> pod/device/blob.hpp
=======
=======
<<<<<<< HEAD
>>>>>>> pod/device/blob.hpp
<<<<<<< HEAD
=======
      std: 0.09
>>>>>>> origin/BVLC/parallel
=======
>>>>>>> caffe
<<<<<<< HEAD
<<<<<<< HEAD
<<<<<<< HEAD
=======
>>>>>>> pod-caffe-pod.hpp-merge
>>>>>>> pod/device/blob.hpp
=======
>>>>>>> pod-caffe-pod.hpp-merge
>>>>>>> pod/device/blob.hpp
=======
>>>>>>> BVLC/device-abstraction
=======
>>>>>>> pod-caffe-pod.hpp-merge
>>>>>>> pod/device/blob.hpp
=======
>>>>>>> BVLC/device-abstraction
    }
    bias_filler {
      type: "constant"
      value: 0.2
    }
<<<<<<< HEAD
<<<<<<< HEAD
>>>>>>> pod-caffe-pod.hpp-merge
  }
}
<<<<<<< HEAD
<<<<<<< HEAD
<<<<<<< HEAD
<<<<<<< HEAD
<<<<<<< HEAD
<<<<<<< HEAD
<<<<<<< HEAD
<<<<<<< HEAD
<<<<<<< HEAD
<<<<<<< HEAD
=======
<<<<<<< HEAD
<<<<<<< HEAD
<<<<<<< HEAD
<<<<<<< HEAD
=======
>>>>>>> caffe
>>>>>>> pod-caffe-pod.hpp-merge
=======
<<<<<<< HEAD
=======
>>>>>>> caffe
>>>>>>> pod-caffe-pod.hpp-merge
=======
>>>>>>> caffe
>>>>>>> pod/caffe-merge
=======
>>>>>>> caffe
>>>>>>> pod/caffe-merge
=======
=======
>>>>>>> pod/device/blob.hpp
=======
>>>>>>> pod/device/blob.hpp
=======
<<<<<<< HEAD
<<<<<<< HEAD
=======
>>>>>>> caffe
>>>>>>> pod-caffe-pod.hpp-merge
<<<<<<< HEAD
<<<<<<< HEAD
>>>>>>> pod/device/blob.hpp
=======
>>>>>>> BVLC/device-abstraction
=======
=======
>>>>>>> caffe
>>>>>>> pod-caffe-pod.hpp-merge
=======
=======
>>>>>>> caffe
>>>>>>> pod/caffe-merge
=======
=======
=======
=======
>>>>>>> caffe
=======
>>>>>>> pod/device/blob.hpp
=======
>>>>>>> pod/device/blob.hpp
=======
  }
}
<<<<<<< HEAD
>>>>>>> BVLC/device-abstraction
=======
<<<<<<< HEAD
=======
<<<<<<< HEAD
<<<<<<< HEAD
=======
>>>>>>> caffe
>>>>>>> pod-caffe-pod.hpp-merge
>>>>>>> pod/device/blob.hpp
=======
  }
}
>>>>>>> BVLC/device-abstraction
layer {
  name: "inception_4a/relu_3x3_reduce"
  type: "ReLU"
  bottom: "inception_4a/3x3_reduce"
  top: "inception_4a/3x3_reduce"
}
layer {
  name: "inception_4a/3x3"
  type: "Convolution"
  bottom: "inception_4a/3x3_reduce"
  top: "inception_4a/3x3"
  param {
    lr_mult: 1
    decay_mult: 1
  }
  param {
    lr_mult: 2
    decay_mult: 0
  }
<<<<<<< HEAD
<<<<<<< HEAD
<<<<<<< HEAD
<<<<<<< HEAD
=======
<<<<<<< HEAD
=======
<<<<<<< HEAD
<<<<<<< HEAD
=======
>>>>>>> pod/device/blob.hpp
=======
>>>>>>> pod/device/blob.hpp
=======
=======
<<<<<<< HEAD
=======
>>>>>>> pod/device/blob.hpp
layers {
  bottom: "inception_4a/3x3_reduce"
  top: "inception_4a/3x3_reduce"
  name: "inception_4a/relu_3x3_reduce"
  type: RELU
}
layers {
  bottom: "inception_4a/3x3_reduce"
  top: "inception_4a/3x3"
  name: "inception_4a/3x3"
  type: CONVOLUTION
  blobs_lr: 1
  blobs_lr: 2
  weight_decay: 1
  weight_decay: 0
>>>>>>> origin/BVLC/parallel
=======
>>>>>>> caffe
<<<<<<< HEAD
<<<<<<< HEAD
<<<<<<< HEAD
=======
>>>>>>> pod-caffe-pod.hpp-merge
>>>>>>> pod/device/blob.hpp
=======
>>>>>>> pod-caffe-pod.hpp-merge
>>>>>>> pod/device/blob.hpp
=======
>>>>>>> BVLC/device-abstraction
=======
>>>>>>> pod-caffe-pod.hpp-merge
>>>>>>> pod/device/blob.hpp
=======
>>>>>>> BVLC/device-abstraction
  convolution_param {
    num_output: 208
    pad: 1
    kernel_size: 3
    weight_filler {
      type: "xavier"
<<<<<<< HEAD
<<<<<<< HEAD
<<<<<<< HEAD
<<<<<<< HEAD
<<<<<<< HEAD
<<<<<<< HEAD
=======
=======
<<<<<<< HEAD
>>>>>>> pod/device/blob.hpp
=======
=======
<<<<<<< HEAD
>>>>>>> pod/device/blob.hpp
=======
=======
<<<<<<< HEAD
>>>>>>> pod/device/blob.hpp
<<<<<<< HEAD
=======
      std: 0.03
>>>>>>> origin/BVLC/parallel
=======
>>>>>>> caffe
<<<<<<< HEAD
<<<<<<< HEAD
<<<<<<< HEAD
=======
>>>>>>> pod-caffe-pod.hpp-merge
>>>>>>> pod/device/blob.hpp
=======
>>>>>>> pod-caffe-pod.hpp-merge
>>>>>>> pod/device/blob.hpp
=======
>>>>>>> BVLC/device-abstraction
=======
>>>>>>> pod-caffe-pod.hpp-merge
>>>>>>> pod/device/blob.hpp
=======
>>>>>>> BVLC/device-abstraction
    }
    bias_filler {
      type: "constant"
      value: 0.2
    }
  }
}
<<<<<<< HEAD
<<<<<<< HEAD
<<<<<<< HEAD
<<<<<<< HEAD
<<<<<<< HEAD
>>>>>>> pod-caffe-pod.hpp-merge
=======
<<<<<<< HEAD
=======
>>>>>>> pod/device/blob.hpp
=======
=======
>>>>>>> pod/device/blob.hpp
=======
=======
>>>>>>> pod/device/blob.hpp
<<<<<<< HEAD
<<<<<<< HEAD
=======
>>>>>>> caffe
<<<<<<< HEAD
<<<<<<< HEAD
<<<<<<< HEAD
<<<<<<< HEAD
>>>>>>> pod-caffe-pod.hpp-merge
>>>>>>> pod/device/blob.hpp
layer {
  name: "inception_3a/pool_proj"
  type: "Convolution"
  bottom: "inception_3a/pool"
  top: "inception_3a/pool_proj"
=======
=======
>>>>>>> pod-caffe-pod.hpp-merge
>>>>>>> pod/device/blob.hpp
=======
>>>>>>> pod-caffe-pod.hpp-merge
>>>>>>> pod/device/blob.hpp
=======
>>>>>>> BVLC/device-abstraction
=======
>>>>>>> pod-caffe-pod.hpp-merge
>>>>>>> pod/device/blob.hpp
=======
>>>>>>> BVLC/device-abstraction
layer {
  name: "inception_4a/relu_3x3"
  type: "ReLU"
  bottom: "inception_4a/3x3"
  top: "inception_4a/3x3"
}
layer {
  name: "inception_4a/5x5_reduce"
  type: "Convolution"
  bottom: "pool3/3x3_s2"
  top: "inception_4a/5x5_reduce"
<<<<<<< HEAD
<<<<<<< HEAD
>>>>>>> pod-caffe-pod.hpp-merge
=======
>>>>>>> BVLC/device-abstraction
=======
>>>>>>> BVLC/device-abstraction
  param {
    lr_mult: 1
    decay_mult: 1
  }
  param {
    lr_mult: 2
    decay_mult: 0
  }
<<<<<<< HEAD
<<<<<<< HEAD
<<<<<<< HEAD
<<<<<<< HEAD
<<<<<<< HEAD
<<<<<<< HEAD
<<<<<<< HEAD
<<<<<<< HEAD
<<<<<<< HEAD
<<<<<<< HEAD
<<<<<<< HEAD
=======
<<<<<<< HEAD
<<<<<<< HEAD
<<<<<<< HEAD
<<<<<<< HEAD
<<<<<<< HEAD
=======
=======
>>>>>>> pod-caffe-pod.hpp-merge
=======
>>>>>>> pod/caffe-merge
=======
>>>>>>> pod/caffe-merge
=======
=======
>>>>>>> pod/device/blob.hpp
=======
=======
>>>>>>> pod-caffe-pod.hpp-merge
=======
=======
>>>>>>> pod/caffe-merge
=======
=======
<<<<<<< HEAD
=======
>>>>>>> pod/device/blob.hpp
layers {
  bottom: "inception_3a/pool"
  top: "inception_3a/pool_proj"
  name: "inception_3a/pool_proj"
=======
=======
=======
<<<<<<< HEAD
>>>>>>> pod/device/blob.hpp
=======
=======
<<<<<<< HEAD
>>>>>>> pod/device/blob.hpp
=======
=======
<<<<<<< HEAD
>>>>>>> pod/device/blob.hpp
=======
layers {
  bottom: "inception_4a/3x3"
  top: "inception_4a/3x3"
  name: "inception_4a/relu_3x3"
  type: RELU
}
layers {
  bottom: "pool3/3x3_s2"
  top: "inception_4a/5x5_reduce"
  name: "inception_4a/5x5_reduce"
<<<<<<< HEAD
<<<<<<< HEAD
<<<<<<< HEAD
>>>>>>> pod-caffe-pod.hpp-merge
=======
>>>>>>> pod/device/blob.hpp
=======
>>>>>>> pod/device/blob.hpp
=======
>>>>>>> pod/device/blob.hpp
  type: CONVOLUTION
  blobs_lr: 1
  blobs_lr: 2
  weight_decay: 1
  weight_decay: 0
>>>>>>> origin/BVLC/parallel
=======
>>>>>>> caffe
<<<<<<< HEAD
<<<<<<< HEAD
<<<<<<< HEAD
<<<<<<< HEAD
<<<<<<< HEAD
<<<<<<< HEAD
<<<<<<< HEAD
<<<<<<< HEAD
<<<<<<< HEAD
<<<<<<< HEAD
<<<<<<< HEAD
>>>>>>> pod-caffe-pod.hpp-merge
=======
>>>>>>> pod-caffe-pod.hpp-merge
=======
>>>>>>> pod/caffe-merge
=======
>>>>>>> pod/caffe-merge
=======
>>>>>>> pod-caffe-pod.hpp-merge
>>>>>>> pod/device/blob.hpp
=======
>>>>>>> BVLC/device-abstraction
=======
>>>>>>> pod-caffe-pod.hpp-merge
=======
>>>>>>> pod/caffe-merge
=======
>>>>>>> pod-caffe-pod.hpp-merge
>>>>>>> pod/device/blob.hpp
  convolution_param {
    num_output: 32
=======
=======
>>>>>>> pod-caffe-pod.hpp-merge
>>>>>>> pod/device/blob.hpp
=======
>>>>>>> pod-caffe-pod.hpp-merge
>>>>>>> pod/device/blob.hpp
  convolution_param {
    num_output: 16
>>>>>>> pod-caffe-pod.hpp-merge
    kernel_size: 1
    weight_filler {
      type: "xavier"
<<<<<<< HEAD
<<<<<<< HEAD
<<<<<<< HEAD
<<<<<<< HEAD
<<<<<<< HEAD
<<<<<<< HEAD
<<<<<<< HEAD
<<<<<<< HEAD
<<<<<<< HEAD
<<<<<<< HEAD
=======
<<<<<<< HEAD
<<<<<<< HEAD
<<<<<<< HEAD
=======
>>>>>>> pod-caffe-pod.hpp-merge
<<<<<<< HEAD
=======
=======
>>>>>>> pod/caffe-merge
=======
>>>>>>> pod/caffe-merge
=======
=======
<<<<<<< HEAD
<<<<<<< HEAD
=======
>>>>>>> pod/device/blob.hpp
=======
=======
>>>>>>> pod-caffe-pod.hpp-merge
=======
=======
>>>>>>> pod/caffe-merge
=======
=======
<<<<<<< HEAD
<<<<<<< HEAD
=======
>>>>>>> pod/device/blob.hpp
      std: 0.1
>>>>>>> origin/BVLC/parallel
=======
>>>>>>> caffe
<<<<<<< HEAD
<<<<<<< HEAD
<<<<<<< HEAD
<<<<<<< HEAD
<<<<<<< HEAD
<<<<<<< HEAD
<<<<<<< HEAD
>>>>>>> pod-caffe-pod.hpp-merge
=======
>>>>>>> pod-caffe-pod.hpp-merge
=======
>>>>>>> pod/caffe-merge
=======
>>>>>>> pod/caffe-merge
=======
>>>>>>> pod-caffe-pod.hpp-merge
>>>>>>> pod/device/blob.hpp
=======
>>>>>>> BVLC/device-abstraction
=======
>>>>>>> pod-caffe-pod.hpp-merge
=======
>>>>>>> pod/caffe-merge
=======
>>>>>>> pod-caffe-pod.hpp-merge
>>>>>>> pod/device/blob.hpp
=======
=======
=======
<<<<<<< HEAD
<<<<<<< HEAD
>>>>>>> pod/device/blob.hpp
=======
=======
<<<<<<< HEAD
<<<<<<< HEAD
>>>>>>> pod/device/blob.hpp
=======
      std: 0.2
>>>>>>> origin/BVLC/parallel
=======
>>>>>>> caffe
<<<<<<< HEAD
<<<<<<< HEAD
=======
>>>>>>> pod-caffe-pod.hpp-merge
>>>>>>> pod/device/blob.hpp
=======
>>>>>>> pod-caffe-pod.hpp-merge
>>>>>>> pod/device/blob.hpp
=======
=======
>>>>>>> pod-caffe-pod.hpp-merge
>>>>>>> pod/device/blob.hpp
=======
>>>>>>> BVLC/device-abstraction
  convolution_param {
    num_output: 16
    kernel_size: 1
    weight_filler {
      type: "xavier"
<<<<<<< HEAD
<<<<<<< HEAD
>>>>>>> BVLC/device-abstraction
=======
<<<<<<< HEAD
=======
<<<<<<< HEAD
<<<<<<< HEAD
=======
      std: 0.2
>>>>>>> origin/BVLC/parallel
=======
>>>>>>> caffe
>>>>>>> pod-caffe-pod.hpp-merge
>>>>>>> pod/device/blob.hpp
=======
>>>>>>> BVLC/device-abstraction
    }
    bias_filler {
      type: "constant"
      value: 0.2
    }
  }
}
<<<<<<< HEAD
<<<<<<< HEAD
<<<<<<< HEAD
<<<<<<< HEAD
<<<<<<< HEAD
<<<<<<< HEAD
<<<<<<< HEAD
=======
>>>>>>> caffe
=======
=======
>>>>>>> pod/device/blob.hpp
=======
>>>>>>> pod/device/blob.hpp
=======
<<<<<<< HEAD
<<<<<<< HEAD
=======
>>>>>>> caffe
>>>>>>> pod-caffe-pod.hpp-merge
<<<<<<< HEAD
<<<<<<< HEAD
>>>>>>> pod/device/blob.hpp
=======
>>>>>>> pod/device/blob.hpp
=======
>>>>>>> BVLC/device-abstraction
=======
>>>>>>> pod/device/blob.hpp
=======
>>>>>>> BVLC/device-abstraction
layer {
  name: "inception_4a/relu_5x5_reduce"
  type: "ReLU"
  bottom: "inception_4a/5x5_reduce"
  top: "inception_4a/5x5_reduce"
}
layer {
  name: "inception_4a/5x5"
  type: "Convolution"
  bottom: "inception_4a/5x5_reduce"
  top: "inception_4a/5x5"
  param {
    lr_mult: 1
    decay_mult: 1
  }
  param {
    lr_mult: 2
    decay_mult: 0
  }
<<<<<<< HEAD
<<<<<<< HEAD
<<<<<<< HEAD
<<<<<<< HEAD
=======
<<<<<<< HEAD
=======
<<<<<<< HEAD
<<<<<<< HEAD
=======
>>>>>>> pod/device/blob.hpp
=======
>>>>>>> pod/device/blob.hpp
=======
=======
<<<<<<< HEAD
=======
>>>>>>> pod/device/blob.hpp
layers {
  bottom: "inception_4a/5x5_reduce"
  top: "inception_4a/5x5_reduce"
  name: "inception_4a/relu_5x5_reduce"
  type: RELU
}
layers {
  bottom: "inception_4a/5x5_reduce"
  top: "inception_4a/5x5"
  name: "inception_4a/5x5"
  type: CONVOLUTION
  blobs_lr: 1
  blobs_lr: 2
  weight_decay: 1
  weight_decay: 0
>>>>>>> origin/BVLC/parallel
=======
>>>>>>> caffe
<<<<<<< HEAD
<<<<<<< HEAD
<<<<<<< HEAD
=======
>>>>>>> pod-caffe-pod.hpp-merge
>>>>>>> pod/device/blob.hpp
=======
>>>>>>> pod-caffe-pod.hpp-merge
>>>>>>> pod/device/blob.hpp
=======
>>>>>>> BVLC/device-abstraction
=======
>>>>>>> pod-caffe-pod.hpp-merge
>>>>>>> pod/device/blob.hpp
=======
>>>>>>> BVLC/device-abstraction
  convolution_param {
    num_output: 48
    pad: 2
    kernel_size: 5
    weight_filler {
      type: "xavier"
<<<<<<< HEAD
<<<<<<< HEAD
<<<<<<< HEAD
<<<<<<< HEAD
<<<<<<< HEAD
<<<<<<< HEAD
=======
=======
<<<<<<< HEAD
>>>>>>> pod/device/blob.hpp
=======
=======
<<<<<<< HEAD
>>>>>>> pod/device/blob.hpp
=======
=======
<<<<<<< HEAD
>>>>>>> pod/device/blob.hpp
<<<<<<< HEAD
=======
      std: 0.03
>>>>>>> origin/BVLC/parallel
=======
>>>>>>> caffe
>>>>>>> pod-caffe-pod.hpp-merge
<<<<<<< HEAD
=======
>>>>>>> BVLC/device-abstraction
=======
>>>>>>> pod/device/blob.hpp
=======
>>>>>>> BVLC/device-abstraction
    }
    bias_filler {
      type: "constant"
      value: 0.2
    }
  }
}
<<<<<<< HEAD
<<<<<<< HEAD
<<<<<<< HEAD
<<<<<<< HEAD
<<<<<<< HEAD
<<<<<<< HEAD
<<<<<<< HEAD
<<<<<<< HEAD
<<<<<<< HEAD
<<<<<<< HEAD
<<<<<<< HEAD
<<<<<<< HEAD
<<<<<<< HEAD
=======
<<<<<<< HEAD
<<<<<<< HEAD
<<<<<<< HEAD
<<<<<<< HEAD
=======
>>>>>>> caffe
>>>>>>> pod-caffe-pod.hpp-merge
=======
<<<<<<< HEAD
=======
>>>>>>> caffe
>>>>>>> pod-caffe-pod.hpp-merge
=======
>>>>>>> caffe
>>>>>>> pod/caffe-merge
=======
>>>>>>> caffe
>>>>>>> pod/caffe-merge
=======
=======
=======
=======
>>>>>>> caffe
=======
=======
>>>>>>> pod/device/blob.hpp
=======
<<<<<<< HEAD
<<<<<<< HEAD
=======
>>>>>>> caffe
>>>>>>> pod-caffe-pod.hpp-merge
<<<<<<< HEAD
>>>>>>> pod/device/blob.hpp
=======
>>>>>>> pod/device/blob.hpp
=======
>>>>>>> BVLC/device-abstraction
=======
=======
<<<<<<< HEAD
<<<<<<< HEAD
=======
>>>>>>> caffe
>>>>>>> pod-caffe-pod.hpp-merge
>>>>>>> pod/device/blob.hpp
=======
>>>>>>> BVLC/device-abstraction
layer {
  name: "inception_4a/relu_5x5"
  type: "ReLU"
  bottom: "inception_4a/5x5"
  top: "inception_4a/5x5"
}
layer {
  name: "inception_4a/pool"
  type: "Pooling"
  bottom: "pool3/3x3_s2"
  top: "inception_4a/pool"
<<<<<<< HEAD
<<<<<<< HEAD
<<<<<<< HEAD
<<<<<<< HEAD
=======
<<<<<<< HEAD
=======
<<<<<<< HEAD
<<<<<<< HEAD
=======
>>>>>>> pod/device/blob.hpp
=======
>>>>>>> pod/device/blob.hpp
=======
=======
<<<<<<< HEAD
=======
>>>>>>> pod/device/blob.hpp
layers {
  bottom: "inception_4a/5x5"
  top: "inception_4a/5x5"
  name: "inception_4a/relu_5x5"
  type: RELU
}
layers {
  bottom: "pool3/3x3_s2"
  top: "inception_4a/pool"
  name: "inception_4a/pool"
  type: POOLING
>>>>>>> origin/BVLC/parallel
=======
>>>>>>> caffe
<<<<<<< HEAD
<<<<<<< HEAD
<<<<<<< HEAD
=======
>>>>>>> pod-caffe-pod.hpp-merge
>>>>>>> pod/device/blob.hpp
=======
>>>>>>> pod-caffe-pod.hpp-merge
>>>>>>> pod/device/blob.hpp
=======
>>>>>>> BVLC/device-abstraction
=======
>>>>>>> pod-caffe-pod.hpp-merge
>>>>>>> pod/device/blob.hpp
=======
>>>>>>> BVLC/device-abstraction
  pooling_param {
    pool: MAX
    kernel_size: 3
    stride: 1
    pad: 1
  }
}
<<<<<<< HEAD
<<<<<<< HEAD
<<<<<<< HEAD
<<<<<<< HEAD
<<<<<<< HEAD
>>>>>>> pod-caffe-pod.hpp-merge
<<<<<<< HEAD
<<<<<<< HEAD
=======
>>>>>>> caffe
<<<<<<< HEAD
>>>>>>> pod-caffe-pod.hpp-merge
>>>>>>> pod/device/blob.hpp
=======
>>>>>>> BVLC/device-abstraction
=======
=======
>>>>>>> caffe
>>>>>>> pod-caffe-pod.hpp-merge
=======
=======
>>>>>>> caffe
>>>>>>> pod/caffe-merge
=======
=======
=======
=======
<<<<<<< HEAD
=======
>>>>>>> pod/device/blob.hpp
=======
>>>>>>> pod/device/blob.hpp
=======
<<<<<<< HEAD
<<<<<<< HEAD
=======
>>>>>>> caffe
>>>>>>> pod-caffe-pod.hpp-merge
<<<<<<< HEAD
<<<<<<< HEAD
>>>>>>> pod/device/blob.hpp
=======
>>>>>>> pod/device/blob.hpp
=======
>>>>>>> BVLC/device-abstraction
=======
>>>>>>> pod/device/blob.hpp
=======
>>>>>>> BVLC/device-abstraction
layer {
  name: "inception_4a/pool_proj"
  type: "Convolution"
  bottom: "inception_4a/pool"
  top: "inception_4a/pool_proj"
  param {
    lr_mult: 1
    decay_mult: 1
  }
  param {
    lr_mult: 2
    decay_mult: 0
  }
<<<<<<< HEAD
<<<<<<< HEAD
<<<<<<< HEAD
<<<<<<< HEAD
=======
<<<<<<< HEAD
=======
<<<<<<< HEAD
<<<<<<< HEAD
=======
>>>>>>> pod/device/blob.hpp
=======
>>>>>>> pod/device/blob.hpp
=======
=======
<<<<<<< HEAD
=======
>>>>>>> pod/device/blob.hpp
layers {
  bottom: "inception_4a/pool"
  top: "inception_4a/pool_proj"
  name: "inception_4a/pool_proj"
  type: CONVOLUTION
  blobs_lr: 1
  blobs_lr: 2
  weight_decay: 1
  weight_decay: 0
>>>>>>> origin/BVLC/parallel
=======
>>>>>>> caffe
<<<<<<< HEAD
<<<<<<< HEAD
<<<<<<< HEAD
=======
>>>>>>> pod-caffe-pod.hpp-merge
>>>>>>> pod/device/blob.hpp
=======
>>>>>>> pod-caffe-pod.hpp-merge
>>>>>>> pod/device/blob.hpp
=======
>>>>>>> BVLC/device-abstraction
=======
>>>>>>> pod-caffe-pod.hpp-merge
>>>>>>> pod/device/blob.hpp
=======
>>>>>>> BVLC/device-abstraction
  convolution_param {
    num_output: 64
    kernel_size: 1
    weight_filler {
      type: "xavier"
<<<<<<< HEAD
<<<<<<< HEAD
<<<<<<< HEAD
<<<<<<< HEAD
<<<<<<< HEAD
<<<<<<< HEAD
=======
=======
<<<<<<< HEAD
>>>>>>> pod/device/blob.hpp
=======
=======
<<<<<<< HEAD
>>>>>>> pod/device/blob.hpp
=======
=======
<<<<<<< HEAD
>>>>>>> pod/device/blob.hpp
<<<<<<< HEAD
=======
      std: 0.1
>>>>>>> origin/BVLC/parallel
=======
>>>>>>> caffe
<<<<<<< HEAD
<<<<<<< HEAD
<<<<<<< HEAD
=======
>>>>>>> pod-caffe-pod.hpp-merge
>>>>>>> pod/device/blob.hpp
=======
>>>>>>> pod-caffe-pod.hpp-merge
>>>>>>> pod/device/blob.hpp
=======
>>>>>>> BVLC/device-abstraction
=======
>>>>>>> pod-caffe-pod.hpp-merge
>>>>>>> pod/device/blob.hpp
=======
>>>>>>> BVLC/device-abstraction
    }
    bias_filler {
      type: "constant"
      value: 0.2
    }
  }
}
<<<<<<< HEAD
<<<<<<< HEAD
<<<<<<< HEAD
<<<<<<< HEAD
<<<<<<< HEAD
>>>>>>> pod-caffe-pod.hpp-merge
<<<<<<< HEAD
<<<<<<< HEAD
=======
>>>>>>> caffe
<<<<<<< HEAD
>>>>>>> pod-caffe-pod.hpp-merge
>>>>>>> pod/device/blob.hpp
layer {
  name: "inception_3a/relu_pool_proj"
  type: "ReLU"
  bottom: "inception_3a/pool_proj"
  top: "inception_3a/pool_proj"
}
layer {
  name: "inception_3a/output"
  type: "Concat"
<<<<<<< HEAD
<<<<<<< HEAD
<<<<<<< HEAD
<<<<<<< HEAD
=======
>>>>>>> pod/device/blob.hpp
<<<<<<< HEAD
=======
<<<<<<< HEAD
<<<<<<< HEAD
<<<<<<< HEAD
<<<<<<< HEAD
<<<<<<< HEAD
<<<<<<< HEAD
=======
=======
>>>>>>> pod-caffe-pod.hpp-merge
=======
>>>>>>> pod/caffe-merge
=======
>>>>>>> pod/caffe-merge
=======
=======
>>>>>>> pod/device/blob.hpp
=======
=======
>>>>>>> pod-caffe-pod.hpp-merge
=======
=======
>>>>>>> pod/caffe-merge
=======
=======
<<<<<<< HEAD
=======
>>>>>>> pod/device/blob.hpp
layers {
  bottom: "inception_3a/pool_proj"
  top: "inception_3a/pool_proj"
  name: "inception_3a/relu_pool_proj"
  type: RELU
}
layers {
>>>>>>> origin/BVLC/parallel
=======
>>>>>>> caffe
<<<<<<< HEAD
<<<<<<< HEAD
<<<<<<< HEAD
<<<<<<< HEAD
<<<<<<< HEAD
<<<<<<< HEAD
<<<<<<< HEAD
>>>>>>> pod-caffe-pod.hpp-merge
=======
>>>>>>> pod-caffe-pod.hpp-merge
=======
>>>>>>> pod/caffe-merge
=======
>>>>>>> pod/caffe-merge
=======
>>>>>>> pod-caffe-pod.hpp-merge
>>>>>>> pod/device/blob.hpp
=======
>>>>>>> BVLC/device-abstraction
=======
>>>>>>> pod-caffe-pod.hpp-merge
=======
>>>>>>> pod/caffe-merge
=======
>>>>>>> pod-caffe-pod.hpp-merge
>>>>>>> pod/device/blob.hpp
  bottom: "inception_3a/1x1"
  bottom: "inception_3a/3x3"
  bottom: "inception_3a/5x5"
  bottom: "inception_3a/pool_proj"
  top: "inception_3a/output"
<<<<<<< HEAD
<<<<<<< HEAD
<<<<<<< HEAD
<<<<<<< HEAD
<<<<<<< HEAD
<<<<<<< HEAD
<<<<<<< HEAD
=======
<<<<<<< HEAD
<<<<<<< HEAD
<<<<<<< HEAD
<<<<<<< HEAD
=======
>>>>>>> caffe
>>>>>>> pod-caffe-pod.hpp-merge
=======
<<<<<<< HEAD
=======
>>>>>>> caffe
>>>>>>> pod-caffe-pod.hpp-merge
=======
>>>>>>> caffe
>>>>>>> pod/caffe-merge
=======
>>>>>>> caffe
>>>>>>> pod/caffe-merge
=======
=======
>>>>>>> pod/device/blob.hpp
=======
<<<<<<< HEAD
<<<<<<< HEAD
=======
>>>>>>> caffe
>>>>>>> pod-caffe-pod.hpp-merge
<<<<<<< HEAD
>>>>>>> pod/device/blob.hpp
=======
>>>>>>> BVLC/device-abstraction
=======
=======
>>>>>>> caffe
>>>>>>> pod-caffe-pod.hpp-merge
=======
=======
>>>>>>> caffe
>>>>>>> pod/caffe-merge
=======
=======
=======
=======
=======
>>>>>>> caffe
>>>>>>> pod-caffe-pod.hpp-merge
>>>>>>> pod/device/blob.hpp
=======
=======
<<<<<<< HEAD
<<<<<<< HEAD
=======
>>>>>>> caffe
>>>>>>> pod-caffe-pod.hpp-merge
>>>>>>> pod/device/blob.hpp
=======
>>>>>>> BVLC/device-abstraction
=======
>>>>>>> pod/device/blob.hpp
=======
>>>>>>> BVLC/device-abstraction
layer {
  name: "inception_4a/relu_pool_proj"
  type: "ReLU"
  bottom: "inception_4a/pool_proj"
  top: "inception_4a/pool_proj"
}
layer {
  name: "inception_4a/output"
  type: "Concat"
<<<<<<< HEAD
<<<<<<< HEAD
<<<<<<< HEAD
<<<<<<< HEAD
=======
<<<<<<< HEAD
=======
<<<<<<< HEAD
<<<<<<< HEAD
=======
>>>>>>> pod/device/blob.hpp
=======
>>>>>>> pod/device/blob.hpp
=======
=======
<<<<<<< HEAD
=======
>>>>>>> pod/device/blob.hpp
layers {
  bottom: "inception_4a/pool_proj"
  top: "inception_4a/pool_proj"
  name: "inception_4a/relu_pool_proj"
  type: RELU
}
layers {
>>>>>>> origin/BVLC/parallel
=======
>>>>>>> caffe
<<<<<<< HEAD
<<<<<<< HEAD
<<<<<<< HEAD
=======
>>>>>>> pod-caffe-pod.hpp-merge
>>>>>>> pod/device/blob.hpp
=======
>>>>>>> pod-caffe-pod.hpp-merge
>>>>>>> pod/device/blob.hpp
=======
>>>>>>> BVLC/device-abstraction
=======
>>>>>>> pod-caffe-pod.hpp-merge
>>>>>>> pod/device/blob.hpp
=======
>>>>>>> BVLC/device-abstraction
  bottom: "inception_4a/1x1"
  bottom: "inception_4a/3x3"
  bottom: "inception_4a/5x5"
  bottom: "inception_4a/pool_proj"
  top: "inception_4a/output"
<<<<<<< HEAD
<<<<<<< HEAD
<<<<<<< HEAD
<<<<<<< HEAD
<<<<<<< HEAD
<<<<<<< HEAD
<<<<<<< HEAD
=======
>>>>>>> caffe
=======
=======
>>>>>>> pod/device/blob.hpp
=======
>>>>>>> pod/device/blob.hpp
=======
<<<<<<< HEAD
<<<<<<< HEAD
=======
>>>>>>> caffe
>>>>>>> pod-caffe-pod.hpp-merge
<<<<<<< HEAD
<<<<<<< HEAD
>>>>>>> pod/device/blob.hpp
=======
>>>>>>> pod/device/blob.hpp
=======
>>>>>>> BVLC/device-abstraction
=======
>>>>>>> pod/device/blob.hpp
=======
>>>>>>> BVLC/device-abstraction
}
layer {
  name: "loss1/ave_pool"
  type: "Pooling"
  bottom: "inception_4a/output"
  top: "loss1/ave_pool"
<<<<<<< HEAD
<<<<<<< HEAD
<<<<<<< HEAD
<<<<<<< HEAD
=======
<<<<<<< HEAD
=======
<<<<<<< HEAD
<<<<<<< HEAD
=======
>>>>>>> pod/device/blob.hpp
=======
>>>>>>> pod/device/blob.hpp
=======
=======
<<<<<<< HEAD
=======
>>>>>>> pod/device/blob.hpp
  name: "inception_4a/output"
  type: CONCAT
}
layers {
  bottom: "inception_4a/output"
  top: "loss1/ave_pool"
  name: "loss1/ave_pool"
  type: POOLING
>>>>>>> origin/BVLC/parallel
=======
>>>>>>> caffe
<<<<<<< HEAD
<<<<<<< HEAD
<<<<<<< HEAD
=======
>>>>>>> pod-caffe-pod.hpp-merge
>>>>>>> pod/device/blob.hpp
=======
>>>>>>> pod-caffe-pod.hpp-merge
>>>>>>> pod/device/blob.hpp
=======
>>>>>>> BVLC/device-abstraction
=======
>>>>>>> pod-caffe-pod.hpp-merge
>>>>>>> pod/device/blob.hpp
=======
>>>>>>> BVLC/device-abstraction
  pooling_param {
    pool: AVE
    kernel_size: 5
    stride: 3
  }
}
<<<<<<< HEAD
<<<<<<< HEAD
<<<<<<< HEAD
<<<<<<< HEAD
<<<<<<< HEAD
>>>>>>> pod-caffe-pod.hpp-merge
=======
<<<<<<< HEAD
=======
>>>>>>> pod/device/blob.hpp
=======
=======
>>>>>>> pod/device/blob.hpp
=======
=======
>>>>>>> pod/device/blob.hpp
<<<<<<< HEAD
<<<<<<< HEAD
=======
>>>>>>> caffe
<<<<<<< HEAD
<<<<<<< HEAD
<<<<<<< HEAD
<<<<<<< HEAD
>>>>>>> pod-caffe-pod.hpp-merge
>>>>>>> pod/device/blob.hpp
}
layer {
  name: "inception_3b/1x1"
  type: "Convolution"
  bottom: "inception_3a/output"
  top: "inception_3b/1x1"
=======
=======
>>>>>>> pod-caffe-pod.hpp-merge
>>>>>>> pod/device/blob.hpp
=======
>>>>>>> pod-caffe-pod.hpp-merge
>>>>>>> pod/device/blob.hpp
=======
>>>>>>> BVLC/device-abstraction
=======
>>>>>>> pod-caffe-pod.hpp-merge
>>>>>>> pod/device/blob.hpp
=======
>>>>>>> BVLC/device-abstraction
layer {
  name: "loss1/conv"
  type: "Convolution"
  bottom: "loss1/ave_pool"
  top: "loss1/conv"
<<<<<<< HEAD
<<<<<<< HEAD
>>>>>>> pod-caffe-pod.hpp-merge
=======
>>>>>>> BVLC/device-abstraction
=======
>>>>>>> BVLC/device-abstraction
  param {
    lr_mult: 1
    decay_mult: 1
  }
  param {
    lr_mult: 2
    decay_mult: 0
  }
<<<<<<< HEAD
<<<<<<< HEAD
<<<<<<< HEAD
<<<<<<< HEAD
<<<<<<< HEAD
<<<<<<< HEAD
<<<<<<< HEAD
<<<<<<< HEAD
<<<<<<< HEAD
<<<<<<< HEAD
<<<<<<< HEAD
=======
<<<<<<< HEAD
<<<<<<< HEAD
<<<<<<< HEAD
<<<<<<< HEAD
<<<<<<< HEAD
=======
=======
>>>>>>> pod-caffe-pod.hpp-merge
=======
>>>>>>> pod/caffe-merge
=======
>>>>>>> pod/caffe-merge
=======
=======
>>>>>>> pod/device/blob.hpp
=======
=======
>>>>>>> pod-caffe-pod.hpp-merge
=======
=======
>>>>>>> pod/caffe-merge
=======
=======
<<<<<<< HEAD
=======
>>>>>>> pod/device/blob.hpp
  name: "inception_3a/output"
  type: CONCAT
}
layers {
  bottom: "inception_3a/output"
  top: "inception_3b/1x1"
  name: "inception_3b/1x1"
=======
=======
=======
<<<<<<< HEAD
>>>>>>> pod/device/blob.hpp
=======
=======
<<<<<<< HEAD
>>>>>>> pod/device/blob.hpp
=======
=======
=======
<<<<<<< HEAD
=======
>>>>>>> pod/device/blob.hpp
layers {
  bottom: "loss1/ave_pool"
  top: "loss1/conv"
  name: "loss1/conv"
<<<<<<< HEAD
<<<<<<< HEAD
<<<<<<< HEAD
>>>>>>> pod-caffe-pod.hpp-merge
=======
>>>>>>> pod/device/blob.hpp
=======
>>>>>>> pod/device/blob.hpp
=======
>>>>>>> pod/device/blob.hpp
  type: CONVOLUTION
  blobs_lr: 1
  blobs_lr: 2
  weight_decay: 1
  weight_decay: 0
>>>>>>> origin/BVLC/parallel
=======
>>>>>>> caffe
<<<<<<< HEAD
<<<<<<< HEAD
<<<<<<< HEAD
<<<<<<< HEAD
<<<<<<< HEAD
<<<<<<< HEAD
<<<<<<< HEAD
<<<<<<< HEAD
<<<<<<< HEAD
<<<<<<< HEAD
<<<<<<< HEAD
>>>>>>> pod-caffe-pod.hpp-merge
=======
>>>>>>> pod-caffe-pod.hpp-merge
=======
>>>>>>> pod/caffe-merge
=======
>>>>>>> pod/caffe-merge
=======
>>>>>>> pod-caffe-pod.hpp-merge
>>>>>>> pod/device/blob.hpp
=======
>>>>>>> BVLC/device-abstraction
=======
>>>>>>> pod-caffe-pod.hpp-merge
=======
>>>>>>> pod/caffe-merge
=======
>>>>>>> pod-caffe-pod.hpp-merge
>>>>>>> pod/device/blob.hpp
=======
=======
>>>>>>> pod/device/blob.hpp
=======
>>>>>>> pod/device/blob.hpp
>>>>>>> pod-caffe-pod.hpp-merge
=======
>>>>>>> BVLC/device-abstraction
=======
>>>>>>> pod-caffe-pod.hpp-merge
>>>>>>> pod/device/blob.hpp
=======
>>>>>>> BVLC/device-abstraction
  convolution_param {
    num_output: 128
    kernel_size: 1
    weight_filler {
      type: "xavier"
<<<<<<< HEAD
<<<<<<< HEAD
<<<<<<< HEAD
<<<<<<< HEAD
<<<<<<< HEAD
<<<<<<< HEAD
<<<<<<< HEAD
<<<<<<< HEAD
<<<<<<< HEAD
<<<<<<< HEAD
<<<<<<< HEAD
<<<<<<< HEAD
<<<<<<< HEAD
=======
<<<<<<< HEAD
<<<<<<< HEAD
<<<<<<< HEAD
=======
>>>>>>> pod-caffe-pod.hpp-merge
<<<<<<< HEAD
=======
=======
>>>>>>> pod/caffe-merge
=======
>>>>>>> pod/caffe-merge
=======
=======
<<<<<<< HEAD
<<<<<<< HEAD
=======
>>>>>>> pod/device/blob.hpp
=======
=======
>>>>>>> pod-caffe-pod.hpp-merge
=======
=======
>>>>>>> pod/caffe-merge
=======
=======
<<<<<<< HEAD
<<<<<<< HEAD
=======
>>>>>>> pod/device/blob.hpp
      std: 0.03
>>>>>>> origin/BVLC/parallel
=======
>>>>>>> caffe
<<<<<<< HEAD
<<<<<<< HEAD
<<<<<<< HEAD
<<<<<<< HEAD
<<<<<<< HEAD
<<<<<<< HEAD
<<<<<<< HEAD
>>>>>>> pod-caffe-pod.hpp-merge
=======
>>>>>>> pod-caffe-pod.hpp-merge
=======
>>>>>>> pod/caffe-merge
=======
>>>>>>> pod/caffe-merge
=======
>>>>>>> pod-caffe-pod.hpp-merge
>>>>>>> pod/device/blob.hpp
=======
>>>>>>> BVLC/device-abstraction
=======
>>>>>>> pod-caffe-pod.hpp-merge
=======
>>>>>>> pod/caffe-merge
=======
>>>>>>> pod-caffe-pod.hpp-merge
>>>>>>> pod/device/blob.hpp
=======
=======
=======
<<<<<<< HEAD
<<<<<<< HEAD
>>>>>>> pod/device/blob.hpp
=======
=======
<<<<<<< HEAD
<<<<<<< HEAD
>>>>>>> pod/device/blob.hpp
=======
=======
<<<<<<< HEAD
<<<<<<< HEAD
>>>>>>> pod/device/blob.hpp
=======
      std: 0.08
>>>>>>> origin/BVLC/parallel
=======
>>>>>>> caffe
>>>>>>> pod-caffe-pod.hpp-merge
<<<<<<< HEAD
=======
>>>>>>> BVLC/device-abstraction
=======
>>>>>>> pod/device/blob.hpp
=======
>>>>>>> BVLC/device-abstraction
    }
    bias_filler {
      type: "constant"
      value: 0.2
    }
  }
}
<<<<<<< HEAD
<<<<<<< HEAD
<<<<<<< HEAD
<<<<<<< HEAD
<<<<<<< HEAD
<<<<<<< HEAD
<<<<<<< HEAD
<<<<<<< HEAD
<<<<<<< HEAD
<<<<<<< HEAD
<<<<<<< HEAD
<<<<<<< HEAD
<<<<<<< HEAD
=======
<<<<<<< HEAD
<<<<<<< HEAD
<<<<<<< HEAD
<<<<<<< HEAD
=======
>>>>>>> caffe
>>>>>>> pod-caffe-pod.hpp-merge
=======
<<<<<<< HEAD
=======
>>>>>>> caffe
>>>>>>> pod-caffe-pod.hpp-merge
=======
>>>>>>> caffe
>>>>>>> pod/caffe-merge
=======
>>>>>>> caffe
>>>>>>> pod/caffe-merge
=======
=======
<<<<<<< HEAD
<<<<<<< HEAD
=======
>>>>>>> caffe
>>>>>>> pod-caffe-pod.hpp-merge
>>>>>>> pod/device/blob.hpp
=======
>>>>>>> BVLC/device-abstraction
=======
=======
>>>>>>> caffe
>>>>>>> pod-caffe-pod.hpp-merge
=======
=======
>>>>>>> caffe
>>>>>>> pod/caffe-merge
=======
=======
<<<<<<< HEAD
<<<<<<< HEAD
=======
>>>>>>> caffe
>>>>>>> pod-caffe-pod.hpp-merge
>>>>>>> pod/device/blob.hpp
layer {
  name: "inception_3b/relu_1x1"
  type: "ReLU"
  bottom: "inception_3b/1x1"
  top: "inception_3b/1x1"
}
layer {
  name: "inception_3b/3x3_reduce"
  type: "Convolution"
  bottom: "inception_3a/output"
  top: "inception_3b/3x3_reduce"
=======
=======
>>>>>>> caffe
=======
=======
>>>>>>> pod/device/blob.hpp
=======
<<<<<<< HEAD
<<<<<<< HEAD
=======
>>>>>>> caffe
>>>>>>> pod-caffe-pod.hpp-merge
<<<<<<< HEAD
>>>>>>> pod/device/blob.hpp
=======
>>>>>>> pod/device/blob.hpp
=======
>>>>>>> BVLC/device-abstraction
=======
=======
<<<<<<< HEAD
<<<<<<< HEAD
=======
>>>>>>> caffe
>>>>>>> pod-caffe-pod.hpp-merge
>>>>>>> pod/device/blob.hpp
=======
>>>>>>> BVLC/device-abstraction
layer {
  name: "loss1/relu_conv"
  type: "ReLU"
  bottom: "loss1/conv"
  top: "loss1/conv"
}
layer {
  name: "loss1/fc"
  type: "InnerProduct"
  bottom: "loss1/conv"
  top: "loss1/fc"
<<<<<<< HEAD
<<<<<<< HEAD
>>>>>>> pod-caffe-pod.hpp-merge
=======
>>>>>>> BVLC/device-abstraction
=======
>>>>>>> BVLC/device-abstraction
  param {
    lr_mult: 1
    decay_mult: 1
  }
  param {
    lr_mult: 2
    decay_mult: 0
  }
<<<<<<< HEAD
<<<<<<< HEAD
<<<<<<< HEAD
<<<<<<< HEAD
<<<<<<< HEAD
<<<<<<< HEAD
<<<<<<< HEAD
<<<<<<< HEAD
<<<<<<< HEAD
<<<<<<< HEAD
<<<<<<< HEAD
=======
<<<<<<< HEAD
<<<<<<< HEAD
<<<<<<< HEAD
<<<<<<< HEAD
<<<<<<< HEAD
=======
=======
>>>>>>> pod-caffe-pod.hpp-merge
=======
>>>>>>> pod/caffe-merge
=======
>>>>>>> pod/caffe-merge
=======
=======
>>>>>>> pod/device/blob.hpp
=======
=======
>>>>>>> pod-caffe-pod.hpp-merge
=======
=======
>>>>>>> pod/caffe-merge
=======
=======
<<<<<<< HEAD
=======
>>>>>>> pod/device/blob.hpp
layers {
  bottom: "inception_3b/1x1"
  top: "inception_3b/1x1"
  name: "inception_3b/relu_1x1"
  type: RELU
}
layers {
  bottom: "inception_3a/output"
  top: "inception_3b/3x3_reduce"
  name: "inception_3b/3x3_reduce"
  type: CONVOLUTION
=======
=======
=======
<<<<<<< HEAD
>>>>>>> pod/device/blob.hpp
=======
=======
<<<<<<< HEAD
>>>>>>> pod/device/blob.hpp
=======
=======
<<<<<<< HEAD
>>>>>>> pod/device/blob.hpp
=======
layers {
  bottom: "loss1/conv"
  top: "loss1/conv"
  name: "loss1/relu_conv"
  type: RELU
}
layers {
  bottom: "loss1/conv"
  top: "loss1/fc"
  name: "loss1/fc"
  type: INNER_PRODUCT
<<<<<<< HEAD
<<<<<<< HEAD
<<<<<<< HEAD
>>>>>>> pod-caffe-pod.hpp-merge
=======
>>>>>>> pod/device/blob.hpp
=======
>>>>>>> pod/device/blob.hpp
=======
>>>>>>> pod/device/blob.hpp
  blobs_lr: 1
  blobs_lr: 2
  weight_decay: 1
  weight_decay: 0
>>>>>>> origin/BVLC/parallel
=======
>>>>>>> caffe
<<<<<<< HEAD
<<<<<<< HEAD
<<<<<<< HEAD
<<<<<<< HEAD
<<<<<<< HEAD
<<<<<<< HEAD
<<<<<<< HEAD
<<<<<<< HEAD
<<<<<<< HEAD
<<<<<<< HEAD
<<<<<<< HEAD
>>>>>>> pod-caffe-pod.hpp-merge
=======
>>>>>>> pod-caffe-pod.hpp-merge
=======
>>>>>>> pod/caffe-merge
=======
>>>>>>> pod/caffe-merge
=======
>>>>>>> pod-caffe-pod.hpp-merge
>>>>>>> pod/device/blob.hpp
=======
>>>>>>> BVLC/device-abstraction
=======
>>>>>>> pod-caffe-pod.hpp-merge
=======
>>>>>>> pod/caffe-merge
=======
>>>>>>> pod-caffe-pod.hpp-merge
>>>>>>> pod/device/blob.hpp
  convolution_param {
    num_output: 128
    kernel_size: 1
=======
  inner_product_param {
    num_output: 1024
>>>>>>> pod-caffe-pod.hpp-merge
    weight_filler {
      type: "xavier"
<<<<<<< HEAD
<<<<<<< HEAD
<<<<<<< HEAD
<<<<<<< HEAD
<<<<<<< HEAD
<<<<<<< HEAD
<<<<<<< HEAD
<<<<<<< HEAD
=======
<<<<<<< HEAD
<<<<<<< HEAD
<<<<<<< HEAD
=======
>>>>>>> pod-caffe-pod.hpp-merge
<<<<<<< HEAD
=======
=======
>>>>>>> pod/caffe-merge
=======
>>>>>>> pod/caffe-merge
=======
=======
<<<<<<< HEAD
<<<<<<< HEAD
=======
>>>>>>> pod/device/blob.hpp
=======
=======
>>>>>>> pod-caffe-pod.hpp-merge
=======
=======
>>>>>>> pod/caffe-merge
=======
=======
<<<<<<< HEAD
<<<<<<< HEAD
=======
>>>>>>> pod/device/blob.hpp
      std: 0.09
>>>>>>> origin/BVLC/parallel
=======
>>>>>>> caffe
<<<<<<< HEAD
<<<<<<< HEAD
<<<<<<< HEAD
<<<<<<< HEAD
<<<<<<< HEAD
<<<<<<< HEAD
<<<<<<< HEAD
>>>>>>> pod-caffe-pod.hpp-merge
=======
>>>>>>> pod-caffe-pod.hpp-merge
=======
>>>>>>> pod/caffe-merge
=======
>>>>>>> pod/caffe-merge
=======
>>>>>>> pod-caffe-pod.hpp-merge
>>>>>>> pod/device/blob.hpp
=======
>>>>>>> BVLC/device-abstraction
=======
>>>>>>> pod-caffe-pod.hpp-merge
=======
>>>>>>> pod/caffe-merge
=======
>>>>>>> pod-caffe-pod.hpp-merge
>>>>>>> pod/device/blob.hpp
=======
=======
=======
>>>>>>> pod/device/blob.hpp
>>>>>>> pod-caffe-pod.hpp-merge
=======
>>>>>>> BVLC/device-abstraction
=======
>>>>>>> pod-caffe-pod.hpp-merge
>>>>>>> pod/device/blob.hpp
=======
>>>>>>> BVLC/device-abstraction
  inner_product_param {
    num_output: 1024
    weight_filler {
      type: "xavier"
<<<<<<< HEAD
<<<<<<< HEAD
<<<<<<< HEAD
<<<<<<< HEAD
=======
<<<<<<< HEAD
<<<<<<< HEAD
<<<<<<< HEAD
>>>>>>> pod/device/blob.hpp
=======
>>>>>>> pod/device/blob.hpp
=======
=======
<<<<<<< HEAD
<<<<<<< HEAD
>>>>>>> pod/device/blob.hpp
=======
      std: 0.02
>>>>>>> origin/BVLC/parallel
=======
>>>>>>> caffe
>>>>>>> pod-caffe-pod.hpp-merge
<<<<<<< HEAD
=======
>>>>>>> BVLC/device-abstraction
=======
>>>>>>> pod/device/blob.hpp
=======
>>>>>>> BVLC/device-abstraction
    }
    bias_filler {
      type: "constant"
      value: 0.2
    }
  }
}
<<<<<<< HEAD
<<<<<<< HEAD
<<<<<<< HEAD
<<<<<<< HEAD
<<<<<<< HEAD
<<<<<<< HEAD
<<<<<<< HEAD
<<<<<<< HEAD
<<<<<<< HEAD
<<<<<<< HEAD
<<<<<<< HEAD
<<<<<<< HEAD
<<<<<<< HEAD
=======
<<<<<<< HEAD
<<<<<<< HEAD
<<<<<<< HEAD
<<<<<<< HEAD
=======
>>>>>>> caffe
>>>>>>> pod-caffe-pod.hpp-merge
=======
<<<<<<< HEAD
=======
>>>>>>> caffe
>>>>>>> pod-caffe-pod.hpp-merge
=======
>>>>>>> caffe
>>>>>>> pod/caffe-merge
=======
>>>>>>> caffe
>>>>>>> pod/caffe-merge
=======
=======
>>>>>>> pod/device/blob.hpp
=======
>>>>>>> pod/device/blob.hpp
=======
>>>>>>> pod/device/blob.hpp
=======
<<<<<<< HEAD
<<<<<<< HEAD
=======
>>>>>>> caffe
>>>>>>> pod-caffe-pod.hpp-merge
<<<<<<< HEAD
<<<<<<< HEAD
<<<<<<< HEAD
>>>>>>> pod/device/blob.hpp
=======
>>>>>>> BVLC/device-abstraction
=======
=======
>>>>>>> caffe
>>>>>>> pod-caffe-pod.hpp-merge
=======
=======
>>>>>>> caffe
>>>>>>> pod/caffe-merge
=======
=======
=======
=======
>>>>>>> caffe
=======
>>>>>>> pod/device/blob.hpp
=======
>>>>>>> pod/device/blob.hpp
=======
>>>>>>> BVLC/device-abstraction
=======
>>>>>>> pod/device/blob.hpp
=======
>>>>>>> BVLC/device-abstraction
layer {
  name: "loss1/relu_fc"
  type: "ReLU"
  bottom: "loss1/fc"
  top: "loss1/fc"
}
layer {
  name: "loss1/drop_fc"
  type: "Dropout"
  bottom: "loss1/fc"
  top: "loss1/fc"
<<<<<<< HEAD
<<<<<<< HEAD
<<<<<<< HEAD
<<<<<<< HEAD
=======
<<<<<<< HEAD
=======
<<<<<<< HEAD
<<<<<<< HEAD
=======
>>>>>>> pod/device/blob.hpp
=======
>>>>>>> pod/device/blob.hpp
=======
=======
<<<<<<< HEAD
=======
>>>>>>> pod/device/blob.hpp
layers {
  bottom: "loss1/fc"
  top: "loss1/fc"
  name: "loss1/relu_fc"
  type: RELU
}
layers {
  bottom: "loss1/fc"
  top: "loss1/fc"
  name: "loss1/drop_fc"
  type: DROPOUT
>>>>>>> origin/BVLC/parallel
=======
>>>>>>> caffe
<<<<<<< HEAD
<<<<<<< HEAD
<<<<<<< HEAD
=======
>>>>>>> pod-caffe-pod.hpp-merge
>>>>>>> pod/device/blob.hpp
=======
>>>>>>> pod-caffe-pod.hpp-merge
>>>>>>> pod/device/blob.hpp
=======
>>>>>>> BVLC/device-abstraction
=======
>>>>>>> pod-caffe-pod.hpp-merge
>>>>>>> pod/device/blob.hpp
=======
>>>>>>> BVLC/device-abstraction
  dropout_param {
    dropout_ratio: 0.7
  }
}
<<<<<<< HEAD
<<<<<<< HEAD
<<<<<<< HEAD
<<<<<<< HEAD
<<<<<<< HEAD
>>>>>>> pod-caffe-pod.hpp-merge
=======
<<<<<<< HEAD
=======
>>>>>>> pod/device/blob.hpp
=======
=======
>>>>>>> pod/device/blob.hpp
=======
=======
>>>>>>> pod/device/blob.hpp
<<<<<<< HEAD
<<<<<<< HEAD
=======
>>>>>>> caffe
<<<<<<< HEAD
<<<<<<< HEAD
<<<<<<< HEAD
<<<<<<< HEAD
>>>>>>> pod-caffe-pod.hpp-merge
>>>>>>> pod/device/blob.hpp
layer {
  name: "inception_3b/relu_3x3_reduce"
  type: "ReLU"
  bottom: "inception_3b/3x3_reduce"
  top: "inception_3b/3x3_reduce"
}
layer {
  name: "inception_3b/3x3"
  type: "Convolution"
  bottom: "inception_3b/3x3_reduce"
  top: "inception_3b/3x3"
=======
=======
>>>>>>> pod-caffe-pod.hpp-merge
>>>>>>> pod/device/blob.hpp
=======
>>>>>>> pod-caffe-pod.hpp-merge
>>>>>>> pod/device/blob.hpp
=======
>>>>>>> BVLC/device-abstraction
=======
>>>>>>> pod-caffe-pod.hpp-merge
>>>>>>> pod/device/blob.hpp
=======
>>>>>>> BVLC/device-abstraction
layer {
  name: "loss1/classifier"
  type: "InnerProduct"
  bottom: "loss1/fc"
  top: "loss1/classifier"
<<<<<<< HEAD
<<<<<<< HEAD
>>>>>>> pod-caffe-pod.hpp-merge
=======
>>>>>>> BVLC/device-abstraction
=======
>>>>>>> BVLC/device-abstraction
  param {
    lr_mult: 1
    decay_mult: 1
  }
  param {
    lr_mult: 2
    decay_mult: 0
  }
<<<<<<< HEAD
<<<<<<< HEAD
<<<<<<< HEAD
<<<<<<< HEAD
<<<<<<< HEAD
<<<<<<< HEAD
<<<<<<< HEAD
<<<<<<< HEAD
<<<<<<< HEAD
<<<<<<< HEAD
<<<<<<< HEAD
=======
<<<<<<< HEAD
<<<<<<< HEAD
<<<<<<< HEAD
<<<<<<< HEAD
<<<<<<< HEAD
=======
=======
>>>>>>> pod-caffe-pod.hpp-merge
=======
>>>>>>> pod/caffe-merge
=======
>>>>>>> pod/caffe-merge
=======
=======
>>>>>>> pod/device/blob.hpp
=======
=======
>>>>>>> pod-caffe-pod.hpp-merge
=======
=======
>>>>>>> pod/caffe-merge
=======
=======
<<<<<<< HEAD
=======
>>>>>>> pod/device/blob.hpp
layers {
  bottom: "inception_3b/3x3_reduce"
  top: "inception_3b/3x3_reduce"
  name: "inception_3b/relu_3x3_reduce"
  type: RELU
}
layers {
  bottom: "inception_3b/3x3_reduce"
  top: "inception_3b/3x3"
  name: "inception_3b/3x3"
  type: CONVOLUTION
=======
=======
=======
<<<<<<< HEAD
>>>>>>> pod/device/blob.hpp
=======
=======
=======
<<<<<<< HEAD
=======
>>>>>>> pod/device/blob.hpp
=======
=======
<<<<<<< HEAD
=======
>>>>>>> pod/device/blob.hpp
layers {
  bottom: "loss1/fc"
  top: "loss1/classifier"
  name: "loss1/classifier"
  type: INNER_PRODUCT
<<<<<<< HEAD
<<<<<<< HEAD
<<<<<<< HEAD
>>>>>>> pod-caffe-pod.hpp-merge
=======
>>>>>>> pod/device/blob.hpp
=======
>>>>>>> pod/device/blob.hpp
=======
>>>>>>> pod/device/blob.hpp
  blobs_lr: 1
  blobs_lr: 2
  weight_decay: 1
  weight_decay: 0
>>>>>>> origin/BVLC/parallel
=======
>>>>>>> caffe
<<<<<<< HEAD
<<<<<<< HEAD
<<<<<<< HEAD
<<<<<<< HEAD
<<<<<<< HEAD
<<<<<<< HEAD
<<<<<<< HEAD
<<<<<<< HEAD
<<<<<<< HEAD
<<<<<<< HEAD
<<<<<<< HEAD
>>>>>>> pod-caffe-pod.hpp-merge
=======
>>>>>>> pod-caffe-pod.hpp-merge
=======
>>>>>>> pod/caffe-merge
=======
>>>>>>> pod/caffe-merge
=======
>>>>>>> pod-caffe-pod.hpp-merge
>>>>>>> pod/device/blob.hpp
=======
>>>>>>> BVLC/device-abstraction
=======
>>>>>>> pod-caffe-pod.hpp-merge
=======
>>>>>>> pod/caffe-merge
=======
>>>>>>> pod-caffe-pod.hpp-merge
>>>>>>> pod/device/blob.hpp
  convolution_param {
    num_output: 192
    pad: 1
    kernel_size: 3
=======
=======
>>>>>>> pod-caffe-pod.hpp-merge
>>>>>>> pod/device/blob.hpp
=======
>>>>>>> pod-caffe-pod.hpp-merge
>>>>>>> pod/device/blob.hpp
  inner_product_param {
    num_output: 1000
>>>>>>> pod-caffe-pod.hpp-merge
    weight_filler {
      type: "xavier"
<<<<<<< HEAD
<<<<<<< HEAD
<<<<<<< HEAD
<<<<<<< HEAD
<<<<<<< HEAD
<<<<<<< HEAD
<<<<<<< HEAD
<<<<<<< HEAD
<<<<<<< HEAD
<<<<<<< HEAD
=======
<<<<<<< HEAD
<<<<<<< HEAD
<<<<<<< HEAD
=======
>>>>>>> pod-caffe-pod.hpp-merge
<<<<<<< HEAD
=======
=======
>>>>>>> pod/caffe-merge
=======
>>>>>>> pod/caffe-merge
=======
=======
>>>>>>> pod/device/blob.hpp
=======
<<<<<<< HEAD
<<<<<<< HEAD
=======
<<<<<<< HEAD
>>>>>>> pod/device/blob.hpp
=======
=======
>>>>>>> pod-caffe-pod.hpp-merge
=======
=======
>>>>>>> pod/caffe-merge
=======
=======
<<<<<<< HEAD
<<<<<<< HEAD
=======
>>>>>>> pod/device/blob.hpp
      std: 0.03
>>>>>>> origin/BVLC/parallel
=======
>>>>>>> caffe
<<<<<<< HEAD
<<<<<<< HEAD
<<<<<<< HEAD
<<<<<<< HEAD
<<<<<<< HEAD
<<<<<<< HEAD
<<<<<<< HEAD
>>>>>>> pod-caffe-pod.hpp-merge
=======
>>>>>>> pod-caffe-pod.hpp-merge
=======
>>>>>>> pod/caffe-merge
=======
>>>>>>> pod/caffe-merge
=======
>>>>>>> pod-caffe-pod.hpp-merge
>>>>>>> pod/device/blob.hpp
=======
>>>>>>> BVLC/device-abstraction
=======
>>>>>>> pod-caffe-pod.hpp-merge
=======
>>>>>>> pod/caffe-merge
=======
>>>>>>> pod-caffe-pod.hpp-merge
>>>>>>> pod/device/blob.hpp
    }
    bias_filler {
      type: "constant"
      value: 0.2
    }
  }
}
<<<<<<< HEAD
<<<<<<< HEAD
<<<<<<< HEAD
<<<<<<< HEAD
<<<<<<< HEAD
<<<<<<< HEAD
<<<<<<< HEAD
=======
<<<<<<< HEAD
<<<<<<< HEAD
<<<<<<< HEAD
<<<<<<< HEAD
=======
>>>>>>> caffe
>>>>>>> pod-caffe-pod.hpp-merge
=======
<<<<<<< HEAD
=======
>>>>>>> caffe
>>>>>>> pod-caffe-pod.hpp-merge
=======
>>>>>>> caffe
>>>>>>> pod/caffe-merge
=======
>>>>>>> caffe
>>>>>>> pod/caffe-merge
=======
=======
<<<<<<< HEAD
<<<<<<< HEAD
=======
>>>>>>> caffe
>>>>>>> pod-caffe-pod.hpp-merge
>>>>>>> pod/device/blob.hpp
=======
>>>>>>> BVLC/device-abstraction
=======
=======
>>>>>>> caffe
>>>>>>> pod-caffe-pod.hpp-merge
=======
=======
>>>>>>> caffe
>>>>>>> pod/caffe-merge
=======
=======
=======
=======
=======
<<<<<<< HEAD
<<<<<<< HEAD
>>>>>>> pod/device/blob.hpp
=======
=======
>>>>>>> pod/device/blob.hpp
      std: 0.0009765625
>>>>>>> origin/BVLC/parallel
=======
>>>>>>> caffe
<<<<<<< HEAD
<<<<<<< HEAD
=======
>>>>>>> pod-caffe-pod.hpp-merge
>>>>>>> pod/device/blob.hpp
=======
>>>>>>> pod-caffe-pod.hpp-merge
>>>>>>> pod/device/blob.hpp
=======
=======
>>>>>>> pod-caffe-pod.hpp-merge
>>>>>>> pod/device/blob.hpp
=======
>>>>>>> BVLC/device-abstraction
  inner_product_param {
    num_output: 1000
    weight_filler {
      type: "xavier"
<<<<<<< HEAD
<<<<<<< HEAD
>>>>>>> BVLC/device-abstraction
=======
<<<<<<< HEAD
=======
<<<<<<< HEAD
<<<<<<< HEAD
=======
      std: 0.0009765625
>>>>>>> origin/BVLC/parallel
=======
>>>>>>> caffe
>>>>>>> pod-caffe-pod.hpp-merge
>>>>>>> pod/device/blob.hpp
=======
>>>>>>> BVLC/device-abstraction
    }
    bias_filler {
      type: "constant"
      value: 0
    }
  }
}
<<<<<<< HEAD
<<<<<<< HEAD
<<<<<<< HEAD
<<<<<<< HEAD
<<<<<<< HEAD
<<<<<<< HEAD
<<<<<<< HEAD
=======
>>>>>>> caffe
=======
=======
>>>>>>> pod/device/blob.hpp
=======
>>>>>>> pod/device/blob.hpp
=======
<<<<<<< HEAD
<<<<<<< HEAD
=======
>>>>>>> caffe
>>>>>>> pod-caffe-pod.hpp-merge
<<<<<<< HEAD
<<<<<<< HEAD
>>>>>>> pod/device/blob.hpp
=======
>>>>>>> pod/device/blob.hpp
=======
>>>>>>> BVLC/device-abstraction
=======
>>>>>>> pod/device/blob.hpp
=======
>>>>>>> BVLC/device-abstraction
layer {
  name: "loss1/loss"
  type: "SoftmaxWithLoss"
  bottom: "loss1/classifier"
  bottom: "label"
  top: "loss1/loss1"
  loss_weight: 0.3
}
layer {
  name: "loss1/top-1"
  type: "Accuracy"
  bottom: "loss1/classifier"
  bottom: "label"
  top: "loss1/top-1"
<<<<<<< HEAD
<<<<<<< HEAD
<<<<<<< HEAD
<<<<<<< HEAD
=======
<<<<<<< HEAD
=======
<<<<<<< HEAD
<<<<<<< HEAD
=======
>>>>>>> pod/device/blob.hpp
=======
>>>>>>> pod/device/blob.hpp
=======
=======
<<<<<<< HEAD
=======
>>>>>>> pod/device/blob.hpp
layers {
  bottom: "loss1/classifier"
  bottom: "label"
  top: "loss1/loss1"
  name: "loss1/loss"
  type: SOFTMAX_LOSS
  loss_weight: 0.3
}
layers {
  bottom: "loss1/classifier"
  bottom: "label"
  top: "loss1/top-1"
  name: "loss1/top-1"
  type: ACCURACY
>>>>>>> origin/BVLC/parallel
=======
>>>>>>> caffe
<<<<<<< HEAD
<<<<<<< HEAD
<<<<<<< HEAD
=======
>>>>>>> pod-caffe-pod.hpp-merge
>>>>>>> pod/device/blob.hpp
=======
>>>>>>> pod-caffe-pod.hpp-merge
>>>>>>> pod/device/blob.hpp
=======
>>>>>>> BVLC/device-abstraction
=======
>>>>>>> pod-caffe-pod.hpp-merge
>>>>>>> pod/device/blob.hpp
=======
>>>>>>> BVLC/device-abstraction
  include {
    phase: TEST
  }
}
<<<<<<< HEAD
<<<<<<< HEAD
<<<<<<< HEAD
<<<<<<< HEAD
<<<<<<< HEAD
>>>>>>> pod-caffe-pod.hpp-merge
=======
<<<<<<< HEAD
=======
>>>>>>> pod/device/blob.hpp
=======
=======
>>>>>>> pod/device/blob.hpp
=======
=======
>>>>>>> pod/device/blob.hpp
<<<<<<< HEAD
<<<<<<< HEAD
=======
>>>>>>> caffe
<<<<<<< HEAD
<<<<<<< HEAD
<<<<<<< HEAD
<<<<<<< HEAD
>>>>>>> pod-caffe-pod.hpp-merge
>>>>>>> pod/device/blob.hpp
layer {
  name: "inception_3b/relu_3x3"
  type: "ReLU"
  bottom: "inception_3b/3x3"
  top: "inception_3b/3x3"
}
layer {
  name: "inception_3b/5x5_reduce"
  type: "Convolution"
  bottom: "inception_3a/output"
  top: "inception_3b/5x5_reduce"
=======
=======
>>>>>>> pod-caffe-pod.hpp-merge
>>>>>>> pod/device/blob.hpp
=======
>>>>>>> pod-caffe-pod.hpp-merge
>>>>>>> pod/device/blob.hpp
=======
>>>>>>> BVLC/device-abstraction
=======
>>>>>>> pod-caffe-pod.hpp-merge
>>>>>>> pod/device/blob.hpp
=======
>>>>>>> BVLC/device-abstraction
layer {
  name: "loss1/top-5"
  type: "Accuracy"
  bottom: "loss1/classifier"
  bottom: "label"
  top: "loss1/top-5"
  include {
    phase: TEST
  }
  accuracy_param {
    top_k: 5
  }
}
layer {
  name: "inception_4b/1x1"
  type: "Convolution"
  bottom: "inception_4a/output"
  top: "inception_4b/1x1"
<<<<<<< HEAD
<<<<<<< HEAD
>>>>>>> pod-caffe-pod.hpp-merge
=======
>>>>>>> BVLC/device-abstraction
=======
>>>>>>> BVLC/device-abstraction
  param {
    lr_mult: 1
    decay_mult: 1
  }
  param {
    lr_mult: 2
    decay_mult: 0
  }
<<<<<<< HEAD
<<<<<<< HEAD
<<<<<<< HEAD
<<<<<<< HEAD
<<<<<<< HEAD
<<<<<<< HEAD
<<<<<<< HEAD
<<<<<<< HEAD
<<<<<<< HEAD
<<<<<<< HEAD
<<<<<<< HEAD
=======
<<<<<<< HEAD
<<<<<<< HEAD
<<<<<<< HEAD
<<<<<<< HEAD
<<<<<<< HEAD
=======
=======
>>>>>>> pod-caffe-pod.hpp-merge
=======
>>>>>>> pod/caffe-merge
=======
>>>>>>> pod/caffe-merge
=======
=======
>>>>>>> pod/device/blob.hpp
=======
=======
>>>>>>> pod-caffe-pod.hpp-merge
=======
=======
>>>>>>> pod/caffe-merge
=======
=======
<<<<<<< HEAD
=======
>>>>>>> pod/device/blob.hpp
layers {
  bottom: "inception_3b/3x3"
  top: "inception_3b/3x3"
  name: "inception_3b/relu_3x3"
  type: RELU
}
layers {
  bottom: "inception_3a/output"
  top: "inception_3b/5x5_reduce"
  name: "inception_3b/5x5_reduce"
=======
=======
=======
=======
<<<<<<< HEAD
=======
>>>>>>> pod/device/blob.hpp
=======
=======
<<<<<<< HEAD
=======
>>>>>>> pod/device/blob.hpp
=======
=======
<<<<<<< HEAD
=======
>>>>>>> pod/device/blob.hpp
layers {
  bottom: "loss1/classifier"
  bottom: "label"
  top: "loss1/top-5"
  name: "loss1/top-5"
  type: ACCURACY
  accuracy_param {
    top_k: 5
  }
  include {
    phase: TEST
  }
}
layers {
  bottom: "inception_4a/output"
  top: "inception_4b/1x1"
  name: "inception_4b/1x1"
<<<<<<< HEAD
<<<<<<< HEAD
<<<<<<< HEAD
>>>>>>> pod-caffe-pod.hpp-merge
=======
>>>>>>> pod/device/blob.hpp
=======
>>>>>>> pod/device/blob.hpp
=======
>>>>>>> pod/device/blob.hpp
  type: CONVOLUTION
  blobs_lr: 1
  blobs_lr: 2
  weight_decay: 1
  weight_decay: 0
>>>>>>> origin/BVLC/parallel
=======
>>>>>>> caffe
<<<<<<< HEAD
<<<<<<< HEAD
<<<<<<< HEAD
<<<<<<< HEAD
<<<<<<< HEAD
<<<<<<< HEAD
<<<<<<< HEAD
<<<<<<< HEAD
<<<<<<< HEAD
<<<<<<< HEAD
<<<<<<< HEAD
>>>>>>> pod-caffe-pod.hpp-merge
=======
>>>>>>> pod-caffe-pod.hpp-merge
=======
>>>>>>> pod/caffe-merge
=======
>>>>>>> pod/caffe-merge
=======
>>>>>>> pod-caffe-pod.hpp-merge
>>>>>>> pod/device/blob.hpp
=======
>>>>>>> BVLC/device-abstraction
=======
>>>>>>> pod-caffe-pod.hpp-merge
=======
>>>>>>> pod/caffe-merge
=======
>>>>>>> pod-caffe-pod.hpp-merge
>>>>>>> pod/device/blob.hpp
  convolution_param {
    num_output: 32
=======
=======
>>>>>>> pod-caffe-pod.hpp-merge
>>>>>>> pod/device/blob.hpp
=======
>>>>>>> pod-caffe-pod.hpp-merge
>>>>>>> pod/device/blob.hpp
  convolution_param {
    num_output: 160
>>>>>>> pod-caffe-pod.hpp-merge
    kernel_size: 1
    weight_filler {
      type: "xavier"
<<<<<<< HEAD
<<<<<<< HEAD
<<<<<<< HEAD
<<<<<<< HEAD
<<<<<<< HEAD
<<<<<<< HEAD
<<<<<<< HEAD
<<<<<<< HEAD
<<<<<<< HEAD
<<<<<<< HEAD
=======
<<<<<<< HEAD
<<<<<<< HEAD
<<<<<<< HEAD
=======
>>>>>>> pod-caffe-pod.hpp-merge
<<<<<<< HEAD
=======
=======
>>>>>>> pod/caffe-merge
=======
>>>>>>> pod/caffe-merge
=======
=======
<<<<<<< HEAD
<<<<<<< HEAD
=======
>>>>>>> pod/device/blob.hpp
=======
=======
>>>>>>> pod-caffe-pod.hpp-merge
=======
=======
>>>>>>> pod/caffe-merge
=======
=======
<<<<<<< HEAD
<<<<<<< HEAD
=======
>>>>>>> pod/device/blob.hpp
      std: 0.2
>>>>>>> origin/BVLC/parallel
=======
>>>>>>> caffe
<<<<<<< HEAD
<<<<<<< HEAD
<<<<<<< HEAD
<<<<<<< HEAD
<<<<<<< HEAD
<<<<<<< HEAD
<<<<<<< HEAD
>>>>>>> pod-caffe-pod.hpp-merge
=======
>>>>>>> pod-caffe-pod.hpp-merge
=======
>>>>>>> pod/caffe-merge
=======
>>>>>>> pod/caffe-merge
=======
>>>>>>> pod-caffe-pod.hpp-merge
>>>>>>> pod/device/blob.hpp
=======
>>>>>>> BVLC/device-abstraction
=======
>>>>>>> pod-caffe-pod.hpp-merge
=======
>>>>>>> pod/caffe-merge
=======
>>>>>>> pod-caffe-pod.hpp-merge
>>>>>>> pod/device/blob.hpp
=======
=======
=======
<<<<<<< HEAD
<<<<<<< HEAD
>>>>>>> pod/device/blob.hpp
=======
=======
<<<<<<< HEAD
<<<<<<< HEAD
>>>>>>> pod/device/blob.hpp
=======
      std: 0.03
>>>>>>> origin/BVLC/parallel
=======
>>>>>>> caffe
>>>>>>> pod-caffe-pod.hpp-merge
=======
=======
>>>>>>> pod-caffe-pod.hpp-merge
>>>>>>> pod/device/blob.hpp
  convolution_param {
    num_output: 160
    kernel_size: 1
    weight_filler {
      type: "xavier"
<<<<<<< HEAD
>>>>>>> BVLC/device-abstraction
=======
<<<<<<< HEAD
=======
<<<<<<< HEAD
<<<<<<< HEAD
=======
      std: 0.03
>>>>>>> origin/BVLC/parallel
=======
>>>>>>> caffe
>>>>>>> pod-caffe-pod.hpp-merge
>>>>>>> pod/device/blob.hpp
=======
  convolution_param {
    num_output: 160
    kernel_size: 1
    weight_filler {
      type: "xavier"
>>>>>>> BVLC/device-abstraction
    }
    bias_filler {
      type: "constant"
      value: 0.2
    }
  }
}
<<<<<<< HEAD
<<<<<<< HEAD
<<<<<<< HEAD
<<<<<<< HEAD
<<<<<<< HEAD
<<<<<<< HEAD
<<<<<<< HEAD
<<<<<<< HEAD
<<<<<<< HEAD
<<<<<<< HEAD
…
=======
>>>>>>> BVLC/device-abstraction
=======
>>>>>>> pod-caffe-pod.hpp-merge
=======
>>>>>>> pod/caffe-merge
=======
>>>>>>> pod-caffe-pod.hpp-merge
>>>>>>> pod/device/blob.hpp
=======
=======
>>>>>>> pod/device/blob.hpp
=======
>>>>>>> pod/device/blob.hpp
>>>>>>> pod-caffe-pod.hpp-merge
=======
>>>>>>> BVLC/device-abstraction
=======
>>>>>>> pod-caffe-pod.hpp-merge
>>>>>>> pod/device/blob.hpp
=======
>>>>>>> BVLC/device-abstraction
    }
    bias_filler {
      type: "constant"
      value: 0.2
    }
  }
}
<<<<<<< HEAD
<<<<<<< HEAD
<<<<<<< HEAD
<<<<<<< HEAD
<<<<<<< HEAD
<<<<<<< HEAD
<<<<<<< HEAD
<<<<<<< HEAD
<<<<<<< HEAD
<<<<<<< HEAD
<<<<<<< HEAD
<<<<<<< HEAD
<<<<<<< HEAD
=======
<<<<<<< HEAD
<<<<<<< HEAD
<<<<<<< HEAD
<<<<<<< HEAD
=======
>>>>>>> caffe
>>>>>>> pod-caffe-pod.hpp-merge
=======
<<<<<<< HEAD
=======
>>>>>>> caffe
>>>>>>> pod-caffe-pod.hpp-merge
=======
>>>>>>> caffe
>>>>>>> pod/caffe-merge
=======
>>>>>>> caffe
>>>>>>> pod/caffe-merge
=======
=======
<<<<<<< HEAD
<<<<<<< HEAD
=======
>>>>>>> caffe
>>>>>>> pod-caffe-pod.hpp-merge
>>>>>>> pod/device/blob.hpp
=======
>>>>>>> BVLC/device-abstraction
=======
=======
>>>>>>> caffe
>>>>>>> pod-caffe-pod.hpp-merge
=======
=======
>>>>>>> caffe
>>>>>>> pod/caffe-merge
=======
=======
>>>>>>> pod/device/blob.hpp
=======
>>>>>>> pod/device/blob.hpp
=======
>>>>>>> pod/device/blob.hpp
=======
<<<<<<< HEAD
<<<<<<< HEAD
=======
>>>>>>> caffe
>>>>>>> pod-caffe-pod.hpp-merge
<<<<<<< HEAD
<<<<<<< HEAD
<<<<<<< HEAD
>>>>>>> pod/device/blob.hpp
layer {
  name: "inception_5b/relu_5x5"
  type: "ReLU"
  bottom: "inception_5b/5x5"
  top: "inception_5b/5x5"
}
layer {
  name: "inception_5b/pool"
  type: "Pooling"
  bottom: "inception_5a/output"
  top: "inception_5b/pool"
<<<<<<< HEAD
<<<<<<< HEAD
<<<<<<< HEAD
<<<<<<< HEAD
<<<<<<< HEAD
=======
<<<<<<< HEAD
<<<<<<< HEAD
<<<<<<< HEAD
<<<<<<< HEAD
<<<<<<< HEAD
=======
=======
>>>>>>> pod-caffe-pod.hpp-merge
=======
>>>>>>> pod/caffe-merge
=======
>>>>>>> pod/caffe-merge
=======
=======
>>>>>>> pod/device/blob.hpp
=======
=======
>>>>>>> pod-caffe-pod.hpp-merge
=======
=======
>>>>>>> pod/caffe-merge
=======
=======
<<<<<<< HEAD
=======
>>>>>>> pod/device/blob.hpp
layers {
  bottom: "inception_5b/5x5"
  top: "inception_5b/5x5"
  name: "inception_5b/relu_5x5"
  type: RELU
}
layers {
  bottom: "inception_5a/output"
  top: "inception_5b/pool"
  name: "inception_5b/pool"
=======
=======
>>>>>>> caffe
=======
>>>>>>> pod/device/blob.hpp
=======
>>>>>>> pod/device/blob.hpp
=======
>>>>>>> BVLC/device-abstraction
=======
>>>>>>> pod/device/blob.hpp
=======
>>>>>>> BVLC/device-abstraction
layer {
  name: "inception_5a/relu_5x5"
  type: "ReLU"
  bottom: "inception_5a/5x5"
  top: "inception_5a/5x5"
}
layer {
  name: "inception_5a/pool"
  type: "Pooling"
  bottom: "pool4/3x3_s2"
  top: "inception_5a/pool"
<<<<<<< HEAD
<<<<<<< HEAD
<<<<<<< HEAD
<<<<<<< HEAD
=======
<<<<<<< HEAD
=======
<<<<<<< HEAD
<<<<<<< HEAD
=======
>>>>>>> pod/device/blob.hpp
=======
>>>>>>> pod/device/blob.hpp
=======
=======
<<<<<<< HEAD
=======
>>>>>>> pod/device/blob.hpp
layers {
  bottom: "inception_5a/5x5"
  top: "inception_5a/5x5"
  name: "inception_5a/relu_5x5"
  type: RELU
}
layers {
  bottom: "pool4/3x3_s2"
  top: "inception_5a/pool"
  name: "inception_5a/pool"
<<<<<<< HEAD
<<<<<<< HEAD
<<<<<<< HEAD
>>>>>>> pod-caffe-pod.hpp-merge
=======
>>>>>>> pod/device/blob.hpp
=======
>>>>>>> pod/device/blob.hpp
=======
>>>>>>> pod/device/blob.hpp
  type: POOLING
>>>>>>> origin/BVLC/parallel
=======
>>>>>>> caffe
<<<<<<< HEAD
<<<<<<< HEAD
<<<<<<< HEAD
<<<<<<< HEAD
<<<<<<< HEAD
<<<<<<< HEAD
<<<<<<< HEAD
<<<<<<< HEAD
<<<<<<< HEAD
<<<<<<< HEAD
<<<<<<< HEAD
>>>>>>> pod-caffe-pod.hpp-merge
=======
>>>>>>> pod-caffe-pod.hpp-merge
=======
>>>>>>> pod/caffe-merge
=======
>>>>>>> pod/caffe-merge
=======
>>>>>>> pod-caffe-pod.hpp-merge
>>>>>>> pod/device/blob.hpp
=======
>>>>>>> BVLC/device-abstraction
=======
>>>>>>> pod-caffe-pod.hpp-merge
=======
>>>>>>> pod/caffe-merge
=======
>>>>>>> pod-caffe-pod.hpp-merge
>>>>>>> pod/device/blob.hpp
=======
=======
>>>>>>> pod/device/blob.hpp
=======
>>>>>>> pod/device/blob.hpp
>>>>>>> pod-caffe-pod.hpp-merge
=======
>>>>>>> BVLC/device-abstraction
=======
>>>>>>> pod-caffe-pod.hpp-merge
>>>>>>> pod/device/blob.hpp
=======
>>>>>>> BVLC/device-abstraction
  pooling_param {
    pool: MAX
    kernel_size: 3
    stride: 1
    pad: 1
  }
}
<<<<<<< HEAD
<<<<<<< HEAD
<<<<<<< HEAD
<<<<<<< HEAD
<<<<<<< HEAD
<<<<<<< HEAD
<<<<<<< HEAD
<<<<<<< HEAD
<<<<<<< HEAD
<<<<<<< HEAD
<<<<<<< HEAD
<<<<<<< HEAD
<<<<<<< HEAD
=======
<<<<<<< HEAD
<<<<<<< HEAD
<<<<<<< HEAD
<<<<<<< HEAD
=======
>>>>>>> caffe
>>>>>>> pod-caffe-pod.hpp-merge
=======
<<<<<<< HEAD
=======
>>>>>>> caffe
>>>>>>> pod-caffe-pod.hpp-merge
=======
>>>>>>> caffe
>>>>>>> pod/caffe-merge
=======
>>>>>>> caffe
>>>>>>> pod/caffe-merge
=======
=======
=======
=======
>>>>>>> caffe
=======
=======
>>>>>>> pod/device/blob.hpp
=======
<<<<<<< HEAD
<<<<<<< HEAD
=======
>>>>>>> caffe
>>>>>>> pod-caffe-pod.hpp-merge
<<<<<<< HEAD
>>>>>>> pod/device/blob.hpp
=======
>>>>>>> pod/device/blob.hpp
=======
>>>>>>> BVLC/device-abstraction
=======
=======
<<<<<<< HEAD
<<<<<<< HEAD
=======
>>>>>>> caffe
>>>>>>> pod-caffe-pod.hpp-merge
>>>>>>> pod/device/blob.hpp
=======
>>>>>>> BVLC/device-abstraction
layer {
  name: "inception_5a/pool_proj"
  type: "Convolution"
  bottom: "inception_5a/pool"
  top: "inception_5a/pool_proj"
  param {
    lr_mult: 1
    decay_mult: 1
  }
  param {
    lr_mult: 2
    decay_mult: 0
  }
<<<<<<< HEAD
<<<<<<< HEAD
<<<<<<< HEAD
<<<<<<< HEAD
=======
<<<<<<< HEAD
=======
<<<<<<< HEAD
<<<<<<< HEAD
=======
>>>>>>> pod/device/blob.hpp
=======
>>>>>>> pod/device/blob.hpp
=======
=======
<<<<<<< HEAD
=======
>>>>>>> pod/device/blob.hpp
layers {
  bottom: "inception_5a/pool"
  top: "inception_5a/pool_proj"
  name: "inception_5a/pool_proj"
  type: CONVOLUTION
  blobs_lr: 1
  blobs_lr: 2
  weight_decay: 1
  weight_decay: 0
>>>>>>> origin/BVLC/parallel
=======
>>>>>>> caffe
<<<<<<< HEAD
<<<<<<< HEAD
<<<<<<< HEAD
=======
>>>>>>> pod-caffe-pod.hpp-merge
>>>>>>> pod/device/blob.hpp
=======
>>>>>>> pod-caffe-pod.hpp-merge
>>>>>>> pod/device/blob.hpp
=======
>>>>>>> BVLC/device-abstraction
=======
>>>>>>> pod-caffe-pod.hpp-merge
>>>>>>> pod/device/blob.hpp
=======
>>>>>>> BVLC/device-abstraction
  convolution_param {
    num_output: 128
    kernel_size: 1
    weight_filler {
      type: "xavier"
<<<<<<< HEAD
<<<<<<< HEAD
<<<<<<< HEAD
<<<<<<< HEAD
<<<<<<< HEAD
<<<<<<< HEAD
=======
=======
<<<<<<< HEAD
>>>>>>> pod/device/blob.hpp
=======
=======
<<<<<<< HEAD
>>>>>>> pod/device/blob.hpp
=======
=======
<<<<<<< HEAD
>>>>>>> pod/device/blob.hpp
<<<<<<< HEAD
=======
      std: 0.1
>>>>>>> origin/BVLC/parallel
=======
>>>>>>> caffe
<<<<<<< HEAD
<<<<<<< HEAD
<<<<<<< HEAD
=======
>>>>>>> pod-caffe-pod.hpp-merge
>>>>>>> pod/device/blob.hpp
=======
>>>>>>> pod-caffe-pod.hpp-merge
>>>>>>> pod/device/blob.hpp
=======
>>>>>>> BVLC/device-abstraction
=======
>>>>>>> pod-caffe-pod.hpp-merge
>>>>>>> pod/device/blob.hpp
=======
>>>>>>> BVLC/device-abstraction
    }
    bias_filler {
      type: "constant"
      value: 0.2
    }
  }
}
<<<<<<< HEAD
<<<<<<< HEAD
<<<<<<< HEAD
<<<<<<< HEAD
<<<<<<< HEAD
<<<<<<< HEAD
<<<<<<< HEAD
=======
>>>>>>> caffe
=======
=======
>>>>>>> pod/device/blob.hpp
=======
>>>>>>> pod/device/blob.hpp
=======
<<<<<<< HEAD
<<<<<<< HEAD
=======
>>>>>>> caffe
>>>>>>> pod-caffe-pod.hpp-merge
<<<<<<< HEAD
<<<<<<< HEAD
>>>>>>> pod/device/blob.hpp
=======
>>>>>>> pod/device/blob.hpp
=======
>>>>>>> BVLC/device-abstraction
=======
>>>>>>> pod/device/blob.hpp
=======
>>>>>>> BVLC/device-abstraction
layer {
  name: "inception_5a/relu_pool_proj"
  type: "ReLU"
  bottom: "inception_5a/pool_proj"
  top: "inception_5a/pool_proj"
}
layer {
  name: "inception_5a/output"
  type: "Concat"
<<<<<<< HEAD
<<<<<<< HEAD
<<<<<<< HEAD
<<<<<<< HEAD
=======
<<<<<<< HEAD
=======
<<<<<<< HEAD
<<<<<<< HEAD
=======
>>>>>>> pod/device/blob.hpp
=======
>>>>>>> pod/device/blob.hpp
=======
=======
<<<<<<< HEAD
=======
>>>>>>> pod/device/blob.hpp
layers {
  bottom: "inception_5a/pool_proj"
  top: "inception_5a/pool_proj"
  name: "inception_5a/relu_pool_proj"
  type: RELU
}
layers {
>>>>>>> origin/BVLC/parallel
=======
>>>>>>> caffe
<<<<<<< HEAD
<<<<<<< HEAD
<<<<<<< HEAD
=======
>>>>>>> pod-caffe-pod.hpp-merge
>>>>>>> pod/device/blob.hpp
=======
>>>>>>> pod-caffe-pod.hpp-merge
>>>>>>> pod/device/blob.hpp
=======
>>>>>>> BVLC/device-abstraction
=======
>>>>>>> pod-caffe-pod.hpp-merge
>>>>>>> pod/device/blob.hpp
=======
>>>>>>> BVLC/device-abstraction
  bottom: "inception_5a/1x1"
  bottom: "inception_5a/3x3"
  bottom: "inception_5a/5x5"
  bottom: "inception_5a/pool_proj"
  top: "inception_5a/output"
<<<<<<< HEAD
<<<<<<< HEAD
<<<<<<< HEAD
<<<<<<< HEAD
<<<<<<< HEAD
>>>>>>> pod-caffe-pod.hpp-merge
<<<<<<< HEAD
<<<<<<< HEAD
=======
>>>>>>> caffe
<<<<<<< HEAD
>>>>>>> pod-caffe-pod.hpp-merge
>>>>>>> pod/device/blob.hpp
=======
>>>>>>> BVLC/device-abstraction
=======
=======
>>>>>>> caffe
>>>>>>> pod-caffe-pod.hpp-merge
=======
=======
>>>>>>> caffe
>>>>>>> pod/caffe-merge
=======
=======
=======
=======
<<<<<<< HEAD
=======
>>>>>>> pod/device/blob.hpp
=======
>>>>>>> pod/device/blob.hpp
=======
<<<<<<< HEAD
<<<<<<< HEAD
=======
>>>>>>> caffe
>>>>>>> pod-caffe-pod.hpp-merge
<<<<<<< HEAD
<<<<<<< HEAD
>>>>>>> pod/device/blob.hpp
=======
>>>>>>> pod/device/blob.hpp
=======
>>>>>>> BVLC/device-abstraction
=======
>>>>>>> pod/device/blob.hpp
=======
>>>>>>> BVLC/device-abstraction
}
layer {
  name: "inception_5b/1x1"
  type: "Convolution"
  bottom: "inception_5a/output"
  top: "inception_5b/1x1"
  param {
    lr_mult: 1
    decay_mult: 1
  }
  param {
    lr_mult: 2
    decay_mult: 0
  }
<<<<<<< HEAD
<<<<<<< HEAD
<<<<<<< HEAD
<<<<<<< HEAD
=======
<<<<<<< HEAD
=======
<<<<<<< HEAD
<<<<<<< HEAD
=======
>>>>>>> pod/device/blob.hpp
=======
>>>>>>> pod/device/blob.hpp
=======
=======
<<<<<<< HEAD
=======
>>>>>>> pod/device/blob.hpp
  name: "inception_5a/output"
  type: CONCAT
}
layers {
  bottom: "inception_5a/output"
  top: "inception_5b/1x1"
  name: "inception_5b/1x1"
  type: CONVOLUTION
  blobs_lr: 1
  blobs_lr: 2
  weight_decay: 1
  weight_decay: 0
>>>>>>> origin/BVLC/parallel
=======
>>>>>>> caffe
<<<<<<< HEAD
<<<<<<< HEAD
<<<<<<< HEAD
=======
>>>>>>> pod-caffe-pod.hpp-merge
>>>>>>> pod/device/blob.hpp
=======
>>>>>>> pod-caffe-pod.hpp-merge
>>>>>>> pod/device/blob.hpp
=======
>>>>>>> BVLC/device-abstraction
=======
>>>>>>> pod-caffe-pod.hpp-merge
>>>>>>> pod/device/blob.hpp
=======
>>>>>>> BVLC/device-abstraction
  convolution_param {
    num_output: 384
    kernel_size: 1
    weight_filler {
      type: "xavier"
<<<<<<< HEAD
<<<<<<< HEAD
<<<<<<< HEAD
<<<<<<< HEAD
<<<<<<< HEAD
<<<<<<< HEAD
=======
=======
<<<<<<< HEAD
>>>>>>> pod/device/blob.hpp
=======
=======
<<<<<<< HEAD
>>>>>>> pod/device/blob.hpp
=======
=======
<<<<<<< HEAD
>>>>>>> pod/device/blob.hpp
<<<<<<< HEAD
=======
      std: 0.03
>>>>>>> origin/BVLC/parallel
=======
>>>>>>> caffe
<<<<<<< HEAD
<<<<<<< HEAD
<<<<<<< HEAD
=======
>>>>>>> pod-caffe-pod.hpp-merge
>>>>>>> pod/device/blob.hpp
=======
>>>>>>> pod-caffe-pod.hpp-merge
>>>>>>> pod/device/blob.hpp
=======
>>>>>>> BVLC/device-abstraction
=======
>>>>>>> pod-caffe-pod.hpp-merge
>>>>>>> pod/device/blob.hpp
=======
>>>>>>> BVLC/device-abstraction
    }
    bias_filler {
      type: "constant"
      value: 0.2
    }
  }
}
<<<<<<< HEAD
<<<<<<< HEAD
<<<<<<< HEAD
<<<<<<< HEAD
<<<<<<< HEAD
>>>>>>> pod-caffe-pod.hpp-merge
=======
<<<<<<< HEAD
=======
>>>>>>> pod/device/blob.hpp
=======
=======
>>>>>>> pod/device/blob.hpp
=======
=======
>>>>>>> pod/device/blob.hpp
<<<<<<< HEAD
<<<<<<< HEAD
=======
>>>>>>> caffe
<<<<<<< HEAD
<<<<<<< HEAD
<<<<<<< HEAD
<<<<<<< HEAD
>>>>>>> pod-caffe-pod.hpp-merge
>>>>>>> pod/device/blob.hpp
layer {
  name: "inception_5b/pool_proj"
  type: "Convolution"
  bottom: "inception_5b/pool"
  top: "inception_5b/pool_proj"
=======
=======
>>>>>>> pod-caffe-pod.hpp-merge
>>>>>>> pod/device/blob.hpp
=======
>>>>>>> pod-caffe-pod.hpp-merge
>>>>>>> pod/device/blob.hpp
=======
>>>>>>> BVLC/device-abstraction
=======
>>>>>>> pod-caffe-pod.hpp-merge
>>>>>>> pod/device/blob.hpp
=======
>>>>>>> BVLC/device-abstraction
layer {
  name: "inception_5b/relu_1x1"
  type: "ReLU"
  bottom: "inception_5b/1x1"
  top: "inception_5b/1x1"
}
layer {
  name: "inception_5b/3x3_reduce"
  type: "Convolution"
  bottom: "inception_5a/output"
  top: "inception_5b/3x3_reduce"
<<<<<<< HEAD
<<<<<<< HEAD
>>>>>>> pod-caffe-pod.hpp-merge
=======
>>>>>>> BVLC/device-abstraction
=======
>>>>>>> BVLC/device-abstraction
  param {
    lr_mult: 1
    decay_mult: 1
  }
  param {
    lr_mult: 2
    decay_mult: 0
  }
<<<<<<< HEAD
<<<<<<< HEAD
<<<<<<< HEAD
<<<<<<< HEAD
<<<<<<< HEAD
<<<<<<< HEAD
<<<<<<< HEAD
<<<<<<< HEAD
<<<<<<< HEAD
<<<<<<< HEAD
<<<<<<< HEAD
=======
<<<<<<< HEAD
<<<<<<< HEAD
<<<<<<< HEAD
<<<<<<< HEAD
<<<<<<< HEAD
=======
=======
>>>>>>> pod-caffe-pod.hpp-merge
=======
>>>>>>> pod/caffe-merge
=======
>>>>>>> pod/caffe-merge
=======
=======
>>>>>>> pod/device/blob.hpp
=======
=======
>>>>>>> pod-caffe-pod.hpp-merge
=======
=======
>>>>>>> pod/caffe-merge
=======
=======
<<<<<<< HEAD
=======
>>>>>>> pod/device/blob.hpp
layers {
  bottom: "inception_5b/pool"
  top: "inception_5b/pool_proj"
  name: "inception_5b/pool_proj"
=======
=======
=======
=======
<<<<<<< HEAD
=======
>>>>>>> pod/device/blob.hpp
=======
=======
<<<<<<< HEAD
=======
>>>>>>> pod/device/blob.hpp
=======
=======
<<<<<<< HEAD
=======
>>>>>>> pod/device/blob.hpp
layers {
  bottom: "inception_5b/1x1"
  top: "inception_5b/1x1"
  name: "inception_5b/relu_1x1"
  type: RELU
}
layers {
  bottom: "inception_5a/output"
  top: "inception_5b/3x3_reduce"
  name: "inception_5b/3x3_reduce"
<<<<<<< HEAD
<<<<<<< HEAD
<<<<<<< HEAD
>>>>>>> pod-caffe-pod.hpp-merge
=======
>>>>>>> pod/device/blob.hpp
=======
>>>>>>> pod/device/blob.hpp
=======
>>>>>>> pod/device/blob.hpp
  type: CONVOLUTION
  blobs_lr: 1
  blobs_lr: 2
  weight_decay: 1
  weight_decay: 0
>>>>>>> origin/BVLC/parallel
=======
>>>>>>> caffe
<<<<<<< HEAD
<<<<<<< HEAD
<<<<<<< HEAD
<<<<<<< HEAD
<<<<<<< HEAD
<<<<<<< HEAD
<<<<<<< HEAD
<<<<<<< HEAD
<<<<<<< HEAD
<<<<<<< HEAD
<<<<<<< HEAD
>>>>>>> pod-caffe-pod.hpp-merge
=======
>>>>>>> pod-caffe-pod.hpp-merge
=======
>>>>>>> pod/caffe-merge
=======
>>>>>>> pod/caffe-merge
=======
>>>>>>> pod-caffe-pod.hpp-merge
>>>>>>> pod/device/blob.hpp
=======
>>>>>>> BVLC/device-abstraction
  convolution_param {
    num_output: 128
=======
=======
>>>>>>> pod-caffe-pod.hpp-merge
>>>>>>> pod/device/blob.hpp
=======
>>>>>>> pod-caffe-pod.hpp-merge
>>>>>>> pod/device/blob.hpp
  convolution_param {
    num_output: 192
>>>>>>> pod-caffe-pod.hpp-merge
    kernel_size: 1
    weight_filler {
      type: "xavier"
<<<<<<< HEAD
<<<<<<< HEAD
<<<<<<< HEAD
<<<<<<< HEAD
<<<<<<< HEAD
<<<<<<< HEAD
<<<<<<< HEAD
=======
<<<<<<< HEAD
<<<<<<< HEAD
<<<<<<< HEAD
=======
>>>>>>> pod-caffe-pod.hpp-merge
<<<<<<< HEAD
=======
=======
>>>>>>> pod/caffe-merge
=======
>>>>>>> pod/caffe-merge
=======
=======
<<<<<<< HEAD
<<<<<<< HEAD
=======
>>>>>>> pod/device/blob.hpp
      std: 0.1
>>>>>>> origin/BVLC/parallel
=======
>>>>>>> caffe
<<<<<<< HEAD
<<<<<<< HEAD
<<<<<<< HEAD
<<<<<<< HEAD
>>>>>>> pod-caffe-pod.hpp-merge
=======
>>>>>>> pod-caffe-pod.hpp-merge
=======
>>>>>>> pod/caffe-merge
=======
>>>>>>> pod/caffe-merge
=======
>>>>>>> pod-caffe-pod.hpp-merge
>>>>>>> pod/device/blob.hpp
=======
>>>>>>> BVLC/device-abstraction
=======
=======
=======
<<<<<<< HEAD
<<<<<<< HEAD
>>>>>>> pod/device/blob.hpp
=======
=======
<<<<<<< HEAD
<<<<<<< HEAD
>>>>>>> pod/device/blob.hpp
=======
      std: 0.09
>>>>>>> origin/BVLC/parallel
=======
>>>>>>> caffe
>>>>>>> pod-caffe-pod.hpp-merge
=======
=======
>>>>>>> pod-caffe-pod.hpp-merge
>>>>>>> pod/device/blob.hpp
=======
>>>>>>> BVLC/device-abstraction
  convolution_param {
    num_output: 192
    kernel_size: 1
    weight_filler {
      type: "xavier"
<<<<<<< HEAD
<<<<<<< HEAD
>>>>>>> BVLC/device-abstraction
=======
<<<<<<< HEAD
=======
<<<<<<< HEAD
<<<<<<< HEAD
=======
      std: 0.09
>>>>>>> origin/BVLC/parallel
=======
>>>>>>> caffe
>>>>>>> pod-caffe-pod.hpp-merge
>>>>>>> pod/device/blob.hpp
=======
>>>>>>> BVLC/device-abstraction
    }
    bias_filler {
      type: "constant"
      value: 0.2
    }
  }
}
<<<<<<< HEAD
<<<<<<< HEAD
<<<<<<< HEAD
<<<<<<< HEAD
<<<<<<< HEAD
<<<<<<< HEAD
<<<<<<< HEAD
<<<<<<< HEAD
<<<<<<< HEAD
<<<<<<< HEAD
=======
<<<<<<< HEAD
<<<<<<< HEAD
<<<<<<< HEAD
<<<<<<< HEAD
=======
>>>>>>> caffe
>>>>>>> pod-caffe-pod.hpp-merge
=======
<<<<<<< HEAD
=======
>>>>>>> caffe
>>>>>>> pod-caffe-pod.hpp-merge
=======
>>>>>>> caffe
>>>>>>> pod/caffe-merge
=======
>>>>>>> caffe
>>>>>>> pod/caffe-merge
=======
=======
=======
=======
>>>>>>> pod/caffe-merge
=======
>>>>>>> pod-caffe-pod.hpp-merge
>>>>>>> pod/device/blob.hpp
  convolution_param {
    num_output: 128
    kernel_size: 1
=======
=======
>>>>>>> caffe
=======
=======
>>>>>>> pod/device/blob.hpp
=======
>>>>>>> pod/device/blob.hpp
=======
<<<<<<< HEAD
<<<<<<< HEAD
=======
>>>>>>> caffe
>>>>>>> pod-caffe-pod.hpp-merge
<<<<<<< HEAD
<<<<<<< HEAD
>>>>>>> pod/device/blob.hpp
=======
>>>>>>> pod/device/blob.hpp
=======
>>>>>>> BVLC/device-abstraction
=======
>>>>>>> pod/device/blob.hpp
=======
>>>>>>> BVLC/device-abstraction
layer {
  name: "inception_5b/relu_3x3_reduce"
  type: "ReLU"
  bottom: "inception_5b/3x3_reduce"
  top: "inception_5b/3x3_reduce"
}
layer {
  name: "inception_5b/3x3"
  type: "Convolution"
  bottom: "inception_5b/3x3_reduce"
  top: "inception_5b/3x3"
  param {
    lr_mult: 1
    decay_mult: 1
  }
  param {
    lr_mult: 2
    decay_mult: 0
  }
<<<<<<< HEAD
<<<<<<< HEAD
<<<<<<< HEAD
<<<<<<< HEAD
=======
<<<<<<< HEAD
=======
<<<<<<< HEAD
<<<<<<< HEAD
=======
>>>>>>> pod/device/blob.hpp
=======
>>>>>>> pod/device/blob.hpp
=======
=======
<<<<<<< HEAD
=======
>>>>>>> pod/device/blob.hpp
layers {
  bottom: "inception_5b/3x3_reduce"
  top: "inception_5b/3x3_reduce"
  name: "inception_5b/relu_3x3_reduce"
  type: RELU
}
layers {
  bottom: "inception_5b/3x3_reduce"
  top: "inception_5b/3x3"
  name: "inception_5b/3x3"
  type: CONVOLUTION
  blobs_lr: 1
  blobs_lr: 2
  weight_decay: 1
  weight_decay: 0
>>>>>>> origin/BVLC/parallel
=======
>>>>>>> caffe
<<<<<<< HEAD
<<<<<<< HEAD
<<<<<<< HEAD
=======
>>>>>>> pod-caffe-pod.hpp-merge
>>>>>>> pod/device/blob.hpp
=======
>>>>>>> pod-caffe-pod.hpp-merge
>>>>>>> pod/device/blob.hpp
=======
>>>>>>> BVLC/device-abstraction
=======
>>>>>>> pod-caffe-pod.hpp-merge
>>>>>>> pod/device/blob.hpp
=======
>>>>>>> BVLC/device-abstraction
  convolution_param {
    num_output: 384
    pad: 1
    kernel_size: 3
<<<<<<< HEAD
<<<<<<< HEAD
>>>>>>> pod-caffe-pod.hpp-merge
    weight_filler {
      type: "xavier"
<<<<<<< HEAD
<<<<<<< HEAD
<<<<<<< HEAD
<<<<<<< HEAD
=======
<<<<<<< HEAD
=======
<<<<<<< HEAD
>>>>>>> pod/device/blob.hpp
<<<<<<< HEAD
=======
      std: 0.1
>>>>>>> origin/BVLC/parallel
=======
>>>>>>> caffe
<<<<<<< HEAD
=======
>>>>>>> pod-caffe-pod.hpp-merge
>>>>>>> pod/device/blob.hpp
=======
=======
=======
>>>>>>> pod/device/blob.hpp
=======
<<<<<<< HEAD
<<<<<<< HEAD
=======
<<<<<<< HEAD
>>>>>>> pod/device/blob.hpp
=======
>>>>>>> pod/device/blob.hpp
      std: 0.03
>>>>>>> origin/BVLC/parallel
=======
>>>>>>> caffe
>>>>>>> pod-caffe-pod.hpp-merge
=======
    weight_filler {
      type: "xavier"
<<<<<<< HEAD
>>>>>>> BVLC/device-abstraction
=======
<<<<<<< HEAD
=======
<<<<<<< HEAD
<<<<<<< HEAD
=======
      std: 0.03
>>>>>>> origin/BVLC/parallel
=======
>>>>>>> caffe
>>>>>>> pod-caffe-pod.hpp-merge
>>>>>>> pod/device/blob.hpp
=======
    weight_filler {
      type: "xavier"
>>>>>>> BVLC/device-abstraction
    }
    bias_filler {
      type: "constant"
      value: 0.2
    }
  }
}
<<<<<<< HEAD
<<<<<<< HEAD
<<<<<<< HEAD
<<<<<<< HEAD
<<<<<<< HEAD
<<<<<<< HEAD
<<<<<<< HEAD
<<<<<<< HEAD
>>>>>>> pod-caffe-pod.hpp-merge
=======
>>>>>>> pod/caffe-merge
=======
=======
>>>>>>> pod/device/blob.hpp
<<<<<<< HEAD
<<<<<<< HEAD
=======
>>>>>>> caffe
<<<<<<< HEAD
<<<<<<< HEAD
<<<<<<< HEAD
>>>>>>> pod-caffe-pod.hpp-merge
>>>>>>> pod/device/blob.hpp
=======
>>>>>>> BVLC/device-abstraction
=======
>>>>>>> pod-caffe-pod.hpp-merge
=======
>>>>>>> pod/caffe-merge
=======
>>>>>>> pod-caffe-pod.hpp-merge
>>>>>>> pod/device/blob.hpp
layer {
  name: "inception_5b/relu_pool_proj"
  type: "ReLU"
  bottom: "inception_5b/pool_proj"
  top: "inception_5b/pool_proj"
}
layer {
  name: "inception_5b/output"
  type: "Concat"
<<<<<<< HEAD
<<<<<<< HEAD
<<<<<<< HEAD
<<<<<<< HEAD
<<<<<<< HEAD
=======
<<<<<<< HEAD
<<<<<<< HEAD
<<<<<<< HEAD
<<<<<<< HEAD
<<<<<<< HEAD
=======
=======
>>>>>>> pod-caffe-pod.hpp-merge
=======
>>>>>>> pod/caffe-merge
=======
>>>>>>> pod/caffe-merge
=======
=======
>>>>>>> pod/device/blob.hpp
=======
=======
>>>>>>> pod-caffe-pod.hpp-merge
=======
=======
<<<<<<< HEAD
=======
>>>>>>> pod/device/blob.hpp
layers {
  bottom: "inception_5b/pool_proj"
  top: "inception_5b/pool_proj"
  name: "inception_5b/relu_pool_proj"
  type: RELU
}
layers {
>>>>>>> origin/BVLC/parallel
=======
>>>>>>> caffe
<<<<<<< HEAD
<<<<<<< HEAD
<<<<<<< HEAD
<<<<<<< HEAD
<<<<<<< HEAD
<<<<<<< HEAD
>>>>>>> pod-caffe-pod.hpp-merge
=======
>>>>>>> pod-caffe-pod.hpp-merge
=======
>>>>>>> pod/caffe-merge
=======
>>>>>>> pod/caffe-merge
=======
>>>>>>> pod-caffe-pod.hpp-merge
>>>>>>> pod/device/blob.hpp
=======
>>>>>>> BVLC/device-abstraction
=======
=======
>>>>>>> pod/device/blob.hpp
>>>>>>> pod-caffe-pod.hpp-merge
  bottom: "inception_5b/1x1"
  bottom: "inception_5b/3x3"
  bottom: "inception_5b/5x5"
  bottom: "inception_5b/pool_proj"
  top: "inception_5b/output"
<<<<<<< HEAD
<<<<<<< HEAD
<<<<<<< HEAD
<<<<<<< HEAD
<<<<<<< HEAD
<<<<<<< HEAD
=======
<<<<<<< HEAD
<<<<<<< HEAD
<<<<<<< HEAD
<<<<<<< HEAD
=======
>>>>>>> caffe
>>>>>>> pod-caffe-pod.hpp-merge
=======
<<<<<<< HEAD
=======
>>>>>>> caffe
>>>>>>> pod-caffe-pod.hpp-merge
=======
>>>>>>> caffe
>>>>>>> pod/caffe-merge
=======
>>>>>>> caffe
>>>>>>> pod/caffe-merge
=======
=======
=======
=======
layers {
  bottom: "inception_5b/pool_proj"
  top: "inception_5b/pool_proj"
  name: "inception_5b/relu_pool_proj"
  type: RELU
}
layers {
>>>>>>> origin/BVLC/parallel
=======
>>>>>>> caffe
  bottom: "inception_5b/1x1"
  bottom: "inception_5b/3x3"
  bottom: "inception_5b/5x5"
  bottom: "inception_5b/pool_proj"
  top: "inception_5b/output"
>>>>>>> pod/caffe-merge
<<<<<<< HEAD
<<<<<<< HEAD
=======
>>>>>>> caffe
<<<<<<< HEAD
>>>>>>> pod-caffe-pod.hpp-merge
>>>>>>> pod/device/blob.hpp
=======
>>>>>>> BVLC/device-abstraction
=======
=======
>>>>>>> caffe
>>>>>>> pod-caffe-pod.hpp-merge
=======
>>>>>>> pod/caffe-merge
=======
=======
=======
=======
>>>>>>> caffe
=======
=======
>>>>>>> pod/device/blob.hpp
=======
<<<<<<< HEAD
<<<<<<< HEAD
=======
>>>>>>> caffe
>>>>>>> pod-caffe-pod.hpp-merge
<<<<<<< HEAD
>>>>>>> pod/device/blob.hpp
=======
>>>>>>> pod/device/blob.hpp
=======
>>>>>>> BVLC/device-abstraction
=======
=======
<<<<<<< HEAD
<<<<<<< HEAD
=======
>>>>>>> caffe
>>>>>>> pod-caffe-pod.hpp-merge
>>>>>>> pod/device/blob.hpp
=======
>>>>>>> BVLC/device-abstraction
layer {
  name: "inception_5b/relu_3x3"
  type: "ReLU"
  bottom: "inception_5b/3x3"
  top: "inception_5b/3x3"
}
layer {
  name: "inception_5b/5x5_reduce"
  type: "Convolution"
  bottom: "inception_5a/output"
  top: "inception_5b/5x5_reduce"
  param {
    lr_mult: 1
    decay_mult: 1
  }
  param {
    lr_mult: 2
    decay_mult: 0
  }
<<<<<<< HEAD
<<<<<<< HEAD
<<<<<<< HEAD
<<<<<<< HEAD
=======
<<<<<<< HEAD
=======
<<<<<<< HEAD
<<<<<<< HEAD
=======
>>>>>>> pod/device/blob.hpp
=======
>>>>>>> pod/device/blob.hpp
=======
=======
<<<<<<< HEAD
=======
>>>>>>> pod/device/blob.hpp
layers {
  bottom: "inception_5b/3x3"
  top: "inception_5b/3x3"
  name: "inception_5b/relu_3x3"
  type: RELU
}
layers {
  bottom: "inception_5a/output"
  top: "inception_5b/5x5_reduce"
  name: "inception_5b/5x5_reduce"
  type: CONVOLUTION
  blobs_lr: 1
  blobs_lr: 2
  weight_decay: 1
  weight_decay: 0
>>>>>>> origin/BVLC/parallel
=======
>>>>>>> caffe
<<<<<<< HEAD
<<<<<<< HEAD
<<<<<<< HEAD
=======
>>>>>>> pod-caffe-pod.hpp-merge
>>>>>>> pod/device/blob.hpp
=======
>>>>>>> pod-caffe-pod.hpp-merge
>>>>>>> pod/device/blob.hpp
=======
>>>>>>> BVLC/device-abstraction
=======
>>>>>>> pod-caffe-pod.hpp-merge
>>>>>>> pod/device/blob.hpp
=======
>>>>>>> BVLC/device-abstraction
  convolution_param {
    num_output: 48
    kernel_size: 1
    weight_filler {
      type: "xavier"
<<<<<<< HEAD
<<<<<<< HEAD
<<<<<<< HEAD
<<<<<<< HEAD
<<<<<<< HEAD
<<<<<<< HEAD
=======
=======
<<<<<<< HEAD
>>>>>>> pod/device/blob.hpp
=======
=======
<<<<<<< HEAD
>>>>>>> pod/device/blob.hpp
=======
=======
<<<<<<< HEAD
>>>>>>> pod/device/blob.hpp
<<<<<<< HEAD
=======
      std: 0.2
>>>>>>> origin/BVLC/parallel
=======
>>>>>>> caffe
<<<<<<< HEAD
<<<<<<< HEAD
<<<<<<< HEAD
=======
>>>>>>> pod-caffe-pod.hpp-merge
>>>>>>> pod/device/blob.hpp
=======
>>>>>>> pod-caffe-pod.hpp-merge
>>>>>>> pod/device/blob.hpp
=======
>>>>>>> BVLC/device-abstraction
=======
>>>>>>> pod-caffe-pod.hpp-merge
>>>>>>> pod/device/blob.hpp
=======
>>>>>>> BVLC/device-abstraction
    }
    bias_filler {
      type: "constant"
      value: 0.2
    }
  }
}
<<<<<<< HEAD
<<<<<<< HEAD
<<<<<<< HEAD
<<<<<<< HEAD
<<<<<<< HEAD
<<<<<<< HEAD
<<<<<<< HEAD
=======
>>>>>>> caffe
=======
=======
>>>>>>> pod/device/blob.hpp
=======
>>>>>>> pod/device/blob.hpp
=======
<<<<<<< HEAD
<<<<<<< HEAD
=======
>>>>>>> caffe
>>>>>>> pod-caffe-pod.hpp-merge
<<<<<<< HEAD
<<<<<<< HEAD
>>>>>>> pod/device/blob.hpp
=======
>>>>>>> pod/device/blob.hpp
=======
>>>>>>> BVLC/device-abstraction
=======
>>>>>>> pod/device/blob.hpp
=======
>>>>>>> BVLC/device-abstraction
layer {
  name: "inception_5b/relu_5x5_reduce"
  type: "ReLU"
  bottom: "inception_5b/5x5_reduce"
  top: "inception_5b/5x5_reduce"
}
layer {
  name: "inception_5b/5x5"
  type: "Convolution"
  bottom: "inception_5b/5x5_reduce"
  top: "inception_5b/5x5"
  param {
    lr_mult: 1
    decay_mult: 1
  }
  param {
    lr_mult: 2
    decay_mult: 0
  }
<<<<<<< HEAD
<<<<<<< HEAD
<<<<<<< HEAD
<<<<<<< HEAD
=======
<<<<<<< HEAD
=======
<<<<<<< HEAD
<<<<<<< HEAD
=======
>>>>>>> pod/device/blob.hpp
=======
>>>>>>> pod/device/blob.hpp
=======
=======
<<<<<<< HEAD
=======
>>>>>>> pod/device/blob.hpp
layers {
  bottom: "inception_5b/5x5_reduce"
  top: "inception_5b/5x5_reduce"
  name: "inception_5b/relu_5x5_reduce"
  type: RELU
}
layers {
  bottom: "inception_5b/5x5_reduce"
  top: "inception_5b/5x5"
  name: "inception_5b/5x5"
  type: CONVOLUTION
  blobs_lr: 1
  blobs_lr: 2
  weight_decay: 1
  weight_decay: 0
>>>>>>> origin/BVLC/parallel
=======
>>>>>>> caffe
<<<<<<< HEAD
<<<<<<< HEAD
<<<<<<< HEAD
=======
>>>>>>> pod-caffe-pod.hpp-merge
>>>>>>> pod/device/blob.hpp
=======
>>>>>>> pod-caffe-pod.hpp-merge
>>>>>>> pod/device/blob.hpp
=======
>>>>>>> BVLC/device-abstraction
=======
>>>>>>> pod-caffe-pod.hpp-merge
>>>>>>> pod/device/blob.hpp
=======
>>>>>>> BVLC/device-abstraction
  convolution_param {
    num_output: 128
    pad: 2
    kernel_size: 5
    weight_filler {
      type: "xavier"
<<<<<<< HEAD
<<<<<<< HEAD
<<<<<<< HEAD
<<<<<<< HEAD
<<<<<<< HEAD
<<<<<<< HEAD
=======
=======
<<<<<<< HEAD
>>>>>>> pod/device/blob.hpp
=======
=======
<<<<<<< HEAD
>>>>>>> pod/device/blob.hpp
=======
=======
<<<<<<< HEAD
>>>>>>> pod/device/blob.hpp
<<<<<<< HEAD
=======
      std: 0.03
>>>>>>> origin/BVLC/parallel
=======
>>>>>>> caffe
<<<<<<< HEAD
<<<<<<< HEAD
<<<<<<< HEAD
=======
>>>>>>> pod-caffe-pod.hpp-merge
>>>>>>> pod/device/blob.hpp
=======
>>>>>>> pod-caffe-pod.hpp-merge
>>>>>>> pod/device/blob.hpp
=======
>>>>>>> BVLC/device-abstraction
=======
>>>>>>> pod-caffe-pod.hpp-merge
>>>>>>> pod/device/blob.hpp
=======
>>>>>>> BVLC/device-abstraction
    }
    bias_filler {
      type: "constant"
      value: 0.2
    }
  }
}
<<<<<<< HEAD
<<<<<<< HEAD
<<<<<<< HEAD
<<<<<<< HEAD
<<<<<<< HEAD
>>>>>>> pod-caffe-pod.hpp-merge
<<<<<<< HEAD
<<<<<<< HEAD
=======
>>>>>>> caffe
<<<<<<< HEAD
>>>>>>> pod-caffe-pod.hpp-merge
>>>>>>> pod/device/blob.hpp
}
layer {
  name: "pool5/7x7_s1"
  type: "Pooling"
  bottom: "inception_5b/output"
  top: "pool5/7x7_s1"
<<<<<<< HEAD
<<<<<<< HEAD
<<<<<<< HEAD
<<<<<<< HEAD
<<<<<<< HEAD
=======
<<<<<<< HEAD
<<<<<<< HEAD
<<<<<<< HEAD
<<<<<<< HEAD
<<<<<<< HEAD
=======
=======
>>>>>>> pod-caffe-pod.hpp-merge
=======
>>>>>>> pod/caffe-merge
=======
>>>>>>> pod/caffe-merge
=======
=======
>>>>>>> pod/device/blob.hpp
=======
=======
>>>>>>> pod-caffe-pod.hpp-merge
=======
=======
>>>>>>> pod/caffe-merge
=======
=======
<<<<<<< HEAD
=======
>>>>>>> pod/device/blob.hpp
  name: "inception_5b/output"
  type: CONCAT
}
layers {
  bottom: "inception_5b/output"
  top: "pool5/7x7_s1"
  name: "pool5/7x7_s1"
=======
=======
<<<<<<< HEAD
=======
>>>>>>> pod/device/blob.hpp
=======
>>>>>>> pod/device/blob.hpp
=======
<<<<<<< HEAD
<<<<<<< HEAD
=======
>>>>>>> caffe
>>>>>>> pod-caffe-pod.hpp-merge
<<<<<<< HEAD
<<<<<<< HEAD
>>>>>>> pod/device/blob.hpp
=======
>>>>>>> pod/device/blob.hpp
=======
>>>>>>> BVLC/device-abstraction
=======
>>>>>>> pod/device/blob.hpp
=======
>>>>>>> BVLC/device-abstraction
layer {
  name: "inception_5b/relu_5x5"
  type: "ReLU"
  bottom: "inception_5b/5x5"
  top: "inception_5b/5x5"
}
layer {
  name: "inception_5b/pool"
  type: "Pooling"
  bottom: "inception_5a/output"
  top: "inception_5b/pool"
<<<<<<< HEAD
<<<<<<< HEAD
<<<<<<< HEAD
<<<<<<< HEAD
=======
<<<<<<< HEAD
=======
<<<<<<< HEAD
<<<<<<< HEAD
=======
>>>>>>> pod/device/blob.hpp
=======
>>>>>>> pod/device/blob.hpp
=======
=======
<<<<<<< HEAD
=======
>>>>>>> pod/device/blob.hpp
layers {
  bottom: "inception_5b/5x5"
  top: "inception_5b/5x5"
  name: "inception_5b/relu_5x5"
  type: RELU
}
layers {
  bottom: "inception_5a/output"
  top: "inception_5b/pool"
  name: "inception_5b/pool"
<<<<<<< HEAD
<<<<<<< HEAD
<<<<<<< HEAD
>>>>>>> pod-caffe-pod.hpp-merge
=======
>>>>>>> pod/device/blob.hpp
=======
>>>>>>> pod/device/blob.hpp
=======
>>>>>>> pod/device/blob.hpp
  type: POOLING
>>>>>>> origin/BVLC/parallel
=======
>>>>>>> caffe
<<<<<<< HEAD
<<<<<<< HEAD
<<<<<<< HEAD
<<<<<<< HEAD
<<<<<<< HEAD
<<<<<<< HEAD
<<<<<<< HEAD
<<<<<<< HEAD
<<<<<<< HEAD
<<<<<<< HEAD
<<<<<<< HEAD
>>>>>>> pod-caffe-pod.hpp-merge
=======
>>>>>>> pod-caffe-pod.hpp-merge
=======
>>>>>>> pod/caffe-merge
=======
>>>>>>> pod/caffe-merge
=======
>>>>>>> pod-caffe-pod.hpp-merge
>>>>>>> pod/device/blob.hpp
=======
>>>>>>> BVLC/device-abstraction
=======
>>>>>>> pod-caffe-pod.hpp-merge
=======
>>>>>>> pod/caffe-merge
=======
>>>>>>> pod-caffe-pod.hpp-merge
>>>>>>> pod/device/blob.hpp
  pooling_param {
    pool: AVE
    kernel_size: 7
    stride: 1
=======
=======
>>>>>>> pod-caffe-pod.hpp-merge
>>>>>>> pod/device/blob.hpp
=======
>>>>>>> pod-caffe-pod.hpp-merge
>>>>>>> pod/device/blob.hpp
=======
>>>>>>> BVLC/device-abstraction
=======
>>>>>>> pod-caffe-pod.hpp-merge
>>>>>>> pod/device/blob.hpp
=======
>>>>>>> BVLC/device-abstraction
  pooling_param {
    pool: MAX
    kernel_size: 3
    stride: 1
    pad: 1
<<<<<<< HEAD
<<<<<<< HEAD
>>>>>>> pod-caffe-pod.hpp-merge
  }
}
<<<<<<< HEAD
<<<<<<< HEAD
<<<<<<< HEAD
<<<<<<< HEAD
<<<<<<< HEAD
<<<<<<< HEAD
<<<<<<< HEAD
<<<<<<< HEAD
<<<<<<< HEAD
<<<<<<< HEAD
=======
<<<<<<< HEAD
<<<<<<< HEAD
<<<<<<< HEAD
<<<<<<< HEAD
=======
>>>>>>> caffe
>>>>>>> pod-caffe-pod.hpp-merge
=======
<<<<<<< HEAD
=======
>>>>>>> caffe
>>>>>>> pod-caffe-pod.hpp-merge
=======
>>>>>>> caffe
>>>>>>> pod/caffe-merge
=======
>>>>>>> caffe
>>>>>>> pod/caffe-merge
=======
=======
<<<<<<< HEAD
<<<<<<< HEAD
=======
>>>>>>> caffe
>>>>>>> pod-caffe-pod.hpp-merge
>>>>>>> pod/device/blob.hpp
=======
>>>>>>> BVLC/device-abstraction
=======
=======
>>>>>>> caffe
>>>>>>> pod-caffe-pod.hpp-merge
=======
=======
>>>>>>> caffe
>>>>>>> pod/caffe-merge
=======
=======
<<<<<<< HEAD
<<<<<<< HEAD
=======
>>>>>>> caffe
>>>>>>> pod-caffe-pod.hpp-merge
>>>>>>> pod/device/blob.hpp
layer {
  name: "pool5/drop_7x7_s1"
  type: "Dropout"
  bottom: "pool5/7x7_s1"
  top: "pool5/7x7_s1"
<<<<<<< HEAD
<<<<<<< HEAD
<<<<<<< HEAD
<<<<<<< HEAD
<<<<<<< HEAD
=======
<<<<<<< HEAD
<<<<<<< HEAD
<<<<<<< HEAD
<<<<<<< HEAD
<<<<<<< HEAD
=======
=======
>>>>>>> pod-caffe-pod.hpp-merge
=======
>>>>>>> pod/caffe-merge
=======
>>>>>>> pod/caffe-merge
=======
=======
>>>>>>> pod/device/blob.hpp
=======
=======
>>>>>>> pod-caffe-pod.hpp-merge
=======
=======
>>>>>>> pod/caffe-merge
=======
=======
<<<<<<< HEAD
=======
>>>>>>> pod/device/blob.hpp
layers {
  bottom: "pool5/7x7_s1"
  top: "pool5/7x7_s1"
  name: "pool5/drop_7x7_s1"
  type: DROPOUT
>>>>>>> origin/BVLC/parallel
=======
>>>>>>> caffe
<<<<<<< HEAD
<<<<<<< HEAD
<<<<<<< HEAD
<<<<<<< HEAD
<<<<<<< HEAD
<<<<<<< HEAD
<<<<<<< HEAD
>>>>>>> pod-caffe-pod.hpp-merge
=======
>>>>>>> pod-caffe-pod.hpp-merge
=======
>>>>>>> pod/caffe-merge
=======
>>>>>>> pod/caffe-merge
=======
>>>>>>> pod-caffe-pod.hpp-merge
>>>>>>> pod/device/blob.hpp
=======
>>>>>>> BVLC/device-abstraction
=======
>>>>>>> pod-caffe-pod.hpp-merge
=======
>>>>>>> pod/caffe-merge
=======
>>>>>>> pod-caffe-pod.hpp-merge
>>>>>>> pod/device/blob.hpp
  dropout_param {
    dropout_ratio: 0.4
=======
=======
>>>>>>> caffe
=======
=======
>>>>>>> pod/device/blob.hpp
=======
<<<<<<< HEAD
<<<<<<< HEAD
=======
>>>>>>> caffe
>>>>>>> pod-caffe-pod.hpp-merge
<<<<<<< HEAD
>>>>>>> pod/device/blob.hpp
=======
>>>>>>> pod/device/blob.hpp
=======
  }
}
<<<<<<< HEAD
>>>>>>> BVLC/device-abstraction
=======
<<<<<<< HEAD
=======
<<<<<<< HEAD
<<<<<<< HEAD
=======
>>>>>>> caffe
>>>>>>> pod-caffe-pod.hpp-merge
>>>>>>> pod/device/blob.hpp
=======
  }
}
>>>>>>> BVLC/device-abstraction
layer {
  name: "inception_5b/pool_proj"
  type: "Convolution"
  bottom: "inception_5b/pool"
  top: "inception_5b/pool_proj"
  param {
    lr_mult: 1
    decay_mult: 1
  }
  param {
    lr_mult: 2
    decay_mult: 0
  }
<<<<<<< HEAD
<<<<<<< HEAD
<<<<<<< HEAD
<<<<<<< HEAD
=======
<<<<<<< HEAD
=======
<<<<<<< HEAD
<<<<<<< HEAD
=======
>>>>>>> pod/device/blob.hpp
=======
>>>>>>> pod/device/blob.hpp
=======
=======
<<<<<<< HEAD
=======
>>>>>>> pod/device/blob.hpp
layers {
  bottom: "inception_5b/pool"
  top: "inception_5b/pool_proj"
  name: "inception_5b/pool_proj"
  type: CONVOLUTION
  blobs_lr: 1
  blobs_lr: 2
  weight_decay: 1
  weight_decay: 0
>>>>>>> origin/BVLC/parallel
=======
>>>>>>> caffe
<<<<<<< HEAD
<<<<<<< HEAD
<<<<<<< HEAD
=======
>>>>>>> pod-caffe-pod.hpp-merge
>>>>>>> pod/device/blob.hpp
=======
>>>>>>> pod-caffe-pod.hpp-merge
>>>>>>> pod/device/blob.hpp
=======
>>>>>>> BVLC/device-abstraction
=======
>>>>>>> pod-caffe-pod.hpp-merge
>>>>>>> pod/device/blob.hpp
=======
>>>>>>> BVLC/device-abstraction
  convolution_param {
    num_output: 128
    kernel_size: 1
    weight_filler {
      type: "xavier"
<<<<<<< HEAD
<<<<<<< HEAD
<<<<<<< HEAD
<<<<<<< HEAD
<<<<<<< HEAD
<<<<<<< HEAD
=======
=======
<<<<<<< HEAD
>>>>>>> pod/device/blob.hpp
=======
=======
<<<<<<< HEAD
>>>>>>> pod/device/blob.hpp
=======
=======
<<<<<<< HEAD
>>>>>>> pod/device/blob.hpp
<<<<<<< HEAD
=======
      std: 0.1
>>>>>>> origin/BVLC/parallel
=======
>>>>>>> caffe
<<<<<<< HEAD
<<<<<<< HEAD
<<<<<<< HEAD
=======
>>>>>>> pod-caffe-pod.hpp-merge
>>>>>>> pod/device/blob.hpp
=======
>>>>>>> pod-caffe-pod.hpp-merge
>>>>>>> pod/device/blob.hpp
=======
>>>>>>> BVLC/device-abstraction
=======
>>>>>>> pod-caffe-pod.hpp-merge
>>>>>>> pod/device/blob.hpp
=======
>>>>>>> BVLC/device-abstraction
    }
    bias_filler {
      type: "constant"
      value: 0.2
    }
<<<<<<< HEAD
<<<<<<< HEAD
>>>>>>> pod-caffe-pod.hpp-merge
  }
}
<<<<<<< HEAD
<<<<<<< HEAD
<<<<<<< HEAD
<<<<<<< HEAD
<<<<<<< HEAD
<<<<<<< HEAD
<<<<<<< HEAD
<<<<<<< HEAD
<<<<<<< HEAD
<<<<<<< HEAD
=======
<<<<<<< HEAD
<<<<<<< HEAD
<<<<<<< HEAD
<<<<<<< HEAD
=======
>>>>>>> caffe
>>>>>>> pod-caffe-pod.hpp-merge
=======
<<<<<<< HEAD
=======
>>>>>>> caffe
>>>>>>> pod-caffe-pod.hpp-merge
=======
>>>>>>> caffe
>>>>>>> pod/caffe-merge
=======
>>>>>>> caffe
>>>>>>> pod/caffe-merge
=======
=======
=======
=======
>>>>>>> caffe
=======
=======
>>>>>>> pod/device/blob.hpp
=======
<<<<<<< HEAD
<<<<<<< HEAD
=======
>>>>>>> caffe
>>>>>>> pod-caffe-pod.hpp-merge
<<<<<<< HEAD
>>>>>>> pod/device/blob.hpp
=======
>>>>>>> pod/device/blob.hpp
=======
  }
}
<<<<<<< HEAD
>>>>>>> BVLC/device-abstraction
=======
<<<<<<< HEAD
=======
<<<<<<< HEAD
<<<<<<< HEAD
=======
>>>>>>> caffe
>>>>>>> pod-caffe-pod.hpp-merge
>>>>>>> pod/device/blob.hpp
=======
  }
}
>>>>>>> BVLC/device-abstraction
layer {
  name: "inception_5b/relu_pool_proj"
  type: "ReLU"
  bottom: "inception_5b/pool_proj"
  top: "inception_5b/pool_proj"
}
layer {
  name: "inception_5b/output"
  type: "Concat"
<<<<<<< HEAD
<<<<<<< HEAD
<<<<<<< HEAD
<<<<<<< HEAD
=======
<<<<<<< HEAD
=======
<<<<<<< HEAD
<<<<<<< HEAD
=======
>>>>>>> pod/device/blob.hpp
=======
>>>>>>> pod/device/blob.hpp
=======
=======
<<<<<<< HEAD
=======
>>>>>>> pod/device/blob.hpp
layers {
  bottom: "inception_5b/pool_proj"
  top: "inception_5b/pool_proj"
  name: "inception_5b/relu_pool_proj"
  type: RELU
}
layers {
>>>>>>> origin/BVLC/parallel
=======
>>>>>>> caffe
<<<<<<< HEAD
<<<<<<< HEAD
<<<<<<< HEAD
=======
>>>>>>> pod-caffe-pod.hpp-merge
>>>>>>> pod/device/blob.hpp
=======
>>>>>>> pod-caffe-pod.hpp-merge
>>>>>>> pod/device/blob.hpp
=======
>>>>>>> BVLC/device-abstraction
=======
>>>>>>> pod-caffe-pod.hpp-merge
>>>>>>> pod/device/blob.hpp
=======
>>>>>>> BVLC/device-abstraction
  bottom: "inception_5b/1x1"
  bottom: "inception_5b/3x3"
  bottom: "inception_5b/5x5"
  bottom: "inception_5b/pool_proj"
  top: "inception_5b/output"
<<<<<<< HEAD
<<<<<<< HEAD
<<<<<<< HEAD
<<<<<<< HEAD
<<<<<<< HEAD
<<<<<<< HEAD
<<<<<<< HEAD
=======
>>>>>>> caffe
=======
=======
>>>>>>> pod/device/blob.hpp
=======
>>>>>>> pod/device/blob.hpp
=======
<<<<<<< HEAD
<<<<<<< HEAD
=======
>>>>>>> caffe
>>>>>>> pod-caffe-pod.hpp-merge
<<<<<<< HEAD
<<<<<<< HEAD
>>>>>>> pod/device/blob.hpp
=======
>>>>>>> pod/device/blob.hpp
=======
>>>>>>> BVLC/device-abstraction
=======
>>>>>>> pod/device/blob.hpp
=======
>>>>>>> BVLC/device-abstraction
}
layer {
  name: "pool5/7x7_s1"
  type: "Pooling"
  bottom: "inception_5b/output"
  top: "pool5/7x7_s1"
<<<<<<< HEAD
<<<<<<< HEAD
<<<<<<< HEAD
<<<<<<< HEAD
=======
<<<<<<< HEAD
=======
<<<<<<< HEAD
<<<<<<< HEAD
=======
>>>>>>> pod/device/blob.hpp
=======
>>>>>>> pod/device/blob.hpp
=======
=======
<<<<<<< HEAD
=======
>>>>>>> pod/device/blob.hpp
  name: "inception_5b/output"
  type: CONCAT
}
layers {
  bottom: "inception_5b/output"
  top: "pool5/7x7_s1"
  name: "pool5/7x7_s1"
  type: POOLING
>>>>>>> origin/BVLC/parallel
=======
>>>>>>> caffe
<<<<<<< HEAD
<<<<<<< HEAD
<<<<<<< HEAD
=======
>>>>>>> pod-caffe-pod.hpp-merge
>>>>>>> pod/device/blob.hpp
=======
>>>>>>> pod-caffe-pod.hpp-merge
>>>>>>> pod/device/blob.hpp
=======
>>>>>>> BVLC/device-abstraction
=======
>>>>>>> pod-caffe-pod.hpp-merge
>>>>>>> pod/device/blob.hpp
=======
>>>>>>> BVLC/device-abstraction
  pooling_param {
    pool: AVE
    kernel_size: 7
    stride: 1
  }
}
<<<<<<< HEAD
<<<<<<< HEAD
<<<<<<< HEAD
<<<<<<< HEAD
<<<<<<< HEAD
>>>>>>> pod-caffe-pod.hpp-merge
<<<<<<< HEAD
<<<<<<< HEAD
=======
>>>>>>> caffe
<<<<<<< HEAD
>>>>>>> pod-caffe-pod.hpp-merge
>>>>>>> pod/device/blob.hpp
=======
>>>>>>> BVLC/device-abstraction
=======
=======
>>>>>>> caffe
>>>>>>> pod-caffe-pod.hpp-merge
=======
=======
>>>>>>> caffe
>>>>>>> pod/caffe-merge
=======
=======
=======
=======
<<<<<<< HEAD
=======
>>>>>>> pod/device/blob.hpp
=======
>>>>>>> pod/device/blob.hpp
=======
<<<<<<< HEAD
<<<<<<< HEAD
=======
>>>>>>> caffe
>>>>>>> pod-caffe-pod.hpp-merge
<<<<<<< HEAD
<<<<<<< HEAD
>>>>>>> pod/device/blob.hpp
=======
>>>>>>> pod/device/blob.hpp
=======
>>>>>>> BVLC/device-abstraction
=======
>>>>>>> pod/device/blob.hpp
=======
>>>>>>> BVLC/device-abstraction
layer {
  name: "pool5/drop_7x7_s1"
  type: "Dropout"
  bottom: "pool5/7x7_s1"
  top: "pool5/7x7_s1"
<<<<<<< HEAD
<<<<<<< HEAD
<<<<<<< HEAD
<<<<<<< HEAD
=======
<<<<<<< HEAD
=======
<<<<<<< HEAD
<<<<<<< HEAD
=======
>>>>>>> pod/device/blob.hpp
=======
>>>>>>> pod/device/blob.hpp
=======
=======
<<<<<<< HEAD
=======
>>>>>>> pod/device/blob.hpp
layers {
  bottom: "pool5/7x7_s1"
  top: "pool5/7x7_s1"
  name: "pool5/drop_7x7_s1"
  type: DROPOUT
>>>>>>> origin/BVLC/parallel
=======
>>>>>>> caffe
<<<<<<< HEAD
<<<<<<< HEAD
<<<<<<< HEAD
=======
>>>>>>> pod-caffe-pod.hpp-merge
>>>>>>> pod/device/blob.hpp
=======
>>>>>>> pod-caffe-pod.hpp-merge
>>>>>>> pod/device/blob.hpp
=======
>>>>>>> BVLC/device-abstraction
=======
>>>>>>> pod-caffe-pod.hpp-merge
>>>>>>> pod/device/blob.hpp
=======
>>>>>>> BVLC/device-abstraction
  dropout_param {
    dropout_ratio: 0.4
  }
}
<<<<<<< HEAD
<<<<<<< HEAD
<<<<<<< HEAD
<<<<<<< HEAD
<<<<<<< HEAD
>>>>>>> pod-caffe-pod.hpp-merge
<<<<<<< HEAD
<<<<<<< HEAD
=======
>>>>>>> caffe
<<<<<<< HEAD
>>>>>>> pod-caffe-pod.hpp-merge
>>>>>>> pod/device/blob.hpp
=======
=======
<<<<<<< HEAD
=======
>>>>>>> pod/device/blob.hpp
=======
>>>>>>> pod/device/blob.hpp
=======
<<<<<<< HEAD
<<<<<<< HEAD
=======
>>>>>>> caffe
<<<<<<< HEAD
<<<<<<< HEAD
>>>>>>> pod/device/blob.hpp
=======
>>>>>>> pod/device/blob.hpp
>>>>>>> pod-caffe-pod.hpp-merge
=======
>>>>>>> BVLC/device-abstraction
=======
>>>>>>> pod-caffe-pod.hpp-merge
>>>>>>> pod/device/blob.hpp
=======
>>>>>>> BVLC/device-abstraction
layer {
  name: "loss3/classifier"
  type: "InnerProduct"
  bottom: "pool5/7x7_s1"
  top: "loss3/classifier"
  param {
    lr_mult: 1
    decay_mult: 1
  }
  param {
    lr_mult: 2
    decay_mult: 0
  }
<<<<<<< HEAD
<<<<<<< HEAD
<<<<<<< HEAD
<<<<<<< HEAD
<<<<<<< HEAD
<<<<<<< HEAD
<<<<<<< HEAD
<<<<<<< HEAD
<<<<<<< HEAD
<<<<<<< HEAD
<<<<<<< HEAD
=======
<<<<<<< HEAD
<<<<<<< HEAD
<<<<<<< HEAD
<<<<<<< HEAD
<<<<<<< HEAD
=======
=======
>>>>>>> pod-caffe-pod.hpp-merge
=======
>>>>>>> pod/caffe-merge
=======
>>>>>>> pod/caffe-merge
=======
=======
>>>>>>> pod/device/blob.hpp
=======
=======
>>>>>>> pod-caffe-pod.hpp-merge
=======
=======
>>>>>>> pod/caffe-merge
=======
=======
<<<<<<< HEAD
=======
>>>>>>> pod/device/blob.hpp
=======
=======
>>>>>>> pod-caffe-pod.hpp-merge
=======
=======
<<<<<<< HEAD
=======
>>>>>>> pod/device/blob.hpp
=======
=======
<<<<<<< HEAD
=======
>>>>>>> pod/device/blob.hpp
=======
=======
<<<<<<< HEAD
=======
>>>>>>> pod/device/blob.hpp
layers {
  bottom: "pool5/7x7_s1"
  top: "loss3/classifier"
  name: "loss3/classifier"
  type: INNER_PRODUCT
  blobs_lr: 1
  blobs_lr: 2
  weight_decay: 1
  weight_decay: 0
>>>>>>> origin/BVLC/parallel
=======
>>>>>>> caffe
<<<<<<< HEAD
<<<<<<< HEAD
<<<<<<< HEAD
<<<<<<< HEAD
<<<<<<< HEAD
<<<<<<< HEAD
<<<<<<< HEAD
<<<<<<< HEAD
<<<<<<< HEAD
<<<<<<< HEAD
<<<<<<< HEAD
>>>>>>> pod-caffe-pod.hpp-merge
=======
>>>>>>> pod-caffe-pod.hpp-merge
=======
>>>>>>> pod/caffe-merge
=======
>>>>>>> pod/caffe-merge
=======
>>>>>>> pod-caffe-pod.hpp-merge
>>>>>>> pod/device/blob.hpp
=======
>>>>>>> BVLC/device-abstraction
=======
>>>>>>> pod-caffe-pod.hpp-merge
=======
>>>>>>> pod/caffe-merge
=======
>>>>>>> pod-caffe-pod.hpp-merge
>>>>>>> pod/device/blob.hpp
=======
=======
>>>>>>> pod/device/blob.hpp
=======
>>>>>>> pod/device/blob.hpp
>>>>>>> pod-caffe-pod.hpp-merge
=======
>>>>>>> BVLC/device-abstraction
=======
>>>>>>> pod-caffe-pod.hpp-merge
>>>>>>> pod/device/blob.hpp
=======
>>>>>>> BVLC/device-abstraction
  inner_product_param {
    num_output: 1000
    weight_filler {
      type: "xavier"
    }
    bias_filler {
      type: "constant"
      value: 0
    }
  }
}
<<<<<<< HEAD
<<<<<<< HEAD
<<<<<<< HEAD
<<<<<<< HEAD
<<<<<<< HEAD
<<<<<<< HEAD
<<<<<<< HEAD
<<<<<<< HEAD
<<<<<<< HEAD
<<<<<<< HEAD
<<<<<<< HEAD
<<<<<<< HEAD
<<<<<<< HEAD
=======
<<<<<<< HEAD
<<<<<<< HEAD
<<<<<<< HEAD
<<<<<<< HEAD
=======
>>>>>>> caffe
>>>>>>> pod-caffe-pod.hpp-merge
=======
<<<<<<< HEAD
=======
>>>>>>> caffe
>>>>>>> pod-caffe-pod.hpp-merge
=======
>>>>>>> caffe
>>>>>>> pod/caffe-merge
=======
>>>>>>> caffe
>>>>>>> pod/caffe-merge
=======
=======
>>>>>>> pod/device/blob.hpp
=======
<<<<<<< HEAD
<<<<<<< HEAD
=======
>>>>>>> caffe
>>>>>>> pod-caffe-pod.hpp-merge
<<<<<<< HEAD
>>>>>>> pod/device/blob.hpp
=======
>>>>>>> BVLC/device-abstraction
=======
=======
>>>>>>> caffe
>>>>>>> pod-caffe-pod.hpp-merge
=======
=======
>>>>>>> caffe
>>>>>>> pod/caffe-merge
=======
=======
>>>>>>> pod/device/blob.hpp
=======
>>>>>>> pod/device/blob.hpp
=======
<<<<<<< HEAD
<<<<<<< HEAD
=======
>>>>>>> caffe
>>>>>>> pod-caffe-pod.hpp-merge
<<<<<<< HEAD
<<<<<<< HEAD
>>>>>>> pod/device/blob.hpp
=======
=======
>>>>>>> caffe
>>>>>>> pod-caffe-pod.hpp-merge
=======
>>>>>>> pod/device/blob.hpp
=======
>>>>>>> pod/device/blob.hpp
=======
>>>>>>> BVLC/device-abstraction
=======
>>>>>>> pod/device/blob.hpp
=======
>>>>>>> BVLC/device-abstraction
layer {
  name: "loss3/loss3"
  type: "SoftmaxWithLoss"
  bottom: "loss3/classifier"
  bottom: "label"
  top: "loss3/loss3"
  loss_weight: 1
}
layer {
  name: "loss3/top-1"
  type: "Accuracy"
  bottom: "loss3/classifier"
  bottom: "label"
  top: "loss3/top-1"
<<<<<<< HEAD
<<<<<<< HEAD
<<<<<<< HEAD
<<<<<<< HEAD
<<<<<<< HEAD
<<<<<<< HEAD
<<<<<<< HEAD
<<<<<<< HEAD
<<<<<<< HEAD
<<<<<<< HEAD
<<<<<<< HEAD
=======
<<<<<<< HEAD
<<<<<<< HEAD
<<<<<<< HEAD
<<<<<<< HEAD
<<<<<<< HEAD
=======
=======
>>>>>>> pod-caffe-pod.hpp-merge
=======
>>>>>>> pod/caffe-merge
=======
>>>>>>> pod/caffe-merge
=======
=======
>>>>>>> pod/device/blob.hpp
=======
=======
>>>>>>> pod-caffe-pod.hpp-merge
=======
=======
>>>>>>> pod/caffe-merge
=======
=======
<<<<<<< HEAD
=======
>>>>>>> pod/device/blob.hpp
=======
=======
>>>>>>> pod-caffe-pod.hpp-merge
=======
=======
<<<<<<< HEAD
=======
>>>>>>> pod/device/blob.hpp
=======
=======
<<<<<<< HEAD
=======
>>>>>>> pod/device/blob.hpp
=======
=======
<<<<<<< HEAD
=======
>>>>>>> pod/device/blob.hpp
layers {
  bottom: "loss3/classifier"
  bottom: "label"
  top: "loss3/loss3"
  name: "loss3/loss3"
  type: SOFTMAX_LOSS
  loss_weight: 1
}
layers {
  bottom: "loss3/classifier"
  bottom: "label"
  top: "loss3/top-1"
  name: "loss3/top-1"
  type: ACCURACY
>>>>>>> origin/BVLC/parallel
=======
>>>>>>> caffe
<<<<<<< HEAD
<<<<<<< HEAD
<<<<<<< HEAD
<<<<<<< HEAD
<<<<<<< HEAD
<<<<<<< HEAD
<<<<<<< HEAD
<<<<<<< HEAD
<<<<<<< HEAD
<<<<<<< HEAD
<<<<<<< HEAD
>>>>>>> pod-caffe-pod.hpp-merge
=======
>>>>>>> pod-caffe-pod.hpp-merge
=======
>>>>>>> pod/caffe-merge
=======
>>>>>>> pod/caffe-merge
=======
>>>>>>> pod-caffe-pod.hpp-merge
>>>>>>> pod/device/blob.hpp
=======
>>>>>>> BVLC/device-abstraction
=======
>>>>>>> pod-caffe-pod.hpp-merge
=======
>>>>>>> pod/caffe-merge
=======
>>>>>>> pod-caffe-pod.hpp-merge
>>>>>>> pod/device/blob.hpp
=======
=======
>>>>>>> pod/device/blob.hpp
=======
>>>>>>> pod/device/blob.hpp
>>>>>>> pod-caffe-pod.hpp-merge
=======
>>>>>>> BVLC/device-abstraction
=======
>>>>>>> pod-caffe-pod.hpp-merge
>>>>>>> pod/device/blob.hpp
=======
>>>>>>> BVLC/device-abstraction
  include {
    phase: TEST
  }
}
<<<<<<< HEAD
<<<<<<< HEAD
<<<<<<< HEAD
<<<<<<< HEAD
<<<<<<< HEAD
<<<<<<< HEAD
<<<<<<< HEAD
<<<<<<< HEAD
<<<<<<< HEAD
<<<<<<< HEAD
<<<<<<< HEAD
<<<<<<< HEAD
<<<<<<< HEAD
=======
<<<<<<< HEAD
<<<<<<< HEAD
<<<<<<< HEAD
<<<<<<< HEAD
=======
>>>>>>> caffe
>>>>>>> pod-caffe-pod.hpp-merge
=======
<<<<<<< HEAD
=======
>>>>>>> caffe
>>>>>>> pod-caffe-pod.hpp-merge
=======
>>>>>>> caffe
>>>>>>> pod/caffe-merge
=======
>>>>>>> caffe
>>>>>>> pod/caffe-merge
=======
=======
>>>>>>> pod/device/blob.hpp
=======
<<<<<<< HEAD
<<<<<<< HEAD
=======
>>>>>>> caffe
>>>>>>> pod-caffe-pod.hpp-merge
<<<<<<< HEAD
>>>>>>> pod/device/blob.hpp
=======
>>>>>>> BVLC/device-abstraction
=======
=======
>>>>>>> caffe
>>>>>>> pod-caffe-pod.hpp-merge
=======
=======
>>>>>>> caffe
>>>>>>> pod/caffe-merge
=======
=======
>>>>>>> pod/device/blob.hpp
=======
>>>>>>> pod/device/blob.hpp
=======
<<<<<<< HEAD
<<<<<<< HEAD
=======
>>>>>>> caffe
>>>>>>> pod-caffe-pod.hpp-merge
<<<<<<< HEAD
<<<<<<< HEAD
>>>>>>> pod/device/blob.hpp
=======
=======
>>>>>>> caffe
>>>>>>> pod-caffe-pod.hpp-merge
=======
>>>>>>> pod/device/blob.hpp
=======
>>>>>>> pod/device/blob.hpp
=======
>>>>>>> BVLC/device-abstraction
=======
>>>>>>> pod/device/blob.hpp
=======
>>>>>>> BVLC/device-abstraction
layer {
  name: "loss3/top-5"
  type: "Accuracy"
  bottom: "loss3/classifier"
  bottom: "label"
  top: "loss3/top-5"
  include {
    phase: TEST
  }
  accuracy_param {
    top_k: 5
  }
<<<<<<< HEAD
<<<<<<< HEAD
<<<<<<< HEAD
<<<<<<< HEAD
<<<<<<< HEAD
<<<<<<< HEAD
<<<<<<< HEAD
<<<<<<< HEAD
<<<<<<< HEAD
<<<<<<< HEAD
<<<<<<< HEAD
=======
<<<<<<< HEAD
<<<<<<< HEAD
<<<<<<< HEAD
<<<<<<< HEAD
<<<<<<< HEAD
=======
=======
>>>>>>> pod-caffe-pod.hpp-merge
=======
>>>>>>> pod/caffe-merge
=======
>>>>>>> pod/caffe-merge
=======
=======
>>>>>>> pod/device/blob.hpp
=======
=======
>>>>>>> pod-caffe-pod.hpp-merge
=======
=======
>>>>>>> pod/caffe-merge
=======
=======
<<<<<<< HEAD
=======
>>>>>>> pod/device/blob.hpp
=======
=======
>>>>>>> pod-caffe-pod.hpp-merge
=======
=======
<<<<<<< HEAD
=======
>>>>>>> pod/device/blob.hpp
=======
=======
<<<<<<< HEAD
=======
>>>>>>> pod/device/blob.hpp
=======
=======
<<<<<<< HEAD
=======
>>>>>>> pod/device/blob.hpp
layers {
  bottom: "loss3/classifier"
  bottom: "label"
  top: "loss3/top-5"
  name: "loss3/top-5"
  type: ACCURACY
  accuracy_param {
    top_k: 5
  }
  include {
    phase: TEST
  }
>>>>>>> origin/BVLC/parallel
=======
>>>>>>> caffe
<<<<<<< HEAD
<<<<<<< HEAD
<<<<<<< HEAD
<<<<<<< HEAD
<<<<<<< HEAD
<<<<<<< HEAD
<<<<<<< HEAD
<<<<<<< HEAD
<<<<<<< HEAD
<<<<<<< HEAD
<<<<<<< HEAD
>>>>>>> pod-caffe-pod.hpp-merge
=======
>>>>>>> pod-caffe-pod.hpp-merge
=======
>>>>>>> pod/caffe-merge
=======
>>>>>>> pod/caffe-merge
=======
>>>>>>> pod-caffe-pod.hpp-merge
>>>>>>> pod/device/blob.hpp
=======
>>>>>>> BVLC/device-abstraction
=======
>>>>>>> pod-caffe-pod.hpp-merge
=======
>>>>>>> pod/caffe-merge
=======
>>>>>>> pod-caffe-pod.hpp-merge
>>>>>>> pod/device/blob.hpp
=======
=======
>>>>>>> pod/device/blob.hpp
=======
>>>>>>> pod/device/blob.hpp
>>>>>>> pod-caffe-pod.hpp-merge
=======
>>>>>>> BVLC/device-abstraction
=======
>>>>>>> pod-caffe-pod.hpp-merge
>>>>>>> pod/device/blob.hpp
=======
>>>>>>> BVLC/device-abstraction
}
