…
I0216 21:27:42.116935  2295 net.cpp:260] The NetState phase (0) differed from the phase (1) specified by a rule in layer mnist
I0216 21:27:42.116958  2295 net.cpp:260] The NetState phase (0) differed from the phase (1) specified by a rule in layer accuracy
I0216 21:27:42.117066  2295 net.cpp:39] Initializing net from parameters: 
name: "LeNet"
state {
  phase: TRAIN
}
layer {
  name: "mnist"
  type: "Data"
  top: "data"
  top: "label"
  include {
    phase: TRAIN
  }
  transform_param {
    scale: 0.00390625
  }
  data_param {
    source: "examples/mnist/mnist_train_lmdb"
    batch_size: 64
    backend: LMDB
  }
}
layer {
  name: "conv1"
  type: "Convolution"
  bottom: "data"
  top: "conv1"
  param {
    lr_mult: 1
  }
  param {
    lr_mult: 2
  }
  convolution_param {
    num_output: 20
    kernel_size: 5
    stride: 1
    weight_filler {
      type: "xavier"
    }
    bias_filler {
      type: "constant"
    }
  }
}
layer {
  name: "pool1"
  type: "Pooling"
  bottom: "conv1"
  top: "pool1"
  pooling_param {
    pool: MAX
    kernel_size: 2
    stride: 2
  }
}
layer {
  name: "conv2"
  type: "Convolution"
  bottom: "pool1"
  top: "conv2"
  param {
    lr_mult: 1
  }
  param {
    lr_mult: 2
  }
  convolution_param {
    num_output: 50
    kernel_size: 5
    stride: 1
    weight_filler {
      type: "xavier"
    }
    bias_filler {
      type: "constant"
    }
  }
}
layer {
  name: "pool2"
  type: "Pooling"
  bottom: "conv2"
  top: "pool2"
  pooling_param {
    pool: MAX
    kernel_size: 2
    stride: 2
  }
}
layer {
  name: "ip1"
  type: "InnerProduct"
  bottom: "pool2"
  top: "ip1"
  param {
    lr_mult: 1
  }
  param {
    lr_mult: 2
  }
  inner_product_param {
    num_output: 500
    weight_filler {
      type: "xavier"
    }
    bias_filler {
      type: "constant"
    }
  }
}
layer {
  name: "relu1"
  type: "ReLU"
  bottom: "ip1"
  top: "ip1"
}
layer {
  name: "ip2"
  type: "InnerProduct"
  bottom: "ip1"
  top: "ip2"
  param {
    lr_mult: 1
  }
  param {
    lr_mult: 2
  }
  inner_product_param {
    num_output: 10
    weight_filler {
      type: "xavier"
    }
    bias_filler {
      type: "constant"
    }
  }
}
layer {
  name: "loss"
  type: "SoftmaxWithLoss"
  bottom: "ip2"
  bottom: "label"
  top: "loss"
}
I0216 21:27:42.117140  2295 layer_factory.hpp:74] Creating layer mnist
I0216 21:27:42.117163  2295 net.cpp:69] Creating Layer mnist
I0216 21:27:42.117174  2295 net.cpp:341] mnist -> data
I0216 21:27:42.117199  2295 net.cpp:341] mnist -> label
I0216 21:27:42.117215  2295 net.cpp:98] Setting up mnist
I0216 21:27:42.117308  2295 db.cpp:34] Opened lmdb examples/mnist/mnist_train_lmdb
I0216 21:27:42.117364  2295 data_layer.cpp:65] output data size: 64,1,28,28
I0216 21:27:42.117547  2295 net.cpp:105] Top shape: 64 1 28 28 (50176)
I0216 21:27:42.117563  2295 net.cpp:105] Top shape: 64 1 1 1 (64)
I0216 21:27:42.117573  2295 layer_factory.hpp:74] Creating layer conv1
I0216 21:27:42.117588  2295 net.cpp:69] Creating Layer conv1
I0216 21:27:42.117630  2295 net.cpp:379] conv1 <- data
I0216 21:27:42.117653  2295 net.cpp:341] conv1 -> conv1
I0216 21:27:42.117669  2295 net.cpp:98] Setting up conv1
I0216 21:27:42.118140  2295 net.cpp:105] Top shape: 64 20 24 24 (737280)
I0216 21:27:42.118180  2295 layer_factory.hpp:74] Creating layer pool1
I0216 21:27:42.118193  2295 net.cpp:69] Creating Layer pool1
I0216 21:27:42.118201  2295 net.cpp:379] pool1 <- conv1
I0216 21:27:42.118213  2295 net.cpp:341] pool1 -> pool1
I0216 21:27:42.118237  2295 net.cpp:98] Setting up pool1
I0216 21:27:42.118259  2295 net.cpp:105] Top shape: 64 20 12 12 (184320)
I0216 21:27:42.118285  2295 layer_factory.hpp:74] Creating layer conv2
I0216 21:27:42.118300  2295 net.cpp:69] Creating Layer conv2
I0216 21:27:42.118309  2295 net.cpp:379] conv2 <- pool1
I0216 21:27:42.118324  2295 net.cpp:341] conv2 -> conv2
I0216 21:27:42.118337  2295 net.cpp:98] Setting up conv2
I0216 21:27:42.118688  2295 net.cpp:105] Top shape: 64 50 8 8 (204800)
I0216 21:27:42.118711  2295 layer_factory.hpp:74] Creating layer pool2
I0216 21:27:42.118722  2295 net.cpp:69] Creating Layer pool2
I0216 21:27:42.118729  2295 net.cpp:379] pool2 <- conv2
I0216 21:27:42.118741  2295 net.cpp:341] pool2 -> pool2
I0216 21:27:42.118752  2295 net.cpp:98] Setting up pool2
I0216 21:27:42.118762  2295 net.cpp:105] Top shape: 64 50 4 4 (51200)
I0216 21:27:42.118769  2295 layer_factory.hpp:74] Creating layer ip1
I0216 21:27:42.118783  2295 net.cpp:69] Creating Layer ip1
I0216 21:27:42.118794  2295 net.cpp:379] ip1 <- pool2
I0216 21:27:42.118810  2295 net.cpp:341] ip1 -> ip1
I0216 21:27:42.118824  2295 net.cpp:98] Setting up ip1
I0216 21:27:42.123141  2295 net.cpp:105] Top shape: 64 500 1 1 (32000)
I0216 21:27:42.123168  2295 layer_factory.hpp:74] Creating layer relu1
I0216 21:27:42.123183  2295 net.cpp:69] Creating Layer relu1
I0216 21:27:42.123190  2295 net.cpp:379] relu1 <- ip1
I0216 21:27:42.123203  2295 net.cpp:330] relu1 -> ip1 (in-place)
I0216 21:27:42.123215  2295 net.cpp:98] Setting up relu1
I0216 21:27:42.123226  2295 net.cpp:105] Top shape: 64 500 1 1 (32000)
I0216 21:27:42.123235  2295 layer_factory.hpp:74] Creating layer ip2
I0216 21:27:42.123245  2295 net.cpp:69] Creating Layer ip2
I0216 21:27:42.123253  2295 net.cpp:379] ip2 <- ip1
I0216 21:27:42.123267  2295 net.cpp:341] ip2 -> ip2
I0216 21:27:42.123287  2295 net.cpp:98] Setting up ip2
I0216 21:27:42.123353  2295 net.cpp:105] Top shape: 64 10 1 1 (640)
I0216 21:27:42.123366  2295 layer_factory.hpp:74] Creating layer loss
I0216 21:27:42.123381  2295 net.cpp:69] Creating Layer loss
I0216 21:27:42.123389  2295 net.cpp:379] loss <- ip2
I0216 21:27:42.123397  2295 net.cpp:379] loss <- label
I0216 21:27:42.123406  2295 net.cpp:341] loss -> loss
I0216 21:27:42.123419  2295 net.cpp:98] Setting up loss
I0216 21:27:42.123430  2295 layer_factory.hpp:74] Creating layer loss
I0216 21:27:42.123450  2295 net.cpp:105] Top shape: 1 1 1 1 (1)
I0216 21:27:42.123460  2295 net.cpp:111]     with loss weight 1
I0216 21:27:42.123488  2295 net.cpp:156] loss needs backward computation.
I0216 21:27:42.123497  2295 net.cpp:156] ip2 needs backward computation.
I0216 21:27:42.123503  2295 net.cpp:156] relu1 needs backward computation.
I0216 21:27:42.123509  2295 net.cpp:156] ip1 needs backward computation.
I0216 21:27:42.123517  2295 net.cpp:156] pool2 needs backward computation.
…
I0216 21:27:42.124115  2295 solver.cpp:154] Creating test net (#0) specified by net file: examples/mnist/lenet_train_test.prototxt
I0216 21:27:42.124153  2295 net.cpp:260] The NetState phase (1) differed from the phase (0) specified by a rule in layer mnist
I0216 21:27:42.124282  2295 net.cpp:39] Initializing net from parameters: 
name: "LeNet"
state {
  phase: TEST
}
layer {
  name: "mnist"
  type: "Data"
  top: "data"
  top: "label"
  include {
    phase: TEST
  }
  transform_param {
    scale: 0.00390625
  }
  data_param {
    source: "examples/mnist/mnist_test_lmdb"
    batch_size: 100
    backend: LMDB
  }
}
layer {
  name: "conv1"
  type: "Convolution"
  bottom: "data"
  top: "conv1"
  param {
    lr_mult: 1
  }
  param {
    lr_mult: 2
  }
  convolution_param {
    num_output: 20
    kernel_size: 5
    stride: 1
    weight_filler {
      type: "xavier"
    }
    bias_filler {
      type: "constant"
    }
  }
}
layer {
  name: "pool1"
  type: "Pooling"
  bottom: "conv1"
  top: "pool1"
  pooling_param {
    pool: MAX
    kernel_size: 2
    stride: 2
  }
}
layer {
  name: "conv2"
  type: "Convolution"
  bottom: "pool1"
  top: "conv2"
  param {
    lr_mult: 1
  }
  param {
    lr_mult: 2
  }
  convolution_param {
    num_output: 50
    kernel_size: 5
    stride: 1
    weight_filler {
      type: "xavier"
    }
    bias_filler {
      type: "constant"
    }
  }
}
layer {
  name: "pool2"
  type: "Pooling"
  bottom: "conv2"
  top: "pool2"
  pooling_param {
    pool: MAX
    kernel_size: 2
    stride: 2
  }
}
layer {
  name: "ip1"
  type: "InnerProduct"
  bottom: "pool2"
  top: "ip1"
  param {
    lr_mult: 1
  }
  param {
    lr_mult: 2
  }
  inner_product_param {
    num_output: 500
    weight_filler {
      type: "xavier"
    }
    bias_filler {
      type: "constant"
    }
  }
}
layer {
  name: "relu1"
  type: "ReLU"
  bottom: "ip1"
  top: "ip1"
}
layer {
  name: "ip2"
  type: "InnerProduct"
  bottom: "ip1"
  top: "ip2"
  param {
    lr_mult: 1
  }
  param {
    lr_mult: 2
  }
  inner_product_param {
    num_output: 10
    weight_filler {
      type: "xavier"
    }
    bias_filler {
      type: "constant"
    }
  }
}
layer {
  name: "accuracy"
  type: "Accuracy"
  bottom: "ip2"
  bottom: "label"
  top: "accuracy"
  include {
    phase: TEST
  }
}
layer {
  name: "loss"
  type: "SoftmaxWithLoss"
  bottom: "ip2"
  bottom: "label"
  top: "loss"
}
I0216 21:27:42.124411  2295 layer_factory.hpp:74] Creating layer mnist
I0216 21:27:42.124454  2295 net.cpp:69] Creating Layer mnist
I0216 21:27:42.124466  2295 net.cpp:341] mnist -> data
I0216 21:27:42.124483  2295 net.cpp:341] mnist -> label
I0216 21:27:42.124496  2295 net.cpp:98] Setting up mnist
I0216 21:27:42.124553  2295 db.cpp:34] Opened lmdb examples/mnist/mnist_test_lmdb
I0216 21:27:42.124578  2295 data_layer.cpp:65] output data size: 100,1,28,28
I0216 21:27:42.124945  2295 net.cpp:105] Top shape: 100 1 28 28 (78400)
I0216 21:27:42.124960  2295 net.cpp:105] Top shape: 100 1 1 1 (100)
I0216 21:27:42.124969  2295 layer_factory.hpp:74] Creating layer label_mnist_1_split
I0216 21:27:42.124979  2295 net.cpp:69] Creating Layer label_mnist_1_split
I0216 21:27:42.124985  2295 net.cpp:379] label_mnist_1_split <- label
I0216 21:27:42.124999  2295 net.cpp:341] label_mnist_1_split -> label_mnist_1_split_0
I0216 21:27:42.125011  2295 net.cpp:341] label_mnist_1_split -> label_mnist_1_split_1
I0216 21:27:42.125023  2295 net.cpp:98] Setting up label_mnist_1_split
I0216 21:27:42.125035  2295 net.cpp:105] Top shape: 100 1 1 1 (100)
I0216 21:27:42.125041  2295 net.cpp:105] Top shape: 100 1 1 1 (100)
I0216 21:27:42.125049  2295 layer_factory.hpp:74] Creating layer conv1
I0216 21:27:42.125063  2295 net.cpp:69] Creating Layer conv1
I0216 21:27:42.125074  2295 net.cpp:379] conv1 <- data
I0216 21:27:42.125088  2295 net.cpp:341] conv1 -> conv1
I0216 21:27:42.125102  2295 net.cpp:98] Setting up conv1
I0216 21:27:42.125130  2295 net.cpp:105] Top shape: 100 20 24 24 (1152000)
I0216 21:27:42.125150  2295 layer_factory.hpp:74] Creating layer pool1
I0216 21:27:42.125161  2295 net.cpp:69] Creating Layer pool1
I0216 21:27:42.125169  2295 net.cpp:379] pool1 <- conv1
I0216 21:27:42.125182  2295 net.cpp:341] pool1 -> pool1
I0216 21:27:42.125192  2295 net.cpp:98] Setting up pool1
I0216 21:27:42.125202  2295 net.cpp:105] Top shape: 100 20 12 12 (288000)
I0216 21:27:42.125210  2295 layer_factory.hpp:74] Creating layer conv2
I0216 21:27:42.125219  2295 net.cpp:69] Creating Layer conv2
I0216 21:27:42.125226  2295 net.cpp:379] conv2 <- pool1
I0216 21:27:42.125238  2295 net.cpp:341] conv2 -> conv2
I0216 21:27:42.125252  2295 net.cpp:98] Setting up conv2
I0216 21:27:42.125529  2295 net.cpp:105] Top shape: 100 50 8 8 (320000)
I0216 21:27:42.125555  2295 layer_factory.hpp:74] Creating layer pool2
I0216 21:27:42.125576  2295 net.cpp:69] Creating Layer pool2
I0216 21:27:42.125582  2295 net.cpp:379] pool2 <- conv2
I0216 21:27:42.125597  2295 net.cpp:341] pool2 -> pool2
I0216 21:27:42.125608  2295 net.cpp:98] Setting up pool2
I0216 21:27:42.125617  2295 net.cpp:105] Top shape: 100 50 4 4 (80000)
I0216 21:27:42.125625  2295 layer_factory.hpp:74] Creating layer ip1
I0216 21:27:42.125638  2295 net.cpp:69] Creating Layer ip1
I0216 21:27:42.125646  2295 net.cpp:379] ip1 <- pool2
I0216 21:27:42.125656  2295 net.cpp:341] ip1 -> ip1
I0216 21:27:42.125670  2295 net.cpp:98] Setting up ip1
I0216 21:27:42.130166  2295 net.cpp:105] Top shape: 100 500 1 1 (50000)
I0216 21:27:42.130194  2295 layer_factory.hpp:74] Creating layer relu1
I0216 21:27:42.130208  2295 net.cpp:69] Creating Layer relu1
I0216 21:27:42.130214  2295 net.cpp:379] relu1 <- ip1
I0216 21:27:42.130228  2295 net.cpp:330] relu1 -> ip1 (in-place)
I0216 21:27:42.130249  2295 net.cpp:98] Setting up relu1
I0216 21:27:42.130255  2295 net.cpp:105] Top shape: 100 500 1 1 (50000)
I0216 21:27:42.130264  2295 layer_factory.hpp:74] Creating layer ip2
I0216 21:27:42.130275  2295 net.cpp:69] Creating Layer ip2
I0216 21:27:42.130281  2295 net.cpp:379] ip2 <- ip1
I0216 21:27:42.130292  2295 net.cpp:341] ip2 -> ip2
I0216 21:27:42.130305  2295 net.cpp:98] Setting up ip2
I0216 21:27:42.130375  2295 net.cpp:105] Top shape: 100 10 1 1 (1000)
I0216 21:27:42.130389  2295 layer_factory.hpp:74] Creating layer ip2_ip2_0_split
I0216 21:27:42.130399  2295 net.cpp:69] Creating Layer ip2_ip2_0_split
I0216 21:27:42.130406  2295 net.cpp:379] ip2_ip2_0_split <- ip2
I0216 21:27:42.130416  2295 net.cpp:341] ip2_ip2_0_split -> ip2_ip2_0_split_0
I0216 21:27:42.130429  2295 net.cpp:341] ip2_ip2_0_split -> ip2_ip2_0_split_1
I0216 21:27:42.130439  2295 net.cpp:98] Setting up ip2_ip2_0_split
I0216 21:27:42.130447  2295 net.cpp:105] Top shape: 100 10 1 1 (1000)
I0216 21:27:42.130455  2295 net.cpp:105] Top shape: 100 10 1 1 (1000)
I0216 21:27:42.130461  2295 layer_factory.hpp:74] Creating layer accuracy
I0216 21:27:42.130476  2295 net.cpp:69] Creating Layer accuracy
I0216 21:27:42.130492  2295 net.cpp:379] accuracy <- ip2_ip2_0_split_0
I0216 21:27:42.130502  2295 net.cpp:379] accuracy <- label_mnist_1_split_0
I0216 21:27:42.130513  2295 net.cpp:341] accuracy -> accuracy
I0216 21:27:42.130550  2295 net.cpp:98] Setting up accuracy
I0216 21:27:42.130568  2295 net.cpp:105] Top shape: 1 1 1 1 (1)
I0216 21:27:42.130575  2295 layer_factory.hpp:74] Creating layer loss
I0216 21:27:42.130595  2295 net.cpp:69] Creating Layer loss
I0216 21:27:42.130602  2295 net.cpp:379] loss <- ip2_ip2_0_split_1
I0216 21:27:42.130614  2295 net.cpp:379] loss <- label_mnist_1_split_1
I0216 21:27:42.130626  2295 net.cpp:341] loss -> loss
I0216 21:27:42.130638  2295 net.cpp:98] Setting up loss
I0216 21:27:42.130648  2295 layer_factory.hpp:74] Creating layer loss
I0216 21:27:42.130684  2295 net.cpp:105] Top shape: 1 1 1 1 (1)
I0216 21:27:42.130697  2295 net.cpp:111]     with loss weight 1
I0216 21:27:42.130708  2295 net.cpp:156] loss needs backward computation.
I0216 21:27:42.130717  2295 net.cpp:158] accuracy does not need backward computation.
I0216 21:27:42.130724  2295 net.cpp:156] ip2_ip2_0_split needs backward computation.
I0216 21:27:42.130731  2295 net.cpp:156] ip2 needs backward computation.
I0216 21:27:42.130738  2295 net.cpp:156] relu1 needs backward computation.
…
