…
I0216 11:58:37.822479 17497 net.cpp:260] The NetState phase (0) differed from the phase (1) specified by a rule in layer mnist
I0216 11:58:37.822509 17497 net.cpp:260] The NetState phase (0) differed from the phase (1) specified by a rule in layer accuracy
I0216 11:58:37.822661 17497 net.cpp:39] Initializing net from parameters: 
name: "LeNet"
state {
  phase: TRAIN
}
layer {
  name: "mnist"
  type: "Data"
  top: "data"
  top: "label"
  include {
    phase: TRAIN
  }
  transform_param {
    scale: 0.00390625
  }
  data_param {
    source: "examples/mnist/mnist_train_lmdb"
    batch_size: 64
    backend: LMDB
  }
}
layer {
  name: "conv1"
  type: "Convolution"
  bottom: "data"
  top: "conv1"
  param {
    lr_mult: 1
  }
  param {
    lr_mult: 2
  }
  convolution_param {
    num_output: 20
    kernel_size: 5
    stride: 1
    weight_filler {
      type: "xavier"
    }
    bias_filler {
      type: "constant"
    }
  }
}
layer {
  name: "pool1"
  type: "Pooling"
  bottom: "conv1"
  top: "pool1"
  pooling_param {
    pool: MAX
    kernel_size: 2
    stride: 2
  }
}
layer {
  name: "conv2"
  type: "Convolution"
  bottom: "pool1"
  top: "conv2"
  param {
    lr_mult: 1
  }
  param {
    lr_mult: 2
  }
  convolution_param {
    num_output: 50
    kernel_size: 5
    stride: 1
    weight_filler {
      type: "xavier"
    }
    bias_filler {
      type: "constant"
    }
  }
}
layer {
  name: "pool2"
  type: "Pooling"
  bottom: "conv2"
  top: "pool2"
  pooling_param {
    pool: MAX
    kernel_size: 2
    stride: 2
  }
}
layer {
  name: "ip1"
  type: "InnerProduct"
  bottom: "pool2"
  top: "ip1"
  param {
    lr_mult: 1
  }
  param {
    lr_mult: 2
  }
  inner_product_param {
    num_output: 500
    weight_filler {
      type: "xavier"
    }
    bias_filler {
      type: "constant"
    }
  }
}
layer {
  name: "relu1"
  type: "ReLU"
  bottom: "ip1"
  top: "ip1"
}
layer {
  name: "ip2"
  type: "InnerProduct"
  bottom: "ip1"
  top: "ip2"
  param {
    lr_mult: 1
  }
  param {
    lr_mult: 2
  }
  inner_product_param {
    num_output: 10
    weight_filler {
      type: "xavier"
    }
    bias_filler {
      type: "constant"
    }
  }
}
layer {
  name: "loss"
  type: "SoftmaxWithLoss"
  bottom: "ip2"
  bottom: "label"
  top: "loss"
}
I0216 11:58:37.822754 17497 layer_factory.hpp:74] Creating layer mnist
I0216 11:58:37.822778 17497 net.cpp:69] Creating Layer mnist
I0216 11:58:37.822796 17497 net.cpp:341] mnist -> data
I0216 11:58:37.822821 17497 net.cpp:341] mnist -> label
I0216 11:58:37.822839 17497 net.cpp:98] Setting up mnist
I0216 11:58:37.822947 17497 db.cpp:34] Opened lmdb examples/mnist/mnist_train_lmdb
I0216 11:58:37.823005 17497 data_layer.cpp:65] output data size: 64,1,28,28
I0216 11:58:37.823191 17497 net.cpp:105] Top shape: 64 1 28 28 (50176)
I0216 11:58:37.823210 17497 net.cpp:105] Top shape: 64 1 1 1 (64)
I0216 11:58:37.823218 17497 layer_factory.hpp:74] Creating layer conv1
I0216 11:58:37.823235 17497 net.cpp:69] Creating Layer conv1
I0216 11:58:37.823324 17497 net.cpp:379] conv1 <- data
I0216 11:58:37.823416 17497 net.cpp:341] conv1 -> conv1
I0216 11:58:37.823441 17497 net.cpp:98] Setting up conv1
I0216 11:58:37.823950 17497 net.cpp:105] Top shape: 64 20 24 24 (737280)
I0216 11:58:37.823994 17497 layer_factory.hpp:74] Creating layer pool1
I0216 11:58:37.824013 17497 net.cpp:69] Creating Layer pool1
I0216 11:58:37.824023 17497 net.cpp:379] pool1 <- conv1
I0216 11:58:37.824033 17497 net.cpp:341] pool1 -> pool1
I0216 11:58:37.824062 17497 net.cpp:98] Setting up pool1
I0216 11:58:37.824101 17497 net.cpp:105] Top shape: 64 20 12 12 (184320)
I0216 11:58:37.824112 17497 layer_factory.hpp:74] Creating layer conv2
I0216 11:58:37.824139 17497 net.cpp:69] Creating Layer conv2
I0216 11:58:37.824148 17497 net.cpp:379] conv2 <- pool1
I0216 11:58:37.824162 17497 net.cpp:341] conv2 -> conv2
I0216 11:58:37.824174 17497 net.cpp:98] Setting up conv2
I0216 11:58:37.824472 17497 net.cpp:105] Top shape: 64 50 8 8 (204800)
I0216 11:58:37.824494 17497 layer_factory.hpp:74] Creating layer pool2
I0216 11:58:37.824506 17497 net.cpp:69] Creating Layer pool2
I0216 11:58:37.824514 17497 net.cpp:379] pool2 <- conv2
I0216 11:58:37.824529 17497 net.cpp:341] pool2 -> pool2
I0216 11:58:37.824543 17497 net.cpp:98] Setting up pool2
I0216 11:58:37.824553 17497 net.cpp:105] Top shape: 64 50 4 4 (51200)
I0216 11:58:37.824560 17497 layer_factory.hpp:74] Creating layer ip1
I0216 11:58:37.824576 17497 net.cpp:69] Creating Layer ip1
I0216 11:58:37.824585 17497 net.cpp:379] ip1 <- pool2
I0216 11:58:37.824599 17497 net.cpp:341] ip1 -> ip1
I0216 11:58:37.824611 17497 net.cpp:98] Setting up ip1
I0216 11:58:37.828747 17497 net.cpp:105] Top shape: 64 500 1 1 (32000)
I0216 11:58:37.828775 17497 layer_factory.hpp:74] Creating layer relu1
I0216 11:58:37.828790 17497 net.cpp:69] Creating Layer relu1
I0216 11:58:37.828797 17497 net.cpp:379] relu1 <- ip1
I0216 11:58:37.828807 17497 net.cpp:330] relu1 -> ip1 (in-place)
I0216 11:58:37.828817 17497 net.cpp:98] Setting up relu1
I0216 11:58:37.828830 17497 net.cpp:105] Top shape: 64 500 1 1 (32000)
I0216 11:58:37.828836 17497 layer_factory.hpp:74] Creating layer ip2
I0216 11:58:37.828848 17497 net.cpp:69] Creating Layer ip2
I0216 11:58:37.828855 17497 net.cpp:379] ip2 <- ip1
I0216 11:58:37.828872 17497 net.cpp:341] ip2 -> ip2
I0216 11:58:37.828889 17497 net.cpp:98] Setting up ip2
I0216 11:58:37.828955 17497 net.cpp:105] Top shape: 64 10 1 1 (640)
I0216 11:58:37.828970 17497 layer_factory.hpp:74] Creating layer loss
I0216 11:58:37.828987 17497 net.cpp:69] Creating Layer loss
I0216 11:58:37.828999 17497 net.cpp:379] loss <- ip2
I0216 11:58:37.829008 17497 net.cpp:379] loss <- label
I0216 11:58:37.829018 17497 net.cpp:341] loss -> loss
I0216 11:58:37.829031 17497 net.cpp:98] Setting up loss
I0216 11:58:37.829044 17497 layer_factory.hpp:74] Creating layer loss
I0216 11:58:37.829072 17497 net.cpp:105] Top shape: 1 1 1 1 (1)
I0216 11:58:37.829082 17497 net.cpp:111]     with loss weight 1
I0216 11:58:37.829115 17497 net.cpp:156] loss needs backward computation.
I0216 11:58:37.829123 17497 net.cpp:156] ip2 needs backward computation.
I0216 11:58:37.829130 17497 net.cpp:156] relu1 needs backward computation.
I0216 11:58:37.829136 17497 net.cpp:156] ip1 needs backward computation.
I0216 11:58:37.829144 17497 net.cpp:156] pool2 needs backward computation.
…
I0216 11:58:37.829742 17497 solver.cpp:154] Creating test net (#0) specified by net file: examples/mnist/lenet_train_test.prototxt
I0216 11:58:37.829782 17497 net.cpp:260] The NetState phase (1) differed from the phase (0) specified by a rule in layer mnist
I0216 11:58:37.829917 17497 net.cpp:39] Initializing net from parameters: 
name: "LeNet"
state {
  phase: TEST
}
layer {
  name: "mnist"
  type: "Data"
  top: "data"
  top: "label"
  include {
    phase: TEST
  }
  transform_param {
    scale: 0.00390625
  }
  data_param {
    source: "examples/mnist/mnist_test_lmdb"
    batch_size: 100
    backend: LMDB
  }
}
layer {
  name: "conv1"
  type: "Convolution"
  bottom: "data"
  top: "conv1"
  param {
    lr_mult: 1
  }
  param {
    lr_mult: 2
  }
  convolution_param {
    num_output: 20
    kernel_size: 5
    stride: 1
    weight_filler {
      type: "xavier"
    }
    bias_filler {
      type: "constant"
    }
  }
}
layer {
  name: "pool1"
  type: "Pooling"
  bottom: "conv1"
  top: "pool1"
  pooling_param {
    pool: MAX
    kernel_size: 2
    stride: 2
  }
}
layer {
  name: "conv2"
  type: "Convolution"
  bottom: "pool1"
  top: "conv2"
  param {
    lr_mult: 1
  }
  param {
    lr_mult: 2
  }
  convolution_param {
    num_output: 50
    kernel_size: 5
    stride: 1
    weight_filler {
      type: "xavier"
    }
    bias_filler {
      type: "constant"
    }
  }
}
layer {
  name: "pool2"
  type: "Pooling"
  bottom: "conv2"
  top: "pool2"
  pooling_param {
    pool: MAX
    kernel_size: 2
    stride: 2
  }
}
layer {
  name: "ip1"
  type: "InnerProduct"
  bottom: "pool2"
  top: "ip1"
  param {
    lr_mult: 1
  }
  param {
    lr_mult: 2
  }
  inner_product_param {
    num_output: 500
    weight_filler {
      type: "xavier"
    }
    bias_filler {
      type: "constant"
    }
  }
}
layer {
  name: "relu1"
  type: "ReLU"
  bottom: "ip1"
  top: "ip1"
}
layer {
  name: "ip2"
  type: "InnerProduct"
  bottom: "ip1"
  top: "ip2"
  param {
    lr_mult: 1
  }
  param {
    lr_mult: 2
  }
  inner_product_param {
    num_output: 10
    weight_filler {
      type: "xavier"
    }
    bias_filler {
      type: "constant"
    }
  }
}
layer {
  name: "accuracy"
  type: "Accuracy"
  bottom: "ip2"
  bottom: "label"
  top: "accuracy"
  include {
    phase: TEST
  }
}
layer {
  name: "loss"
  type: "SoftmaxWithLoss"
  bottom: "ip2"
  bottom: "label"
  top: "loss"
}
I0216 11:58:37.830040 17497 layer_factory.hpp:74] Creating layer mnist
I0216 11:58:37.830060 17497 net.cpp:69] Creating Layer mnist
I0216 11:58:37.830070 17497 net.cpp:341] mnist -> data
I0216 11:58:37.830083 17497 net.cpp:341] mnist -> label
I0216 11:58:37.830096 17497 net.cpp:98] Setting up mnist
I0216 11:58:37.830242 17497 db.cpp:34] Opened lmdb examples/mnist/mnist_test_lmdb
I0216 11:58:37.830323 17497 data_layer.cpp:65] output data size: 100,1,28,28
I0216 11:58:37.830966 17497 net.cpp:105] Top shape: 100 1 28 28 (78400)
I0216 11:58:37.831006 17497 net.cpp:105] Top shape: 100 1 1 1 (100)
I0216 11:58:37.831023 17497 layer_factory.hpp:74] Creating layer label_mnist_1_split
I0216 11:58:37.831049 17497 net.cpp:69] Creating Layer label_mnist_1_split
I0216 11:58:37.831056 17497 net.cpp:379] label_mnist_1_split <- label
I0216 11:58:37.831110 17497 net.cpp:341] label_mnist_1_split -> label_mnist_1_split_0
I0216 11:58:37.831130 17497 net.cpp:341] label_mnist_1_split -> label_mnist_1_split_1
I0216 11:58:37.831141 17497 net.cpp:98] Setting up label_mnist_1_split
I0216 11:58:37.831156 17497 net.cpp:105] Top shape: 100 1 1 1 (100)
I0216 11:58:37.831166 17497 net.cpp:105] Top shape: 100 1 1 1 (100)
I0216 11:58:37.831174 17497 layer_factory.hpp:74] Creating layer conv1
I0216 11:58:37.831190 17497 net.cpp:69] Creating Layer conv1
I0216 11:58:37.831200 17497 net.cpp:379] conv1 <- data
I0216 11:58:37.831210 17497 net.cpp:341] conv1 -> conv1
I0216 11:58:37.831223 17497 net.cpp:98] Setting up conv1
I0216 11:58:37.831254 17497 net.cpp:105] Top shape: 100 20 24 24 (1152000)
I0216 11:58:37.831293 17497 layer_factory.hpp:74] Creating layer pool1
I0216 11:58:37.831320 17497 net.cpp:69] Creating Layer pool1
I0216 11:58:37.831346 17497 net.cpp:379] pool1 <- conv1
I0216 11:58:37.831357 17497 net.cpp:341] pool1 -> pool1
I0216 11:58:37.831372 17497 net.cpp:98] Setting up pool1
I0216 11:58:37.831380 17497 net.cpp:105] Top shape: 100 20 12 12 (288000)
I0216 11:58:37.831388 17497 layer_factory.hpp:74] Creating layer conv2
I0216 11:58:37.831398 17497 net.cpp:69] Creating Layer conv2
I0216 11:58:37.831405 17497 net.cpp:379] conv2 <- pool1
I0216 11:58:37.831418 17497 net.cpp:341] conv2 -> conv2
I0216 11:58:37.831429 17497 net.cpp:98] Setting up conv2
I0216 11:58:37.831943 17497 net.cpp:105] Top shape: 100 50 8 8 (320000)
I0216 11:58:37.832000 17497 layer_factory.hpp:74] Creating layer pool2
I0216 11:58:37.832044 17497 net.cpp:69] Creating Layer pool2
I0216 11:58:37.832052 17497 net.cpp:379] pool2 <- conv2
I0216 11:58:37.832065 17497 net.cpp:341] pool2 -> pool2
I0216 11:58:37.832077 17497 net.cpp:98] Setting up pool2
I0216 11:58:37.832087 17497 net.cpp:105] Top shape: 100 50 4 4 (80000)
I0216 11:58:37.832093 17497 layer_factory.hpp:74] Creating layer ip1
I0216 11:58:37.832103 17497 net.cpp:69] Creating Layer ip1
I0216 11:58:37.832109 17497 net.cpp:379] ip1 <- pool2
I0216 11:58:37.832130 17497 net.cpp:341] ip1 -> ip1
I0216 11:58:37.832145 17497 net.cpp:98] Setting up ip1
I0216 11:58:37.837426 17497 net.cpp:105] Top shape: 100 500 1 1 (50000)
I0216 11:58:37.837453 17497 layer_factory.hpp:74] Creating layer relu1
I0216 11:58:37.837463 17497 net.cpp:69] Creating Layer relu1
I0216 11:58:37.837471 17497 net.cpp:379] relu1 <- ip1
I0216 11:58:37.837481 17497 net.cpp:330] relu1 -> ip1 (in-place)
I0216 11:58:37.837494 17497 net.cpp:98] Setting up relu1
I0216 11:58:37.837502 17497 net.cpp:105] Top shape: 100 500 1 1 (50000)
I0216 11:58:37.837508 17497 layer_factory.hpp:74] Creating layer ip2
I0216 11:58:37.837519 17497 net.cpp:69] Creating Layer ip2
I0216 11:58:37.837527 17497 net.cpp:379] ip2 <- ip1
I0216 11:58:37.837538 17497 net.cpp:341] ip2 -> ip2
I0216 11:58:37.837548 17497 net.cpp:98] Setting up ip2
I0216 11:58:37.837613 17497 net.cpp:105] Top shape: 100 10 1 1 (1000)
I0216 11:58:37.837627 17497 layer_factory.hpp:74] Creating layer ip2_ip2_0_split
I0216 11:58:37.837640 17497 net.cpp:69] Creating Layer ip2_ip2_0_split
I0216 11:58:37.837647 17497 net.cpp:379] ip2_ip2_0_split <- ip2
I0216 11:58:37.837656 17497 net.cpp:341] ip2_ip2_0_split -> ip2_ip2_0_split_0
I0216 11:58:37.837668 17497 net.cpp:341] ip2_ip2_0_split -> ip2_ip2_0_split_1
I0216 11:58:37.837679 17497 net.cpp:98] Setting up ip2_ip2_0_split
I0216 11:58:37.837687 17497 net.cpp:105] Top shape: 100 10 1 1 (1000)
I0216 11:58:37.837694 17497 net.cpp:105] Top shape: 100 10 1 1 (1000)
I0216 11:58:37.837702 17497 layer_factory.hpp:74] Creating layer accuracy
I0216 11:58:37.837714 17497 net.cpp:69] Creating Layer accuracy
I0216 11:58:37.837723 17497 net.cpp:379] accuracy <- ip2_ip2_0_split_0
I0216 11:58:37.837730 17497 net.cpp:379] accuracy <- label_mnist_1_split_0
I0216 11:58:37.837740 17497 net.cpp:341] accuracy -> accuracy
I0216 11:58:37.837750 17497 net.cpp:98] Setting up accuracy
I0216 11:58:37.837760 17497 net.cpp:105] Top shape: 1 1 1 1 (1)
I0216 11:58:37.837767 17497 layer_factory.hpp:74] Creating layer loss
I0216 11:58:37.837776 17497 net.cpp:69] Creating Layer loss
I0216 11:58:37.837784 17497 net.cpp:379] loss <- ip2_ip2_0_split_1
I0216 11:58:37.837791 17497 net.cpp:379] loss <- label_mnist_1_split_1
I0216 11:58:37.837806 17497 net.cpp:341] loss -> loss
I0216 11:58:37.837816 17497 net.cpp:98] Setting up loss
I0216 11:58:37.837826 17497 layer_factory.hpp:74] Creating layer loss
I0216 11:58:37.837844 17497 net.cpp:105] Top shape: 1 1 1 1 (1)
I0216 11:58:37.837856 17497 net.cpp:111]     with loss weight 1
I0216 11:58:37.837867 17497 net.cpp:156] loss needs backward computation.
I0216 11:58:37.837875 17497 net.cpp:158] accuracy does not need backward computation.
I0216 11:58:37.837882 17497 net.cpp:156] ip2_ip2_0_split needs backward computation.
I0216 11:58:37.837888 17497 net.cpp:156] ip2 needs backward computation.
I0216 11:58:37.837895 17497 net.cpp:156] relu1 needs backward computation.
…
