…
I0216 21:36:15.637282 15389 net.cpp:260] The NetState phase (0) differed from the phase (1) specified by a rule in layer mnist
I0216 21:36:15.637306 15389 net.cpp:260] The NetState phase (0) differed from the phase (1) specified by a rule in layer accuracy
I0216 21:36:15.637418 15389 net.cpp:39] Initializing net from parameters: 
name: "LeNet"
state {
  phase: TRAIN
}
layer {
  name: "mnist"
  type: "Data"
  top: "data"
  top: "label"
  include {
    phase: TRAIN
  }
  transform_param {
    scale: 0.00390625
  }
  data_param {
    source: "examples/mnist/mnist_train_lmdb"
    batch_size: 64
    backend: LMDB
  }
}
layer {
  name: "conv1"
  type: "Convolution"
  bottom: "data"
  top: "conv1"
  param {
    lr_mult: 1
  }
  param {
    lr_mult: 2
  }
  convolution_param {
    num_output: 20
    kernel_size: 5
    stride: 1
    weight_filler {
      type: "xavier"
    }
    bias_filler {
      type: "constant"
    }
  }
}
layer {
  name: "pool1"
  type: "Pooling"
  bottom: "conv1"
  top: "pool1"
  pooling_param {
    pool: MAX
    kernel_size: 2
    stride: 2
  }
}
layer {
  name: "conv2"
  type: "Convolution"
  bottom: "pool1"
  top: "conv2"
  param {
    lr_mult: 1
  }
  param {
    lr_mult: 2
  }
  convolution_param {
    num_output: 50
    kernel_size: 5
    stride: 1
    weight_filler {
      type: "xavier"
    }
    bias_filler {
      type: "constant"
    }
  }
}
layer {
  name: "pool2"
  type: "Pooling"
  bottom: "conv2"
  top: "pool2"
  pooling_param {
    pool: MAX
    kernel_size: 2
    stride: 2
  }
}
layer {
  name: "ip1"
  type: "InnerProduct"
  bottom: "pool2"
  top: "ip1"
  param {
    lr_mult: 1
  }
  param {
    lr_mult: 2
  }
  inner_product_param {
    num_output: 500
    weight_filler {
      type: "xavier"
    }
    bias_filler {
      type: "constant"
    }
  }
}
layer {
  name: "relu1"
  type: "ReLU"
  bottom: "ip1"
  top: "ip1"
}
layer {
  name: "ip2"
  type: "InnerProduct"
  bottom: "ip1"
  top: "ip2"
  param {
    lr_mult: 1
  }
  param {
    lr_mult: 2
  }
  inner_product_param {
    num_output: 10
    weight_filler {
      type: "xavier"
    }
    bias_filler {
      type: "constant"
    }
  }
}
layer {
  name: "loss"
  type: "SoftmaxWithLoss"
  bottom: "ip2"
  bottom: "label"
  top: "loss"
}
I0216 21:36:15.637496 15389 layer_factory.hpp:74] Creating layer mnist
I0216 21:36:15.637526 15389 net.cpp:69] Creating Layer mnist
I0216 21:36:15.637537 15389 net.cpp:341] mnist -> data
I0216 21:36:15.637565 15389 net.cpp:341] mnist -> label
I0216 21:36:15.637581 15389 net.cpp:98] Setting up mnist
I0216 21:36:15.637694 15389 db.cpp:34] Opened lmdb examples/mnist/mnist_train_lmdb
I0216 21:36:15.637758 15389 data_layer.cpp:65] output data size: 64,1,28,28
I0216 21:36:15.637948 15389 net.cpp:105] Top shape: 64 1 28 28 (50176)
I0216 21:36:15.637964 15389 net.cpp:105] Top shape: 64 1 1 1 (64)
I0216 21:36:15.637974 15389 layer_factory.hpp:74] Creating layer conv1
I0216 21:36:15.637989 15389 net.cpp:69] Creating Layer conv1
I0216 21:36:15.638073 15389 net.cpp:379] conv1 <- data
I0216 21:36:15.638155 15389 net.cpp:341] conv1 -> conv1
I0216 21:36:15.638180 15389 net.cpp:98] Setting up conv1
I0216 21:36:15.638823 15389 net.cpp:105] Top shape: 64 20 24 24 (737280)
I0216 21:36:15.638913 15389 layer_factory.hpp:74] Creating layer pool1
I0216 21:36:15.638947 15389 net.cpp:69] Creating Layer pool1
I0216 21:36:15.638963 15389 net.cpp:379] pool1 <- conv1
I0216 21:36:15.638988 15389 net.cpp:341] pool1 -> pool1
I0216 21:36:15.639011 15389 net.cpp:98] Setting up pool1
I0216 21:36:15.639107 15389 net.cpp:105] Top shape: 64 20 12 12 (184320)
I0216 21:36:15.639185 15389 layer_factory.hpp:74] Creating layer conv2
I0216 21:36:15.639224 15389 net.cpp:69] Creating Layer conv2
I0216 21:36:15.639240 15389 net.cpp:379] conv2 <- pool1
I0216 21:36:15.639264 15389 net.cpp:341] conv2 -> conv2
I0216 21:36:15.639304 15389 net.cpp:98] Setting up conv2
I0216 21:36:15.640028 15389 net.cpp:105] Top shape: 64 50 8 8 (204800)
I0216 21:36:15.640076 15389 layer_factory.hpp:74] Creating layer pool2
I0216 21:36:15.640103 15389 net.cpp:69] Creating Layer pool2
I0216 21:36:15.640118 15389 net.cpp:379] pool2 <- conv2
I0216 21:36:15.640146 15389 net.cpp:341] pool2 -> pool2
I0216 21:36:15.640169 15389 net.cpp:98] Setting up pool2
I0216 21:36:15.640188 15389 net.cpp:105] Top shape: 64 50 4 4 (51200)
I0216 21:36:15.640203 15389 layer_factory.hpp:74] Creating layer ip1
I0216 21:36:15.640236 15389 net.cpp:69] Creating Layer ip1
I0216 21:36:15.640269 15389 net.cpp:379] ip1 <- pool2
I0216 21:36:15.640296 15389 net.cpp:341] ip1 -> ip1
I0216 21:36:15.640321 15389 net.cpp:98] Setting up ip1
I0216 21:36:15.647832 15389 net.cpp:105] Top shape: 64 500 1 1 (32000)
I0216 21:36:15.647863 15389 layer_factory.hpp:74] Creating layer relu1
I0216 21:36:15.647877 15389 net.cpp:69] Creating Layer relu1
I0216 21:36:15.647884 15389 net.cpp:379] relu1 <- ip1
I0216 21:36:15.647893 15389 net.cpp:330] relu1 -> ip1 (in-place)
I0216 21:36:15.647903 15389 net.cpp:98] Setting up relu1
I0216 21:36:15.647914 15389 net.cpp:105] Top shape: 64 500 1 1 (32000)
I0216 21:36:15.647922 15389 layer_factory.hpp:74] Creating layer ip2
I0216 21:36:15.647933 15389 net.cpp:69] Creating Layer ip2
I0216 21:36:15.647940 15389 net.cpp:379] ip2 <- ip1
I0216 21:36:15.647953 15389 net.cpp:341] ip2 -> ip2
I0216 21:36:15.647964 15389 net.cpp:98] Setting up ip2
I0216 21:36:15.648028 15389 net.cpp:105] Top shape: 64 10 1 1 (640)
I0216 21:36:15.648043 15389 layer_factory.hpp:74] Creating layer loss
I0216 21:36:15.648061 15389 net.cpp:69] Creating Layer loss
I0216 21:36:15.648068 15389 net.cpp:379] loss <- ip2
I0216 21:36:15.648077 15389 net.cpp:379] loss <- label
I0216 21:36:15.648085 15389 net.cpp:341] loss -> loss
I0216 21:36:15.648098 15389 net.cpp:98] Setting up loss
I0216 21:36:15.648110 15389 layer_factory.hpp:74] Creating layer loss
I0216 21:36:15.648131 15389 net.cpp:105] Top shape: 1 1 1 1 (1)
I0216 21:36:15.648141 15389 net.cpp:111]     with loss weight 1
I0216 21:36:15.648176 15389 net.cpp:156] loss needs backward computation.
I0216 21:36:15.648185 15389 net.cpp:156] ip2 needs backward computation.
I0216 21:36:15.648192 15389 net.cpp:156] relu1 needs backward computation.
I0216 21:36:15.648198 15389 net.cpp:156] ip1 needs backward computation.
I0216 21:36:15.648206 15389 net.cpp:156] pool2 needs backward computation.
…
I0216 21:36:15.648784 15389 solver.cpp:154] Creating test net (#0) specified by net file: examples/mnist/lenet_train_test.prototxt
I0216 21:36:15.648824 15389 net.cpp:260] The NetState phase (1) differed from the phase (0) specified by a rule in layer mnist
I0216 21:36:15.648970 15389 net.cpp:39] Initializing net from parameters: 
name: "LeNet"
state {
  phase: TEST
}
layer {
  name: "mnist"
  type: "Data"
  top: "data"
  top: "label"
  include {
    phase: TEST
  }
  transform_param {
    scale: 0.00390625
  }
  data_param {
    source: "examples/mnist/mnist_test_lmdb"
    batch_size: 100
    backend: LMDB
  }
}
layer {
  name: "conv1"
  type: "Convolution"
  bottom: "data"
  top: "conv1"
  param {
    lr_mult: 1
  }
  param {
    lr_mult: 2
  }
  convolution_param {
    num_output: 20
    kernel_size: 5
    stride: 1
    weight_filler {
      type: "xavier"
    }
    bias_filler {
      type: "constant"
    }
  }
}
layer {
  name: "pool1"
  type: "Pooling"
  bottom: "conv1"
  top: "pool1"
  pooling_param {
    pool: MAX
    kernel_size: 2
    stride: 2
  }
}
layer {
  name: "conv2"
  type: "Convolution"
  bottom: "pool1"
  top: "conv2"
  param {
    lr_mult: 1
  }
  param {
    lr_mult: 2
  }
  convolution_param {
    num_output: 50
    kernel_size: 5
    stride: 1
    weight_filler {
      type: "xavier"
    }
    bias_filler {
      type: "constant"
    }
  }
}
layer {
  name: "pool2"
  type: "Pooling"
  bottom: "conv2"
  top: "pool2"
  pooling_param {
    pool: MAX
    kernel_size: 2
    stride: 2
  }
}
layer {
  name: "ip1"
  type: "InnerProduct"
  bottom: "pool2"
  top: "ip1"
  param {
    lr_mult: 1
  }
  param {
    lr_mult: 2
  }
  inner_product_param {
    num_output: 500
    weight_filler {
      type: "xavier"
    }
    bias_filler {
      type: "constant"
    }
  }
}
layer {
  name: "relu1"
  type: "ReLU"
  bottom: "ip1"
  top: "ip1"
}
layer {
  name: "ip2"
  type: "InnerProduct"
  bottom: "ip1"
  top: "ip2"
  param {
    lr_mult: 1
  }
  param {
    lr_mult: 2
  }
  inner_product_param {
    num_output: 10
    weight_filler {
      type: "xavier"
    }
    bias_filler {
      type: "constant"
    }
  }
}
layer {
  name: "accuracy"
  type: "Accuracy"
  bottom: "ip2"
  bottom: "label"
  top: "accuracy"
  include {
    phase: TEST
  }
}
layer {
  name: "loss"
  type: "SoftmaxWithLoss"
  bottom: "ip2"
  bottom: "label"
  top: "loss"
}
I0216 21:36:15.649085 15389 layer_factory.hpp:74] Creating layer mnist
I0216 21:36:15.649102 15389 net.cpp:69] Creating Layer mnist
I0216 21:36:15.649112 15389 net.cpp:341] mnist -> data
I0216 21:36:15.649126 15389 net.cpp:341] mnist -> label
I0216 21:36:15.649137 15389 net.cpp:98] Setting up mnist
I0216 21:36:15.649224 15389 db.cpp:34] Opened lmdb examples/mnist/mnist_test_lmdb
I0216 21:36:15.649271 15389 data_layer.cpp:65] output data size: 100,1,28,28
I0216 21:36:15.649543 15389 net.cpp:105] Top shape: 100 1 28 28 (78400)
I0216 21:36:15.649559 15389 net.cpp:105] Top shape: 100 1 1 1 (100)
I0216 21:36:15.649567 15389 layer_factory.hpp:74] Creating layer label_mnist_1_split
I0216 21:36:15.649577 15389 net.cpp:69] Creating Layer label_mnist_1_split
I0216 21:36:15.649585 15389 net.cpp:379] label_mnist_1_split <- label
I0216 21:36:15.649667 15389 net.cpp:341] label_mnist_1_split -> label_mnist_1_split_0
I0216 21:36:15.649765 15389 net.cpp:341] label_mnist_1_split -> label_mnist_1_split_1
I0216 21:36:15.649796 15389 net.cpp:98] Setting up label_mnist_1_split
I0216 21:36:15.649842 15389 net.cpp:105] Top shape: 100 1 1 1 (100)
I0216 21:36:15.649854 15389 net.cpp:105] Top shape: 100 1 1 1 (100)
I0216 21:36:15.649881 15389 layer_factory.hpp:74] Creating layer conv1
I0216 21:36:15.649910 15389 net.cpp:69] Creating Layer conv1
I0216 21:36:15.649935 15389 net.cpp:379] conv1 <- data
I0216 21:36:15.649960 15389 net.cpp:341] conv1 -> conv1
I0216 21:36:15.649988 15389 net.cpp:98] Setting up conv1
I0216 21:36:15.650063 15389 net.cpp:105] Top shape: 100 20 24 24 (1152000)
I0216 21:36:15.650109 15389 layer_factory.hpp:74] Creating layer pool1
I0216 21:36:15.650135 15389 net.cpp:69] Creating Layer pool1
I0216 21:36:15.650151 15389 net.cpp:379] pool1 <- conv1
I0216 21:36:15.650171 15389 net.cpp:341] pool1 -> pool1
I0216 21:36:15.650192 15389 net.cpp:98] Setting up pool1
I0216 21:36:15.650219 15389 net.cpp:105] Top shape: 100 20 12 12 (288000)
I0216 21:36:15.650236 15389 layer_factory.hpp:74] Creating layer conv2
I0216 21:36:15.650261 15389 net.cpp:69] Creating Layer conv2
I0216 21:36:15.650276 15389 net.cpp:379] conv2 <- pool1
I0216 21:36:15.650302 15389 net.cpp:341] conv2 -> conv2
I0216 21:36:15.650327 15389 net.cpp:98] Setting up conv2
I0216 21:36:15.651023 15389 net.cpp:105] Top shape: 100 50 8 8 (320000)
I0216 21:36:15.651098 15389 layer_factory.hpp:74] Creating layer pool2
I0216 21:36:15.651154 15389 net.cpp:69] Creating Layer pool2
I0216 21:36:15.651170 15389 net.cpp:379] pool2 <- conv2
I0216 21:36:15.651199 15389 net.cpp:341] pool2 -> pool2
I0216 21:36:15.651223 15389 net.cpp:98] Setting up pool2
I0216 21:36:15.651242 15389 net.cpp:105] Top shape: 100 50 4 4 (80000)
I0216 21:36:15.651258 15389 layer_factory.hpp:74] Creating layer ip1
I0216 21:36:15.651281 15389 net.cpp:69] Creating Layer ip1
I0216 21:36:15.651296 15389 net.cpp:379] ip1 <- pool2
I0216 21:36:15.651322 15389 net.cpp:341] ip1 -> ip1
I0216 21:36:15.651350 15389 net.cpp:98] Setting up ip1
I0216 21:36:15.658943 15389 net.cpp:105] Top shape: 100 500 1 1 (50000)
I0216 21:36:15.658995 15389 layer_factory.hpp:74] Creating layer relu1
I0216 21:36:15.659009 15389 net.cpp:69] Creating Layer relu1
I0216 21:36:15.659018 15389 net.cpp:379] relu1 <- ip1
I0216 21:36:15.659029 15389 net.cpp:330] relu1 -> ip1 (in-place)
I0216 21:36:15.659039 15389 net.cpp:98] Setting up relu1
I0216 21:36:15.659047 15389 net.cpp:105] Top shape: 100 500 1 1 (50000)
I0216 21:36:15.659054 15389 layer_factory.hpp:74] Creating layer ip2
I0216 21:36:15.659071 15389 net.cpp:69] Creating Layer ip2
I0216 21:36:15.659090 15389 net.cpp:379] ip2 <- ip1
I0216 21:36:15.659101 15389 net.cpp:341] ip2 -> ip2
I0216 21:36:15.659113 15389 net.cpp:98] Setting up ip2
I0216 21:36:15.659183 15389 net.cpp:105] Top shape: 100 10 1 1 (1000)
I0216 21:36:15.659198 15389 layer_factory.hpp:74] Creating layer ip2_ip2_0_split
I0216 21:36:15.659209 15389 net.cpp:69] Creating Layer ip2_ip2_0_split
I0216 21:36:15.659216 15389 net.cpp:379] ip2_ip2_0_split <- ip2
I0216 21:36:15.659225 15389 net.cpp:341] ip2_ip2_0_split -> ip2_ip2_0_split_0
I0216 21:36:15.659237 15389 net.cpp:341] ip2_ip2_0_split -> ip2_ip2_0_split_1
I0216 21:36:15.659247 15389 net.cpp:98] Setting up ip2_ip2_0_split
I0216 21:36:15.659256 15389 net.cpp:105] Top shape: 100 10 1 1 (1000)
I0216 21:36:15.659265 15389 net.cpp:105] Top shape: 100 10 1 1 (1000)
I0216 21:36:15.659271 15389 layer_factory.hpp:74] Creating layer accuracy
I0216 21:36:15.659286 15389 net.cpp:69] Creating Layer accuracy
I0216 21:36:15.659302 15389 net.cpp:379] accuracy <- ip2_ip2_0_split_0
I0216 21:36:15.659312 15389 net.cpp:379] accuracy <- label_mnist_1_split_0
I0216 21:36:15.659320 15389 net.cpp:341] accuracy -> accuracy
I0216 21:36:15.659330 15389 net.cpp:98] Setting up accuracy
I0216 21:36:15.659339 15389 net.cpp:105] Top shape: 1 1 1 1 (1)
I0216 21:36:15.659348 15389 layer_factory.hpp:74] Creating layer loss
I0216 21:36:15.659358 15389 net.cpp:69] Creating Layer loss
I0216 21:36:15.659365 15389 net.cpp:379] loss <- ip2_ip2_0_split_1
I0216 21:36:15.659373 15389 net.cpp:379] loss <- label_mnist_1_split_1
I0216 21:36:15.659385 15389 net.cpp:341] loss -> loss
I0216 21:36:15.659395 15389 net.cpp:98] Setting up loss
I0216 21:36:15.659405 15389 layer_factory.hpp:74] Creating layer loss
I0216 21:36:15.659426 15389 net.cpp:105] Top shape: 1 1 1 1 (1)
I0216 21:36:15.659440 15389 net.cpp:111]     with loss weight 1
I0216 21:36:15.659456 15389 net.cpp:156] loss needs backward computation.
I0216 21:36:15.659464 15389 net.cpp:158] accuracy does not need backward computation.
I0216 21:36:15.659471 15389 net.cpp:156] ip2_ip2_0_split needs backward computation.
I0216 21:36:15.659477 15389 net.cpp:156] ip2 needs backward computation.
I0216 21:36:15.659484 15389 net.cpp:156] relu1 needs backward computation.
…
