name: "mnist_siamese_train_test"
<<<<<<< HEAD
<<<<<<< HEAD
<<<<<<< HEAD
<<<<<<< HEAD
<<<<<<< HEAD
=======
<<<<<<< HEAD
<<<<<<< HEAD
<<<<<<< HEAD
<<<<<<< HEAD
=======
>>>>>>> caffe
>>>>>>> pod-caffe-pod.hpp-merge
=======
<<<<<<< HEAD
=======
>>>>>>> caffe
>>>>>>> pod-caffe-pod.hpp-merge
=======
>>>>>>> caffe
>>>>>>> pod/caffe-merge
=======
>>>>>>> caffe
>>>>>>> pod/caffe-merge
=======
=======
<<<<<<< HEAD
<<<<<<< HEAD
=======
>>>>>>> caffe
>>>>>>> pod-caffe-pod.hpp-merge
>>>>>>> pod/device/blob.hpp
=======
>>>>>>> device-abstraction
=======
=======
>>>>>>> caffe
>>>>>>> pod-caffe-pod.hpp-merge
layer {
  name: "pair_data"
  type: "Data"
  top: "pair_data"
  top: "sim"
  include {
    phase: TRAIN
  }
  transform_param {
    scale: 0.00390625
  }
  data_param {
    source: "examples/siamese/mnist_siamese_train_leveldb"
    batch_size: 64
  }
}
layer {
  name: "pair_data"
  type: "Data"
  top: "pair_data"
  top: "sim"
  include {
    phase: TEST
  }
  transform_param {
    scale: 0.00390625
  }
  data_param {
    source: "examples/siamese/mnist_siamese_test_leveldb"
    batch_size: 100
  }
}
layer {
  name: "slice_pair"
  type: "Slice"
  bottom: "pair_data"
  top: "data"
  top: "data_p"
  slice_param {
    slice_dim: 1
    slice_point: 1
  }
}
layer {
  name: "conv1"
  type: "Convolution"
  bottom: "data"
  top: "conv1"
  param {
    name: "conv1_w"
    lr_mult: 1
  }
  param {
    name: "conv1_b"
    lr_mult: 2
  }
<<<<<<< HEAD
<<<<<<< HEAD
<<<<<<< HEAD
=======
<<<<<<< HEAD
<<<<<<< HEAD
<<<<<<< HEAD
<<<<<<< HEAD
<<<<<<< HEAD
=======
=======
>>>>>>> pod-caffe-pod.hpp-merge
=======
>>>>>>> pod/caffe-merge
=======
>>>>>>> pod/caffe-merge
=======
=======
>>>>>>> pod/device/blob.hpp
=======
=======
>>>>>>> pod-caffe-pod.hpp-merge
layers {
  name: "pair_data"
  type: DATA
  top: "pair_data"
  top: "sim"
  data_param {
    source: "examples/siamese/mnist_siamese_train_leveldb"
    scale: 0.00390625
    batch_size: 64
  }
  include: { phase: TRAIN }
}
layers {
  name: "pair_data"
  type: DATA
  top: "pair_data"
  top: "sim"
  data_param {
    source: "examples/siamese/mnist_siamese_test_leveldb"
    scale: 0.00390625
    batch_size: 100
  }
  include: { phase: TEST }
}
layers {
    name: "slice_pair"
    type: SLICE
    bottom: "pair_data"
    top: "data"
    top: "data_p"
    slice_param {
        slice_dim: 1
        slice_point: 1
    }
}




layers {
  name: "conv1"
  type: CONVOLUTION
  bottom: "data"
  top: "conv1"
  blobs_lr: 1
  blobs_lr: 2
>>>>>>> origin/BVLC/parallel
=======
>>>>>>> caffe
<<<<<<< HEAD
<<<<<<< HEAD
<<<<<<< HEAD
<<<<<<< HEAD
<<<<<<< HEAD
>>>>>>> pod-caffe-pod.hpp-merge
=======
>>>>>>> pod-caffe-pod.hpp-merge
=======
>>>>>>> pod/caffe-merge
=======
>>>>>>> pod/caffe-merge
=======
>>>>>>> pod-caffe-pod.hpp-merge
>>>>>>> pod/device/blob.hpp
=======
>>>>>>> device-abstraction
=======
>>>>>>> pod-caffe-pod.hpp-merge
  convolution_param {
    num_output: 20
    kernel_size: 5
    stride: 1
    weight_filler {
      type: "xavier"
    }
    bias_filler {
      type: "constant"
    }
  }
<<<<<<< HEAD
<<<<<<< HEAD
<<<<<<< HEAD
<<<<<<< HEAD
<<<<<<< HEAD
=======
<<<<<<< HEAD
<<<<<<< HEAD
<<<<<<< HEAD
<<<<<<< HEAD
=======
>>>>>>> caffe
>>>>>>> pod-caffe-pod.hpp-merge
=======
<<<<<<< HEAD
=======
>>>>>>> caffe
>>>>>>> pod-caffe-pod.hpp-merge
=======
>>>>>>> caffe
>>>>>>> pod/caffe-merge
=======
>>>>>>> caffe
>>>>>>> pod/caffe-merge
=======
=======
<<<<<<< HEAD
<<<<<<< HEAD
=======
>>>>>>> caffe
>>>>>>> pod-caffe-pod.hpp-merge
>>>>>>> pod/device/blob.hpp
=======
>>>>>>> device-abstraction
=======
=======
>>>>>>> caffe
>>>>>>> pod-caffe-pod.hpp-merge
}
layer {
  name: "pool1"
  type: "Pooling"
<<<<<<< HEAD
<<<<<<< HEAD
<<<<<<< HEAD
=======
<<<<<<< HEAD
<<<<<<< HEAD
<<<<<<< HEAD
<<<<<<< HEAD
<<<<<<< HEAD
=======
=======
>>>>>>> pod-caffe-pod.hpp-merge
=======
>>>>>>> pod/caffe-merge
=======
>>>>>>> pod/caffe-merge
=======
=======
>>>>>>> pod/device/blob.hpp
=======
=======
>>>>>>> pod-caffe-pod.hpp-merge
  param: "conv1_w"
  param: "conv1_b"
}
layers {
  name: "pool1"
  type: POOLING
>>>>>>> origin/BVLC/parallel
=======
>>>>>>> caffe
<<<<<<< HEAD
<<<<<<< HEAD
<<<<<<< HEAD
<<<<<<< HEAD
<<<<<<< HEAD
>>>>>>> pod-caffe-pod.hpp-merge
=======
>>>>>>> pod-caffe-pod.hpp-merge
=======
>>>>>>> pod/caffe-merge
=======
>>>>>>> pod/caffe-merge
=======
>>>>>>> pod-caffe-pod.hpp-merge
>>>>>>> pod/device/blob.hpp
=======
>>>>>>> device-abstraction
=======
>>>>>>> pod-caffe-pod.hpp-merge
  bottom: "conv1"
  top: "pool1"
  pooling_param {
    pool: MAX
    kernel_size: 2
    stride: 2
  }
}
<<<<<<< HEAD
<<<<<<< HEAD
<<<<<<< HEAD
<<<<<<< HEAD
<<<<<<< HEAD
=======
<<<<<<< HEAD
<<<<<<< HEAD
<<<<<<< HEAD
<<<<<<< HEAD
=======
>>>>>>> caffe
>>>>>>> pod-caffe-pod.hpp-merge
=======
<<<<<<< HEAD
=======
>>>>>>> caffe
>>>>>>> pod-caffe-pod.hpp-merge
=======
>>>>>>> caffe
>>>>>>> pod/caffe-merge
=======
>>>>>>> caffe
>>>>>>> pod/caffe-merge
=======
=======
<<<<<<< HEAD
<<<<<<< HEAD
=======
>>>>>>> caffe
>>>>>>> pod-caffe-pod.hpp-merge
>>>>>>> pod/device/blob.hpp
=======
>>>>>>> device-abstraction
=======
=======
>>>>>>> caffe
>>>>>>> pod-caffe-pod.hpp-merge
layer {
  name: "conv2"
  type: "Convolution"
  bottom: "pool1"
  top: "conv2"
  param {
    name: "conv2_w"
    lr_mult: 1
  }
  param {
    name: "conv2_b"
    lr_mult: 2
  }
<<<<<<< HEAD
<<<<<<< HEAD
<<<<<<< HEAD
=======
<<<<<<< HEAD
<<<<<<< HEAD
<<<<<<< HEAD
<<<<<<< HEAD
<<<<<<< HEAD
=======
=======
>>>>>>> pod-caffe-pod.hpp-merge
=======
>>>>>>> pod/caffe-merge
=======
>>>>>>> pod/caffe-merge
=======
=======
>>>>>>> pod/device/blob.hpp
=======
=======
>>>>>>> pod-caffe-pod.hpp-merge
layers {
  name: "conv2"
  type: CONVOLUTION
  bottom: "pool1"
  top: "conv2"
  blobs_lr: 1
  blobs_lr: 2
>>>>>>> origin/BVLC/parallel
=======
>>>>>>> caffe
<<<<<<< HEAD
<<<<<<< HEAD
<<<<<<< HEAD
<<<<<<< HEAD
<<<<<<< HEAD
>>>>>>> pod-caffe-pod.hpp-merge
=======
>>>>>>> pod-caffe-pod.hpp-merge
=======
>>>>>>> pod/caffe-merge
=======
>>>>>>> pod/caffe-merge
=======
>>>>>>> pod-caffe-pod.hpp-merge
>>>>>>> pod/device/blob.hpp
=======
>>>>>>> device-abstraction
=======
>>>>>>> pod-caffe-pod.hpp-merge
  convolution_param {
    num_output: 50
    kernel_size: 5
    stride: 1
    weight_filler {
      type: "xavier"
    }
    bias_filler {
      type: "constant"
    }
  }
<<<<<<< HEAD
<<<<<<< HEAD
<<<<<<< HEAD
<<<<<<< HEAD
<<<<<<< HEAD
=======
<<<<<<< HEAD
<<<<<<< HEAD
<<<<<<< HEAD
<<<<<<< HEAD
=======
>>>>>>> caffe
>>>>>>> pod-caffe-pod.hpp-merge
=======
<<<<<<< HEAD
=======
>>>>>>> caffe
>>>>>>> pod-caffe-pod.hpp-merge
=======
>>>>>>> caffe
>>>>>>> pod/caffe-merge
=======
>>>>>>> caffe
>>>>>>> pod/caffe-merge
=======
=======
<<<<<<< HEAD
<<<<<<< HEAD
=======
>>>>>>> caffe
>>>>>>> pod-caffe-pod.hpp-merge
>>>>>>> pod/device/blob.hpp
=======
>>>>>>> device-abstraction
=======
=======
>>>>>>> caffe
>>>>>>> pod-caffe-pod.hpp-merge
}
layer {
  name: "pool2"
  type: "Pooling"
<<<<<<< HEAD
<<<<<<< HEAD
<<<<<<< HEAD
=======
<<<<<<< HEAD
<<<<<<< HEAD
<<<<<<< HEAD
<<<<<<< HEAD
<<<<<<< HEAD
=======
=======
>>>>>>> pod-caffe-pod.hpp-merge
=======
>>>>>>> pod/caffe-merge
=======
>>>>>>> pod/caffe-merge
=======
=======
>>>>>>> pod/device/blob.hpp
=======
=======
>>>>>>> pod-caffe-pod.hpp-merge
  param: "conv2_w"
  param: "conv2_b"
}
layers {
  name: "pool2"
  type: POOLING
>>>>>>> origin/BVLC/parallel
=======
>>>>>>> caffe
<<<<<<< HEAD
<<<<<<< HEAD
<<<<<<< HEAD
<<<<<<< HEAD
<<<<<<< HEAD
>>>>>>> pod-caffe-pod.hpp-merge
=======
>>>>>>> pod-caffe-pod.hpp-merge
=======
>>>>>>> pod/caffe-merge
=======
>>>>>>> pod/caffe-merge
=======
>>>>>>> pod-caffe-pod.hpp-merge
>>>>>>> pod/device/blob.hpp
=======
>>>>>>> device-abstraction
=======
>>>>>>> pod-caffe-pod.hpp-merge
  bottom: "conv2"
  top: "pool2"
  pooling_param {
    pool: MAX
    kernel_size: 2
    stride: 2
  }
}
<<<<<<< HEAD
<<<<<<< HEAD
<<<<<<< HEAD
<<<<<<< HEAD
<<<<<<< HEAD
=======
<<<<<<< HEAD
<<<<<<< HEAD
<<<<<<< HEAD
<<<<<<< HEAD
=======
>>>>>>> caffe
>>>>>>> pod-caffe-pod.hpp-merge
=======
<<<<<<< HEAD
=======
>>>>>>> caffe
>>>>>>> pod-caffe-pod.hpp-merge
=======
>>>>>>> caffe
>>>>>>> pod/caffe-merge
=======
>>>>>>> caffe
>>>>>>> pod/caffe-merge
=======
=======
<<<<<<< HEAD
<<<<<<< HEAD
=======
>>>>>>> caffe
>>>>>>> pod-caffe-pod.hpp-merge
>>>>>>> pod/device/blob.hpp
=======
>>>>>>> device-abstraction
=======
=======
>>>>>>> caffe
>>>>>>> pod-caffe-pod.hpp-merge
layer {
  name: "ip1"
  type: "InnerProduct"
  bottom: "pool2"
  top: "ip1"
  param {
    name: "ip1_w"
    lr_mult: 1
  }
  param {
    name: "ip1_b"
    lr_mult: 2
  }
<<<<<<< HEAD
<<<<<<< HEAD
<<<<<<< HEAD
=======
<<<<<<< HEAD
<<<<<<< HEAD
<<<<<<< HEAD
<<<<<<< HEAD
<<<<<<< HEAD
=======
=======
>>>>>>> pod-caffe-pod.hpp-merge
=======
>>>>>>> pod/caffe-merge
=======
>>>>>>> pod/caffe-merge
=======
=======
>>>>>>> pod/device/blob.hpp
=======
=======
>>>>>>> pod-caffe-pod.hpp-merge
layers {
  name: "ip1"
  type: INNER_PRODUCT
  bottom: "pool2"
  top: "ip1"
  blobs_lr: 1
  blobs_lr: 2
>>>>>>> origin/BVLC/parallel
=======
>>>>>>> caffe
<<<<<<< HEAD
<<<<<<< HEAD
<<<<<<< HEAD
<<<<<<< HEAD
<<<<<<< HEAD
>>>>>>> pod-caffe-pod.hpp-merge
=======
>>>>>>> pod-caffe-pod.hpp-merge
=======
>>>>>>> pod/caffe-merge
=======
>>>>>>> pod/caffe-merge
=======
>>>>>>> pod-caffe-pod.hpp-merge
>>>>>>> pod/device/blob.hpp
=======
>>>>>>> device-abstraction
=======
>>>>>>> pod-caffe-pod.hpp-merge
  inner_product_param {
    num_output: 500
    weight_filler {
      type: "xavier"
    }
    bias_filler {
      type: "constant"
    }
  }
<<<<<<< HEAD
<<<<<<< HEAD
<<<<<<< HEAD
<<<<<<< HEAD
<<<<<<< HEAD
=======
<<<<<<< HEAD
<<<<<<< HEAD
<<<<<<< HEAD
<<<<<<< HEAD
=======
>>>>>>> caffe
>>>>>>> pod-caffe-pod.hpp-merge
=======
<<<<<<< HEAD
=======
>>>>>>> caffe
>>>>>>> pod-caffe-pod.hpp-merge
=======
>>>>>>> caffe
>>>>>>> pod/caffe-merge
=======
>>>>>>> caffe
>>>>>>> pod/caffe-merge
=======
=======
<<<<<<< HEAD
<<<<<<< HEAD
=======
>>>>>>> caffe
>>>>>>> pod-caffe-pod.hpp-merge
>>>>>>> pod/device/blob.hpp
=======
>>>>>>> device-abstraction
=======
=======
>>>>>>> caffe
>>>>>>> pod-caffe-pod.hpp-merge
}
layer {
  name: "relu1"
  type: "ReLU"
  bottom: "ip1"
  top: "ip1"
}
layer {
  name: "ip2"
  type: "InnerProduct"
  bottom: "ip1"
  top: "ip2"
  param {
    name: "ip2_w"
    lr_mult: 1
  }
  param {
    name: "ip2_b"
    lr_mult: 2
  }
<<<<<<< HEAD
<<<<<<< HEAD
<<<<<<< HEAD
=======
<<<<<<< HEAD
<<<<<<< HEAD
<<<<<<< HEAD
<<<<<<< HEAD
<<<<<<< HEAD
=======
=======
>>>>>>> pod-caffe-pod.hpp-merge
=======
>>>>>>> pod/caffe-merge
=======
>>>>>>> pod/caffe-merge
=======
=======
>>>>>>> pod/device/blob.hpp
=======
=======
>>>>>>> pod-caffe-pod.hpp-merge
  param: "ip1_w"
  param: "ip1_b"
}
layers {
  name: "relu1"
  type: RELU
  bottom: "ip1"
  top: "ip1"
}
layers {
  name: "ip2"
  type: INNER_PRODUCT
  bottom: "ip1"
  top: "ip2"
  blobs_lr: 1
  blobs_lr: 2
>>>>>>> origin/BVLC/parallel
=======
>>>>>>> caffe
<<<<<<< HEAD
<<<<<<< HEAD
<<<<<<< HEAD
<<<<<<< HEAD
<<<<<<< HEAD
>>>>>>> pod-caffe-pod.hpp-merge
=======
>>>>>>> pod-caffe-pod.hpp-merge
=======
>>>>>>> pod/caffe-merge
=======
>>>>>>> pod/caffe-merge
=======
>>>>>>> pod-caffe-pod.hpp-merge
>>>>>>> pod/device/blob.hpp
=======
>>>>>>> device-abstraction
=======
>>>>>>> pod-caffe-pod.hpp-merge
  inner_product_param {
    num_output: 10
    weight_filler {
      type: "xavier"
    }
    bias_filler {
      type: "constant"
    }
  }
<<<<<<< HEAD
<<<<<<< HEAD
<<<<<<< HEAD
<<<<<<< HEAD
<<<<<<< HEAD
=======
<<<<<<< HEAD
<<<<<<< HEAD
<<<<<<< HEAD
<<<<<<< HEAD
=======
>>>>>>> caffe
>>>>>>> pod-caffe-pod.hpp-merge
=======
<<<<<<< HEAD
=======
>>>>>>> caffe
>>>>>>> pod-caffe-pod.hpp-merge
=======
>>>>>>> caffe
>>>>>>> pod/caffe-merge
=======
>>>>>>> caffe
>>>>>>> pod/caffe-merge
=======
=======
<<<<<<< HEAD
<<<<<<< HEAD
=======
>>>>>>> caffe
>>>>>>> pod-caffe-pod.hpp-merge
>>>>>>> pod/device/blob.hpp
=======
>>>>>>> device-abstraction
=======
=======
>>>>>>> caffe
>>>>>>> pod-caffe-pod.hpp-merge
}
layer {
  name: "feat"
  type: "InnerProduct"
  bottom: "ip2"
  top: "feat"
  param {
    name: "feat_w"
    lr_mult: 1
  }
  param {
    name: "feat_b"
    lr_mult: 2
  }
<<<<<<< HEAD
<<<<<<< HEAD
<<<<<<< HEAD
=======
<<<<<<< HEAD
<<<<<<< HEAD
<<<<<<< HEAD
<<<<<<< HEAD
<<<<<<< HEAD
=======
=======
>>>>>>> pod-caffe-pod.hpp-merge
=======
>>>>>>> pod/caffe-merge
=======
>>>>>>> pod/caffe-merge
=======
=======
>>>>>>> pod/device/blob.hpp
=======
=======
>>>>>>> pod-caffe-pod.hpp-merge
  param: "ip2_w"
  param: "ip2_b"
}

layers {
  name: "feat"
  type: INNER_PRODUCT
  bottom: "ip2"
  top: "feat"
  blobs_lr: 1
  blobs_lr: 2
>>>>>>> origin/BVLC/parallel
=======
>>>>>>> caffe
<<<<<<< HEAD
<<<<<<< HEAD
<<<<<<< HEAD
<<<<<<< HEAD
<<<<<<< HEAD
>>>>>>> pod-caffe-pod.hpp-merge
=======
>>>>>>> pod-caffe-pod.hpp-merge
=======
>>>>>>> pod/caffe-merge
=======
>>>>>>> pod/caffe-merge
=======
>>>>>>> pod-caffe-pod.hpp-merge
>>>>>>> pod/device/blob.hpp
=======
>>>>>>> device-abstraction
=======
>>>>>>> pod-caffe-pod.hpp-merge
  inner_product_param {
    num_output: 2
    weight_filler {
      type: "xavier"
    }
    bias_filler {
      type: "constant"
    }
  }
<<<<<<< HEAD
<<<<<<< HEAD
<<<<<<< HEAD
<<<<<<< HEAD
<<<<<<< HEAD
=======
<<<<<<< HEAD
<<<<<<< HEAD
<<<<<<< HEAD
<<<<<<< HEAD
=======
>>>>>>> caffe
>>>>>>> pod-caffe-pod.hpp-merge
=======
<<<<<<< HEAD
=======
>>>>>>> caffe
>>>>>>> pod-caffe-pod.hpp-merge
=======
>>>>>>> caffe
>>>>>>> pod/caffe-merge
=======
>>>>>>> caffe
>>>>>>> pod/caffe-merge
=======
=======
<<<<<<< HEAD
<<<<<<< HEAD
=======
>>>>>>> caffe
>>>>>>> pod-caffe-pod.hpp-merge
>>>>>>> pod/device/blob.hpp
=======
>>>>>>> device-abstraction
=======
=======
>>>>>>> caffe
>>>>>>> pod-caffe-pod.hpp-merge
}
layer {
  name: "conv1_p"
  type: "Convolution"
  bottom: "data_p"
  top: "conv1_p"
  param {
    name: "conv1_w"
    lr_mult: 1
  }
  param {
    name: "conv1_b"
    lr_mult: 2
  }
<<<<<<< HEAD
<<<<<<< HEAD
<<<<<<< HEAD
=======
<<<<<<< HEAD
<<<<<<< HEAD
<<<<<<< HEAD
<<<<<<< HEAD
<<<<<<< HEAD
=======
=======
>>>>>>> pod-caffe-pod.hpp-merge
=======
>>>>>>> pod/caffe-merge
=======
>>>>>>> pod/caffe-merge
=======
=======
>>>>>>> pod/device/blob.hpp
=======
=======
>>>>>>> pod-caffe-pod.hpp-merge
  param: "feat_w"
  param: "feat_b"
}



layers {
  name: "conv1_p"
  type: CONVOLUTION
  bottom: "data_p"
  top: "conv1_p"
  blobs_lr: 1
  blobs_lr: 2
>>>>>>> origin/BVLC/parallel
=======
>>>>>>> caffe
<<<<<<< HEAD
<<<<<<< HEAD
<<<<<<< HEAD
<<<<<<< HEAD
<<<<<<< HEAD
>>>>>>> pod-caffe-pod.hpp-merge
=======
>>>>>>> pod-caffe-pod.hpp-merge
=======
>>>>>>> pod/caffe-merge
=======
>>>>>>> pod/caffe-merge
=======
>>>>>>> pod-caffe-pod.hpp-merge
>>>>>>> pod/device/blob.hpp
=======
>>>>>>> device-abstraction
=======
>>>>>>> pod-caffe-pod.hpp-merge
  convolution_param {
    num_output: 20
    kernel_size: 5
    stride: 1
    weight_filler {
      type: "xavier"
    }
    bias_filler {
      type: "constant"
    }
  }
<<<<<<< HEAD
<<<<<<< HEAD
<<<<<<< HEAD
<<<<<<< HEAD
<<<<<<< HEAD
=======
<<<<<<< HEAD
<<<<<<< HEAD
<<<<<<< HEAD
<<<<<<< HEAD
=======
>>>>>>> caffe
>>>>>>> pod-caffe-pod.hpp-merge
=======
<<<<<<< HEAD
=======
>>>>>>> caffe
>>>>>>> pod-caffe-pod.hpp-merge
=======
>>>>>>> caffe
>>>>>>> pod/caffe-merge
=======
>>>>>>> caffe
>>>>>>> pod/caffe-merge
=======
=======
<<<<<<< HEAD
<<<<<<< HEAD
=======
>>>>>>> caffe
>>>>>>> pod-caffe-pod.hpp-merge
>>>>>>> pod/device/blob.hpp
=======
>>>>>>> device-abstraction
=======
=======
>>>>>>> caffe
>>>>>>> pod-caffe-pod.hpp-merge
}
layer {
  name: "pool1_p"
  type: "Pooling"
<<<<<<< HEAD
<<<<<<< HEAD
<<<<<<< HEAD
=======
<<<<<<< HEAD
<<<<<<< HEAD
<<<<<<< HEAD
<<<<<<< HEAD
<<<<<<< HEAD
=======
=======
>>>>>>> pod-caffe-pod.hpp-merge
=======
>>>>>>> pod/caffe-merge
=======
>>>>>>> pod/caffe-merge
=======
=======
>>>>>>> pod/device/blob.hpp
=======
=======
>>>>>>> pod-caffe-pod.hpp-merge
  param: "conv1_w"
  param: "conv1_b"
}
layers {
  name: "pool1_p"
  type: POOLING
>>>>>>> origin/BVLC/parallel
=======
>>>>>>> caffe
<<<<<<< HEAD
<<<<<<< HEAD
<<<<<<< HEAD
<<<<<<< HEAD
<<<<<<< HEAD
>>>>>>> pod-caffe-pod.hpp-merge
=======
>>>>>>> pod-caffe-pod.hpp-merge
=======
>>>>>>> pod/caffe-merge
=======
>>>>>>> pod/caffe-merge
=======
>>>>>>> pod-caffe-pod.hpp-merge
>>>>>>> pod/device/blob.hpp
=======
>>>>>>> device-abstraction
=======
>>>>>>> pod-caffe-pod.hpp-merge
  bottom: "conv1_p"
  top: "pool1_p"
  pooling_param {
    pool: MAX
    kernel_size: 2
    stride: 2
  }
}
<<<<<<< HEAD
<<<<<<< HEAD
<<<<<<< HEAD
<<<<<<< HEAD
<<<<<<< HEAD
=======
<<<<<<< HEAD
<<<<<<< HEAD
<<<<<<< HEAD
<<<<<<< HEAD
=======
>>>>>>> caffe
>>>>>>> pod-caffe-pod.hpp-merge
=======
<<<<<<< HEAD
=======
>>>>>>> caffe
>>>>>>> pod-caffe-pod.hpp-merge
=======
>>>>>>> caffe
>>>>>>> pod/caffe-merge
=======
>>>>>>> caffe
>>>>>>> pod/caffe-merge
=======
=======
<<<<<<< HEAD
<<<<<<< HEAD
=======
>>>>>>> caffe
>>>>>>> pod-caffe-pod.hpp-merge
>>>>>>> pod/device/blob.hpp
=======
>>>>>>> device-abstraction
=======
=======
>>>>>>> caffe
>>>>>>> pod-caffe-pod.hpp-merge
layer {
  name: "conv2_p"
  type: "Convolution"
  bottom: "pool1_p"
  top: "conv2_p"
  param {
    name: "conv2_w"
    lr_mult: 1
  }
  param {
    name: "conv2_b"
    lr_mult: 2
  }
<<<<<<< HEAD
<<<<<<< HEAD
<<<<<<< HEAD
=======
<<<<<<< HEAD
<<<<<<< HEAD
<<<<<<< HEAD
<<<<<<< HEAD
<<<<<<< HEAD
=======
=======
>>>>>>> pod-caffe-pod.hpp-merge
=======
>>>>>>> pod/caffe-merge
=======
>>>>>>> pod/caffe-merge
=======
=======
>>>>>>> pod/device/blob.hpp
=======
=======
>>>>>>> pod-caffe-pod.hpp-merge
layers {
  name: "conv2_p"
  type: CONVOLUTION
  bottom: "pool1_p"
  top: "conv2_p"
  blobs_lr: 1
  blobs_lr: 2
>>>>>>> origin/BVLC/parallel
=======
>>>>>>> caffe
<<<<<<< HEAD
<<<<<<< HEAD
<<<<<<< HEAD
<<<<<<< HEAD
<<<<<<< HEAD
>>>>>>> pod-caffe-pod.hpp-merge
=======
>>>>>>> pod-caffe-pod.hpp-merge
=======
>>>>>>> pod/caffe-merge
=======
>>>>>>> pod/caffe-merge
=======
>>>>>>> pod-caffe-pod.hpp-merge
>>>>>>> pod/device/blob.hpp
=======
>>>>>>> device-abstraction
=======
>>>>>>> pod-caffe-pod.hpp-merge
  convolution_param {
    num_output: 50
    kernel_size: 5
    stride: 1
    weight_filler {
      type: "xavier"
    }
    bias_filler {
      type: "constant"
    }
  }
<<<<<<< HEAD
<<<<<<< HEAD
<<<<<<< HEAD
<<<<<<< HEAD
<<<<<<< HEAD
=======
<<<<<<< HEAD
<<<<<<< HEAD
<<<<<<< HEAD
<<<<<<< HEAD
=======
>>>>>>> caffe
>>>>>>> pod-caffe-pod.hpp-merge
=======
<<<<<<< HEAD
=======
>>>>>>> caffe
>>>>>>> pod-caffe-pod.hpp-merge
=======
>>>>>>> caffe
>>>>>>> pod/caffe-merge
=======
>>>>>>> caffe
>>>>>>> pod/caffe-merge
=======
=======
<<<<<<< HEAD
<<<<<<< HEAD
=======
>>>>>>> caffe
>>>>>>> pod-caffe-pod.hpp-merge
>>>>>>> pod/device/blob.hpp
=======
>>>>>>> device-abstraction
=======
=======
>>>>>>> caffe
>>>>>>> pod-caffe-pod.hpp-merge
}
layer {
  name: "pool2_p"
  type: "Pooling"
<<<<<<< HEAD
<<<<<<< HEAD
<<<<<<< HEAD
=======
<<<<<<< HEAD
<<<<<<< HEAD
<<<<<<< HEAD
<<<<<<< HEAD
<<<<<<< HEAD
=======
=======
>>>>>>> pod-caffe-pod.hpp-merge
=======
>>>>>>> pod/caffe-merge
=======
>>>>>>> pod/caffe-merge
=======
=======
>>>>>>> pod/device/blob.hpp
=======
=======
>>>>>>> pod-caffe-pod.hpp-merge
  param: "conv2_w"
  param: "conv2_b"
}
layers {
  name: "pool2_p"
  type: POOLING
>>>>>>> origin/BVLC/parallel
=======
>>>>>>> caffe
<<<<<<< HEAD
<<<<<<< HEAD
<<<<<<< HEAD
<<<<<<< HEAD
<<<<<<< HEAD
>>>>>>> pod-caffe-pod.hpp-merge
=======
>>>>>>> pod-caffe-pod.hpp-merge
=======
>>>>>>> pod/caffe-merge
=======
>>>>>>> pod/caffe-merge
=======
>>>>>>> pod-caffe-pod.hpp-merge
>>>>>>> pod/device/blob.hpp
=======
>>>>>>> device-abstraction
=======
>>>>>>> pod-caffe-pod.hpp-merge
  bottom: "conv2_p"
  top: "pool2_p"
  pooling_param {
    pool: MAX
    kernel_size: 2
    stride: 2
  }
}
<<<<<<< HEAD
<<<<<<< HEAD
<<<<<<< HEAD
<<<<<<< HEAD
<<<<<<< HEAD
=======
<<<<<<< HEAD
<<<<<<< HEAD
<<<<<<< HEAD
<<<<<<< HEAD
=======
>>>>>>> caffe
>>>>>>> pod-caffe-pod.hpp-merge
=======
<<<<<<< HEAD
=======
>>>>>>> caffe
>>>>>>> pod-caffe-pod.hpp-merge
=======
>>>>>>> caffe
>>>>>>> pod/caffe-merge
=======
>>>>>>> caffe
>>>>>>> pod/caffe-merge
=======
=======
<<<<<<< HEAD
<<<<<<< HEAD
=======
>>>>>>> caffe
>>>>>>> pod-caffe-pod.hpp-merge
>>>>>>> pod/device/blob.hpp
=======
>>>>>>> device-abstraction
=======
=======
>>>>>>> caffe
>>>>>>> pod-caffe-pod.hpp-merge
layer {
  name: "ip1_p"
  type: "InnerProduct"
  bottom: "pool2_p"
  top: "ip1_p"
  param {
    name: "ip1_w"
    lr_mult: 1
  }
  param {
    name: "ip1_b"
    lr_mult: 2
  }
<<<<<<< HEAD
<<<<<<< HEAD
<<<<<<< HEAD
=======
<<<<<<< HEAD
<<<<<<< HEAD
<<<<<<< HEAD
<<<<<<< HEAD
<<<<<<< HEAD
=======
=======
>>>>>>> pod-caffe-pod.hpp-merge
=======
>>>>>>> pod/caffe-merge
=======
>>>>>>> pod/caffe-merge
=======
=======
>>>>>>> pod/device/blob.hpp
=======
=======
>>>>>>> pod-caffe-pod.hpp-merge
layers {
  name: "ip1_p"
  type: INNER_PRODUCT
  bottom: "pool2_p"
  top: "ip1_p"
  blobs_lr: 1
  blobs_lr: 2
>>>>>>> origin/BVLC/parallel
=======
>>>>>>> caffe
<<<<<<< HEAD
<<<<<<< HEAD
<<<<<<< HEAD
<<<<<<< HEAD
<<<<<<< HEAD
>>>>>>> pod-caffe-pod.hpp-merge
=======
>>>>>>> pod-caffe-pod.hpp-merge
=======
>>>>>>> pod/caffe-merge
=======
>>>>>>> pod/caffe-merge
=======
>>>>>>> pod-caffe-pod.hpp-merge
>>>>>>> pod/device/blob.hpp
=======
>>>>>>> device-abstraction
=======
>>>>>>> pod-caffe-pod.hpp-merge
  inner_product_param {
    num_output: 500
    weight_filler {
      type: "xavier"
    }
    bias_filler {
      type: "constant"
    }
  }
<<<<<<< HEAD
<<<<<<< HEAD
<<<<<<< HEAD
<<<<<<< HEAD
<<<<<<< HEAD
=======
<<<<<<< HEAD
<<<<<<< HEAD
<<<<<<< HEAD
<<<<<<< HEAD
=======
>>>>>>> caffe
>>>>>>> pod-caffe-pod.hpp-merge
=======
<<<<<<< HEAD
=======
>>>>>>> caffe
>>>>>>> pod-caffe-pod.hpp-merge
=======
>>>>>>> caffe
>>>>>>> pod/caffe-merge
=======
>>>>>>> caffe
>>>>>>> pod/caffe-merge
=======
=======
<<<<<<< HEAD
<<<<<<< HEAD
=======
>>>>>>> caffe
>>>>>>> pod-caffe-pod.hpp-merge
>>>>>>> pod/device/blob.hpp
=======
>>>>>>> device-abstraction
=======
=======
>>>>>>> caffe
>>>>>>> pod-caffe-pod.hpp-merge
}
layer {
  name: "relu1_p"
  type: "ReLU"
  bottom: "ip1_p"
  top: "ip1_p"
}
layer {
  name: "ip2_p"
  type: "InnerProduct"
  bottom: "ip1_p"
  top: "ip2_p"
  param {
    name: "ip2_w"
    lr_mult: 1
  }
  param {
    name: "ip2_b"
    lr_mult: 2
  }
<<<<<<< HEAD
<<<<<<< HEAD
<<<<<<< HEAD
=======
<<<<<<< HEAD
<<<<<<< HEAD
<<<<<<< HEAD
<<<<<<< HEAD
<<<<<<< HEAD
=======
=======
>>>>>>> pod-caffe-pod.hpp-merge
=======
>>>>>>> pod/caffe-merge
=======
>>>>>>> pod/caffe-merge
=======
=======
>>>>>>> pod/device/blob.hpp
=======
=======
>>>>>>> pod-caffe-pod.hpp-merge
  param: "ip1_w"
  param: "ip1_b"
}
layers {
  name: "relu1_p"
  type: RELU
  bottom: "ip1_p"
  top: "ip1_p"
}
layers {
  name: "ip2_p"
  type: INNER_PRODUCT
  bottom: "ip1_p"
  top: "ip2_p"
  blobs_lr: 1
  blobs_lr: 2
>>>>>>> origin/BVLC/parallel
=======
>>>>>>> caffe
<<<<<<< HEAD
<<<<<<< HEAD
<<<<<<< HEAD
<<<<<<< HEAD
<<<<<<< HEAD
>>>>>>> pod-caffe-pod.hpp-merge
=======
>>>>>>> pod-caffe-pod.hpp-merge
=======
>>>>>>> pod/caffe-merge
=======
>>>>>>> pod/caffe-merge
=======
>>>>>>> pod-caffe-pod.hpp-merge
>>>>>>> pod/device/blob.hpp
=======
>>>>>>> device-abstraction
=======
>>>>>>> pod-caffe-pod.hpp-merge
  inner_product_param {
    num_output: 10
    weight_filler {
      type: "xavier"
    }
    bias_filler {
      type: "constant"
    }
  }
<<<<<<< HEAD
<<<<<<< HEAD
<<<<<<< HEAD
<<<<<<< HEAD
<<<<<<< HEAD
=======
<<<<<<< HEAD
<<<<<<< HEAD
<<<<<<< HEAD
<<<<<<< HEAD
=======
>>>>>>> caffe
>>>>>>> pod-caffe-pod.hpp-merge
=======
<<<<<<< HEAD
=======
>>>>>>> caffe
>>>>>>> pod-caffe-pod.hpp-merge
=======
>>>>>>> caffe
>>>>>>> pod/caffe-merge
=======
>>>>>>> caffe
>>>>>>> pod/caffe-merge
=======
=======
<<<<<<< HEAD
<<<<<<< HEAD
=======
>>>>>>> caffe
>>>>>>> pod-caffe-pod.hpp-merge
>>>>>>> pod/device/blob.hpp
=======
>>>>>>> device-abstraction
=======
=======
>>>>>>> caffe
>>>>>>> pod-caffe-pod.hpp-merge
}
layer {
  name: "feat_p"
  type: "InnerProduct"
  bottom: "ip2_p"
  top: "feat_p"
  param {
    name: "feat_w"
    lr_mult: 1
  }
  param {
    name: "feat_b"
    lr_mult: 2
  }
<<<<<<< HEAD
<<<<<<< HEAD
<<<<<<< HEAD
=======
<<<<<<< HEAD
<<<<<<< HEAD
<<<<<<< HEAD
<<<<<<< HEAD
<<<<<<< HEAD
=======
=======
>>>>>>> pod-caffe-pod.hpp-merge
=======
>>>>>>> pod/caffe-merge
=======
>>>>>>> pod/caffe-merge
=======
=======
>>>>>>> pod/device/blob.hpp
=======
=======
>>>>>>> pod-caffe-pod.hpp-merge
  param: "ip2_w"
  param: "ip2_b"
}

layers {
  name: "feat_p"
  type: INNER_PRODUCT
  bottom: "ip2_p"
  top: "feat_p"
  blobs_lr: 1
  blobs_lr: 2
>>>>>>> origin/BVLC/parallel
=======
>>>>>>> caffe
<<<<<<< HEAD
<<<<<<< HEAD
<<<<<<< HEAD
<<<<<<< HEAD
<<<<<<< HEAD
>>>>>>> pod-caffe-pod.hpp-merge
=======
>>>>>>> pod-caffe-pod.hpp-merge
=======
>>>>>>> pod/caffe-merge
=======
>>>>>>> pod/caffe-merge
=======
>>>>>>> pod-caffe-pod.hpp-merge
>>>>>>> pod/device/blob.hpp
=======
>>>>>>> device-abstraction
=======
>>>>>>> pod-caffe-pod.hpp-merge
  inner_product_param {
    num_output: 2
    weight_filler {
      type: "xavier"
    }
    bias_filler {
      type: "constant"
    }
  }
<<<<<<< HEAD
<<<<<<< HEAD
<<<<<<< HEAD
<<<<<<< HEAD
<<<<<<< HEAD
=======
<<<<<<< HEAD
<<<<<<< HEAD
<<<<<<< HEAD
<<<<<<< HEAD
=======
>>>>>>> caffe
>>>>>>> pod-caffe-pod.hpp-merge
=======
<<<<<<< HEAD
=======
>>>>>>> caffe
>>>>>>> pod-caffe-pod.hpp-merge
=======
>>>>>>> caffe
>>>>>>> pod/caffe-merge
=======
>>>>>>> caffe
>>>>>>> pod/caffe-merge
=======
=======
<<<<<<< HEAD
<<<<<<< HEAD
=======
>>>>>>> caffe
>>>>>>> pod-caffe-pod.hpp-merge
>>>>>>> pod/device/blob.hpp
=======
>>>>>>> device-abstraction
=======
=======
>>>>>>> caffe
>>>>>>> pod-caffe-pod.hpp-merge
}
layer {
  name: "loss"
  type: "ContrastiveLoss"
  bottom: "feat"
  bottom: "feat_p"
  bottom: "sim"
  top: "loss"
  contrastive_loss_param {
    margin: 1
  }
<<<<<<< HEAD
<<<<<<< HEAD
<<<<<<< HEAD
=======
<<<<<<< HEAD
<<<<<<< HEAD
<<<<<<< HEAD
<<<<<<< HEAD
<<<<<<< HEAD
=======
=======
>>>>>>> pod-caffe-pod.hpp-merge
=======
>>>>>>> pod/caffe-merge
=======
>>>>>>> pod/caffe-merge
=======
=======
>>>>>>> pod/device/blob.hpp
=======
=======
>>>>>>> pod-caffe-pod.hpp-merge
  param: "feat_w"
  param: "feat_b"
}



layers {
    name: "loss"
    type: CONTRASTIVE_LOSS
    contrastive_loss_param {
        margin: 1.0
    }
    bottom: "feat"
    bottom: "feat_p"
    bottom: "sim"
    top: "loss"
>>>>>>> origin/BVLC/parallel
=======
>>>>>>> caffe
<<<<<<< HEAD
<<<<<<< HEAD
<<<<<<< HEAD
<<<<<<< HEAD
<<<<<<< HEAD
>>>>>>> pod-caffe-pod.hpp-merge
=======
>>>>>>> pod-caffe-pod.hpp-merge
=======
>>>>>>> pod/caffe-merge
=======
>>>>>>> pod/caffe-merge
=======
>>>>>>> pod-caffe-pod.hpp-merge
>>>>>>> pod/device/blob.hpp
=======
>>>>>>> device-abstraction
=======
>>>>>>> pod-caffe-pod.hpp-merge
}
