# Inception Network (GoogLeNet Batch Normalization Network)
name: "InceptionNetwork"
### Training Set
layer {
  top: "data"
  top: "label"
  name: "data"
  type: "Data"
  data_param {
    source: "examples/imagenet/ilsvrc12_train_lmdb"
    batch_size: 96
    backend: LMDB
#    shuffle: true
  }
  include {
    phase: TRAIN
  }
  transform_param {
    mirror: true
    crop_size: 224
#    mean_file: "data/ilsvrc12/imagenet_mean.binaryproto"
    mean_value: 104
    mean_value: 117
    mean_value: 123
  }
}
### Validation Set
layer {
  top: "data"
  top: "label"
  name: "data"
  type: "Data"
  data_param {
    source: "examples/imagenet/ilsvrc12_val_lmdb"
    batch_size: 32
    backend: LMDB
  }
  include {
    phase: TEST
  }
  transform_param {
    mirror: false
    crop_size: 224
#    mean_file: "data/ilsvrc12/imagenet_mean.binaryproto"
    mean_value: 104
    mean_value: 117
    mean_value: 123
  }
}

layer {
 bottom: "data"
  top: "conv1/7x7_s2"
  name: "conv1/7x7_s2"
  type: "Convolution"
  param {
    lr_mult: 1
    decay_mult: 1
  }
  convolution_param {
    
    num_output: 64
    pad: 3
    kernel_size: 7
    stride: 2
    weight_filler {
      type: "xavier"
    }
    bias_term: false
  }
}
layer {
  bottom: "conv1/7x7_s2"
  name: "conv1/7x7_s2/bn"
  top: "conv1/7x7_s2/bn"
  type: "BatchNorm"
  batch_norm_param {
    
  }
}
layer {
  bottom: "conv1/7x7_s2/bn"
  top: "conv1/7x7_s2/bn/sc"
  name: "conv1/7x7_s2/bn/sc"
  type: "Scale"
  scale_param {
    bias_term: true
  }
}
layer {
  bottom: "conv1/7x7_s2/bn/sc"
  top: "conv1/7x7_s2/bn/sc"
  name: "conv1/7x7_s2/bn/sc/relu"
  type: "ReLU"
  relu_param {
    
  }
}
layer {
  bottom: "conv1/7x7_s2/bn/sc"
  top: "pool1/3x3_s2"
  name: "pool1/3x3_s2"
  type: "Pooling"
  pooling_param {
    
    pool: MAX
    kernel_size: 3
    stride: 2
  }
}
layer {
 bottom: "pool1/3x3_s2"
  top: "conv2/3x3_reduce"
  name: "conv2/3x3_reduce"
  type: "Convolution"
  param {
    lr_mult: 1
    decay_mult: 1
  }
  convolution_param {
    
    num_output: 64
    pad: 0
    kernel_size: 1
    stride: 1
    weight_filler {
      type: "xavier"
    }
    bias_term: false
  }
}
layer {
  bottom: "conv2/3x3_reduce"
  name: "conv2/3x3_reduce/bn"
  top: "conv2/3x3_reduce/bn"
  type: "BatchNorm"
  batch_norm_param {
    
  }
}
layer {
  bottom: "conv2/3x3_reduce/bn"
  top: "conv2/3x3_reduce/bn/sc"
  name: "conv2/3x3_reduce/bn/sc"
  type: "Scale"
  scale_param {
    bias_term: true
  }
}
layer {
  bottom: "conv2/3x3_reduce/bn/sc"
  top: "conv2/3x3_reduce/bn/sc"
  name: "conv2/3x3_reduce/bn/sc/relu"
  type: "ReLU"
  relu_param {
    
  }
}
layer {
 bottom: "conv2/3x3_reduce/bn/sc"
  top: "conv2/3x3"
  name: "conv2/3x3"
  type: "Convolution"
  param {
    lr_mult: 1
    decay_mult: 1
  }
  convolution_param {
    
    num_output: 192
    pad: 1
    kernel_size: 3
    stride: 1
    weight_filler {
      type: "xavier"
    }
    bias_term: false
  }
}
layer {
  bottom: "conv2/3x3"
  name: "conv2/3x3/bn"
  top: "conv2/3x3/bn"
  type: "BatchNorm"
  batch_norm_param {
    
  }
}
layer {
  bottom: "conv2/3x3/bn"
  top: "conv2/3x3/bn/sc"
  name: "conv2/3x3/bn/sc"
  type: "Scale"
  scale_param {
    bias_term: true
  }
}
layer {
  bottom: "conv2/3x3/bn/sc"
  top: "conv2/3x3/bn/sc"
  name: "conv2/3x3/bn/sc/relu"
  type: "ReLU"
  relu_param {
    
  }
}
layer {
  bottom: "conv2/3x3/bn/sc"
  top: "pool2/3x3_s2"
  name: "pool2/3x3_s2"
  type: "Pooling"
  pooling_param {
    
    pool: MAX
    kernel_size: 3
    stride: 2
  }
}
layer {
 bottom: "pool2/3x3_s2"
  top: "inception_3a/1x1"
  name: "inception_3a/1x1"
  type: "Convolution"
  param {
    lr_mult: 1
    decay_mult: 1
  }
  convolution_param {
    
    num_output: 64
    pad: 0
    kernel_size: 1
    stride: 1
    weight_filler {
      type: "xavier"
    }
    bias_term: false
  }
}
layer {
  bottom: "inception_3a/1x1"
  name: "inception_3a/1x1/bn"
  top: "inception_3a/1x1/bn"
  type: "BatchNorm"
  batch_norm_param {
    
  }
}
layer {
  bottom: "inception_3a/1x1/bn"
  top: "inception_3a/1x1/bn/sc"
  name: "inception_3a/1x1/bn/sc"
  type: "Scale"
  scale_param {
    bias_term: true
  }
}
layer {
  bottom: "inception_3a/1x1/bn/sc"
  top: "inception_3a/1x1/bn/sc"
  name: "inception_3a/1x1/bn/sc/relu"
  type: "ReLU"
  relu_param {
    
  }
}
layer {
 bottom: "pool2/3x3_s2"
  top: "inception_3a/3x3_reduce"
  name: "inception_3a/3x3_reduce"
  type: "Convolution"
  param {
    lr_mult: 1
    decay_mult: 1
  }
  convolution_param {
    
    num_output: 64
    pad: 0
    kernel_size: 1
    stride: 1
    weight_filler {
      type: "xavier"
    }
    bias_term: false
  }
}
layer {
  bottom: "inception_3a/3x3_reduce"
  name: "inception_3a/3x3_reduce/bn"
  top: "inception_3a/3x3_reduce/bn"
  type: "BatchNorm"
  batch_norm_param {
    
  }
}
layer {
  bottom: "inception_3a/3x3_reduce/bn"
  top: "inception_3a/3x3_reduce/bn/sc"
  name: "inception_3a/3x3_reduce/bn/sc"
  type: "Scale"
  scale_param {
    bias_term: true
  }
}
layer {
  bottom: "inception_3a/3x3_reduce/bn/sc"
  top: "inception_3a/3x3_reduce/bn/sc"
  name: "inception_3a/3x3_reduce/bn/sc/relu"
  type: "ReLU"
  relu_param {
    
  }
}
layer {
 bottom: "inception_3a/3x3_reduce/bn/sc"
  top: "inception_3a/3x3"
  name: "inception_3a/3x3"
  type: "Convolution"
  param {
    lr_mult: 1
    decay_mult: 1
  }
  convolution_param {
    
    num_output: 64
    pad: 1
    kernel_size: 3
    stride: 1
    weight_filler {
      type: "xavier"
    }
    bias_term: false
  }
}
layer {
  bottom: "inception_3a/3x3"
  name: "inception_3a/3x3/bn"
  top: "inception_3a/3x3/bn"
  type: "BatchNorm"
  batch_norm_param {
    
  }
}
layer {
  bottom: "inception_3a/3x3/bn"
  top: "inception_3a/3x3/bn/sc"
  name: "inception_3a/3x3/bn/sc"
  type: "Scale"
  scale_param {
    bias_term: true
  }
}
layer {
  bottom: "inception_3a/3x3/bn/sc"
  top: "inception_3a/3x3/bn/sc"
  name: "inception_3a/3x3/bn/sc/relu"
  type: "ReLU"
  relu_param {
    
  }
}
layer {
 bottom: "pool2/3x3_s2"
  top: "inception_3a/double3x3_reduce"
  name: "inception_3a/double3x3_reduce"
  type: "Convolution"
  param {
    lr_mult: 1
    decay_mult: 1
  }
  convolution_param {
    
    num_output: 64
    pad: 0
    kernel_size: 1
    stride: 1
    weight_filler {
      type: "xavier"
    }
    bias_term: false
  }
}
layer {
  bottom: "inception_3a/double3x3_reduce"
  name: "inception_3a/double3x3_reduce/bn"
  top: "inception_3a/double3x3_reduce/bn"
  type: "BatchNorm"
  batch_norm_param {
    
  }
}
layer {
  bottom: "inception_3a/double3x3_reduce/bn"
  top: "inception_3a/double3x3_reduce/bn/sc"
  name: "inception_3a/double3x3_reduce/bn/sc"
  type: "Scale"
  scale_param {
    bias_term: true
  }
}
layer {
  bottom: "inception_3a/double3x3_reduce/bn/sc"
  top: "inception_3a/double3x3_reduce/bn/sc"
  name: "inception_3a/double3x3_reduce/bn/sc/relu"
  type: "ReLU"
  relu_param {
    
  }
}
layer {
 bottom: "inception_3a/double3x3_reduce/bn/sc"
  top: "inception_3a/double3x3a"
  name: "inception_3a/double3x3a"
  type: "Convolution"
  param {
    lr_mult: 1
    decay_mult: 1
  }
  convolution_param {
    
    num_output: 96
    pad: 1
    kernel_size: 3
    stride: 1
    weight_filler {
      type: "xavier"
    }
    bias_term: false
  }
}
layer {
  bottom: "inception_3a/double3x3a"
  name: "inception_3a/double3x3a/bn"
  top: "inception_3a/double3x3a/bn"
  type: "BatchNorm"
  batch_norm_param {
    
  }
}
layer {
  bottom: "inception_3a/double3x3a/bn"
  top: "inception_3a/double3x3a/bn/sc"
  name: "inception_3a/double3x3a/bn/sc"
  type: "Scale"
  scale_param {
    bias_term: true
  }
}
layer {
  bottom: "inception_3a/double3x3a/bn/sc"
  top: "inception_3a/double3x3a/bn/sc"
  name: "inception_3a/double3x3a/bn/sc/relu"
  type: "ReLU"
  relu_param {
    
  }
}
layer {
 bottom: "inception_3a/double3x3a/bn/sc"
  top: "inception_3a/double3x3b"
  name: "inception_3a/double3x3b"
  type: "Convolution"
  param {
    lr_mult: 1
    decay_mult: 1
  }
  convolution_param {
    
    num_output: 96
    pad: 1
    kernel_size: 3
    stride: 1
    weight_filler {
      type: "xavier"
    }
    bias_term: false
  }
}
layer {
  bottom: "inception_3a/double3x3b"
  name: "inception_3a/double3x3b/bn"
  top: "inception_3a/double3x3b/bn"
  type: "BatchNorm"
  batch_norm_param {
    
  }
}
layer {
  bottom: "inception_3a/double3x3b/bn"
  top: "inception_3a/double3x3b/bn/sc"
  name: "inception_3a/double3x3b/bn/sc"
  type: "Scale"
  scale_param {
    bias_term: true
  }
}
layer {
  bottom: "inception_3a/double3x3b/bn/sc"
  top: "inception_3a/double3x3b/bn/sc"
  name: "inception_3a/double3x3b/bn/sc/relu"
  type: "ReLU"
  relu_param {
    
  }
}
layer {
  bottom: "pool2/3x3_s2"
  top: "inception_3a/pool"
  name: "inception_3a/pool"
  type: "Pooling"
  pooling_param {
    
    pool: AVE
    kernel_size: 3
    stride: 1
    pad: 1
  }
}
layer {
 bottom: "inception_3a/pool"
  top: "inception_3a/pool_proj"
  name: "inception_3a/pool_proj"
  type: "Convolution"
  param {
    lr_mult: 1
    decay_mult: 1
  }
  convolution_param {
    
    num_output: 32
    pad: 0
    kernel_size: 1
    stride: 1
    weight_filler {
      type: "xavier"
    }
    bias_term: false
  }
}
layer {
  bottom: "inception_3a/pool_proj"
  name: "inception_3a/pool_proj/bn"
  top: "inception_3a/pool_proj/bn"
  type: "BatchNorm"
  batch_norm_param {
    
  }
}
layer {
  bottom: "inception_3a/pool_proj/bn"
  top: "inception_3a/pool_proj/bn/sc"
  name: "inception_3a/pool_proj/bn/sc"
  type: "Scale"
  scale_param {
    bias_term: true
  }
}
layer {
  bottom: "inception_3a/pool_proj/bn/sc"
  top: "inception_3a/pool_proj/bn/sc"
  name: "inception_3a/pool_proj/bn/sc/relu"
  type: "ReLU"
  relu_param {
    
  }
}
layer {
  bottom: "inception_3a/1x1/bn/sc"
  bottom: "inception_3a/3x3/bn/sc"
  bottom: "inception_3a/double3x3b/bn/sc"
  bottom: "inception_3a/pool_proj/bn/sc"
  top: "inception_3a/output"
  name: "inception_3a/output"
  type: "Concat"
  concat_param {
    
  }
}
layer {
 bottom: "inception_3a/output"
  top: "inception_3b/1x1"
  name: "inception_3b/1x1"
  type: "Convolution"
  param {
    lr_mult: 1
    decay_mult: 1
  }
  convolution_param {
    
    num_output: 64
    pad: 0
    kernel_size: 1
    stride: 1
    weight_filler {
      type: "xavier"
    }
    bias_term: false
  }
}
layer {
  bottom: "inception_3b/1x1"
  name: "inception_3b/1x1/bn"
  top: "inception_3b/1x1/bn"
  type: "BatchNorm"
  batch_norm_param {
    
  }
}
layer {
  bottom: "inception_3b/1x1/bn"
  top: "inception_3b/1x1/bn/sc"
  name: "inception_3b/1x1/bn/sc"
  type: "Scale"
  scale_param {
    bias_term: true
  }
}
layer {
  bottom: "inception_3b/1x1/bn/sc"
  top: "inception_3b/1x1/bn/sc"
  name: "inception_3b/1x1/bn/sc/relu"
  type: "ReLU"
  relu_param {
    
  }
}
layer {
 bottom: "inception_3a/output"
  top: "inception_3b/3x3_reduce"
  name: "inception_3b/3x3_reduce"
  type: "Convolution"
  param {
    lr_mult: 1
    decay_mult: 1
  }
  convolution_param {
    
    num_output: 64
    pad: 0
    kernel_size: 1
    stride: 1
    weight_filler {
      type: "xavier"
    }
    bias_term: false
  }
}
layer {
  bottom: "inception_3b/3x3_reduce"
  name: "inception_3b/3x3_reduce/bn"
  top: "inception_3b/3x3_reduce/bn"
  type: "BatchNorm"
  batch_norm_param {
    
  }
}
layer {
  bottom: "inception_3b/3x3_reduce/bn"
  top: "inception_3b/3x3_reduce/bn/sc"
  name: "inception_3b/3x3_reduce/bn/sc"
  type: "Scale"
  scale_param {
    bias_term: true
  }
}
layer {
  bottom: "inception_3b/3x3_reduce/bn/sc"
  top: "inception_3b/3x3_reduce/bn/sc"
  name: "inception_3b/3x3_reduce/bn/sc/relu"
  type: "ReLU"
  relu_param {
    
  }
}
layer {
 bottom: "inception_3b/3x3_reduce/bn/sc"
  top: "inception_3b/3x3"
  name: "inception_3b/3x3"
  type: "Convolution"
  param {
    lr_mult: 1
    decay_mult: 1
  }
  convolution_param {
    
    num_output: 96
    pad: 1
    kernel_size: 3
    stride: 1
    weight_filler {
      type: "xavier"
    }
    bias_term: false
  }
}
layer {
  bottom: "inception_3b/3x3"
  name: "inception_3b/3x3/bn"
  top: "inception_3b/3x3/bn"
  type: "BatchNorm"
  batch_norm_param {
    
  }
}
layer {
  bottom: "inception_3b/3x3/bn"
  top: "inception_3b/3x3/bn/sc"
  name: "inception_3b/3x3/bn/sc"
  type: "Scale"
  scale_param {
    bias_term: true
  }
}
layer {
  bottom: "inception_3b/3x3/bn/sc"
  top: "inception_3b/3x3/bn/sc"
  name: "inception_3b/3x3/bn/sc/relu"
  type: "ReLU"
  relu_param {
    
  }
}
layer {
 bottom: "inception_3a/output"
  top: "inception_3b/double3x3_reduce"
  name: "inception_3b/double3x3_reduce"
  type: "Convolution"
  param {
    lr_mult: 1
    decay_mult: 1
  }
  convolution_param {
    
    num_output: 64
    pad: 0
    kernel_size: 1
    stride: 1
    weight_filler {
      type: "xavier"
    }
    bias_term: false
  }
}
layer {
  bottom: "inception_3b/double3x3_reduce"
  name: "inception_3b/double3x3_reduce/bn"
  top: "inception_3b/double3x3_reduce/bn"
  type: "BatchNorm"
  batch_norm_param {
    
  }
}
layer {
  bottom: "inception_3b/double3x3_reduce/bn"
  top: "inception_3b/double3x3_reduce/bn/sc"
  name: "inception_3b/double3x3_reduce/bn/sc"
  type: "Scale"
  scale_param {
    bias_term: true
  }
}
layer {
  bottom: "inception_3b/double3x3_reduce/bn/sc"
  top: "inception_3b/double3x3_reduce/bn/sc"
  name: "inception_3b/double3x3_reduce/bn/sc/relu"
  type: "ReLU"
  relu_param {
    
  }
}
layer {
 bottom: "inception_3b/double3x3_reduce/bn/sc"
  top: "inception_3b/double3x3a"
  name: "inception_3b/double3x3a"
  type: "Convolution"
  param {
    lr_mult: 1
    decay_mult: 1
  }
  convolution_param {
    
    num_output: 96
    pad: 1
    kernel_size: 3
    stride: 1
    weight_filler {
      type: "xavier"
    }
    bias_term: false
  }
}
layer {
  bottom: "inception_3b/double3x3a"
  name: "inception_3b/double3x3a/bn"
  top: "inception_3b/double3x3a/bn"
  type: "BatchNorm"
  batch_norm_param {
    
  }
}
layer {
  bottom: "inception_3b/double3x3a/bn"
  top: "inception_3b/double3x3a/bn/sc"
  name: "inception_3b/double3x3a/bn/sc"
  type: "Scale"
  scale_param {
    bias_term: true
  }
}
layer {
  bottom: "inception_3b/double3x3a/bn/sc"
  top: "inception_3b/double3x3a/bn/sc"
  name: "inception_3b/double3x3a/bn/sc/relu"
  type: "ReLU"
  relu_param {
    
  }
}
layer {
 bottom: "inception_3b/double3x3a/bn/sc"
  top: "inception_3b/double3x3b"
  name: "inception_3b/double3x3b"
  type: "Convolution"
  param {
    lr_mult: 1
    decay_mult: 1
  }
  convolution_param {
    
    num_output: 96
    pad: 1
    kernel_size: 3
    stride: 1
    weight_filler {
      type: "xavier"
    }
    bias_term: false
  }
}
layer {
  bottom: "inception_3b/double3x3b"
  name: "inception_3b/double3x3b/bn"
  top: "inception_3b/double3x3b/bn"
  type: "BatchNorm"
  batch_norm_param {
    
  }
}
layer {
  bottom: "inception_3b/double3x3b/bn"
  top: "inception_3b/double3x3b/bn/sc"
  name: "inception_3b/double3x3b/bn/sc"
  type: "Scale"
  scale_param {
    bias_term: true
  }
}
layer {
  bottom: "inception_3b/double3x3b/bn/sc"
  top: "inception_3b/double3x3b/bn/sc"
  name: "inception_3b/double3x3b/bn/sc/relu"
  type: "ReLU"
  relu_param {
    
  }
}
layer {
  bottom: "inception_3a/output"
  top: "inception_3b/pool"
  name: "inception_3b/pool"
  type: "Pooling"
  pooling_param {
    
    pool: AVE
    kernel_size: 3
    stride: 1
    pad: 1
  }
}
layer {
 bottom: "inception_3b/pool"
  top: "inception_3b/pool_proj"
  name: "inception_3b/pool_proj"
  type: "Convolution"
  param {
    lr_mult: 1
    decay_mult: 1
  }
  convolution_param {
    
    num_output: 64
    pad: 0
    kernel_size: 1
    stride: 1
    weight_filler {
      type: "xavier"
    }
    bias_term: false
  }
}
layer {
  bottom: "inception_3b/pool_proj"
  name: "inception_3b/pool_proj/bn"
  top: "inception_3b/pool_proj/bn"
  type: "BatchNorm"
  batch_norm_param {
    
  }
}
layer {
  bottom: "inception_3b/pool_proj/bn"
  top: "inception_3b/pool_proj/bn/sc"
  name: "inception_3b/pool_proj/bn/sc"
  type: "Scale"
  scale_param {
    bias_term: true
  }
}
layer {
  bottom: "inception_3b/pool_proj/bn/sc"
  top: "inception_3b/pool_proj/bn/sc"
  name: "inception_3b/pool_proj/bn/sc/relu"
  type: "ReLU"
  relu_param {
    
  }
}
layer {
  bottom: "inception_3b/1x1/bn/sc"
  bottom: "inception_3b/3x3/bn/sc"
  bottom: "inception_3b/double3x3b/bn/sc"
  bottom: "inception_3b/pool_proj/bn/sc"
  top: "inception_3b/output"
  name: "inception_3b/output"
  type: "Concat"
  concat_param {
    
  }
}
layer {
 bottom: "inception_3b/output"
  top: "inception_3c/3x3_reduce"
  name: "inception_3c/3x3_reduce"
  type: "Convolution"
  param {
    lr_mult: 1
    decay_mult: 1
  }
  convolution_param {
    
    num_output: 128
    pad: 0
    kernel_size: 1
    stride: 1
    weight_filler {
      type: "xavier"
    }
    bias_term: false
  }
}
layer {
  bottom: "inception_3c/3x3_reduce"
  name: "inception_3c/3x3_reduce/bn"
  top: "inception_3c/3x3_reduce/bn"
  type: "BatchNorm"
  batch_norm_param {
    
  }
}
layer {
  bottom: "inception_3c/3x3_reduce/bn"
  top: "inception_3c/3x3_reduce/bn/sc"
  name: "inception_3c/3x3_reduce/bn/sc"
  type: "Scale"
  scale_param {
    bias_term: true
  }
}
layer {
  bottom: "inception_3c/3x3_reduce/bn/sc"
  top: "inception_3c/3x3_reduce/bn/sc"
  name: "inception_3c/3x3_reduce/bn/sc/relu"
  type: "ReLU"
  relu_param {
    
  }
}
layer {
 bottom: "inception_3c/3x3_reduce/bn/sc"
  top: "inception_3c/3x3"
  name: "inception_3c/3x3"
  type: "Convolution"
  param {
    lr_mult: 1
    decay_mult: 1
  }
  convolution_param {
    
    num_output: 160
    pad: 1
    kernel_size: 3
    stride: 2
    weight_filler {
      type: "xavier"
    }
    bias_term: false
  }
}
layer {
  bottom: "inception_3c/3x3"
  name: "inception_3c/3x3/bn"
  top: "inception_3c/3x3/bn"
  type: "BatchNorm"
  batch_norm_param {
    
  }
}
layer {
  bottom: "inception_3c/3x3/bn"
  top: "inception_3c/3x3/bn/sc"
  name: "inception_3c/3x3/bn/sc"
  type: "Scale"
  scale_param {
    bias_term: true
  }
}
layer {
  bottom: "inception_3c/3x3/bn/sc"
  top: "inception_3c/3x3/bn/sc"
  name: "inception_3c/3x3/bn/sc/relu"
  type: "ReLU"
  relu_param {
    
  }
}
layer {
 bottom: "inception_3b/output"
  top: "inception_3c/double3x3_reduce"
  name: "inception_3c/double3x3_reduce"
  type: "Convolution"
  param {
    lr_mult: 1
    decay_mult: 1
  }
  convolution_param {
    
    num_output: 64
    pad: 0
    kernel_size: 1
    stride: 1
    weight_filler {
      type: "xavier"
    }
    bias_term: false
  }
}
layer {
  bottom: "inception_3c/double3x3_reduce"
  name: "inception_3c/double3x3_reduce/bn"
  top: "inception_3c/double3x3_reduce/bn"
  type: "BatchNorm"
  batch_norm_param {
    
  }
}
layer {
  bottom: "inception_3c/double3x3_reduce/bn"
  top: "inception_3c/double3x3_reduce/bn/sc"
  name: "inception_3c/double3x3_reduce/bn/sc"
  type: "Scale"
  scale_param {
    bias_term: true
  }
}
layer {
  bottom: "inception_3c/double3x3_reduce/bn/sc"
  top: "inception_3c/double3x3_reduce/bn/sc"
  name: "inception_3c/double3x3_reduce/bn/sc/relu"
  type: "ReLU"
  relu_param {
    
  }
}
layer {
 bottom: "inception_3c/double3x3_reduce/bn/sc"
  top: "inception_3c/double3x3a"
  name: "inception_3c/double3x3a"
  type: "Convolution"
  param {
    lr_mult: 1
    decay_mult: 1
  }
  convolution_param {
    
    num_output: 96
    pad: 1
    kernel_size: 3
    stride: 1
    weight_filler {
      type: "xavier"
    }
    bias_term: false
  }
}
layer {
  bottom: "inception_3c/double3x3a"
  name: "inception_3c/double3x3a/bn"
  top: "inception_3c/double3x3a/bn"
  type: "BatchNorm"
  batch_norm_param {
    
  }
}
layer {
  bottom: "inception_3c/double3x3a/bn"
  top: "inception_3c/double3x3a/bn/sc"
  name: "inception_3c/double3x3a/bn/sc"
  type: "Scale"
  scale_param {
    bias_term: true
  }
}
layer {
  bottom: "inception_3c/double3x3a/bn/sc"
  top: "inception_3c/double3x3a/bn/sc"
  name: "inception_3c/double3x3a/bn/sc/relu"
  type: "ReLU"
  relu_param {
    
  }
}
layer {
 bottom: "inception_3c/double3x3a/bn/sc"
  top: "inception_3c/double3x3b"
  name: "inception_3c/double3x3b"
  type: "Convolution"
  param {
    lr_mult: 1
    decay_mult: 1
  }
  convolution_param {
    
    num_output: 96
    pad: 1
    kernel_size: 3
    stride: 2
    weight_filler {
      type: "xavier"
    }
    bias_term: false
  }
}
layer {
  bottom: "inception_3c/double3x3b"
  name: "inception_3c/double3x3b/bn"
  top: "inception_3c/double3x3b/bn"
  type: "BatchNorm"
  batch_norm_param {
    
  }
}
layer {
  bottom: "inception_3c/double3x3b/bn"
  top: "inception_3c/double3x3b/bn/sc"
  name: "inception_3c/double3x3b/bn/sc"
  type: "Scale"
  scale_param {
    bias_term: true
  }
}
layer {
  bottom: "inception_3c/double3x3b/bn/sc"
  top: "inception_3c/double3x3b/bn/sc"
  name: "inception_3c/double3x3b/bn/sc/relu"
  type: "ReLU"
  relu_param {
    
  }
}
layer {
  bottom: "inception_3b/output"
  top: "inception_3c/pool"
  name: "inception_3c/pool"
  type: "Pooling"
  pooling_param {
    
    pool: MAX
    kernel_size: 3
    stride: 2
  }
}
layer {
  bottom: "inception_3c/3x3/bn/sc"
  bottom: "inception_3c/double3x3b/bn/sc"
  bottom: "inception_3c/pool"
  top: "inception_3c/output"
  name: "inception_3c/output"
  type: "Concat"
  concat_param {
    
  }
}
layer {
  bottom: "inception_3c/output"
  top: "pool3/5x5_s3"
  name: "pool3/5x5_s3"
  type: "Pooling"
  pooling_param {
    
    pool: AVE
    kernel_size: 5
    stride: 3
  }
}
layer {
 bottom: "pool3/5x5_s3"
  top: "loss1/conv"
  name: "loss1/conv"
  type: "Convolution"
  param {
    lr_mult: 1
    decay_mult: 1
  }
  convolution_param {
    
    num_output: 128
    pad: 0
    kernel_size: 1
    stride: 1
    weight_filler {
      type: "xavier"
    }
    bias_term: false
  }
}
layer {
  bottom: "loss1/conv"
  name: "loss1/conv/bn"
  top: "loss1/conv/bn"
  type: "BatchNorm"
  batch_norm_param {
    
  }
}
layer {
  bottom: "loss1/conv/bn"
  top: "loss1/conv/bn/sc"
  name: "loss1/conv/bn/sc"
  type: "Scale"
  scale_param {
    bias_term: true
  }
}
layer {
  bottom: "loss1/conv/bn/sc"
  top: "loss1/conv/bn/sc"
  name: "loss1/conv/bn/sc/relu"
  type: "ReLU"
  relu_param {
    
  }
}
layer {
  bottom: "loss1/conv/bn/sc"
  top: "loss1/fc"
  name: "loss1/fc"
  type: "InnerProduct"
  param {
    lr_mult: 1
    decay_mult: 1
  }
  inner_product_param {
    num_output: 1024
    weight_filler {
      type: "xavier"
    }
    bias_term: false
  }
}
layer {
  bottom: "loss1/fc"
  name: "loss1/fc/bn"
  top: "loss1/fc/bn"
  type: "BatchNorm"
  batch_norm_param {
    
  }
}
layer {
  bottom: "loss1/fc/bn"
  top: "loss1/fc/bn/sc"
  name: "loss1/fc/bn/sc"
  type: "Scale"
  scale_param {
    bias_term: true
  }
}
layer {
  bottom: "loss1/fc/bn/sc"
  top: "loss1/fc/bn/sc"
  name: "loss1/fc/bn/sc/relu"
  type: "ReLU"
  relu_param {
    
  }
}
layer {
  bottom: "loss1/fc/bn/sc"
  top: "loss1/classifier"
  name: "loss1/classifier"
  type: "InnerProduct"
  param {
    lr_mult: 1
    decay_mult: 1
  }
  param {
    lr_mult: 2
    decay_mult: 0
  }
  inner_product_param {
    num_output: 1000
    weight_filler {
      type: "xavier"
    }
    bias_filler {
      type: "constant"
      value: 0
    }
  }
}
layer {
  bottom: "loss1/classifier"
  bottom: "label"
  top: "loss1/loss"
  name: "loss1/loss"
  type: "SoftmaxWithLoss"
  loss_weight: 0.3
}
layer {
  bottom: "loss1/classifier"
  top: "loss1/prob"
  name: "loss1/prob"
  type: "Softmax"
  include {
    phase: TEST
  }
}
layer {
  bottom: "loss1/prob"
  bottom: "label"
  top: "loss1/top-1"
  name: "loss1/top-1"
  type: "Accuracy"
  include {
    phase: TEST
  }
}
layer {
  bottom: "loss1/prob"
  bottom: "label"
  top: "loss1/top-5"
  name: "loss1/top-5"
  type: "Accuracy"
  accuracy_param {
    top_k: 5
  }
  include {
    phase: TEST
  }
}
layer {
 bottom: "inception_3c/output"
  top: "inception_4a/1x1"
  name: "inception_4a/1x1"
  type: "Convolution"
  param {
    lr_mult: 1
    decay_mult: 1
  }
  convolution_param {
    
    num_output: 224
    pad: 0
    kernel_size: 1
    stride: 1
    weight_filler {
      type: "xavier"
    }
    bias_term: false
  }
}
layer {
  bottom: "inception_4a/1x1"
  name: "inception_4a/1x1/bn"
  top: "inception_4a/1x1/bn"
  type: "BatchNorm"
  batch_norm_param {
    
  }
}
layer {
  bottom: "inception_4a/1x1/bn"
  top: "inception_4a/1x1/bn/sc"
  name: "inception_4a/1x1/bn/sc"
  type: "Scale"
  scale_param {
    bias_term: true
  }
}
layer {
  bottom: "inception_4a/1x1/bn/sc"
  top: "inception_4a/1x1/bn/sc"
  name: "inception_4a/1x1/bn/sc/relu"
  type: "ReLU"
  relu_param {
    
  }
}
layer {
 bottom: "inception_3c/output"
  top: "inception_4a/3x3_reduce"
  name: "inception_4a/3x3_reduce"
  type: "Convolution"
  param {
    lr_mult: 1
    decay_mult: 1
  }
  convolution_param {
    
    num_output: 64
    pad: 0
    kernel_size: 1
    stride: 1
    weight_filler {
      type: "xavier"
    }
    bias_term: false
  }
}
layer {
  bottom: "inception_4a/3x3_reduce"
  name: "inception_4a/3x3_reduce/bn"
  top: "inception_4a/3x3_reduce/bn"
  type: "BatchNorm"
  batch_norm_param {
    
  }
}
layer {
  bottom: "inception_4a/3x3_reduce/bn"
  top: "inception_4a/3x3_reduce/bn/sc"
  name: "inception_4a/3x3_reduce/bn/sc"
  type: "Scale"
  scale_param {
    bias_term: true
  }
}
layer {
  bottom: "inception_4a/3x3_reduce/bn/sc"
  top: "inception_4a/3x3_reduce/bn/sc"
  name: "inception_4a/3x3_reduce/bn/sc/relu"
  type: "ReLU"
  relu_param {
    
  }
}
layer {
 bottom: "inception_4a/3x3_reduce/bn/sc"
  top: "inception_4a/3x3"
  name: "inception_4a/3x3"
  type: "Convolution"
  param {
    lr_mult: 1
    decay_mult: 1
  }
  convolution_param {
    
    num_output: 96
    pad: 1
    kernel_size: 3
    stride: 1
    weight_filler {
      type: "xavier"
    }
    bias_term: false
  }
}
layer {
  bottom: "inception_4a/3x3"
  name: "inception_4a/3x3/bn"
  top: "inception_4a/3x3/bn"
  type: "BatchNorm"
  batch_norm_param {
    
  }
}
layer {
  bottom: "inception_4a/3x3/bn"
  top: "inception_4a/3x3/bn/sc"
  name: "inception_4a/3x3/bn/sc"
  type: "Scale"
  scale_param {
    bias_term: true
  }
}
layer {
  bottom: "inception_4a/3x3/bn/sc"
  top: "inception_4a/3x3/bn/sc"
  name: "inception_4a/3x3/bn/sc/relu"
  type: "ReLU"
  relu_param {
    
  }
}
layer {
 bottom: "inception_3c/output"
  top: "inception_4a/double3x3_reduce"
  name: "inception_4a/double3x3_reduce"
  type: "Convolution"
  param {
    lr_mult: 1
    decay_mult: 1
  }
  convolution_param {
    
    num_output: 96
    pad: 0
    kernel_size: 1
    stride: 1
    weight_filler {
      type: "xavier"
    }
    bias_term: false
  }
}
layer {
  bottom: "inception_4a/double3x3_reduce"
  name: "inception_4a/double3x3_reduce/bn"
  top: "inception_4a/double3x3_reduce/bn"
  type: "BatchNorm"
  batch_norm_param {
    
  }
}
layer {
  bottom: "inception_4a/double3x3_reduce/bn"
  top: "inception_4a/double3x3_reduce/bn/sc"
  name: "inception_4a/double3x3_reduce/bn/sc"
  type: "Scale"
  scale_param {
    bias_term: true
  }
}
layer {
  bottom: "inception_4a/double3x3_reduce/bn/sc"
  top: "inception_4a/double3x3_reduce/bn/sc"
  name: "inception_4a/double3x3_reduce/bn/sc/relu"
  type: "ReLU"
  relu_param {
    
  }
}
layer {
 bottom: "inception_4a/double3x3_reduce/bn/sc"
  top: "inception_4a/double3x3a"
  name: "inception_4a/double3x3a"
  type: "Convolution"
  param {
    lr_mult: 1
    decay_mult: 1
  }
  convolution_param {
    
    num_output: 128
    pad: 1
    kernel_size: 3
    stride: 1
    weight_filler {
      type: "xavier"
    }
    bias_term: false
  }
}
layer {
  bottom: "inception_4a/double3x3a"
  name: "inception_4a/double3x3a/bn"
  top: "inception_4a/double3x3a/bn"
  type: "BatchNorm"
  batch_norm_param {
    
  }
}
layer {
  bottom: "inception_4a/double3x3a/bn"
  top: "inception_4a/double3x3a/bn/sc"
  name: "inception_4a/double3x3a/bn/sc"
  type: "Scale"
  scale_param {
    bias_term: true
  }
}
layer {
  bottom: "inception_4a/double3x3a/bn/sc"
  top: "inception_4a/double3x3a/bn/sc"
  name: "inception_4a/double3x3a/bn/sc/relu"
  type: "ReLU"
  relu_param {
    
  }
}
layer {
 bottom: "inception_4a/double3x3a/bn/sc"
  top: "inception_4a/double3x3b"
  name: "inception_4a/double3x3b"
  type: "Convolution"
  param {
    lr_mult: 1
    decay_mult: 1
  }
  convolution_param {
    
    num_output: 128
    pad: 1
    kernel_size: 3
    stride: 1
    weight_filler {
      type: "xavier"
    }
    bias_term: false
  }
}
layer {
  bottom: "inception_4a/double3x3b"
  name: "inception_4a/double3x3b/bn"
  top: "inception_4a/double3x3b/bn"
  type: "BatchNorm"
  batch_norm_param {
    
  }
}
layer {
  bottom: "inception_4a/double3x3b/bn"
  top: "inception_4a/double3x3b/bn/sc"
  name: "inception_4a/double3x3b/bn/sc"
  type: "Scale"
  scale_param {
    bias_term: true
  }
}
layer {
  bottom: "inception_4a/double3x3b/bn/sc"
  top: "inception_4a/double3x3b/bn/sc"
  name: "inception_4a/double3x3b/bn/sc/relu"
  type: "ReLU"
  relu_param {
    
  }
}
layer {
  bottom: "inception_3c/output"
  top: "inception_4a/pool"
  name: "inception_4a/pool"
  type: "Pooling"
  pooling_param {
    
    pool: AVE
    kernel_size: 3
    stride: 1
    pad: 1
  }
}
layer {
 bottom: "inception_4a/pool"
  top: "inception_4a/pool_proj"
  name: "inception_4a/pool_proj"
  type: "Convolution"
  param {
    lr_mult: 1
    decay_mult: 1
  }
  convolution_param {
    
    num_output: 128
    pad: 0
    kernel_size: 1
    stride: 1
    weight_filler {
      type: "xavier"
    }
    bias_term: false
  }
}
layer {
  bottom: "inception_4a/pool_proj"
  name: "inception_4a/pool_proj/bn"
  top: "inception_4a/pool_proj/bn"
  type: "BatchNorm"
  batch_norm_param {
    
  }
}
layer {
  bottom: "inception_4a/pool_proj/bn"
  top: "inception_4a/pool_proj/bn/sc"
  name: "inception_4a/pool_proj/bn/sc"
  type: "Scale"
  scale_param {
    bias_term: true
  }
}
layer {
  bottom: "inception_4a/pool_proj/bn/sc"
  top: "inception_4a/pool_proj/bn/sc"
  name: "inception_4a/pool_proj/bn/sc/relu"
  type: "ReLU"
  relu_param {
    
  }
}
layer {
  bottom: "inception_4a/1x1/bn/sc"
  bottom: "inception_4a/3x3/bn/sc"
  bottom: "inception_4a/double3x3b/bn/sc"
  bottom: "inception_4a/pool_proj/bn/sc"
  top: "inception_4a/output"
  name: "inception_4a/output"
  type: "Concat"
  concat_param {
    
  }
}
layer {
 bottom: "inception_4a/output"
  top: "inception_4b/1x1"
  name: "inception_4b/1x1"
  type: "Convolution"
  param {
    lr_mult: 1
    decay_mult: 1
  }
  convolution_param {
    
    num_output: 192
    pad: 0
    kernel_size: 1
    stride: 1
    weight_filler {
      type: "xavier"
    }
    bias_term: false
  }
}
layer {
  bottom: "inception_4b/1x1"
  name: "inception_4b/1x1/bn"
  top: "inception_4b/1x1/bn"
  type: "BatchNorm"
  batch_norm_param {
    
  }
}
layer {
  bottom: "inception_4b/1x1/bn"
  top: "inception_4b/1x1/bn/sc"
  name: "inception_4b/1x1/bn/sc"
  type: "Scale"
  scale_param {
    bias_term: true
  }
}
layer {
  bottom: "inception_4b/1x1/bn/sc"
  top: "inception_4b/1x1/bn/sc"
  name: "inception_4b/1x1/bn/sc/relu"
  type: "ReLU"
  relu_param {
    
  }
}
layer {
 bottom: "inception_4a/output"
  top: "inception_4b/3x3_reduce"
  name: "inception_4b/3x3_reduce"
  type: "Convolution"
  param {
    lr_mult: 1
    decay_mult: 1
  }
  convolution_param {
    
    num_output: 96
    pad: 0
    kernel_size: 1
    stride: 1
    weight_filler {
      type: "xavier"
    }
    bias_term: false
  }
}
layer {
  bottom: "inception_4b/3x3_reduce"
  name: "inception_4b/3x3_reduce/bn"
  top: "inception_4b/3x3_reduce/bn"
  type: "BatchNorm"
  batch_norm_param {
    
  }
}
layer {
  bottom: "inception_4b/3x3_reduce/bn"
  top: "inception_4b/3x3_reduce/bn/sc"
  name: "inception_4b/3x3_reduce/bn/sc"
  type: "Scale"
  scale_param {
    bias_term: true
  }
}
layer {
  bottom: "inception_4b/3x3_reduce/bn/sc"
  top: "inception_4b/3x3_reduce/bn/sc"
  name: "inception_4b/3x3_reduce/bn/sc/relu"
  type: "ReLU"
  relu_param {
    
  }
}
layer {
 bottom: "inception_4b/3x3_reduce/bn/sc"
  top: "inception_4b/3x3"
  name: "inception_4b/3x3"
  type: "Convolution"
  param {
    lr_mult: 1
    decay_mult: 1
  }
  convolution_param {
    
    num_output: 128
    pad: 1
    kernel_size: 3
    stride: 1
    weight_filler {
      type: "xavier"
    }
    bias_term: false
  }
}
layer {
  bottom: "inception_4b/3x3"
  name: "inception_4b/3x3/bn"
  top: "inception_4b/3x3/bn"
  type: "BatchNorm"
  batch_norm_param {
    
  }
}
layer {
  bottom: "inception_4b/3x3/bn"
  top: "inception_4b/3x3/bn/sc"
  name: "inception_4b/3x3/bn/sc"
  type: "Scale"
  scale_param {
    bias_term: true
  }
}
layer {
  bottom: "inception_4b/3x3/bn/sc"
  top: "inception_4b/3x3/bn/sc"
  name: "inception_4b/3x3/bn/sc/relu"
  type: "ReLU"
  relu_param {
    
  }
}
layer {
 bottom: "inception_4a/output"
  top: "inception_4b/double3x3_reduce"
  name: "inception_4b/double3x3_reduce"
  type: "Convolution"
  param {
    lr_mult: 1
    decay_mult: 1
  }
  convolution_param {
    
    num_output: 96
    pad: 0
    kernel_size: 1
    stride: 1
    weight_filler {
      type: "xavier"
    }
    bias_term: false
  }
}
layer {
  bottom: "inception_4b/double3x3_reduce"
  name: "inception_4b/double3x3_reduce/bn"
  top: "inception_4b/double3x3_reduce/bn"
  type: "BatchNorm"
  batch_norm_param {
    
  }
}
layer {
  bottom: "inception_4b/double3x3_reduce/bn"
  top: "inception_4b/double3x3_reduce/bn/sc"
  name: "inception_4b/double3x3_reduce/bn/sc"
  type: "Scale"
  scale_param {
    bias_term: true
  }
}
layer {
  bottom: "inception_4b/double3x3_reduce/bn/sc"
  top: "inception_4b/double3x3_reduce/bn/sc"
  name: "inception_4b/double3x3_reduce/bn/sc/relu"
  type: "ReLU"
  relu_param {
    
  }
}
layer {
 bottom: "inception_4b/double3x3_reduce/bn/sc"
  top: "inception_4b/double3x3a"
  name: "inception_4b/double3x3a"
  type: "Convolution"
  param {
    lr_mult: 1
    decay_mult: 1
  }
  convolution_param {
    
    num_output: 128
    pad: 1
    kernel_size: 3
    stride: 1
    weight_filler {
      type: "xavier"
    }
    bias_term: false
  }
}
layer {
  bottom: "inception_4b/double3x3a"
  name: "inception_4b/double3x3a/bn"
  top: "inception_4b/double3x3a/bn"
  type: "BatchNorm"
  batch_norm_param {
    
  }
}
layer {
  bottom: "inception_4b/double3x3a/bn"
  top: "inception_4b/double3x3a/bn/sc"
  name: "inception_4b/double3x3a/bn/sc"
  type: "Scale"
  scale_param {
    bias_term: true
  }
}
layer {
  bottom: "inception_4b/double3x3a/bn/sc"
  top: "inception_4b/double3x3a/bn/sc"
  name: "inception_4b/double3x3a/bn/sc/relu"
  type: "ReLU"
  relu_param {
    
  }
}
layer {
 bottom: "inception_4b/double3x3a/bn/sc"
  top: "inception_4b/double3x3b"
  name: "inception_4b/double3x3b"
  type: "Convolution"
  param {
    lr_mult: 1
    decay_mult: 1
  }
  convolution_param {
    
    num_output: 128
    pad: 1
    kernel_size: 3
    stride: 1
    weight_filler {
      type: "xavier"
    }
    bias_term: false
  }
}
layer {
  bottom: "inception_4b/double3x3b"
  name: "inception_4b/double3x3b/bn"
  top: "inception_4b/double3x3b/bn"
  type: "BatchNorm"
  batch_norm_param {
    
  }
}
layer {
  bottom: "inception_4b/double3x3b/bn"
  top: "inception_4b/double3x3b/bn/sc"
  name: "inception_4b/double3x3b/bn/sc"
  type: "Scale"
  scale_param {
    bias_term: true
  }
}
layer {
  bottom: "inception_4b/double3x3b/bn/sc"
  top: "inception_4b/double3x3b/bn/sc"
  name: "inception_4b/double3x3b/bn/sc/relu"
  type: "ReLU"
  relu_param {
    
  }
}
layer {
  bottom: "inception_4a/output"
  top: "inception_4b/pool"
  name: "inception_4b/pool"
  type: "Pooling"
  pooling_param {
    
    pool: AVE
    kernel_size: 3
    stride: 1
    pad: 1
  }
}
layer {
 bottom: "inception_4b/pool"
  top: "inception_4b/pool_proj"
  name: "inception_4b/pool_proj"
  type: "Convolution"
  param {
    lr_mult: 1
    decay_mult: 1
  }
  convolution_param {
    
    num_output: 128
    pad: 0
    kernel_size: 1
    stride: 1
    weight_filler {
      type: "xavier"
    }
    bias_term: false
  }
}
layer {
  bottom: "inception_4b/pool_proj"
  name: "inception_4b/pool_proj/bn"
  top: "inception_4b/pool_proj/bn"
  type: "BatchNorm"
  batch_norm_param {
    
  }
}
layer {
  bottom: "inception_4b/pool_proj/bn"
  top: "inception_4b/pool_proj/bn/sc"
  name: "inception_4b/pool_proj/bn/sc"
  type: "Scale"
  scale_param {
    bias_term: true
  }
}
layer {
  bottom: "inception_4b/pool_proj/bn/sc"
  top: "inception_4b/pool_proj/bn/sc"
  name: "inception_4b/pool_proj/bn/sc/relu"
  type: "ReLU"
  relu_param {
    
  }
}
layer {
  bottom: "inception_4b/1x1/bn/sc"
  bottom: "inception_4b/3x3/bn/sc"
  bottom: "inception_4b/double3x3b/bn/sc"
  bottom: "inception_4b/pool_proj/bn/sc"
  top: "inception_4b/output"
  name: "inception_4b/output"
  type: "Concat"
  concat_param {
    
  }
}
layer {
 bottom: "inception_4b/output"
  top: "inception_4c/1x1"
  name: "inception_4c/1x1"
  type: "Convolution"
  param {
    lr_mult: 1
    decay_mult: 1
  }
  convolution_param {
    
    num_output: 160
    pad: 0
    kernel_size: 1
    stride: 1
    weight_filler {
      type: "xavier"
    }
    bias_term: false
  }
}
layer {
  bottom: "inception_4c/1x1"
  name: "inception_4c/1x1/bn"
  top: "inception_4c/1x1/bn"
  type: "BatchNorm"
  batch_norm_param {
    
  }
}
layer {
  bottom: "inception_4c/1x1/bn"
  top: "inception_4c/1x1/bn/sc"
  name: "inception_4c/1x1/bn/sc"
  type: "Scale"
  scale_param {
    bias_term: true
  }
}
layer {
  bottom: "inception_4c/1x1/bn/sc"
  top: "inception_4c/1x1/bn/sc"
  name: "inception_4c/1x1/bn/sc/relu"
  type: "ReLU"
  relu_param {
    
  }
}
layer {
 bottom: "inception_4b/output"
  top: "inception_4c/3x3_reduce"
  name: "inception_4c/3x3_reduce"
  type: "Convolution"
  param {
    lr_mult: 1
    decay_mult: 1
  }
  convolution_param {
    
    num_output: 128
    pad: 0
    kernel_size: 1
    stride: 1
    weight_filler {
      type: "xavier"
    }
    bias_term: false
  }
}
layer {
  bottom: "inception_4c/3x3_reduce"
  name: "inception_4c/3x3_reduce/bn"
  top: "inception_4c/3x3_reduce/bn"
  type: "BatchNorm"
  batch_norm_param {
    
  }
}
layer {
  bottom: "inception_4c/3x3_reduce/bn"
  top: "inception_4c/3x3_reduce/bn/sc"
  name: "inception_4c/3x3_reduce/bn/sc"
  type: "Scale"
  scale_param {
    bias_term: true
  }
}
layer {
  bottom: "inception_4c/3x3_reduce/bn/sc"
  top: "inception_4c/3x3_reduce/bn/sc"
  name: "inception_4c/3x3_reduce/bn/sc/relu"
  type: "ReLU"
  relu_param {
    
  }
}
layer {
 bottom: "inception_4c/3x3_reduce/bn/sc"
  top: "inception_4c/3x3"
  name: "inception_4c/3x3"
  type: "Convolution"
  param {
    lr_mult: 1
    decay_mult: 1
  }
  convolution_param {
    
    num_output: 160
    pad: 1
    kernel_size: 3
    stride: 1
    weight_filler {
      type: "xavier"
    }
    bias_term: false
  }
}
layer {
  bottom: "inception_4c/3x3"
  name: "inception_4c/3x3/bn"
  top: "inception_4c/3x3/bn"
  type: "BatchNorm"
  batch_norm_param {
    
  }
}
layer {
  bottom: "inception_4c/3x3/bn"
  top: "inception_4c/3x3/bn/sc"
  name: "inception_4c/3x3/bn/sc"
  type: "Scale"
  scale_param {
    bias_term: true
  }
}
layer {
  bottom: "inception_4c/3x3/bn/sc"
  top: "inception_4c/3x3/bn/sc"
  name: "inception_4c/3x3/bn/sc/relu"
  type: "ReLU"
  relu_param {
    
  }
}
layer {
 bottom: "inception_4b/output"
  top: "inception_4c/double3x3_reduce"
  name: "inception_4c/double3x3_reduce"
  type: "Convolution"
  param {
    lr_mult: 1
    decay_mult: 1
  }
  convolution_param {
    
    num_output: 128
    pad: 0
    kernel_size: 1
    stride: 1
    weight_filler {
      type: "xavier"
    }
    bias_term: false
  }
}
layer {
  bottom: "inception_4c/double3x3_reduce"
  name: "inception_4c/double3x3_reduce/bn"
  top: "inception_4c/double3x3_reduce/bn"
  type: "BatchNorm"
  batch_norm_param {
    
  }
}
layer {
  bottom: "inception_4c/double3x3_reduce/bn"
  top: "inception_4c/double3x3_reduce/bn/sc"
  name: "inception_4c/double3x3_reduce/bn/sc"
  type: "Scale"
  scale_param {
    bias_term: true
  }
}
layer {
  bottom: "inception_4c/double3x3_reduce/bn/sc"
  top: "inception_4c/double3x3_reduce/bn/sc"
  name: "inception_4c/double3x3_reduce/bn/sc/relu"
  type: "ReLU"
  relu_param {
    
  }
}
layer {
 bottom: "inception_4c/double3x3_reduce/bn/sc"
  top: "inception_4c/double3x3a"
  name: "inception_4c/double3x3a"
  type: "Convolution"
  param {
    lr_mult: 1
    decay_mult: 1
  }
  convolution_param {
    
    num_output: 160
    pad: 1
    kernel_size: 3
    stride: 1
    weight_filler {
      type: "xavier"
    }
    bias_term: false
  }
}
layer {
  bottom: "inception_4c/double3x3a"
  name: "inception_4c/double3x3a/bn"
  top: "inception_4c/double3x3a/bn"
  type: "BatchNorm"
  batch_norm_param {
    
  }
}
layer {
  bottom: "inception_4c/double3x3a/bn"
  top: "inception_4c/double3x3a/bn/sc"
  name: "inception_4c/double3x3a/bn/sc"
  type: "Scale"
  scale_param {
    bias_term: true
  }
}
layer {
  bottom: "inception_4c/double3x3a/bn/sc"
  top: "inception_4c/double3x3a/bn/sc"
  name: "inception_4c/double3x3a/bn/sc/relu"
  type: "ReLU"
  relu_param {
    
  }
}
layer {
 bottom: "inception_4c/double3x3a/bn/sc"
  top: "inception_4c/double3x3b"
  name: "inception_4c/double3x3b"
  type: "Convolution"
  param {
    lr_mult: 1
    decay_mult: 1
  }
  convolution_param {
    
    num_output: 160
    pad: 1
    kernel_size: 3
    stride: 1
    weight_filler {
      type: "xavier"
    }
    bias_term: false
  }
}
layer {
  bottom: "inception_4c/double3x3b"
  name: "inception_4c/double3x3b/bn"
  top: "inception_4c/double3x3b/bn"
  type: "BatchNorm"
  batch_norm_param {
    
  }
}
layer {
  bottom: "inception_4c/double3x3b/bn"
  top: "inception_4c/double3x3b/bn/sc"
  name: "inception_4c/double3x3b/bn/sc"
  type: "Scale"
  scale_param {
    bias_term: true
  }
}
layer {
  bottom: "inception_4c/double3x3b/bn/sc"
  top: "inception_4c/double3x3b/bn/sc"
  name: "inception_4c/double3x3b/bn/sc/relu"
  type: "ReLU"
  relu_param {
    
  }
}
layer {
  bottom: "inception_4b/output"
  top: "inception_4c/pool"
  name: "inception_4c/pool"
  type: "Pooling"
  pooling_param {
    
    pool: AVE
    kernel_size: 3
    stride: 1
    pad: 1
  }
}
layer {
 bottom: "inception_4c/pool"
  top: "inception_4c/pool_proj"
  name: "inception_4c/pool_proj"
  type: "Convolution"
  param {
    lr_mult: 1
    decay_mult: 1
  }
  convolution_param {
    
    num_output: 96
    pad: 0
    kernel_size: 1
    stride: 1
    weight_filler {
      type: "xavier"
    }
    bias_term: false
  }
}
layer {
  bottom: "inception_4c/pool_proj"
  name: "inception_4c/pool_proj/bn"
  top: "inception_4c/pool_proj/bn"
  type: "BatchNorm"
  batch_norm_param {
    
  }
}
layer {
  bottom: "inception_4c/pool_proj/bn"
  top: "inception_4c/pool_proj/bn/sc"
  name: "inception_4c/pool_proj/bn/sc"
  type: "Scale"
  scale_param {
    bias_term: true
  }
}
layer {
  bottom: "inception_4c/pool_proj/bn/sc"
  top: "inception_4c/pool_proj/bn/sc"
  name: "inception_4c/pool_proj/bn/sc/relu"
  type: "ReLU"
  relu_param {
    
  }
}
layer {
  bottom: "inception_4c/1x1/bn/sc"
  bottom: "inception_4c/3x3/bn/sc"
  bottom: "inception_4c/double3x3b/bn/sc"
  bottom: "inception_4c/pool_proj/bn/sc"
  top: "inception_4c/output"
  name: "inception_4c/output"
  type: "Concat"
  concat_param {
    
  }
}
layer {
 bottom: "inception_4c/output"
  top: "inception_4d/1x1"
  name: "inception_4d/1x1"
  type: "Convolution"
  param {
    lr_mult: 1
    decay_mult: 1
  }
  convolution_param {
    
    num_output: 96
    pad: 0
    kernel_size: 1
    stride: 1
    weight_filler {
      type: "xavier"
    }
    bias_term: false
  }
}
layer {
  bottom: "inception_4d/1x1"
  name: "inception_4d/1x1/bn"
  top: "inception_4d/1x1/bn"
  type: "BatchNorm"
  batch_norm_param {
    
  }
}
layer {
  bottom: "inception_4d/1x1/bn"
  top: "inception_4d/1x1/bn/sc"
  name: "inception_4d/1x1/bn/sc"
  type: "Scale"
  scale_param {
    bias_term: true
  }
}
layer {
  bottom: "inception_4d/1x1/bn/sc"
  top: "inception_4d/1x1/bn/sc"
  name: "inception_4d/1x1/bn/sc/relu"
  type: "ReLU"
  relu_param {
    
  }
}
layer {
 bottom: "inception_4c/output"
  top: "inception_4d/3x3_reduce"
  name: "inception_4d/3x3_reduce"
  type: "Convolution"
  param {
    lr_mult: 1
    decay_mult: 1
  }
  convolution_param {
    
    num_output: 128
    pad: 0
    kernel_size: 1
    stride: 1
    weight_filler {
      type: "xavier"
    }
    bias_term: false
  }
}
layer {
  bottom: "inception_4d/3x3_reduce"
  name: "inception_4d/3x3_reduce/bn"
  top: "inception_4d/3x3_reduce/bn"
  type: "BatchNorm"
  batch_norm_param {
    
  }
}
layer {
  bottom: "inception_4d/3x3_reduce/bn"
  top: "inception_4d/3x3_reduce/bn/sc"
  name: "inception_4d/3x3_reduce/bn/sc"
  type: "Scale"
  scale_param {
    bias_term: true
  }
}
layer {
  bottom: "inception_4d/3x3_reduce/bn/sc"
  top: "inception_4d/3x3_reduce/bn/sc"
  name: "inception_4d/3x3_reduce/bn/sc/relu"
  type: "ReLU"
  relu_param {
    
  }
}
layer {
 bottom: "inception_4d/3x3_reduce/bn/sc"
  top: "inception_4d/3x3"
  name: "inception_4d/3x3"
  type: "Convolution"
  param {
    lr_mult: 1
    decay_mult: 1
  }
  convolution_param {
    
    num_output: 192
    pad: 1
    kernel_size: 3
    stride: 1
    weight_filler {
      type: "xavier"
    }
    bias_term: false
  }
}
layer {
  bottom: "inception_4d/3x3"
  name: "inception_4d/3x3/bn"
  top: "inception_4d/3x3/bn"
  type: "BatchNorm"
  batch_norm_param {
    
  }
}
layer {
  bottom: "inception_4d/3x3/bn"
  top: "inception_4d/3x3/bn/sc"
  name: "inception_4d/3x3/bn/sc"
  type: "Scale"
  scale_param {
    bias_term: true
  }
}
layer {
  bottom: "inception_4d/3x3/bn/sc"
  top: "inception_4d/3x3/bn/sc"
  name: "inception_4d/3x3/bn/sc/relu"
  type: "ReLU"
  relu_param {
    
  }
}
layer {
 bottom: "inception_4c/output"
  top: "inception_4d/double3x3_reduce"
  name: "inception_4d/double3x3_reduce"
  type: "Convolution"
  param {
    lr_mult: 1
    decay_mult: 1
  }
  convolution_param {
    
    num_output: 160
    pad: 0
    kernel_size: 1
    stride: 1
    weight_filler {
      type: "xavier"
    }
    bias_term: false
  }
}
layer {
  bottom: "inception_4d/double3x3_reduce"
  name: "inception_4d/double3x3_reduce/bn"
  top: "inception_4d/double3x3_reduce/bn"
  type: "BatchNorm"
  batch_norm_param {
    
  }
}
layer {
  bottom: "inception_4d/double3x3_reduce/bn"
  top: "inception_4d/double3x3_reduce/bn/sc"
  name: "inception_4d/double3x3_reduce/bn/sc"
  type: "Scale"
  scale_param {
    bias_term: true
  }
}
layer {
  bottom: "inception_4d/double3x3_reduce/bn/sc"
  top: "inception_4d/double3x3_reduce/bn/sc"
  name: "inception_4d/double3x3_reduce/bn/sc/relu"
  type: "ReLU"
  relu_param {
    
  }
}
layer {
 bottom: "inception_4d/double3x3_reduce/bn/sc"
  top: "inception_4d/double3x3a"
  name: "inception_4d/double3x3a"
  type: "Convolution"
  param {
    lr_mult: 1
    decay_mult: 1
  }
  convolution_param {
    
    num_output: 192
    pad: 1
    kernel_size: 3
    stride: 1
    weight_filler {
      type: "xavier"
    }
    bias_term: false
  }
}
layer {
  bottom: "inception_4d/double3x3a"
  name: "inception_4d/double3x3a/bn"
  top: "inception_4d/double3x3a/bn"
  type: "BatchNorm"
  batch_norm_param {
    
  }
}
layer {
  bottom: "inception_4d/double3x3a/bn"
  top: "inception_4d/double3x3a/bn/sc"
  name: "inception_4d/double3x3a/bn/sc"
  type: "Scale"
  scale_param {
    bias_term: true
  }
}
layer {
  bottom: "inception_4d/double3x3a/bn/sc"
  top: "inception_4d/double3x3a/bn/sc"
  name: "inception_4d/double3x3a/bn/sc/relu"
  type: "ReLU"
  relu_param {
    
  }
}
layer {
 bottom: "inception_4d/double3x3a/bn/sc"
  top: "inception_4d/double3x3b"
  name: "inception_4d/double3x3b"
  type: "Convolution"
  param {
    lr_mult: 1
    decay_mult: 1
  }
  convolution_param {
    
    num_output: 192
    pad: 1
    kernel_size: 3
    stride: 1
    weight_filler {
      type: "xavier"
    }
    bias_term: false
  }
}
layer {
  bottom: "inception_4d/double3x3b"
  name: "inception_4d/double3x3b/bn"
  top: "inception_4d/double3x3b/bn"
  type: "BatchNorm"
  batch_norm_param {
    
  }
}
layer {
  bottom: "inception_4d/double3x3b/bn"
  top: "inception_4d/double3x3b/bn/sc"
  name: "inception_4d/double3x3b/bn/sc"
  type: "Scale"
  scale_param {
    bias_term: true
  }
}
layer {
  bottom: "inception_4d/double3x3b/bn/sc"
  top: "inception_4d/double3x3b/bn/sc"
  name: "inception_4d/double3x3b/bn/sc/relu"
  type: "ReLU"
  relu_param {
    
  }
}
layer {
  bottom: "inception_4c/output"
  top: "inception_4d/pool"
  name: "inception_4d/pool"
  type: "Pooling"
  pooling_param {
    
    pool: AVE
    kernel_size: 3
    stride: 1
    pad: 1
  }
}
layer {
 bottom: "inception_4d/pool"
  top: "inception_4d/pool_proj"
  name: "inception_4d/pool_proj"
  type: "Convolution"
  param {
    lr_mult: 1
    decay_mult: 1
  }
  convolution_param {
    
    num_output: 96
    pad: 0
    kernel_size: 1
    stride: 1
    weight_filler {
      type: "xavier"
    }
    bias_term: false
  }
}
layer {
  bottom: "inception_4d/pool_proj"
  name: "inception_4d/pool_proj/bn"
  top: "inception_4d/pool_proj/bn"
  type: "BatchNorm"
  batch_norm_param {
    
  }
}
layer {
  bottom: "inception_4d/pool_proj/bn"
  top: "inception_4d/pool_proj/bn/sc"
  name: "inception_4d/pool_proj/bn/sc"
  type: "Scale"
  scale_param {
    bias_term: true
  }
}
layer {
  bottom: "inception_4d/pool_proj/bn/sc"
  top: "inception_4d/pool_proj/bn/sc"
  name: "inception_4d/pool_proj/bn/sc/relu"
  type: "ReLU"
  relu_param {
    
  }
}
layer {
  bottom: "inception_4d/1x1/bn/sc"
  bottom: "inception_4d/3x3/bn/sc"
  bottom: "inception_4d/double3x3b/bn/sc"
  bottom: "inception_4d/pool_proj/bn/sc"
  top: "inception_4d/output"
  name: "inception_4d/output"
  type: "Concat"
  concat_param {
    
  }
}
layer {
 bottom: "inception_4d/output"
  top: "inception_4e/3x3_reduce"
  name: "inception_4e/3x3_reduce"
  type: "Convolution"
  param {
    lr_mult: 1
    decay_mult: 1
  }
  convolution_param {
    
    num_output: 128
    pad: 0
    kernel_size: 1
    stride: 1
    weight_filler {
      type: "xavier"
    }
    bias_term: false
  }
}
layer {
  bottom: "inception_4e/3x3_reduce"
  name: "inception_4e/3x3_reduce/bn"
  top: "inception_4e/3x3_reduce/bn"
  type: "BatchNorm"
  batch_norm_param {
    
  }
}
layer {
  bottom: "inception_4e/3x3_reduce/bn"
  top: "inception_4e/3x3_reduce/bn/sc"
  name: "inception_4e/3x3_reduce/bn/sc"
  type: "Scale"
  scale_param {
    bias_term: true
  }
}
layer {
  bottom: "inception_4e/3x3_reduce/bn/sc"
  top: "inception_4e/3x3_reduce/bn/sc"
  name: "inception_4e/3x3_reduce/bn/sc/relu"
  type: "ReLU"
  relu_param {
    
  }
}
layer {
 bottom: "inception_4e/3x3_reduce/bn/sc"
  top: "inception_4e/3x3"
  name: "inception_4e/3x3"
  type: "Convolution"
  param {
    lr_mult: 1
    decay_mult: 1
  }
  convolution_param {
    
    num_output: 192
    pad: 1
    kernel_size: 3
    stride: 2
    weight_filler {
      type: "xavier"
    }
    bias_term: false
  }
}
layer {
  bottom: "inception_4e/3x3"
  name: "inception_4e/3x3/bn"
  top: "inception_4e/3x3/bn"
  type: "BatchNorm"
  batch_norm_param {
    
  }
}
layer {
  bottom: "inception_4e/3x3/bn"
  top: "inception_4e/3x3/bn/sc"
  name: "inception_4e/3x3/bn/sc"
  type: "Scale"
  scale_param {
    bias_term: true
  }
}
layer {
  bottom: "inception_4e/3x3/bn/sc"
  top: "inception_4e/3x3/bn/sc"
  name: "inception_4e/3x3/bn/sc/relu"
  type: "ReLU"
  relu_param {
    
  }
}
layer {
 bottom: "inception_4d/output"
  top: "inception_4e/double3x3_reduce"
  name: "inception_4e/double3x3_reduce"
  type: "Convolution"
  param {
    lr_mult: 1
    decay_mult: 1
  }
  convolution_param {
    
    num_output: 192
    pad: 0
    kernel_size: 1
    stride: 1
    weight_filler {
      type: "xavier"
    }
    bias_term: false
  }
}
layer {
  bottom: "inception_4e/double3x3_reduce"
  name: "inception_4e/double3x3_reduce/bn"
  top: "inception_4e/double3x3_reduce/bn"
  type: "BatchNorm"
  batch_norm_param {
    
  }
}
layer {
  bottom: "inception_4e/double3x3_reduce/bn"
  top: "inception_4e/double3x3_reduce/bn/sc"
  name: "inception_4e/double3x3_reduce/bn/sc"
  type: "Scale"
  scale_param {
    bias_term: true
  }
}
layer {
  bottom: "inception_4e/double3x3_reduce/bn/sc"
  top: "inception_4e/double3x3_reduce/bn/sc"
  name: "inception_4e/double3x3_reduce/bn/sc/relu"
  type: "ReLU"
  relu_param {
    
  }
}
layer {
 bottom: "inception_4e/double3x3_reduce/bn/sc"
  top: "inception_4e/double3x3a"
  name: "inception_4e/double3x3a"
  type: "Convolution"
  param {
    lr_mult: 1
    decay_mult: 1
  }
  convolution_param {
    
    num_output: 256
    pad: 1
    kernel_size: 3
    stride: 1
    weight_filler {
      type: "xavier"
    }
    bias_term: false
  }
}
layer {
  bottom: "inception_4e/double3x3a"
  name: "inception_4e/double3x3a/bn"
  top: "inception_4e/double3x3a/bn"
  type: "BatchNorm"
  batch_norm_param {
    
  }
}
layer {
  bottom: "inception_4e/double3x3a/bn"
  top: "inception_4e/double3x3a/bn/sc"
  name: "inception_4e/double3x3a/bn/sc"
  type: "Scale"
  scale_param {
    bias_term: true
  }
}
layer {
  bottom: "inception_4e/double3x3a/bn/sc"
  top: "inception_4e/double3x3a/bn/sc"
  name: "inception_4e/double3x3a/bn/sc/relu"
  type: "ReLU"
  relu_param {
    
  }
}
layer {
 bottom: "inception_4e/double3x3a/bn/sc"
  top: "inception_4e/double3x3b"
  name: "inception_4e/double3x3b"
  type: "Convolution"
  param {
    lr_mult: 1
    decay_mult: 1
  }
  convolution_param {
    
    num_output: 256
    pad: 1
    kernel_size: 3
    stride: 2
    weight_filler {
      type: "xavier"
    }
    bias_term: false
  }
}
layer {
  bottom: "inception_4e/double3x3b"
  name: "inception_4e/double3x3b/bn"
  top: "inception_4e/double3x3b/bn"
  type: "BatchNorm"
  batch_norm_param {
    
  }
}
layer {
  bottom: "inception_4e/double3x3b/bn"
  top: "inception_4e/double3x3b/bn/sc"
  name: "inception_4e/double3x3b/bn/sc"
  type: "Scale"
  scale_param {
    bias_term: true
  }
}
layer {
  bottom: "inception_4e/double3x3b/bn/sc"
  top: "inception_4e/double3x3b/bn/sc"
  name: "inception_4e/double3x3b/bn/sc/relu"
  type: "ReLU"
  relu_param {
    
  }
}
layer {
  bottom: "inception_4d/output"
  top: "inception_4e/pool"
  name: "inception_4e/pool"
  type: "Pooling"
  pooling_param {
    
    pool: MAX
    kernel_size: 3
    stride: 2
  }
}
layer {
  bottom: "inception_4e/3x3/bn/sc"
  bottom: "inception_4e/double3x3b/bn/sc"
  bottom: "inception_4e/pool"
  top: "inception_4e/output"
  name: "inception_4e/output"
  type: "Concat"
  concat_param {
    
  }
}
layer {
  bottom: "inception_4e/output"
  top: "pool4/5x5_s3"
  name: "pool4/5x5_s3"
  type: "Pooling"
  pooling_param {
    
    pool: AVE
    kernel_size: 5
    stride: 3
  }
}
layer {
 bottom: "pool4/5x5_s3"
  top: "loss2/conv"
  name: "loss2/conv"
  type: "Convolution"
  param {
    lr_mult: 1
    decay_mult: 1
  }
  convolution_param {
    
    num_output: 128
    pad: 0
    kernel_size: 1
    stride: 1
    weight_filler {
      type: "xavier"
    }
    bias_term: false
  }
}
layer {
  bottom: "loss2/conv"
  name: "loss2/conv/bn"
  top: "loss2/conv/bn"
  type: "BatchNorm"
  batch_norm_param {
    
  }
}
layer {
  bottom: "loss2/conv/bn"
  top: "loss2/conv/bn/sc"
  name: "loss2/conv/bn/sc"
  type: "Scale"
  scale_param {
    bias_term: true
  }
}
layer {
  bottom: "loss2/conv/bn/sc"
  top: "loss2/conv/bn/sc"
  name: "loss2/conv/bn/sc/relu"
  type: "ReLU"
  relu_param {
    
  }
}
layer {
  bottom: "loss2/conv/bn/sc"
  top: "loss2/fc"
  name: "loss2/fc"
  type: "InnerProduct"
  param {
    lr_mult: 1
    decay_mult: 1
  }
  inner_product_param {
    num_output: 1024
    weight_filler {
      type: "xavier"
    }
    bias_term: false
  }
}
layer {
  bottom: "loss2/fc"
  name: "loss2/fc/bn"
  top: "loss2/fc/bn"
  type: "BatchNorm"
  batch_norm_param {
    
  }
}
layer {
  bottom: "loss2/fc/bn"
  top: "loss2/fc/bn/sc"
  name: "loss2/fc/bn/sc"
  type: "Scale"
  scale_param {
    bias_term: true
  }
}
layer {
  bottom: "loss2/fc/bn/sc"
  top: "loss2/fc/bn/sc"
  name: "loss2/fc/bn/sc/relu"
  type: "ReLU"
  relu_param {
    
  }
}
layer {
  bottom: "loss2/fc/bn/sc"
  top: "loss2/classifier"
  name: "loss2/classifier"
  type: "InnerProduct"
  param {
    lr_mult: 1
    decay_mult: 1
  }
  param {
    lr_mult: 2
    decay_mult: 0
  }
  inner_product_param {
    num_output: 1000
    weight_filler {
      type: "xavier"
    }
    bias_filler {
      type: "constant"
      value: 0
    }
  }
}
layer {
  bottom: "loss2/classifier"
  bottom: "label"
  top: "loss2/loss"
  name: "loss2/loss"
  type: "SoftmaxWithLoss"
  loss_weight: 0.3
}
layer {
  bottom: "loss2/classifier"
  top: "loss2/prob"
  name: "loss2/prob"
  type: "Softmax"
  include {
    phase: TEST
  }
}
layer {
  bottom: "loss2/prob"
  bottom: "label"
  top: "loss2/top-1"
  name: "loss2/top-1"
  type: "Accuracy"
  include {
    phase: TEST
  }
}
layer {
  bottom: "loss2/prob"
  bottom: "label"
  top: "loss2/top-5"
  name: "loss2/top-5"
  type: "Accuracy"
  accuracy_param {
    top_k: 5
  }
  include {
    phase: TEST
  }
}
layer {
 bottom: "inception_4e/output"
  top: "inception_5a/1x1"
  name: "inception_5a/1x1"
  type: "Convolution"
  param {
    lr_mult: 1
    decay_mult: 1
  }
  convolution_param {
    
    num_output: 352
    pad: 0
    kernel_size: 1
    stride: 1
    weight_filler {
      type: "xavier"
    }
    bias_term: false
  }
}
layer {
  bottom: "inception_5a/1x1"
  name: "inception_5a/1x1/bn"
  top: "inception_5a/1x1/bn"
  type: "BatchNorm"
  batch_norm_param {
    
  }
}
layer {
  bottom: "inception_5a/1x1/bn"
  top: "inception_5a/1x1/bn/sc"
  name: "inception_5a/1x1/bn/sc"
  type: "Scale"
  scale_param {
    bias_term: true
  }
}
layer {
  bottom: "inception_5a/1x1/bn/sc"
  top: "inception_5a/1x1/bn/sc"
  name: "inception_5a/1x1/bn/sc/relu"
  type: "ReLU"
  relu_param {
    
  }
}
layer {
 bottom: "inception_4e/output"
  top: "inception_5a/3x3_reduce"
  name: "inception_5a/3x3_reduce"
  type: "Convolution"
  param {
    lr_mult: 1
    decay_mult: 1
  }
  convolution_param {
    
    num_output: 192
    pad: 0
    kernel_size: 1
    stride: 1
    weight_filler {
      type: "xavier"
    }
    bias_term: false
  }
}
layer {
  bottom: "inception_5a/3x3_reduce"
  name: "inception_5a/3x3_reduce/bn"
  top: "inception_5a/3x3_reduce/bn"
  type: "BatchNorm"
  batch_norm_param {
    
  }
}
layer {
  bottom: "inception_5a/3x3_reduce/bn"
  top: "inception_5a/3x3_reduce/bn/sc"
  name: "inception_5a/3x3_reduce/bn/sc"
  type: "Scale"
  scale_param {
    bias_term: true
  }
}
layer {
  bottom: "inception_5a/3x3_reduce/bn/sc"
  top: "inception_5a/3x3_reduce/bn/sc"
  name: "inception_5a/3x3_reduce/bn/sc/relu"
  type: "ReLU"
  relu_param {
    
  }
}
layer {
 bottom: "inception_5a/3x3_reduce/bn/sc"
  top: "inception_5a/3x3"
  name: "inception_5a/3x3"
  type: "Convolution"
  param {
    lr_mult: 1
    decay_mult: 1
  }
  convolution_param {
    
    num_output: 320
    pad: 1
    kernel_size: 3
    stride: 1
    weight_filler {
      type: "xavier"
    }
    bias_term: false
  }
}
layer {
  bottom: "inception_5a/3x3"
  name: "inception_5a/3x3/bn"
  top: "inception_5a/3x3/bn"
  type: "BatchNorm"
  batch_norm_param {
    
  }
}
layer {
  bottom: "inception_5a/3x3/bn"
  top: "inception_5a/3x3/bn/sc"
  name: "inception_5a/3x3/bn/sc"
  type: "Scale"
  scale_param {
    bias_term: true
  }
}
layer {
  bottom: "inception_5a/3x3/bn/sc"
  top: "inception_5a/3x3/bn/sc"
  name: "inception_5a/3x3/bn/sc/relu"
  type: "ReLU"
  relu_param {
    
  }
}
layer {
 bottom: "inception_4e/output"
  top: "inception_5a/double3x3_reduce"
  name: "inception_5a/double3x3_reduce"
  type: "Convolution"
  param {
    lr_mult: 1
    decay_mult: 1
  }
  convolution_param {
    
    num_output: 160
    pad: 0
    kernel_size: 1
    stride: 1
    weight_filler {
      type: "xavier"
    }
    bias_term: false
  }
}
layer {
  bottom: "inception_5a/double3x3_reduce"
  name: "inception_5a/double3x3_reduce/bn"
  top: "inception_5a/double3x3_reduce/bn"
  type: "BatchNorm"
  batch_norm_param {
    
  }
}
layer {
  bottom: "inception_5a/double3x3_reduce/bn"
  top: "inception_5a/double3x3_reduce/bn/sc"
  name: "inception_5a/double3x3_reduce/bn/sc"
  type: "Scale"
  scale_param {
    bias_term: true
  }
}
layer {
  bottom: "inception_5a/double3x3_reduce/bn/sc"
  top: "inception_5a/double3x3_reduce/bn/sc"
  name: "inception_5a/double3x3_reduce/bn/sc/relu"
  type: "ReLU"
  relu_param {
    
  }
}
layer {
 bottom: "inception_5a/double3x3_reduce/bn/sc"
  top: "inception_5a/double3x3a"
  name: "inception_5a/double3x3a"
  type: "Convolution"
  param {
    lr_mult: 1
    decay_mult: 1
  }
  convolution_param {
    
    num_output: 224
    pad: 1
    kernel_size: 3
    stride: 1
    weight_filler {
      type: "xavier"
    }
    bias_term: false
  }
}
layer {
  bottom: "inception_5a/double3x3a"
  name: "inception_5a/double3x3a/bn"
  top: "inception_5a/double3x3a/bn"
  type: "BatchNorm"
  batch_norm_param {
    
  }
}
layer {
  bottom: "inception_5a/double3x3a/bn"
  top: "inception_5a/double3x3a/bn/sc"
  name: "inception_5a/double3x3a/bn/sc"
  type: "Scale"
  scale_param {
    bias_term: true
  }
}
layer {
  bottom: "inception_5a/double3x3a/bn/sc"
  top: "inception_5a/double3x3a/bn/sc"
  name: "inception_5a/double3x3a/bn/sc/relu"
  type: "ReLU"
  relu_param {
    
  }
}
layer {
 bottom: "inception_5a/double3x3a/bn/sc"
  top: "inception_5a/double3x3b"
  name: "inception_5a/double3x3b"
  type: "Convolution"
  param {
    lr_mult: 1
    decay_mult: 1
  }
  convolution_param {
    
    num_output: 224
    pad: 1
    kernel_size: 3
    stride: 1
    weight_filler {
      type: "xavier"
    }
    bias_term: false
  }
}
layer {
  bottom: "inception_5a/double3x3b"
  name: "inception_5a/double3x3b/bn"
  top: "inception_5a/double3x3b/bn"
  type: "BatchNorm"
  batch_norm_param {
    
  }
}
layer {
  bottom: "inception_5a/double3x3b/bn"
  top: "inception_5a/double3x3b/bn/sc"
  name: "inception_5a/double3x3b/bn/sc"
  type: "Scale"
  scale_param {
    bias_term: true
  }
}
layer {
  bottom: "inception_5a/double3x3b/bn/sc"
  top: "inception_5a/double3x3b/bn/sc"
  name: "inception_5a/double3x3b/bn/sc/relu"
  type: "ReLU"
  relu_param {
    
  }
}
layer {
  bottom: "inception_4e/output"
  top: "inception_5a/pool"
  name: "inception_5a/pool"
  type: "Pooling"
  pooling_param {
    
    pool: AVE
    kernel_size: 3
    stride: 1
    pad: 1
  }
}
layer {
 bottom: "inception_5a/pool"
  top: "inception_5a/pool_proj"
  name: "inception_5a/pool_proj"
  type: "Convolution"
  param {
    lr_mult: 1
    decay_mult: 1
  }
  convolution_param {
    
    num_output: 128
    pad: 0
    kernel_size: 1
    stride: 1
    weight_filler {
      type: "xavier"
    }
    bias_term: false
  }
}
layer {
  bottom: "inception_5a/pool_proj"
  name: "inception_5a/pool_proj/bn"
  top: "inception_5a/pool_proj/bn"
  type: "BatchNorm"
  batch_norm_param {
    
  }
}
layer {
  bottom: "inception_5a/pool_proj/bn"
  top: "inception_5a/pool_proj/bn/sc"
  name: "inception_5a/pool_proj/bn/sc"
  type: "Scale"
  scale_param {
    bias_term: true
  }
}
layer {
  bottom: "inception_5a/pool_proj/bn/sc"
  top: "inception_5a/pool_proj/bn/sc"
  name: "inception_5a/pool_proj/bn/sc/relu"
  type: "ReLU"
  relu_param {
    
  }
}
layer {
  bottom: "inception_5a/1x1/bn/sc"
  bottom: "inception_5a/3x3/bn/sc"
  bottom: "inception_5a/double3x3b/bn/sc"
  bottom: "inception_5a/pool_proj/bn/sc"
  top: "inception_5a/output"
  name: "inception_5a/output"
  type: "Concat"
  concat_param {
    
  }
}
layer {
 bottom: "inception_5a/output"
  top: "inception_5b/1x1"
  name: "inception_5b/1x1"
  type: "Convolution"
  param {
    lr_mult: 1
    decay_mult: 1
  }
  convolution_param {
    
    num_output: 352
    pad: 0
    kernel_size: 1
    stride: 1
    weight_filler {
      type: "xavier"
    }
    bias_term: false
  }
}
layer {
  bottom: "inception_5b/1x1"
  name: "inception_5b/1x1/bn"
  top: "inception_5b/1x1/bn"
  type: "BatchNorm"
  batch_norm_param {
    
  }
}
layer {
  bottom: "inception_5b/1x1/bn"
  top: "inception_5b/1x1/bn/sc"
  name: "inception_5b/1x1/bn/sc"
  type: "Scale"
  scale_param {
    bias_term: true
  }
}
layer {
  bottom: "inception_5b/1x1/bn/sc"
  top: "inception_5b/1x1/bn/sc"
  name: "inception_5b/1x1/bn/sc/relu"
  type: "ReLU"
  relu_param {
    
  }
}
layer {
 bottom: "inception_5a/output"
  top: "inception_5b/3x3_reduce"
  name: "inception_5b/3x3_reduce"
  type: "Convolution"
  param {
    lr_mult: 1
    decay_mult: 1
  }
  convolution_param {
    
    num_output: 192
    pad: 0
    kernel_size: 1
    stride: 1
    weight_filler {
      type: "xavier"
    }
    bias_term: false
  }
}
layer {
  bottom: "inception_5b/3x3_reduce"
  name: "inception_5b/3x3_reduce/bn"
  top: "inception_5b/3x3_reduce/bn"
  type: "BatchNorm"
  batch_norm_param {
    
  }
}
layer {
  bottom: "inception_5b/3x3_reduce/bn"
  top: "inception_5b/3x3_reduce/bn/sc"
  name: "inception_5b/3x3_reduce/bn/sc"
  type: "Scale"
  scale_param {
    bias_term: true
  }
}
layer {
  bottom: "inception_5b/3x3_reduce/bn/sc"
  top: "inception_5b/3x3_reduce/bn/sc"
  name: "inception_5b/3x3_reduce/bn/sc/relu"
  type: "ReLU"
  relu_param {
    
  }
}
layer {
 bottom: "inception_5b/3x3_reduce/bn/sc"
  top: "inception_5b/3x3"
  name: "inception_5b/3x3"
  type: "Convolution"
  param {
    lr_mult: 1
    decay_mult: 1
  }
  convolution_param {
    
    num_output: 320
    pad: 1
    kernel_size: 3
    stride: 1
    weight_filler {
      type: "xavier"
    }
    bias_term: false
  }
}
layer {
  bottom: "inception_5b/3x3"
  name: "inception_5b/3x3/bn"
  top: "inception_5b/3x3/bn"
  type: "BatchNorm"
  batch_norm_param {
    
  }
}
layer {
  bottom: "inception_5b/3x3/bn"
  top: "inception_5b/3x3/bn/sc"
  name: "inception_5b/3x3/bn/sc"
  type: "Scale"
  scale_param {
    bias_term: true
  }
}
layer {
  bottom: "inception_5b/3x3/bn/sc"
  top: "inception_5b/3x3/bn/sc"
  name: "inception_5b/3x3/bn/sc/relu"
  type: "ReLU"
  relu_param {
    
  }
}
layer {
 bottom: "inception_5a/output"
  top: "inception_5b/double3x3_reduce"
  name: "inception_5b/double3x3_reduce"
  type: "Convolution"
  param {
    lr_mult: 1
    decay_mult: 1
  }
  convolution_param {
    
    num_output: 192
    pad: 0
    kernel_size: 1
    stride: 1
    weight_filler {
      type: "xavier"
    }
    bias_term: false
  }
}
layer {
  bottom: "inception_5b/double3x3_reduce"
  name: "inception_5b/double3x3_reduce/bn"
  top: "inception_5b/double3x3_reduce/bn"
  type: "BatchNorm"
  batch_norm_param {
    
  }
}
layer {
  bottom: "inception_5b/double3x3_reduce/bn"
  top: "inception_5b/double3x3_reduce/bn/sc"
  name: "inception_5b/double3x3_reduce/bn/sc"
  type: "Scale"
  scale_param {
    bias_term: true
  }
}
layer {
  bottom: "inception_5b/double3x3_reduce/bn/sc"
  top: "inception_5b/double3x3_reduce/bn/sc"
  name: "inception_5b/double3x3_reduce/bn/sc/relu"
  type: "ReLU"
  relu_param {
    
  }
}
layer {
 bottom: "inception_5b/double3x3_reduce/bn/sc"
  top: "inception_5b/double3x3a"
  name: "inception_5b/double3x3a"
  type: "Convolution"
  param {
    lr_mult: 1
    decay_mult: 1
  }
  convolution_param {
    
    num_output: 224
    pad: 1
    kernel_size: 3
    stride: 1
    weight_filler {
      type: "xavier"
    }
    bias_term: false
  }
}
layer {
  bottom: "inception_5b/double3x3a"
  name: "inception_5b/double3x3a/bn"
  top: "inception_5b/double3x3a/bn"
  type: "BatchNorm"
  batch_norm_param {
    
  }
}
layer {
  bottom: "inception_5b/double3x3a/bn"
  top: "inception_5b/double3x3a/bn/sc"
  name: "inception_5b/double3x3a/bn/sc"
  type: "Scale"
  scale_param {
    bias_term: true
  }
}
layer {
  bottom: "inception_5b/double3x3a/bn/sc"
  top: "inception_5b/double3x3a/bn/sc"
  name: "inception_5b/double3x3a/bn/sc/relu"
  type: "ReLU"
  relu_param {
    
  }
}
layer {
 bottom: "inception_5b/double3x3a/bn/sc"
  top: "inception_5b/double3x3b"
  name: "inception_5b/double3x3b"
  type: "Convolution"
  param {
    lr_mult: 1
    decay_mult: 1
  }
  convolution_param {
    
    num_output: 224
    pad: 1
    kernel_size: 3
    stride: 1
    weight_filler {
      type: "xavier"
    }
    bias_term: false
  }
}
layer {
  bottom: "inception_5b/double3x3b"
  name: "inception_5b/double3x3b/bn"
  top: "inception_5b/double3x3b/bn"
  type: "BatchNorm"
  batch_norm_param {
    
  }
}
layer {
  bottom: "inception_5b/double3x3b/bn"
  top: "inception_5b/double3x3b/bn/sc"
  name: "inception_5b/double3x3b/bn/sc"
  type: "Scale"
  scale_param {
    bias_term: true
  }
}
layer {
  bottom: "inception_5b/double3x3b/bn/sc"
  top: "inception_5b/double3x3b/bn/sc"
  name: "inception_5b/double3x3b/bn/sc/relu"
  type: "ReLU"
  relu_param {
    
  }
}
layer {
  bottom: "inception_5a/output"
  top: "inception_5b/pool"
  name: "inception_5b/pool"
  type: "Pooling"
  pooling_param {
    
    pool: MAX
    kernel_size: 3
    stride: 1
    pad: 1
  }
}
layer {
 bottom: "inception_5b/pool"
  top: "inception_5b/pool_proj"
  name: "inception_5b/pool_proj"
  type: "Convolution"
  param {
    lr_mult: 1
    decay_mult: 1
  }
  convolution_param {
    
    num_output: 128
    pad: 0
    kernel_size: 1
    stride: 1
    weight_filler {
      type: "xavier"
    }
    bias_term: false
  }
}
layer {
  bottom: "inception_5b/pool_proj"
  name: "inception_5b/pool_proj/bn"
  top: "inception_5b/pool_proj/bn"
  type: "BatchNorm"
  batch_norm_param {
    
  }
}
layer {
  bottom: "inception_5b/pool_proj/bn"
  top: "inception_5b/pool_proj/bn/sc"
  name: "inception_5b/pool_proj/bn/sc"
  type: "Scale"
  scale_param {
    bias_term: true
  }
}
layer {
  bottom: "inception_5b/pool_proj/bn/sc"
  top: "inception_5b/pool_proj/bn/sc"
  name: "inception_5b/pool_proj/bn/sc/relu"
  type: "ReLU"
  relu_param {
    
  }
}
layer {
  bottom: "inception_5b/1x1/bn/sc"
  bottom: "inception_5b/3x3/bn/sc"
  bottom: "inception_5b/double3x3b/bn/sc"
  bottom: "inception_5b/pool_proj/bn/sc"
  top: "inception_5b/output"
  name: "inception_5b/output"
  type: "Concat"
  concat_param {
    
  }
}
layer {
  bottom: "inception_5b/output"
  top: "pool5/7x7_s1"
  name: "pool5/7x7_s1"
  type: "Pooling"
  pooling_param {
    
    pool: AVE
    kernel_size: 7
    stride: 1
  }
}
layer {
  bottom: "pool5/7x7_s1"
  top: "loss3/classifier"
  name: "loss3/classifier"
  type: "InnerProduct"
  param {
    lr_mult: 1
    decay_mult: 1
  }
  param {
    lr_mult: 2
    decay_mult: 0
  }
  inner_product_param {
    num_output: 1000
    weight_filler {
      type: "xavier"
    }
    bias_filler {
      type: "constant"
      value: 0
    }
  }
}
layer {
  bottom: "loss3/classifier"
  bottom: "label"
  top: "loss3/loss"
  name: "loss3/loss"
  type: "SoftmaxWithLoss"
  loss_weight: 1
}
layer {
  bottom: "loss3/classifier"
  top: "loss3/prob"
  name: "loss3/prob"
  type: "Softmax"
  include {
    phase: TEST
  }
}
layer {
  bottom: "loss3/prob"
  bottom: "label"
  top: "loss3/top-1"
  name: "loss3/top-1"
  type: "Accuracy"
  include {
    phase: TEST
  }
}
layer {
  bottom: "loss3/prob"
  bottom: "label"
  top: "loss3/top-5"
  name: "loss3/top-5"
  type: "Accuracy"
  accuracy_param {
    top_k: 5
  }
  include {
    phase: TEST
  }
}
