#This is Intel(R) optimized (in terms of time to train) version of topology described in the [Deep Residual Learning for Image Recognition](https://arxiv.org/abs/1512.03385) publication.
#
#Top-5 and Top-1 results achieved with this topology:
#Top-5: 92%
#Top-1: 73.9%
#Training was performed using server equipped with Intel(R) Xeon Phi(TM) CPU 7250 processor.

layer {
name: "data"
type: "Data"
top: "data"
top: "label"
include {
  phase: TRAIN
}
transform_param {
  scale: 0.0078125
  mirror: true
  crop_size: 224
   mean_value: 104
   mean_value: 117
   mean_value: 123
}
  data_param {
    source: "examples/imagenet/ilsvrc12_train_lmdb"
    batch_size: 128
    backend: LMDB
    shuffle: true
  }

}
layer {
name: "data"
type: "Data"
top: "data"
top: "label"
include {
  phase: TEST
}
transform_param {
  scale: 0.0078125
  mirror: false
  crop_size: 224
   mean_value: 104
   mean_value: 117
   mean_value: 123
}
  data_param {
    source: "examples/imagenet/ilsvrc12_val_lmdb/"
    batch_size: 10
    backend: LMDB
  }

}

layer {
name: "conv1"
type: "Convolution"
bottom: "data"
top: "conv1"
param {
  lr_mult: 1.0
  decay_mult: 1.0
}
param {
  lr_mult: 2.0
  decay_mult: 1.0
}
convolution_param {
  num_output: 64
  pad: 3
  kernel_size: 7
  stride: 2
  weight_filler {
    type: "msra"
    variance_norm: FAN_OUT
  }
  bias_filler {
    type: "constant"
    value: 0.0
  }
}

}
layer {
name: "conv1_bn"
type: "BatchNorm"
bottom: "conv1"
top: "conv1_pcs_arm_sim"
  batch_norm_param {
 }       
}
layer {
name: "conv1_relu"
type: "ReLU"
bottom: "conv1_pcs_arm_sim"
top: "conv1_pcs_arm_sim"

}
layer {
name: "conv1_pool"
type: "Pooling"
bottom: "conv1_pcs_arm_sim"
top: "conv1_pool"
pooling_param {
  kernel_size: 3
  stride: 2
}

}
layer {
name: "layer_64_1_conv1"
type: "Convolution"
bottom: "conv1_pool"
top: "layer_64_1_conv1"
param {
  lr_mult: 1.0
  decay_mult: 1.0
}
convolution_param {
  num_output: 64
  bias_term: false
  pad: 0
  kernel_size: 1
  stride: 1
  weight_filler {
    type: "msra"
  }
  bias_filler {
    type: "constant"
    value: 0.0
  }
}

}
layer {
name: "layer_64_1_bn2"
type: "BatchNorm"
bottom: "layer_64_1_conv1"
top: "layer_64_1_conv1_pcs_arm_sim"
  batch_norm_param {
 }     
}
layer {
name: "layer_64_1_relu2"
type: "ReLU"
bottom: "layer_64_1_conv1_pcs_arm_sim"
top: "layer_64_1_conv1_pcs_arm_sim"

}
layer {
name: "layer_64_1_conv2"
type: "Convolution"
bottom: "layer_64_1_conv1_pcs_arm_sim"
top: "layer_64_1_conv2"
param {
  lr_mult: 1.0
  decay_mult: 1.0
}
convolution_param {
  num_output: 64
  bias_term: false
  pad: 1
  kernel_size: 3
  stride: 1
  weight_filler {
    type: "msra"
  }
  bias_filler {
    type: "constant"
    value: 0.0
  }
}

}
layer {
name: "layer_64_1_bn3"
type: "BatchNorm"
bottom: "layer_64_1_conv2"
top: "layer_64_1_conv2_pcs_arm_sim"
  batch_norm_param {
 }        
}
layer {
name: "layer_64_1_relu3"
type: "ReLU"
bottom: "layer_64_1_conv2_pcs_arm_sim"
top: "layer_64_1_conv2_pcs_arm_sim"

}
layer {
name: "layer_64_1_conv3"
type: "Convolution"
bottom: "layer_64_1_conv2_pcs_arm_sim"
top: "layer_64_1_conv3"
param {
  lr_mult: 1.0
  decay_mult: 1.0
}
convolution_param {
  num_output: 256
  bias_term: false
  pad: 0
  kernel_size: 1
  stride: 1
  weight_filler {
    type: "msra"
  }
  bias_filler {
    type: "constant"
    value: 0.0
  }
}

}
layer {
name: "layer_64_1_conv_expand"
type: "Convolution"
bottom: "layer_64_1_conv1_pcs_arm_sim"
top: "layer_64_1_conv_expand"
param {
  lr_mult: 1.0
  decay_mult: 1.0
}
convolution_param {
  num_output: 256
  bias_term: false
  pad: 0
  kernel_size: 1
  stride: 1
  weight_filler {
    type: "msra"
  }
  bias_filler {
    type: "constant"
    value: 0.0
  }
}

}
layer {
name: "layer_64_1_sum"
type: "Eltwise"
bottom: "layer_64_1_conv3"
bottom: "layer_64_1_conv_expand"
top: "layer_64_1_sum"

}
layer {
name: "layer_64_2_bn1"
type: "BatchNorm"
bottom: "layer_64_1_sum"
top: "layer_64_2_bn1_pcs_arm_sim"
  batch_norm_param {
 }       
}
layer {
name: "layer_64_2_relu1"
type: "ReLU"
bottom: "layer_64_2_bn1_pcs_arm_sim"
top: "layer_64_2_bn1_pcs_arm_sim"

}
layer {
name: "layer_64_2_conv1"
type: "Convolution"
bottom: "layer_64_2_bn1_pcs_arm_sim"
top: "layer_64_2_conv1"
param {
  lr_mult: 1.0
  decay_mult: 1.0
}
convolution_param {
  num_output: 64
  bias_term: false
  pad: 0
  kernel_size: 1
  stride: 1
  weight_filler {
    type: "msra"
  }
  bias_filler {
    type: "constant"
    value: 0.0
  }
}

}
layer {
name: "layer_64_2_bn2"
type: "BatchNorm"
bottom: "layer_64_2_conv1"
top: "layer_64_2_conv1_pcs_arm_sim"
  batch_norm_param {
 }        
}
layer {
name: "layer_64_2_relu2"
type: "ReLU"
bottom: "layer_64_2_conv1_pcs_arm_sim"
top: "layer_64_2_conv1_pcs_arm_sim"

}
layer {
name: "layer_64_2_conv2"
type: "Convolution"
bottom: "layer_64_2_conv1_pcs_arm_sim"
top: "layer_64_2_conv2"
param {
  lr_mult: 1.0
  decay_mult: 1.0
}
convolution_param {
  num_output: 64
  bias_term: false
  pad: 1
  kernel_size: 3
  stride: 1
  weight_filler {
    type: "msra"
  }
  bias_filler {
    type: "constant"
    value: 0.0
  }
}

}
layer {
name: "layer_64_2_bn3"
type: "BatchNorm"
bottom: "layer_64_2_conv2"
top: "layer_64_2_conv2_pcs_arm_sim"
  batch_norm_param {
 }        
}
layer {
name: "layer_64_2_relu3"
type: "ReLU"
bottom: "layer_64_2_conv2_pcs_arm_sim"
top: "layer_64_2_conv2_pcs_arm_sim"

}
layer {
name: "layer_64_2_conv3"
type: "Convolution"
bottom: "layer_64_2_conv2_pcs_arm_sim"
top: "layer_64_2_conv3"
param {
  lr_mult: 1.0
  decay_mult: 1.0
}
convolution_param {
  num_output: 256
  bias_term: false
  pad: 0
  kernel_size: 1
  stride: 1
  weight_filler {
    type: "msra"
  }
  bias_filler {
    type: "constant"
    value: 0.0
  }
}

}
layer {
name: "layer_64_2_sum"
type: "Eltwise"
bottom: "layer_64_2_conv3"
bottom: "layer_64_1_sum"
top: "layer_64_2_sum"

}
layer {
name: "layer_64_3_bn1"
type: "BatchNorm"
bottom: "layer_64_2_sum"
top: "layer_64_3_bn1_pcs_arm_sim"
  batch_norm_param {
 }       
}
layer {
name: "layer_64_3_relu1"
type: "ReLU"
bottom: "layer_64_3_bn1_pcs_arm_sim"
top: "layer_64_3_bn1_pcs_arm_sim"

}
layer {
name: "layer_64_3_conv1"
type: "Convolution"
bottom: "layer_64_3_bn1_pcs_arm_sim"
top: "layer_64_3_conv1"
param {
  lr_mult: 1.0
  decay_mult: 1.0
}
convolution_param {
  num_output: 64
  bias_term: false
  pad: 0
  kernel_size: 1
  stride: 1
  weight_filler {
    type: "msra"
  }
  bias_filler {
    type: "constant"
    value: 0.0
  }
}

}
layer {
name: "layer_64_3_bn2"
type: "BatchNorm"
bottom: "layer_64_3_conv1"
top: "layer_64_3_conv1_pcs_arm_sim"
  batch_norm_param {
 }
}
layer {
name: "layer_64_3_relu2"
type: "ReLU"
bottom: "layer_64_3_conv1_pcs_arm_sim"
top: "layer_64_3_conv1_pcs_arm_sim"

}
layer {
name: "layer_64_3_conv2"
type: "Convolution"
bottom: "layer_64_3_conv1_pcs_arm_sim"
top: "layer_64_3_conv2"
param {
  lr_mult: 1.0
  decay_mult: 1.0
}
convolution_param {
  num_output: 64
  bias_term: false
  pad: 1
  kernel_size: 3
  stride: 1
  weight_filler {
    type: "msra"
  }
  bias_filler {
    type: "constant"
    value: 0.0
  }
}

}
layer {
name: "layer_64_3_bn3"
type: "BatchNorm"
bottom: "layer_64_3_conv2"
top: "layer_64_3_conv2_pcs_arm_sim"
  batch_norm_param {
 } 
}
layer {
name: "layer_64_3_relu3"
type: "ReLU"
bottom: "layer_64_3_conv2_pcs_arm_sim"
top: "layer_64_3_conv2_pcs_arm_sim"

}
layer {
name: "layer_64_3_conv3"
type: "Convolution"
bottom: "layer_64_3_conv2_pcs_arm_sim"
top: "layer_64_3_conv3"
param {
  lr_mult: 1.0
  decay_mult: 1.0
}
convolution_param {
  num_output: 256
  bias_term: false
  pad: 0
  kernel_size: 1
  stride: 1
  weight_filler {
    type: "msra"
  }
  bias_filler {
    type: "constant"
    value: 0.0
  }
}

}
layer {
name: "layer_64_3_sum"
type: "Eltwise"
bottom: "layer_64_3_conv3"
bottom: "layer_64_2_sum"
top: "layer_64_3_sum"

}
layer {
name: "layer_128_1_bn1"
type: "BatchNorm"
bottom: "layer_64_3_sum"
top: "layer_128_1_bn1_pcs_arm_sim"
  batch_norm_param {
 }  
}
layer {
name: "layer_128_1_relu1"
type: "ReLU"
bottom: "layer_128_1_bn1_pcs_arm_sim"
top: "layer_128_1_bn1_pcs_arm_sim"

}
layer {
name: "layer_128_1_conv1"
type: "Convolution"
bottom: "layer_128_1_bn1_pcs_arm_sim"
top: "layer_128_1_conv1"
param {
  lr_mult: 1.0
  decay_mult: 1.0
}
convolution_param {
  num_output: 128
  bias_term: false
  pad: 0
  kernel_size: 1
  stride: 1
  weight_filler {
    type: "msra"
  }
  bias_filler {
    type: "constant"
    value: 0.0
  }
}

}
layer {
name: "layer_128_1_bn2"
type: "BatchNorm"
bottom: "layer_128_1_conv1"
top: "layer_128_1_conv1_pcs_arm_sim"
  batch_norm_param {
 } 
}
layer {
name: "layer_128_1_relu2"
type: "ReLU"
bottom: "layer_128_1_conv1_pcs_arm_sim"
top: "layer_128_1_conv1_pcs_arm_sim"

}
layer {
name: "layer_128_1_conv2"
type: "Convolution"
bottom: "layer_128_1_conv1_pcs_arm_sim"
top: "layer_128_1_conv2"
param {
  lr_mult: 1.0
  decay_mult: 1.0
}
convolution_param {
  num_output: 128
  bias_term: false
  pad: 1
  kernel_size: 3
  stride: 2
  weight_filler {
    type: "msra"
  }
  bias_filler {
    type: "constant"
    value: 0.0
  }
}

}
layer {
name: "layer_128_1_bn3"
type: "BatchNorm"
bottom: "layer_128_1_conv2"
top: "layer_128_1_conv2_pcs_arm_sim"
  batch_norm_param {
 }  
}
layer {
name: "layer_128_1_relu3"
type: "ReLU"
bottom: "layer_128_1_conv2_pcs_arm_sim"
top: "layer_128_1_conv2_pcs_arm_sim"

}
layer {
name: "layer_128_1_conv3"
type: "Convolution"
bottom: "layer_128_1_conv2_pcs_arm_sim"
top: "layer_128_1_conv3"
param {
  lr_mult: 1.0
  decay_mult: 1.0
}
convolution_param {
  num_output: 512
  bias_term: false
  pad: 0
  kernel_size: 1
  stride: 1
  weight_filler {
    type: "msra"
  }
  bias_filler {
    type: "constant"
    value: 0.0
  }
}

}
layer {
name: "layer_128_1_conv_expand"
type: "Convolution"
bottom: "layer_128_1_bn1_pcs_arm_sim"
top: "layer_128_1_conv_expand"
param {
  lr_mult: 1.0
  decay_mult: 1.0
}
convolution_param {
  num_output: 512
  bias_term: false
  pad: 0
  kernel_size: 1
  stride: 2
  weight_filler {
    type: "msra"
  }
  bias_filler {
    type: "constant"
    value: 0.0
  }
}

}
layer {
name: "layer_128_1_sum"
type: "Eltwise"
bottom: "layer_128_1_conv3"
bottom: "layer_128_1_conv_expand"
top: "layer_128_1_sum"

}
layer {
name: "layer_128_2_bn1"
type: "BatchNorm"
bottom: "layer_128_1_sum"
top: "layer_128_2_bn1_pcs_arm_sim"
  batch_norm_param {
 }
}
layer {
name: "layer_128_2_relu1"
type: "ReLU"
bottom: "layer_128_2_bn1_pcs_arm_sim"
top: "layer_128_2_bn1_pcs_arm_sim"

}
layer {
name: "layer_128_2_conv1"
type: "Convolution"
bottom: "layer_128_2_bn1_pcs_arm_sim"
top: "layer_128_2_conv1"
param {
  lr_mult: 1.0
  decay_mult: 1.0
}
convolution_param {
  num_output: 128
  bias_term: false
  pad: 0
  kernel_size: 1
  stride: 1
  weight_filler {
    type: "msra"
  }
  bias_filler {
    type: "constant"
    value: 0.0
  }
}

}
layer {
name: "layer_128_2_bn2"
type: "BatchNorm"
bottom: "layer_128_2_conv1"
top: "layer_128_2_conv1_pcs_arm_sim"
  batch_norm_param {
 }
}
layer {
name: "layer_128_2_relu2"
type: "ReLU"
bottom: "layer_128_2_conv1_pcs_arm_sim"
top: "layer_128_2_conv1_pcs_arm_sim"

}
layer {
name: "layer_128_2_conv2"
type: "Convolution"
bottom: "layer_128_2_conv1_pcs_arm_sim"
top: "layer_128_2_conv2"
param {
  lr_mult: 1.0
  decay_mult: 1.0
}
convolution_param {
  num_output: 128
  bias_term: false
  pad: 1
  kernel_size: 3
  stride: 1
  weight_filler {
    type: "msra"
  }
  bias_filler {
    type: "constant"
    value: 0.0
  }
}

}
layer {
name: "layer_128_2_bn3"
type: "BatchNorm"
bottom: "layer_128_2_conv2"
top: "layer_128_2_conv2_pcs_arm_sim"
  batch_norm_param {
 }
}
layer {
name: "layer_128_2_relu3"
type: "ReLU"
bottom: "layer_128_2_conv2_pcs_arm_sim"
top: "layer_128_2_conv2_pcs_arm_sim"

}
layer {
name: "layer_128_2_conv3"
type: "Convolution"
bottom: "layer_128_2_conv2_pcs_arm_sim"
top: "layer_128_2_conv3"
param {
  lr_mult: 1.0
  decay_mult: 1.0
}
convolution_param {
  num_output: 512
  bias_term: false
  pad: 0
  kernel_size: 1
  stride: 1
  weight_filler {
    type: "msra"
  }
  bias_filler {
    type: "constant"
    value: 0.0
  }
}

}
layer {
name: "layer_128_2_sum"
type: "Eltwise"
bottom: "layer_128_2_conv3"
bottom: "layer_128_1_sum"
top: "layer_128_2_sum"

}
layer {
name: "layer_128_3_bn1"
type: "BatchNorm"
bottom: "layer_128_2_sum"
top: "layer_128_3_bn1_pcs_arm_sim"
  batch_norm_param {
 }
}
layer {
name: "layer_128_3_relu1"
type: "ReLU"
bottom: "layer_128_3_bn1_pcs_arm_sim"
top: "layer_128_3_bn1_pcs_arm_sim"

}
layer {
name: "layer_128_3_conv1"
type: "Convolution"
bottom: "layer_128_3_bn1_pcs_arm_sim"
top: "layer_128_3_conv1"
param {
  lr_mult: 1.0
  decay_mult: 1.0
}
convolution_param {
  num_output: 128
  bias_term: false
  pad: 0
  kernel_size: 1
  stride: 1
  weight_filler {
    type: "msra"
  }
  bias_filler {
    type: "constant"
    value: 0.0
  }
}

}
layer {
name: "layer_128_3_bn2"
type: "BatchNorm"
bottom: "layer_128_3_conv1"
top: "layer_128_3_conv1_pcs_arm_sim"
  batch_norm_param {
 } 
}
layer {
name: "layer_128_3_relu2"
type: "ReLU"
bottom: "layer_128_3_conv1_pcs_arm_sim"
top: "layer_128_3_conv1_pcs_arm_sim"

}
layer {
name: "layer_128_3_conv2"
type: "Convolution"
bottom: "layer_128_3_conv1_pcs_arm_sim"
top: "layer_128_3_conv2"
param {
  lr_mult: 1.0
  decay_mult: 1.0
}
convolution_param {
  num_output: 128
  bias_term: false
  pad: 1
  kernel_size: 3
  stride: 1
  weight_filler {
    type: "msra"
  }
  bias_filler {
    type: "constant"
    value: 0.0
  }
}

}
layer {
name: "layer_128_3_bn3"
type: "BatchNorm"
bottom: "layer_128_3_conv2"
top: "layer_128_3_conv2_pcs_arm_sim"
  batch_norm_param {
 }
}
layer {
name: "layer_128_3_relu3"
type: "ReLU"
bottom: "layer_128_3_conv2_pcs_arm_sim"
top: "layer_128_3_conv2_pcs_arm_sim"

}
layer {
name: "layer_128_3_conv3"
type: "Convolution"
bottom: "layer_128_3_conv2_pcs_arm_sim"
top: "layer_128_3_conv3"
param {
  lr_mult: 1.0
  decay_mult: 1.0
}
convolution_param {
  num_output: 512
  bias_term: false
  pad: 0
  kernel_size: 1
  stride: 1
  weight_filler {
    type: "msra"
  }
  bias_filler {
    type: "constant"
    value: 0.0
  }
}

}
layer {
name: "layer_128_3_sum"
type: "Eltwise"
bottom: "layer_128_3_conv3"
bottom: "layer_128_2_sum"
top: "layer_128_3_sum"

}
layer {
name: "layer_128_4_bn1"
type: "BatchNorm"
bottom: "layer_128_3_sum"
top: "layer_128_4_bn1_pcs_arm_sim"
  batch_norm_param {
 }
}
layer {
name: "layer_128_4_relu1"
type: "ReLU"
bottom: "layer_128_4_bn1_pcs_arm_sim"
top: "layer_128_4_bn1_pcs_arm_sim"

}
layer {
name: "layer_128_4_conv1"
type: "Convolution"
bottom: "layer_128_4_bn1_pcs_arm_sim"
top: "layer_128_4_conv1"
param {
  lr_mult: 1.0
  decay_mult: 1.0
}
convolution_param {
  num_output: 128
  bias_term: false
  pad: 0
  kernel_size: 1
  stride: 1
  weight_filler {
    type: "msra"
  }
  bias_filler {
    type: "constant"
    value: 0.0
  }
}

}
layer {
name: "layer_128_4_bn2"
type: "BatchNorm"
bottom: "layer_128_4_conv1"
top: "layer_128_4_conv1_pcs_arm_sim"
  batch_norm_param {
 }
}
layer {
name: "layer_128_4_relu2"
type: "ReLU"
bottom: "layer_128_4_conv1_pcs_arm_sim"
top: "layer_128_4_conv1_pcs_arm_sim"

}
layer {
name: "layer_128_4_conv2"
type: "Convolution"
bottom: "layer_128_4_conv1_pcs_arm_sim"
top: "layer_128_4_conv2"
param {
  lr_mult: 1.0
  decay_mult: 1.0
}
convolution_param {
  num_output: 128
  bias_term: false
  pad: 1
  kernel_size: 3
  stride: 1
  weight_filler {
    type: "msra"
  }
  bias_filler {
    type: "constant"
    value: 0.0
  }
}

}
layer {
name: "layer_128_4_bn3"
type: "BatchNorm"
bottom: "layer_128_4_conv2"
top: "layer_128_4_conv2_pcs_arm_sim"
  batch_norm_param {
 }       
}
layer {
name: "layer_128_4_relu3"
type: "ReLU"
bottom: "layer_128_4_conv2_pcs_arm_sim"
top: "layer_128_4_conv2_pcs_arm_sim"

}
layer {
name: "layer_128_4_conv3"
type: "Convolution"
bottom: "layer_128_4_conv2_pcs_arm_sim"
top: "layer_128_4_conv3"
param {
  lr_mult: 1.0
  decay_mult: 1.0
}
convolution_param {
  num_output: 512
  bias_term: false
  pad: 0
  kernel_size: 1
  stride: 1
  weight_filler {
    type: "msra"
  }
  bias_filler {
    type: "constant"
    value: 0.0
  }
}

}
layer {
name: "layer_128_4_sum"
type: "Eltwise"
bottom: "layer_128_4_conv3"
bottom: "layer_128_3_sum"
top: "layer_128_4_sum"

}
layer {
name: "layer_256_1_bn1"
type: "BatchNorm"
bottom: "layer_128_4_sum"
top: "layer_256_1_bn1_pcs_arm_sim"
  batch_norm_param {
 }
}
layer {
name: "layer_256_1_relu1"
type: "ReLU"
bottom: "layer_256_1_bn1_pcs_arm_sim"
top: "layer_256_1_bn1_pcs_arm_sim"

}
layer {
name: "layer_256_1_conv1"
type: "Convolution"
bottom: "layer_256_1_bn1_pcs_arm_sim"
top: "layer_256_1_conv1"
param {
  lr_mult: 1.0
  decay_mult: 1.0
}
convolution_param {
  num_output: 256
  bias_term: false
  pad: 0
  kernel_size: 1
  stride: 1
  weight_filler {
    type: "msra"
  }
  bias_filler {
    type: "constant"
    value: 0.0
  }
}

}
layer {
name: "layer_256_1_bn2"
type: "BatchNorm"
bottom: "layer_256_1_conv1"
top: "layer_256_1_conv1_pcs_arm_sim"
  batch_norm_param {
 } 
}
layer {
name: "layer_256_1_relu2"
type: "ReLU"
bottom: "layer_256_1_conv1_pcs_arm_sim"
top: "layer_256_1_conv1_pcs_arm_sim"

}
layer {
name: "layer_256_1_conv2"
type: "Convolution"
bottom: "layer_256_1_conv1_pcs_arm_sim"
top: "layer_256_1_conv2"
param {
  lr_mult: 1.0
  decay_mult: 1.0
}
convolution_param {
  num_output: 256
  bias_term: false
  pad: 1
  kernel_size: 3
  stride: 2
  weight_filler {
    type: "msra"
  }
  bias_filler {
    type: "constant"
    value: 0.0
  }
}

}
layer {
name: "layer_256_1_bn3"
type: "BatchNorm"
bottom: "layer_256_1_conv2"
top: "layer_256_1_conv2_pcs_arm_sim"
  batch_norm_param {
 } 
}
layer {
name: "layer_256_1_relu3"
type: "ReLU"
bottom: "layer_256_1_conv2_pcs_arm_sim"
top: "layer_256_1_conv2_pcs_arm_sim"

}
layer {
name: "layer_256_1_conv3"
type: "Convolution"
bottom: "layer_256_1_conv2_pcs_arm_sim"
top: "layer_256_1_conv3"
param {
  lr_mult: 1.0
  decay_mult: 1.0
}
convolution_param {
  num_output: 1024
  bias_term: false
  pad: 0
  kernel_size: 1
  stride: 1
  weight_filler {
    type: "msra"
  }
  bias_filler {
    type: "constant"
    value: 0.0
  }
}

}
layer {
name: "layer_256_1_conv_expand"
type: "Convolution"
bottom: "layer_256_1_bn1_pcs_arm_sim"
top: "layer_256_1_conv_expand"
param {
  lr_mult: 1.0
  decay_mult: 1.0
}
convolution_param {
  num_output: 1024
  bias_term: false
  pad: 0
  kernel_size: 1
  stride: 2
  weight_filler {
    type: "msra"
  }
  bias_filler {
    type: "constant"
    value: 0.0
  }
}

}
layer {
name: "layer_256_1_sum"
type: "Eltwise"
bottom: "layer_256_1_conv3"
bottom: "layer_256_1_conv_expand"
top: "layer_256_1_sum"

}
layer {
name: "layer_256_2_bn1"
type: "BatchNorm"
bottom: "layer_256_1_sum"
top: "layer_256_2_bn1_pcs_arm_sim"
  batch_norm_param {
 }
}
layer {
name: "layer_256_2_relu1"
type: "ReLU"
bottom: "layer_256_2_bn1_pcs_arm_sim"
top: "layer_256_2_bn1_pcs_arm_sim"

}
layer {
name: "layer_256_2_conv1"
type: "Convolution"
bottom: "layer_256_2_bn1_pcs_arm_sim"
top: "layer_256_2_conv1"
param {
  lr_mult: 1.0
  decay_mult: 1.0
}
convolution_param {
  num_output: 256
  bias_term: false
  pad: 0
  kernel_size: 1
  stride: 1
  weight_filler {
    type: "msra"
  }
  bias_filler {
    type: "constant"
    value: 0.0
  }
}

}
layer {
name: "layer_256_2_bn2"
type: "BatchNorm"
bottom: "layer_256_2_conv1"
top: "layer_256_2_conv1_pcs_arm_sim"
  batch_norm_param {
 }
}
layer {
name: "layer_256_2_relu2"
type: "ReLU"
bottom: "layer_256_2_conv1_pcs_arm_sim"
top: "layer_256_2_conv1_pcs_arm_sim"

}
layer {
name: "layer_256_2_conv2"
type: "Convolution"
bottom: "layer_256_2_conv1_pcs_arm_sim"
top: "layer_256_2_conv2"
param {
  lr_mult: 1.0
  decay_mult: 1.0
}
convolution_param {
  num_output: 256
  bias_term: false
  pad: 1
  kernel_size: 3
  stride: 1
  weight_filler {
    type: "msra"
  }
  bias_filler {
    type: "constant"
    value: 0.0
  }
}

}
layer {
name: "layer_256_2_bn3"
type: "BatchNorm"
bottom: "layer_256_2_conv2"
top: "layer_256_2_conv2_pcs_arm_sim"
  batch_norm_param {
 }
}
layer {
name: "layer_256_2_relu3"
type: "ReLU"
bottom: "layer_256_2_conv2_pcs_arm_sim"
top: "layer_256_2_conv2_pcs_arm_sim"

}
layer {
name: "layer_256_2_conv3"
type: "Convolution"
bottom: "layer_256_2_conv2_pcs_arm_sim"
top: "layer_256_2_conv3"
param {
  lr_mult: 1.0
  decay_mult: 1.0
}
convolution_param {
  num_output: 1024
  bias_term: false
  pad: 0
  kernel_size: 1
  stride: 1
  weight_filler {
    type: "msra"
  }
  bias_filler {
    type: "constant"
    value: 0.0
  }
}

}
layer {
name: "layer_256_2_sum"
type: "Eltwise"
bottom: "layer_256_2_conv3"
bottom: "layer_256_1_sum"
top: "layer_256_2_sum"

}
layer {
name: "layer_256_3_bn1"
type: "BatchNorm"
bottom: "layer_256_2_sum"
top: "layer_256_3_bn1_pcs_arm_sim"
  batch_norm_param {
 }
}
layer {
name: "layer_256_3_relu1"
type: "ReLU"
bottom: "layer_256_3_bn1_pcs_arm_sim"
top: "layer_256_3_bn1_pcs_arm_sim"

}
layer {
name: "layer_256_3_conv1"
type: "Convolution"
bottom: "layer_256_3_bn1_pcs_arm_sim"
top: "layer_256_3_conv1"
param {
  lr_mult: 1.0
  decay_mult: 1.0
}
convolution_param {
  num_output: 256
  bias_term: false
  pad: 0
  kernel_size: 1
  stride: 1
  weight_filler {
    type: "msra"
  }
  bias_filler {
    type: "constant"
    value: 0.0
  }
}

}
layer {
name: "layer_256_3_bn2"
type: "BatchNorm"
bottom: "layer_256_3_conv1"
top: "layer_256_3_conv1_pcs_arm_sim"
  batch_norm_param {
 }
}
layer {
name: "layer_256_3_relu2"
type: "ReLU"
bottom: "layer_256_3_conv1_pcs_arm_sim"
top: "layer_256_3_conv1_pcs_arm_sim"

}
layer {
name: "layer_256_3_conv2"
type: "Convolution"
bottom: "layer_256_3_conv1_pcs_arm_sim"
top: "layer_256_3_conv2"
param {
  lr_mult: 1.0
  decay_mult: 1.0
}
convolution_param {
  num_output: 256
  bias_term: false
  pad: 1
  kernel_size: 3
  stride: 1
  weight_filler {
    type: "msra"
  }
  bias_filler {
    type: "constant"
    value: 0.0
  }
}

}
layer {
name: "layer_256_3_bn3"
type: "BatchNorm"
bottom: "layer_256_3_conv2"
top: "layer_256_3_conv2_pcs_arm_sim"
  batch_norm_param {
 } 
}
layer {
name: "layer_256_3_relu3"
type: "ReLU"
bottom: "layer_256_3_conv2_pcs_arm_sim"
top: "layer_256_3_conv2_pcs_arm_sim"

}
layer {
name: "layer_256_3_conv3"
type: "Convolution"
bottom: "layer_256_3_conv2_pcs_arm_sim"
top: "layer_256_3_conv3"
param {
  lr_mult: 1.0
  decay_mult: 1.0
}
convolution_param {
  num_output: 1024
  bias_term: false
  pad: 0
  kernel_size: 1
  stride: 1
  weight_filler {
    type: "msra"
  }
  bias_filler {
    type: "constant"
    value: 0.0
  }
}

}
layer {
name: "layer_256_3_sum"
type: "Eltwise"
bottom: "layer_256_3_conv3"
bottom: "layer_256_2_sum"
top: "layer_256_3_sum"

}
layer {
name: "layer_256_4_bn1"
type: "BatchNorm"
bottom: "layer_256_3_sum"
top: "layer_256_4_bn1_pcs_arm_sim"
  batch_norm_param {
 } 
}
layer {
name: "layer_256_4_relu1"
type: "ReLU"
bottom: "layer_256_4_bn1_pcs_arm_sim"
top: "layer_256_4_bn1_pcs_arm_sim"

}
layer {
name: "layer_256_4_conv1"
type: "Convolution"
bottom: "layer_256_4_bn1_pcs_arm_sim"
top: "layer_256_4_conv1"
param {
  lr_mult: 1.0
  decay_mult: 1.0
}
convolution_param {
  num_output: 256
  bias_term: false
  pad: 0
  kernel_size: 1
  stride: 1
  weight_filler {
    type: "msra"
  }
  bias_filler {
    type: "constant"
    value: 0.0
  }
}

}
layer {
name: "layer_256_4_bn2"
type: "BatchNorm"
bottom: "layer_256_4_conv1"
top: "layer_256_4_conv1_pcs_arm_sim"
  batch_norm_param {
 }  
}
layer {
name: "layer_256_4_relu2"
type: "ReLU"
bottom: "layer_256_4_conv1_pcs_arm_sim"
top: "layer_256_4_conv1_pcs_arm_sim"

}
layer {
name: "layer_256_4_conv2"
type: "Convolution"
bottom: "layer_256_4_conv1_pcs_arm_sim"
top: "layer_256_4_conv2"
param {
  lr_mult: 1.0
  decay_mult: 1.0
}
convolution_param {
  num_output: 256
  bias_term: false
  pad: 1
  kernel_size: 3
  stride: 1
  weight_filler {
    type: "msra"
  }
  bias_filler {
    type: "constant"
    value: 0.0
  }
}

}
layer {
name: "layer_256_4_bn3"
type: "BatchNorm"
bottom: "layer_256_4_conv2"
top: "layer_256_4_conv2_pcs_arm_sim"
  batch_norm_param {
 } 
}
layer {
name: "layer_256_4_relu3"
type: "ReLU"
bottom: "layer_256_4_conv2_pcs_arm_sim"
top: "layer_256_4_conv2_pcs_arm_sim"

}
layer {
name: "layer_256_4_conv3"
type: "Convolution"
bottom: "layer_256_4_conv2_pcs_arm_sim"
top: "layer_256_4_conv3"
param {
  lr_mult: 1.0
  decay_mult: 1.0
}
convolution_param {
  num_output: 1024
  bias_term: false
  pad: 0
  kernel_size: 1
  stride: 1
  weight_filler {
    type: "msra"
  }
  bias_filler {
    type: "constant"
    value: 0.0
  }
}

}
layer {
name: "layer_256_4_sum"
type: "Eltwise"
bottom: "layer_256_4_conv3"
bottom: "layer_256_3_sum"
top: "layer_256_4_sum"

}
layer {
name: "layer_256_5_bn1"
type: "BatchNorm"
bottom: "layer_256_4_sum"
top: "layer_256_5_bn1_pcs_arm_sim"
  batch_norm_param {
 } 
}
layer {
name: "layer_256_5_relu1"
type: "ReLU"
bottom: "layer_256_5_bn1_pcs_arm_sim"
top: "layer_256_5_bn1_pcs_arm_sim"

}
layer {
name: "layer_256_5_conv1"
type: "Convolution"
bottom: "layer_256_5_bn1_pcs_arm_sim"
top: "layer_256_5_conv1"
param {
  lr_mult: 1.0
  decay_mult: 1.0
}
convolution_param {
  num_output: 256
  bias_term: false
  pad: 0
  kernel_size: 1
  stride: 1
  weight_filler {
    type: "msra"
  }
  bias_filler {
    type: "constant"
    value: 0.0
  }
}

}
layer {
name: "layer_256_5_bn2"
type: "BatchNorm"
bottom: "layer_256_5_conv1"
top: "layer_256_5_conv1_pcs_arm_sim"
  batch_norm_param {
 } 
}
layer {
name: "layer_256_5_relu2"
type: "ReLU"
bottom: "layer_256_5_conv1_pcs_arm_sim"
top: "layer_256_5_conv1_pcs_arm_sim"

}
layer {
name: "layer_256_5_conv2"
type: "Convolution"
bottom: "layer_256_5_conv1_pcs_arm_sim"
top: "layer_256_5_conv2"
param {
  lr_mult: 1.0
  decay_mult: 1.0
}
convolution_param {
  num_output: 256
  bias_term: false
  pad: 1
  kernel_size: 3
  stride: 1
  weight_filler {
    type: "msra"
  }
  bias_filler {
    type: "constant"
    value: 0.0
  }
}

}
layer {
name: "layer_256_5_bn3"
type: "BatchNorm"
bottom: "layer_256_5_conv2"
top: "layer_256_5_conv2_pcs_arm_sim"
  batch_norm_param {
 }  
}
layer {
name: "layer_256_5_relu3"
type: "ReLU"
bottom: "layer_256_5_conv2_pcs_arm_sim"
top: "layer_256_5_conv2_pcs_arm_sim"

}
layer {
name: "layer_256_5_conv3"
type: "Convolution"
bottom: "layer_256_5_conv2_pcs_arm_sim"
top: "layer_256_5_conv3"
param {
  lr_mult: 1.0
  decay_mult: 1.0
}
convolution_param {
  num_output: 1024
  bias_term: false
  pad: 0
  kernel_size: 1
  stride: 1
  weight_filler {
    type: "msra"
  }
  bias_filler {
    type: "constant"
    value: 0.0
  }
}

}
layer {
name: "layer_256_5_sum"
type: "Eltwise"
bottom: "layer_256_5_conv3"
bottom: "layer_256_4_sum"
top: "layer_256_5_sum"

}
layer {
name: "layer_256_6_bn1"
type: "BatchNorm"
bottom: "layer_256_5_sum"
top: "layer_256_6_bn1_pcs_arm_sim"
  batch_norm_param {
 }
}
layer {
name: "layer_256_6_relu1"
type: "ReLU"
bottom: "layer_256_6_bn1_pcs_arm_sim"
top: "layer_256_6_bn1_pcs_arm_sim"

}
layer {
name: "layer_256_6_conv1"
type: "Convolution"
bottom: "layer_256_6_bn1_pcs_arm_sim"
top: "layer_256_6_conv1"
param {
  lr_mult: 1.0
  decay_mult: 1.0
}
convolution_param {
  num_output: 256
  bias_term: false
  pad: 0
  kernel_size: 1
  stride: 1
  weight_filler {
    type: "msra"
  }
  bias_filler {
    type: "constant"
    value: 0.0
  }
}

}
layer {
name: "layer_256_6_bn2"
type: "BatchNorm"
bottom: "layer_256_6_conv1"
top: "layer_256_6_conv1_pcs_arm_sim"
  batch_norm_param {
 } 
}
layer {
name: "layer_256_6_relu2"
type: "ReLU"
bottom: "layer_256_6_conv1_pcs_arm_sim"
top: "layer_256_6_conv1_pcs_arm_sim"

}
layer {
name: "layer_256_6_conv2"
type: "Convolution"
bottom: "layer_256_6_conv1_pcs_arm_sim"
top: "layer_256_6_conv2"
param {
  lr_mult: 1.0
  decay_mult: 1.0
}
convolution_param {
  num_output: 256
  bias_term: false
  pad: 1
  kernel_size: 3
  stride: 1
  weight_filler {
    type: "msra"
  }
  bias_filler {
    type: "constant"
    value: 0.0
  }
}

}
layer {
name: "layer_256_6_bn3"
type: "BatchNorm"
bottom: "layer_256_6_conv2"
top: "layer_256_6_conv2_pcs_arm_sim"
  batch_norm_param {
 } 
}
layer {
name: "layer_256_6_relu3"
type: "ReLU"
bottom: "layer_256_6_conv2_pcs_arm_sim"
top: "layer_256_6_conv2_pcs_arm_sim"

}
layer {
name: "layer_256_6_conv3"
type: "Convolution"
bottom: "layer_256_6_conv2_pcs_arm_sim"
top: "layer_256_6_conv3"
param {
  lr_mult: 1.0
  decay_mult: 1.0
}
convolution_param {
  num_output: 1024
  bias_term: false
  pad: 0
  kernel_size: 1
  stride: 1
  weight_filler {
    type: "msra"
  }
  bias_filler {
    type: "constant"
    value: 0.0
  }
}

}
layer {
name: "layer_256_6_sum"
type: "Eltwise"
bottom: "layer_256_6_conv3"
bottom: "layer_256_5_sum"
top: "layer_256_6_sum"

}
layer {
name: "layer_512_1_bn1"
type: "BatchNorm"
bottom: "layer_256_6_sum"
top: "layer_512_1_bn1_pcs_arm_sim"
  batch_norm_param {
 }
}
layer {
name: "layer_512_1_relu1"
type: "ReLU"
bottom: "layer_512_1_bn1_pcs_arm_sim"
top: "layer_512_1_bn1_pcs_arm_sim"

}
layer {
name: "layer_512_1_conv1"
type: "Convolution"
bottom: "layer_512_1_bn1_pcs_arm_sim"
top: "layer_512_1_conv1"
param {
  lr_mult: 1.0
  decay_mult: 1.0
}
convolution_param {
  num_output: 512
  bias_term: false
  pad: 0
  kernel_size: 1
  stride: 1
  weight_filler {
    type: "msra"
  }
  bias_filler {
    type: "constant"
    value: 0.0
  }
}

}
layer {
name: "layer_512_1_bn2"
type: "BatchNorm"
bottom: "layer_512_1_conv1"
top: "layer_512_1_conv1_pcs_arm_sim"
  batch_norm_param {
 }  
}
layer {
name: "layer_512_1_relu2"
type: "ReLU"
bottom: "layer_512_1_conv1_pcs_arm_sim"
top: "layer_512_1_conv1_pcs_arm_sim"

}
layer {
name: "layer_512_1_conv2"
type: "Convolution"
bottom: "layer_512_1_conv1_pcs_arm_sim"
top: "layer_512_1_conv2"
param {
  lr_mult: 1.0
  decay_mult: 1.0
}
convolution_param {
  num_output: 512
  bias_term: false
  pad: 1
  kernel_size: 3
  stride: 2
  weight_filler {
    type: "msra"
  }
  bias_filler {
    type: "constant"
    value: 0.0
  }
}

}
layer {
name: "layer_512_1_bn3"
type: "BatchNorm"
bottom: "layer_512_1_conv2"
top: "layer_512_1_conv2_pcs_arm_sim"
  batch_norm_param {
 }  
}
layer {
name: "layer_512_1_relu3"
type: "ReLU"
bottom: "layer_512_1_conv2_pcs_arm_sim"
top: "layer_512_1_conv2_pcs_arm_sim"

}
layer {
name: "layer_512_1_conv3"
type: "Convolution"
bottom: "layer_512_1_conv2_pcs_arm_sim"
top: "layer_512_1_conv3"
param {
  lr_mult: 1.0
  decay_mult: 1.0
}
convolution_param {
  num_output: 2048
  bias_term: false
  pad: 0
  kernel_size: 1
  stride: 1
  weight_filler {
    type: "msra"
  }
  bias_filler {
    type: "constant"
    value: 0.0
  }
}

}
layer {
name: "layer_512_1_conv_expand"
type: "Convolution"
bottom: "layer_512_1_bn1_pcs_arm_sim"
top: "layer_512_1_conv_expand"
param {
  lr_mult: 1.0
  decay_mult: 1.0
}
convolution_param {
  num_output: 2048
  bias_term: false
  pad: 0
  kernel_size: 1
  stride: 2
  weight_filler {
    type: "msra"
  }
  bias_filler {
    type: "constant"
    value: 0.0
  }
}

}
layer {
name: "layer_512_1_sum"
type: "Eltwise"
bottom: "layer_512_1_conv3"
bottom: "layer_512_1_conv_expand"
top: "layer_512_1_sum"

}
layer {
name: "layer_512_2_bn1"
type: "BatchNorm"
bottom: "layer_512_1_sum"
top: "layer_512_2_bn1_pcs_arm_sim"
  batch_norm_param {
 }  
}
layer {
name: "layer_512_2_relu1"
type: "ReLU"
bottom: "layer_512_2_bn1_pcs_arm_sim"
top: "layer_512_2_bn1_pcs_arm_sim"

}
layer {
name: "layer_512_2_conv1"
type: "Convolution"
bottom: "layer_512_2_bn1_pcs_arm_sim"
top: "layer_512_2_conv1"
param {
  lr_mult: 1.0
  decay_mult: 1.0
}
convolution_param {
  num_output: 512
  bias_term: false
  pad: 0
  kernel_size: 1
  stride: 1
  weight_filler {
    type: "msra"
  }
  bias_filler {
    type: "constant"
    value: 0.0
  }
}

}
layer {
name: "layer_512_2_bn2"
type: "BatchNorm"
bottom: "layer_512_2_conv1"
top: "layer_512_2_conv1_pcs_arm_sim"
  batch_norm_param {
 }
}
layer {
name: "layer_512_2_relu2"
type: "ReLU"
bottom: "layer_512_2_conv1_pcs_arm_sim"
top: "layer_512_2_conv1_pcs_arm_sim"

}
layer {
name: "layer_512_2_conv2"
type: "Convolution"
bottom: "layer_512_2_conv1_pcs_arm_sim"
top: "layer_512_2_conv2"
param {
  lr_mult: 1.0
  decay_mult: 1.0
}
convolution_param {
  num_output: 512
  bias_term: false
  pad: 1
  kernel_size: 3
  stride: 1
  weight_filler {
    type: "msra"
  }
  bias_filler {
    type: "constant"
    value: 0.0
  }
}

}
layer {
name: "layer_512_2_bn3"
type: "BatchNorm"
bottom: "layer_512_2_conv2"
top: "layer_512_2_conv2_pcs_arm_sim"
  batch_norm_param {
 }   
}
layer {
name: "layer_512_2_relu3"
type: "ReLU"
bottom: "layer_512_2_conv2_pcs_arm_sim"
top: "layer_512_2_conv2_pcs_arm_sim"

}
layer {
name: "layer_512_2_conv3"
type: "Convolution"
bottom: "layer_512_2_conv2_pcs_arm_sim"
top: "layer_512_2_conv3"
param {
  lr_mult: 1.0
  decay_mult: 1.0
}
convolution_param {
  num_output: 2048
  bias_term: false
  pad: 0
  kernel_size: 1
  stride: 1
  weight_filler {
    type: "msra"
  }
  bias_filler {
    type: "constant"
    value: 0.0
  }
}

}
layer {
name: "layer_512_2_sum"
type: "Eltwise"
bottom: "layer_512_2_conv3"
bottom: "layer_512_1_sum"
top: "layer_512_2_sum"

}
layer {
name: "layer_512_3_bn1"
type: "BatchNorm"
bottom: "layer_512_2_sum"
top: "layer_512_3_bn1_pcs_arm_sim"
  batch_norm_param {
 }    
}
layer {
name: "layer_512_3_relu1"
type: "ReLU"
bottom: "layer_512_3_bn1_pcs_arm_sim"
top: "layer_512_3_bn1_pcs_arm_sim"

}
layer {
name: "layer_512_3_conv1"
type: "Convolution"
bottom: "layer_512_3_bn1_pcs_arm_sim"
top: "layer_512_3_conv1"
param {
  lr_mult: 1.0
  decay_mult: 1.0
}
convolution_param {
  num_output: 512
  bias_term: false
  pad: 0
  kernel_size: 1
  stride: 1
  weight_filler {
    type: "msra"
  }
  bias_filler {
    type: "constant"
    value: 0.0
  }
}

}
layer {
name: "layer_512_3_bn2"
type: "BatchNorm"
bottom: "layer_512_3_conv1"
top: "layer_512_3_conv1_pcs_arm_sim"
  batch_norm_param {
 }
}
layer {
name: "layer_512_3_relu2"
type: "ReLU"
bottom: "layer_512_3_conv1_pcs_arm_sim"
top: "layer_512_3_conv1_pcs_arm_sim"

}
layer {
name: "layer_512_3_conv2"
type: "Convolution"
bottom: "layer_512_3_conv1_pcs_arm_sim"
top: "layer_512_3_conv2"
param {
  lr_mult: 1.0
  decay_mult: 1.0
}
convolution_param {
  num_output: 512
  bias_term: false
  pad: 1
  kernel_size: 3
  stride: 1
  weight_filler {
    type: "msra"
  }
  bias_filler {
    type: "constant"
    value: 0.0
  }
}

}
layer {
name: "layer_512_3_bn3"
type: "BatchNorm"
bottom: "layer_512_3_conv2"
top: "layer_512_3_conv2_pcs_arm_sim"
  batch_norm_param {
 } 
}
layer {
name: "layer_512_3_relu3"
type: "ReLU"
bottom: "layer_512_3_conv2_pcs_arm_sim"
top: "layer_512_3_conv2_pcs_arm_sim"

}
layer {
name: "layer_512_3_conv3"
type: "Convolution"
bottom: "layer_512_3_conv2_pcs_arm_sim"
top: "layer_512_3_conv3"
param {
  lr_mult: 1.0
  decay_mult: 1.0
}
convolution_param {
  num_output: 2048
  bias_term: false
  pad: 0
  kernel_size: 1
  stride: 1
  weight_filler {
    type: "msra"
  }
  bias_filler {
    type: "constant"
    value: 0.0
  }
}

}
layer {
name: "layer_512_3_sum"
type: "Eltwise"
bottom: "layer_512_3_conv3"
bottom: "layer_512_2_sum"
top: "layer_512_3_sum"

}
layer {
name: "last_bn"
type: "BatchNorm"
bottom: "layer_512_3_sum"
top: "layer_512_3_sum_pcs_arm_sim"
  batch_norm_param {
 } 
}
layer {
name: "last_relu"
type: "ReLU"
bottom: "layer_512_3_sum_pcs_arm_sim"
top: "layer_512_3_sum_pcs_arm_sim"

}
layer {
name: "global_pool"
type: "Pooling"
bottom: "layer_512_3_sum_pcs_arm_sim"
top: "global_pool"
pooling_param {
  pool: AVE
  global_pooling: true
}

}
layer {
name: "score"
type: "InnerProduct"
bottom: "global_pool"
top: "score"
param {
  lr_mult: 1.0
  decay_mult: 1.0
}
param {
  lr_mult: 2.0
  decay_mult: 1.0
}
inner_product_param {
  num_output: 1000
}

}
layer {
name: "loss"
type: "SoftmaxWithLoss"
bottom: "score"
bottom: "label"
top: "loss"

}
#layer {
#name: "accuracy"
#type: "Accuracy"
#bottom: "score"
#bottom: "label"
#top: "accuracy"
#include {
#  phase: TEST
#}
layer {
  name: "loss3/top-1"
  type: "Accuracy"
  bottom: "score"
  bottom: "label"
  top: "loss3/top-1"
  include {
    phase: TEST
  }
}
layer {
  name: "loss3/top-5"
  type: "Accuracy"
  bottom: "score"
  bottom: "label"
  top: "loss3/top-5"
  include {
    phase: TEST
  }
  accuracy_param {
    top_k: 5
  }
}

#}
