name: "LogisticRegressionNet"
<<<<<<< HEAD
<<<<<<< HEAD
=======
<<<<<<< HEAD
<<<<<<< HEAD
=======
>>>>>>> caffe
>>>>>>> pod-caffe-pod.hpp-merge
=======
<<<<<<< HEAD
=======
>>>>>>> caffe
>>>>>>> pod-caffe-pod.hpp-merge
layer {
  name: "data"
  type: "HDF5Data"
  top: "data"
  top: "label"
  include {
    phase: TRAIN
  }
<<<<<<< HEAD
=======
<<<<<<< HEAD
<<<<<<< HEAD
=======
=======
>>>>>>> pod-caffe-pod.hpp-merge
layers {
  name: "data"
  type: HDF5_DATA
  top: "data"
  top: "label"
>>>>>>> origin/BVLC/parallel
=======
>>>>>>> caffe
<<<<<<< HEAD
>>>>>>> pod-caffe-pod.hpp-merge
=======
>>>>>>> pod-caffe-pod.hpp-merge
  hdf5_data_param {
    source: "examples/hdf5_classification/data/train.txt"
    batch_size: 10
  }
<<<<<<< HEAD
<<<<<<< HEAD
=======
<<<<<<< HEAD
<<<<<<< HEAD
=======
>>>>>>> caffe
>>>>>>> pod-caffe-pod.hpp-merge
=======
<<<<<<< HEAD
=======
>>>>>>> caffe
>>>>>>> pod-caffe-pod.hpp-merge
}
layer {
  name: "data"
  type: "HDF5Data"
  top: "data"
  top: "label"
  include {
    phase: TEST
  }
<<<<<<< HEAD
=======
<<<<<<< HEAD
<<<<<<< HEAD
=======
=======
>>>>>>> pod-caffe-pod.hpp-merge
  include: { phase: TRAIN }
}
layers {
  name: "data"
  type: HDF5_DATA
  top: "data"
  top: "label"
>>>>>>> origin/BVLC/parallel
=======
>>>>>>> caffe
<<<<<<< HEAD
>>>>>>> pod-caffe-pod.hpp-merge
=======
>>>>>>> pod-caffe-pod.hpp-merge
  hdf5_data_param {
    source: "examples/hdf5_classification/data/test.txt"
    batch_size: 10
  }
<<<<<<< HEAD
<<<<<<< HEAD
=======
<<<<<<< HEAD
<<<<<<< HEAD
=======
>>>>>>> caffe
>>>>>>> pod-caffe-pod.hpp-merge
=======
<<<<<<< HEAD
=======
>>>>>>> caffe
>>>>>>> pod-caffe-pod.hpp-merge
}
layer {
  name: "fc1"
  type: "InnerProduct"
  bottom: "data"
  top: "fc1"
  param {
    lr_mult: 1
    decay_mult: 1
  }
  param {
    lr_mult: 2
    decay_mult: 0
  }
  inner_product_param {
    num_output: 2
    weight_filler {
      type: "xavier"
<<<<<<< HEAD
=======
<<<<<<< HEAD
<<<<<<< HEAD
=======
=======
>>>>>>> pod-caffe-pod.hpp-merge
  include: { phase: TEST }
}
layers {
  name: "fc1"
  type: INNER_PRODUCT
  bottom: "data"
  top: "fc1"
  blobs_lr: 1
  blobs_lr: 2
  weight_decay: 1
  weight_decay: 0
  inner_product_param {
    num_output: 2
    weight_filler {
      type: "gaussian"
      std: 0.01
>>>>>>> origin/BVLC/parallel
=======
>>>>>>> caffe
<<<<<<< HEAD
>>>>>>> pod-caffe-pod.hpp-merge
=======
>>>>>>> pod-caffe-pod.hpp-merge
    }
    bias_filler {
      type: "constant"
      value: 0
    }
  }
}
<<<<<<< HEAD
<<<<<<< HEAD
layer {
  name: "loss"
  type: "SoftmaxWithLoss"
=======
<<<<<<< HEAD
=======
>>>>>>> pod-caffe-pod.hpp-merge
<<<<<<< HEAD
layer {
  name: "loss"
  type: "SoftmaxWithLoss"
=======
layers {
  name: "loss"
  type: SOFTMAX_LOSS
>>>>>>> origin/BVLC/parallel
=======
layer {
  name: "loss"
  type: "SoftmaxWithLoss"
>>>>>>> caffe
<<<<<<< HEAD
>>>>>>> pod-caffe-pod.hpp-merge
=======
>>>>>>> pod-caffe-pod.hpp-merge
  bottom: "fc1"
  bottom: "label"
  top: "loss"
}
<<<<<<< HEAD
<<<<<<< HEAD
=======
<<<<<<< HEAD
<<<<<<< HEAD
=======
>>>>>>> caffe
>>>>>>> pod-caffe-pod.hpp-merge
=======
<<<<<<< HEAD
=======
>>>>>>> caffe
>>>>>>> pod-caffe-pod.hpp-merge
layer {
  name: "accuracy"
  type: "Accuracy"
  bottom: "fc1"
  bottom: "label"
  top: "accuracy"
  include {
    phase: TEST
  }
<<<<<<< HEAD
=======
<<<<<<< HEAD
<<<<<<< HEAD
=======
=======
>>>>>>> pod-caffe-pod.hpp-merge
layers {
  name: "accuracy"
  type: ACCURACY
  bottom: "fc1"
  bottom: "label"
  top: "accuracy"
  include: { phase: TEST }
>>>>>>> origin/BVLC/parallel
=======
>>>>>>> caffe
<<<<<<< HEAD
>>>>>>> pod-caffe-pod.hpp-merge
=======
>>>>>>> pod-caffe-pod.hpp-merge
}
