name: "FlickrStyleCaffeNet"
<<<<<<< HEAD
<<<<<<< HEAD
<<<<<<< HEAD
<<<<<<< HEAD
<<<<<<< HEAD
<<<<<<< HEAD
<<<<<<< HEAD
<<<<<<< HEAD
<<<<<<< HEAD
<<<<<<< HEAD
<<<<<<< HEAD
<<<<<<< HEAD
<<<<<<< HEAD
<<<<<<< HEAD
<<<<<<< HEAD
<<<<<<< HEAD
=======
<<<<<<< HEAD
<<<<<<< HEAD
<<<<<<< HEAD
<<<<<<< HEAD
=======
>>>>>>> caffe
>>>>>>> pod-caffe-pod.hpp-merge
=======
<<<<<<< HEAD
=======
>>>>>>> caffe
>>>>>>> pod-caffe-pod.hpp-merge
=======
>>>>>>> caffe
>>>>>>> pod/caffe-merge
=======
>>>>>>> caffe
>>>>>>> pod/caffe-merge
=======
=======
>>>>>>> pod/device/blob.hpp
=======
<<<<<<< HEAD
<<<<<<< HEAD
=======
>>>>>>> caffe
>>>>>>> pod-caffe-pod.hpp-merge
<<<<<<< HEAD
>>>>>>> pod/device/blob.hpp
=======
>>>>>>> BVLC/device-abstraction
=======
=======
>>>>>>> caffe
>>>>>>> pod-caffe-pod.hpp-merge
=======
=======
>>>>>>> caffe
>>>>>>> pod/caffe-merge
=======
=======
>>>>>>> pod/device/blob.hpp
=======
>>>>>>> pod/device/blob.hpp
=======
<<<<<<< HEAD
<<<<<<< HEAD
=======
>>>>>>> caffe
>>>>>>> pod-caffe-pod.hpp-merge
<<<<<<< HEAD
<<<<<<< HEAD
>>>>>>> pod/device/blob.hpp
=======
=======
>>>>>>> caffe
>>>>>>> pod-caffe-pod.hpp-merge
=======
>>>>>>> pod/device/blob.hpp
=======
>>>>>>> pod/device/blob.hpp
=======
>>>>>>> BVLC/device-abstraction
=======
>>>>>>> pod/device/blob.hpp
=======
>>>>>>> BVLC/device-abstraction
=======
>>>>>>> BVLC/device-abstraction
=======
>>>>>>> BVLC/device-abstraction
=======
=======
>>>>>>> caffe
>>>>>>> pod-caffe-pod.hpp-merge
layer {
  name: "data"
  type: "ImageData"
  top: "data"
  top: "label"
  include {
    phase: TRAIN
  }
  transform_param {
    mirror: true
    crop_size: 227
    mean_file: "data/ilsvrc12/imagenet_mean.binaryproto"
  }
<<<<<<< HEAD
<<<<<<< HEAD
<<<<<<< HEAD
<<<<<<< HEAD
<<<<<<< HEAD
<<<<<<< HEAD
<<<<<<< HEAD
<<<<<<< HEAD
<<<<<<< HEAD
<<<<<<< HEAD
<<<<<<< HEAD
<<<<<<< HEAD
<<<<<<< HEAD
<<<<<<< HEAD
=======
<<<<<<< HEAD
<<<<<<< HEAD
<<<<<<< HEAD
<<<<<<< HEAD
<<<<<<< HEAD
=======
=======
>>>>>>> pod-caffe-pod.hpp-merge
=======
>>>>>>> pod/caffe-merge
=======
>>>>>>> pod/caffe-merge
=======
=======
>>>>>>> pod/device/blob.hpp
=======
=======
>>>>>>> pod-caffe-pod.hpp-merge
=======
=======
>>>>>>> pod/caffe-merge
=======
=======
<<<<<<< HEAD
=======
>>>>>>> pod/device/blob.hpp
=======
=======
>>>>>>> pod-caffe-pod.hpp-merge
=======
=======
<<<<<<< HEAD
=======
>>>>>>> pod/device/blob.hpp
=======
=======
<<<<<<< HEAD
=======
>>>>>>> pod/device/blob.hpp
=======
=======
<<<<<<< HEAD
=======
>>>>>>> pod/device/blob.hpp
=======
=======
>>>>>>> pod-caffe-pod.hpp-merge
layers {
  name: "data"
  type: IMAGE_DATA
  top: "data"
  top: "label"
>>>>>>> origin/BVLC/parallel
=======
>>>>>>> caffe
<<<<<<< HEAD
<<<<<<< HEAD
<<<<<<< HEAD
<<<<<<< HEAD
<<<<<<< HEAD
<<<<<<< HEAD
<<<<<<< HEAD
<<<<<<< HEAD
<<<<<<< HEAD
<<<<<<< HEAD
<<<<<<< HEAD
<<<<<<< HEAD
>>>>>>> pod-caffe-pod.hpp-merge
=======
>>>>>>> pod-caffe-pod.hpp-merge
=======
>>>>>>> pod/caffe-merge
=======
>>>>>>> pod/caffe-merge
=======
>>>>>>> pod-caffe-pod.hpp-merge
>>>>>>> pod/device/blob.hpp
=======
>>>>>>> BVLC/device-abstraction
=======
>>>>>>> pod-caffe-pod.hpp-merge
=======
>>>>>>> pod/caffe-merge
=======
>>>>>>> pod-caffe-pod.hpp-merge
>>>>>>> pod/device/blob.hpp
=======
=======
>>>>>>> pod/device/blob.hpp
=======
>>>>>>> pod/device/blob.hpp
>>>>>>> pod-caffe-pod.hpp-merge
=======
>>>>>>> BVLC/device-abstraction
=======
>>>>>>> pod-caffe-pod.hpp-merge
>>>>>>> pod/device/blob.hpp
=======
>>>>>>> BVLC/device-abstraction
=======
>>>>>>> BVLC/device-abstraction
=======
>>>>>>> BVLC/device-abstraction
=======
>>>>>>> pod-caffe-pod.hpp-merge
  image_data_param {
    source: "data/flickr_style/train.txt"
    batch_size: 50
    new_height: 256
    new_width: 256
  }
<<<<<<< HEAD
<<<<<<< HEAD
<<<<<<< HEAD
<<<<<<< HEAD
<<<<<<< HEAD
<<<<<<< HEAD
<<<<<<< HEAD
<<<<<<< HEAD
<<<<<<< HEAD
<<<<<<< HEAD
<<<<<<< HEAD
<<<<<<< HEAD
<<<<<<< HEAD
<<<<<<< HEAD
<<<<<<< HEAD
<<<<<<< HEAD
=======
<<<<<<< HEAD
<<<<<<< HEAD
<<<<<<< HEAD
<<<<<<< HEAD
=======
>>>>>>> caffe
>>>>>>> pod-caffe-pod.hpp-merge
=======
<<<<<<< HEAD
=======
>>>>>>> caffe
>>>>>>> pod-caffe-pod.hpp-merge
=======
>>>>>>> caffe
>>>>>>> pod/caffe-merge
=======
>>>>>>> caffe
>>>>>>> pod/caffe-merge
=======
=======
>>>>>>> pod/device/blob.hpp
=======
<<<<<<< HEAD
<<<<<<< HEAD
=======
>>>>>>> caffe
>>>>>>> pod-caffe-pod.hpp-merge
<<<<<<< HEAD
>>>>>>> pod/device/blob.hpp
=======
>>>>>>> BVLC/device-abstraction
=======
=======
>>>>>>> caffe
>>>>>>> pod-caffe-pod.hpp-merge
=======
=======
>>>>>>> caffe
>>>>>>> pod/caffe-merge
=======
=======
>>>>>>> pod/device/blob.hpp
=======
>>>>>>> pod/device/blob.hpp
=======
<<<<<<< HEAD
<<<<<<< HEAD
=======
>>>>>>> caffe
>>>>>>> pod-caffe-pod.hpp-merge
<<<<<<< HEAD
<<<<<<< HEAD
>>>>>>> pod/device/blob.hpp
=======
=======
>>>>>>> caffe
>>>>>>> pod-caffe-pod.hpp-merge
=======
>>>>>>> pod/device/blob.hpp
=======
>>>>>>> pod/device/blob.hpp
=======
>>>>>>> BVLC/device-abstraction
=======
>>>>>>> pod/device/blob.hpp
=======
>>>>>>> BVLC/device-abstraction
=======
>>>>>>> BVLC/device-abstraction
=======
>>>>>>> BVLC/device-abstraction
=======
=======
>>>>>>> caffe
>>>>>>> pod-caffe-pod.hpp-merge
}
layer {
  name: "data"
  type: "ImageData"
  top: "data"
  top: "label"
  include {
    phase: TEST
  }
  transform_param {
    mirror: false
    crop_size: 227
    mean_file: "data/ilsvrc12/imagenet_mean.binaryproto"
  }
<<<<<<< HEAD
<<<<<<< HEAD
<<<<<<< HEAD
<<<<<<< HEAD
<<<<<<< HEAD
<<<<<<< HEAD
<<<<<<< HEAD
<<<<<<< HEAD
<<<<<<< HEAD
<<<<<<< HEAD
<<<<<<< HEAD
<<<<<<< HEAD
<<<<<<< HEAD
<<<<<<< HEAD
=======
<<<<<<< HEAD
<<<<<<< HEAD
<<<<<<< HEAD
<<<<<<< HEAD
<<<<<<< HEAD
=======
=======
>>>>>>> pod-caffe-pod.hpp-merge
=======
>>>>>>> pod/caffe-merge
=======
>>>>>>> pod/caffe-merge
=======
=======
>>>>>>> pod/device/blob.hpp
=======
=======
>>>>>>> pod-caffe-pod.hpp-merge
=======
=======
>>>>>>> pod/caffe-merge
=======
=======
<<<<<<< HEAD
=======
>>>>>>> pod/device/blob.hpp
=======
=======
>>>>>>> pod-caffe-pod.hpp-merge
=======
=======
<<<<<<< HEAD
=======
>>>>>>> pod/device/blob.hpp
=======
=======
<<<<<<< HEAD
=======
>>>>>>> pod/device/blob.hpp
=======
=======
<<<<<<< HEAD
=======
>>>>>>> pod/device/blob.hpp
=======
=======
>>>>>>> pod-caffe-pod.hpp-merge
  transform_param {
    crop_size: 227
    mean_file: "data/ilsvrc12/imagenet_mean.binaryproto"
    mirror: true
  }
  include: { phase: TRAIN }
}
layers {
  name: "data"
  type: IMAGE_DATA
  top: "data"
  top: "label"
>>>>>>> origin/BVLC/parallel
=======
>>>>>>> caffe
<<<<<<< HEAD
<<<<<<< HEAD
<<<<<<< HEAD
<<<<<<< HEAD
<<<<<<< HEAD
<<<<<<< HEAD
<<<<<<< HEAD
<<<<<<< HEAD
<<<<<<< HEAD
<<<<<<< HEAD
<<<<<<< HEAD
<<<<<<< HEAD
>>>>>>> pod-caffe-pod.hpp-merge
=======
>>>>>>> pod-caffe-pod.hpp-merge
=======
>>>>>>> pod/caffe-merge
=======
>>>>>>> pod/caffe-merge
=======
>>>>>>> pod-caffe-pod.hpp-merge
>>>>>>> pod/device/blob.hpp
=======
>>>>>>> BVLC/device-abstraction
=======
>>>>>>> pod-caffe-pod.hpp-merge
=======
>>>>>>> pod/caffe-merge
=======
>>>>>>> pod-caffe-pod.hpp-merge
>>>>>>> pod/device/blob.hpp
=======
=======
>>>>>>> pod/device/blob.hpp
=======
>>>>>>> pod/device/blob.hpp
>>>>>>> pod-caffe-pod.hpp-merge
=======
>>>>>>> BVLC/device-abstraction
=======
>>>>>>> pod-caffe-pod.hpp-merge
>>>>>>> pod/device/blob.hpp
=======
>>>>>>> BVLC/device-abstraction
=======
>>>>>>> BVLC/device-abstraction
=======
>>>>>>> BVLC/device-abstraction
  image_data_param {
    source: "data/flickr_style/test.txt"
    batch_size: 50
    new_height: 256
    new_width: 256
  }
<<<<<<< HEAD
<<<<<<< HEAD
<<<<<<< HEAD
<<<<<<< HEAD
<<<<<<< HEAD
<<<<<<< HEAD
<<<<<<< HEAD
<<<<<<< HEAD
<<<<<<< HEAD
<<<<<<< HEAD
<<<<<<< HEAD
<<<<<<< HEAD
<<<<<<< HEAD
<<<<<<< HEAD
<<<<<<< HEAD
=======
<<<<<<< HEAD
<<<<<<< HEAD
<<<<<<< HEAD
<<<<<<< HEAD
=======
>>>>>>> caffe
>>>>>>> pod-caffe-pod.hpp-merge
=======
<<<<<<< HEAD
=======
>>>>>>> caffe
>>>>>>> pod-caffe-pod.hpp-merge
=======
>>>>>>> caffe
>>>>>>> pod/caffe-merge
=======
>>>>>>> caffe
>>>>>>> pod/caffe-merge
=======
=======
>>>>>>> pod/device/blob.hpp
=======
<<<<<<< HEAD
<<<<<<< HEAD
=======
>>>>>>> caffe
>>>>>>> pod-caffe-pod.hpp-merge
<<<<<<< HEAD
>>>>>>> pod/device/blob.hpp
=======
>>>>>>> BVLC/device-abstraction
=======
=======
>>>>>>> caffe
>>>>>>> pod-caffe-pod.hpp-merge
=======
=======
>>>>>>> caffe
>>>>>>> pod/caffe-merge
=======
=======
>>>>>>> pod/device/blob.hpp
=======
>>>>>>> pod/device/blob.hpp
=======
<<<<<<< HEAD
<<<<<<< HEAD
=======
>>>>>>> caffe
>>>>>>> pod-caffe-pod.hpp-merge
<<<<<<< HEAD
<<<<<<< HEAD
>>>>>>> pod/device/blob.hpp
=======
=======
>>>>>>> caffe
>>>>>>> pod-caffe-pod.hpp-merge
=======
>>>>>>> pod/device/blob.hpp
=======
>>>>>>> pod/device/blob.hpp
=======
>>>>>>> BVLC/device-abstraction
=======
>>>>>>> pod/device/blob.hpp
=======
>>>>>>> BVLC/device-abstraction
=======
>>>>>>> BVLC/device-abstraction
=======
>>>>>>> BVLC/device-abstraction
=======
  image_data_param {
    source: "data/flickr_style/test.txt"
    batch_size: 50
    new_height: 256
    new_width: 256
  }
<<<<<<< HEAD
<<<<<<< HEAD
=======
>>>>>>> caffe
>>>>>>> pod-caffe-pod.hpp-merge
}
layer {
  name: "conv1"
  type: "Convolution"
  bottom: "data"
  top: "conv1"
  param {
    lr_mult: 1
    decay_mult: 1
  }
  param {
    lr_mult: 2
    decay_mult: 0
  }
<<<<<<< HEAD
<<<<<<< HEAD
<<<<<<< HEAD
<<<<<<< HEAD
<<<<<<< HEAD
<<<<<<< HEAD
<<<<<<< HEAD
<<<<<<< HEAD
<<<<<<< HEAD
<<<<<<< HEAD
<<<<<<< HEAD
<<<<<<< HEAD
<<<<<<< HEAD
<<<<<<< HEAD
=======
<<<<<<< HEAD
<<<<<<< HEAD
<<<<<<< HEAD
<<<<<<< HEAD
<<<<<<< HEAD
=======
=======
>>>>>>> pod-caffe-pod.hpp-merge
=======
>>>>>>> pod/caffe-merge
=======
>>>>>>> pod/caffe-merge
=======
=======
>>>>>>> pod/device/blob.hpp
=======
=======
>>>>>>> pod-caffe-pod.hpp-merge
=======
=======
>>>>>>> pod/caffe-merge
=======
=======
<<<<<<< HEAD
=======
>>>>>>> pod/device/blob.hpp
=======
=======
>>>>>>> pod-caffe-pod.hpp-merge
=======
=======
<<<<<<< HEAD
=======
>>>>>>> pod/device/blob.hpp
=======
=======
<<<<<<< HEAD
=======
>>>>>>> pod/device/blob.hpp
=======
=======
<<<<<<< HEAD
=======
>>>>>>> pod/device/blob.hpp
=======
=======
>>>>>>> pod-caffe-pod.hpp-merge
  transform_param {
    crop_size: 227
    mean_file: "data/ilsvrc12/imagenet_mean.binaryproto"
    mirror: false
  }
  include: { phase: TEST }
}
layers {
  name: "conv1"
  type: CONVOLUTION
  bottom: "data"
  top: "conv1"
  blobs_lr: 1
  blobs_lr: 2
  weight_decay: 1
  weight_decay: 0
>>>>>>> origin/BVLC/parallel
=======
>>>>>>> caffe
<<<<<<< HEAD
<<<<<<< HEAD
<<<<<<< HEAD
<<<<<<< HEAD
<<<<<<< HEAD
<<<<<<< HEAD
<<<<<<< HEAD
<<<<<<< HEAD
<<<<<<< HEAD
<<<<<<< HEAD
<<<<<<< HEAD
<<<<<<< HEAD
>>>>>>> pod-caffe-pod.hpp-merge
=======
>>>>>>> pod-caffe-pod.hpp-merge
=======
>>>>>>> pod/caffe-merge
=======
>>>>>>> pod/caffe-merge
=======
>>>>>>> pod-caffe-pod.hpp-merge
>>>>>>> pod/device/blob.hpp
=======
>>>>>>> BVLC/device-abstraction
=======
>>>>>>> pod-caffe-pod.hpp-merge
=======
>>>>>>> pod/caffe-merge
=======
>>>>>>> pod-caffe-pod.hpp-merge
>>>>>>> pod/device/blob.hpp
=======
=======
>>>>>>> pod/device/blob.hpp
=======
>>>>>>> pod/device/blob.hpp
>>>>>>> pod-caffe-pod.hpp-merge
=======
>>>>>>> BVLC/device-abstraction
=======
>>>>>>> pod-caffe-pod.hpp-merge
>>>>>>> pod/device/blob.hpp
=======
>>>>>>> BVLC/device-abstraction
=======
>>>>>>> BVLC/device-abstraction
=======
>>>>>>> BVLC/device-abstraction
=======
>>>>>>> pod-caffe-pod.hpp-merge
  convolution_param {
    num_output: 96
    kernel_size: 11
    stride: 4
    weight_filler {
      type: "gaussian"
      std: 0.01
    }
    bias_filler {
      type: "constant"
      value: 0
    }
  }
}
<<<<<<< HEAD
<<<<<<< HEAD
<<<<<<< HEAD
<<<<<<< HEAD
<<<<<<< HEAD
<<<<<<< HEAD
<<<<<<< HEAD
<<<<<<< HEAD
<<<<<<< HEAD
<<<<<<< HEAD
<<<<<<< HEAD
<<<<<<< HEAD
<<<<<<< HEAD
<<<<<<< HEAD
<<<<<<< HEAD
<<<<<<< HEAD
=======
<<<<<<< HEAD
<<<<<<< HEAD
<<<<<<< HEAD
<<<<<<< HEAD
=======
>>>>>>> caffe
>>>>>>> pod-caffe-pod.hpp-merge
=======
<<<<<<< HEAD
=======
>>>>>>> caffe
>>>>>>> pod-caffe-pod.hpp-merge
=======
>>>>>>> caffe
>>>>>>> pod/caffe-merge
=======
>>>>>>> caffe
>>>>>>> pod/caffe-merge
=======
=======
>>>>>>> pod/device/blob.hpp
=======
<<<<<<< HEAD
<<<<<<< HEAD
=======
>>>>>>> caffe
>>>>>>> pod-caffe-pod.hpp-merge
<<<<<<< HEAD
>>>>>>> pod/device/blob.hpp
=======
>>>>>>> BVLC/device-abstraction
=======
=======
>>>>>>> caffe
>>>>>>> pod-caffe-pod.hpp-merge
=======
=======
>>>>>>> caffe
>>>>>>> pod/caffe-merge
=======
=======
>>>>>>> pod/device/blob.hpp
=======
<<<<<<< HEAD
<<<<<<< HEAD
=======
>>>>>>> caffe
>>>>>>> pod-caffe-pod.hpp-merge
<<<<<<< HEAD
>>>>>>> pod/device/blob.hpp
=======
>>>>>>> pod/device/blob.hpp
=======
>>>>>>> BVLC/device-abstraction
=======
=======
>>>>>>> caffe
>>>>>>> pod-caffe-pod.hpp-merge
layer {
  name: "relu1"
  type: "ReLU"
  bottom: "conv1"
  top: "conv1"
}
layer {
  name: "pool1"
  type: "Pooling"
<<<<<<< HEAD
<<<<<<< HEAD
<<<<<<< HEAD
<<<<<<< HEAD
<<<<<<< HEAD
<<<<<<< HEAD
<<<<<<< HEAD
<<<<<<< HEAD
=======
<<<<<<< HEAD
<<<<<<< HEAD
<<<<<<< HEAD
<<<<<<< HEAD
<<<<<<< HEAD
=======
=======
>>>>>>> pod-caffe-pod.hpp-merge
=======
>>>>>>> pod/caffe-merge
=======
>>>>>>> pod/caffe-merge
=======
=======
>>>>>>> pod/device/blob.hpp
=======
=======
>>>>>>> pod-caffe-pod.hpp-merge
=======
=======
>>>>>>> pod/caffe-merge
=======
=======
<<<<<<< HEAD
=======
>>>>>>> pod/device/blob.hpp
=======
=======
>>>>>>> pod-caffe-pod.hpp-merge
layers {
  name: "relu1"
  type: RELU
  bottom: "conv1"
  top: "conv1"
}
layers {
  name: "pool1"
  type: POOLING
>>>>>>> origin/BVLC/parallel
=======
>>>>>>> caffe
<<<<<<< HEAD
<<<<<<< HEAD
<<<<<<< HEAD
<<<<<<< HEAD
<<<<<<< HEAD
<<<<<<< HEAD
<<<<<<< HEAD
<<<<<<< HEAD
>>>>>>> pod-caffe-pod.hpp-merge
=======
>>>>>>> pod-caffe-pod.hpp-merge
=======
>>>>>>> pod/caffe-merge
=======
>>>>>>> pod/caffe-merge
=======
>>>>>>> pod-caffe-pod.hpp-merge
>>>>>>> pod/device/blob.hpp
=======
>>>>>>> BVLC/device-abstraction
=======
>>>>>>> pod-caffe-pod.hpp-merge
=======
>>>>>>> pod/caffe-merge
=======
>>>>>>> pod-caffe-pod.hpp-merge
>>>>>>> pod/device/blob.hpp
=======
=======
>>>>>>> caffe
=======
=======
=======
  bottom: "conv1"
  top: "pool1"
  pooling_param {
    pool: MAX
    kernel_size: 3
    stride: 2
  }
}
<<<<<<< HEAD
<<<<<<< HEAD
layer {
  name: "norm1"
  type: "LRN"
=======
layers {
  name: "norm1"
  type: LRN
>>>>>>> origin/BVLC/parallel
=======
layer {
  name: "norm1"
  type: "LRN"
>>>>>>> caffe
  bottom: "pool1"
  top: "norm1"
  lrn_param {
    local_size: 5
    alpha: 0.0001
    beta: 0.75
  }
}
>>>>>>> pod-caffe-pod.hpp-merge
<<<<<<< HEAD
<<<<<<< HEAD
=======
>>>>>>> caffe
<<<<<<< HEAD
>>>>>>> pod-caffe-pod.hpp-merge
>>>>>>> pod/device/blob.hpp
=======
>>>>>>> BVLC/device-abstraction
=======
>>>>>>> pod/device/blob.hpp
=======
>>>>>>> BVLC/device-abstraction
=======
>>>>>>> BVLC/device-abstraction
layer {
  name: "relu1"
  type: "ReLU"
  bottom: "conv1"
  top: "conv1"
}
layer {
  name: "pool1"
  type: "Pooling"
<<<<<<< HEAD
<<<<<<< HEAD
<<<<<<< HEAD
<<<<<<< HEAD
<<<<<<< HEAD
=======
<<<<<<< HEAD
=======
<<<<<<< HEAD
=======
>>>>>>> pod/device/blob.hpp
=======
=======
<<<<<<< HEAD
=======
>>>>>>> pod/device/blob.hpp
=======
=======
<<<<<<< HEAD
=======
>>>>>>> pod/device/blob.hpp
layers {
  name: "relu1"
  type: RELU
  bottom: "conv1"
  top: "conv1"
}
layers {
  name: "pool1"
=======
layer {
  name: "conv2"
  type: "Convolution"
  bottom: "norm1"
  top: "conv2"
  param {
    lr_mult: 1
    decay_mult: 1
  }
  param {
    lr_mult: 2
    decay_mult: 0
  }
<<<<<<< HEAD
=======
layers {
  name: "conv2"
  type: CONVOLUTION
  bottom: "norm1"
  top: "conv2"
  blobs_lr: 1
  blobs_lr: 2
  weight_decay: 1
  weight_decay: 0
>>>>>>> origin/BVLC/parallel
=======
>>>>>>> caffe
  convolution_param {
    num_output: 256
    pad: 2
    kernel_size: 5
    group: 2
    weight_filler {
      type: "gaussian"
      std: 0.01
    }
    bias_filler {
      type: "constant"
      value: 1
    }
  }
}
<<<<<<< HEAD
<<<<<<< HEAD
=======
>>>>>>> caffe
layer {
  name: "relu2"
  type: "ReLU"
  bottom: "conv2"
  top: "conv2"
}
layer {
  name: "pool2"
  type: "Pooling"
<<<<<<< HEAD
=======
layers {
  name: "relu2"
  type: RELU
  bottom: "conv2"
  top: "conv2"
}
layers {
  name: "pool2"
>>>>>>> pod-caffe-pod.hpp-merge
  type: POOLING
>>>>>>> origin/BVLC/parallel
=======
>>>>>>> caffe
<<<<<<< HEAD
>>>>>>> pod-caffe-pod.hpp-merge
<<<<<<< HEAD
=======
>>>>>>> BVLC/device-abstraction
=======
>>>>>>> pod/device/blob.hpp
=======
>>>>>>> BVLC/device-abstraction
=======
>>>>>>> BVLC/device-abstraction
=======
>>>>>>> BVLC/device-abstraction
  bottom: "conv1"
  top: "pool1"
=======
  bottom: "conv2"
  top: "pool2"
>>>>>>> pod-caffe-pod.hpp-merge
  pooling_param {
    pool: MAX
    kernel_size: 3
    stride: 2
  }
}
<<<<<<< HEAD
<<<<<<< HEAD
<<<<<<< HEAD
<<<<<<< HEAD
<<<<<<< HEAD
<<<<<<< HEAD
<<<<<<< HEAD
<<<<<<< HEAD
<<<<<<< HEAD
<<<<<<< HEAD
<<<<<<< HEAD
<<<<<<< HEAD
<<<<<<< HEAD
<<<<<<< HEAD
<<<<<<< HEAD
<<<<<<< HEAD
=======
>>>>>>> pod/device/blob.hpp
=======
>>>>>>> pod/device/blob.hpp
=======
>>>>>>> pod-caffe-pod.hpp-merge
=======
>>>>>>> pod/device/blob.hpp
=======
>>>>>>> pod/device/blob.hpp
=======
>>>>>>> pod/device/blob.hpp
layer {
  name: "norm1"
  type: "LRN"
=======
<<<<<<< HEAD
<<<<<<< HEAD
<<<<<<< HEAD
<<<<<<< HEAD
<<<<<<< HEAD
<<<<<<< HEAD
<<<<<<< HEAD
<<<<<<< HEAD
<<<<<<< HEAD
=======
>>>>>>> pod-caffe-pod.hpp-merge
<<<<<<< HEAD
=======
>>>>>>> pod/device/blob.hpp
=======
>>>>>>> pod-caffe-pod.hpp-merge
=======
>>>>>>> pod/caffe-merge
=======
>>>>>>> pod/device/blob.hpp
=======
>>>>>>> pod/device/blob.hpp
=======
>>>>>>> pod/device/blob.hpp
=======
>>>>>>> pod/device/blob.hpp
layer {
  name: "norm1"
  type: "LRN"
=======
<<<<<<< HEAD
<<<<<<< HEAD
<<<<<<< HEAD
<<<<<<< HEAD
<<<<<<< HEAD
<<<<<<< HEAD
<<<<<<< HEAD
=======
>>>>>>> pod/caffe-merge
=======
>>>>>>> pod/caffe-merge
=======
>>>>>>> pod/device/blob.hpp
=======
>>>>>>> pod-caffe-pod.hpp-merge
=======
>>>>>>> pod/caffe-merge
=======
>>>>>>> pod/device/blob.hpp
=======
>>>>>>> pod-caffe-pod.hpp-merge
=======
>>>>>>> pod/device/blob.hpp
=======
>>>>>>> pod/device/blob.hpp
=======
>>>>>>> pod/device/blob.hpp
layers {
  name: "norm1"
  type: LRN
>>>>>>> origin/BVLC/parallel
=======
<<<<<<< HEAD
<<<<<<< HEAD
<<<<<<< HEAD
<<<<<<< HEAD
<<<<<<< HEAD
=======
>>>>>>> pod-caffe-pod.hpp-merge
layer {
  name: "norm1"
  type: "LRN"
>>>>>>> caffe
<<<<<<< HEAD
<<<<<<< HEAD
<<<<<<< HEAD
<<<<<<< HEAD
<<<<<<< HEAD
<<<<<<< HEAD
<<<<<<< HEAD
>>>>>>> pod-caffe-pod.hpp-merge
=======
>>>>>>> pod-caffe-pod.hpp-merge
=======
>>>>>>> pod/caffe-merge
=======
>>>>>>> pod/caffe-merge
=======
>>>>>>> pod-caffe-pod.hpp-merge
>>>>>>> pod/device/blob.hpp
=======
layer {
  name: "norm1"
  type: "LRN"
>>>>>>> BVLC/device-abstraction
=======
>>>>>>> pod-caffe-pod.hpp-merge
=======
>>>>>>> pod/caffe-merge
=======
=======
>>>>>>> pod/device/blob.hpp
layer {
  name: "norm1"
  type: "LRN"
>>>>>>> caffe
>>>>>>> pod-caffe-pod.hpp-merge
<<<<<<< HEAD
>>>>>>> pod/device/blob.hpp
=======
>>>>>>> pod-caffe-pod.hpp-merge
=======
=======
>>>>>>> pod/device/blob.hpp
layer {
  name: "norm1"
  type: "LRN"
>>>>>>> caffe
>>>>>>> pod-caffe-pod.hpp-merge
<<<<<<< HEAD
>>>>>>> pod/device/blob.hpp
=======
>>>>>>> pod/device/blob.hpp
=======
layer {
  name: "norm1"
  type: "LRN"
>>>>>>> BVLC/device-abstraction
=======
>>>>>>> pod/device/blob.hpp
=======
layer {
  name: "norm1"
  type: "LRN"
>>>>>>> BVLC/device-abstraction
=======
layer {
  name: "norm1"
  type: "LRN"
>>>>>>> BVLC/device-abstraction
=======
layer {
  name: "norm1"
  type: "LRN"
>>>>>>> BVLC/device-abstraction
  bottom: "pool1"
  top: "norm1"
  lrn_param {
    local_size: 5
    alpha: 0.0001
    beta: 0.75
  }
}
<<<<<<< HEAD
<<<<<<< HEAD
<<<<<<< HEAD
<<<<<<< HEAD
<<<<<<< HEAD
<<<<<<< HEAD
<<<<<<< HEAD
<<<<<<< HEAD
<<<<<<< HEAD
<<<<<<< HEAD
<<<<<<< HEAD
<<<<<<< HEAD
<<<<<<< HEAD
<<<<<<< HEAD
<<<<<<< HEAD
=======
<<<<<<< HEAD
<<<<<<< HEAD
<<<<<<< HEAD
<<<<<<< HEAD
=======
>>>>>>> caffe
>>>>>>> pod-caffe-pod.hpp-merge
=======
<<<<<<< HEAD
=======
>>>>>>> caffe
>>>>>>> pod-caffe-pod.hpp-merge
=======
>>>>>>> caffe
>>>>>>> pod/caffe-merge
=======
>>>>>>> caffe
>>>>>>> pod/caffe-merge
=======
=======
>>>>>>> pod/device/blob.hpp
=======
<<<<<<< HEAD
<<<<<<< HEAD
=======
>>>>>>> caffe
>>>>>>> pod-caffe-pod.hpp-merge
<<<<<<< HEAD
>>>>>>> pod/device/blob.hpp
=======
>>>>>>> BVLC/device-abstraction
=======
=======
>>>>>>> caffe
>>>>>>> pod-caffe-pod.hpp-merge
=======
=======
>>>>>>> caffe
>>>>>>> pod/caffe-merge
=======
=======
>>>>>>> pod/device/blob.hpp
=======
>>>>>>> pod/device/blob.hpp
=======
<<<<<<< HEAD
<<<<<<< HEAD
=======
>>>>>>> caffe
>>>>>>> pod-caffe-pod.hpp-merge
<<<<<<< HEAD
<<<<<<< HEAD
>>>>>>> pod/device/blob.hpp
=======
=======
>>>>>>> caffe
>>>>>>> pod-caffe-pod.hpp-merge
=======
>>>>>>> pod/device/blob.hpp
=======
>>>>>>> pod/device/blob.hpp
=======
>>>>>>> BVLC/device-abstraction
=======
>>>>>>> pod/device/blob.hpp
=======
>>>>>>> BVLC/device-abstraction
=======
>>>>>>> BVLC/device-abstraction
=======
>>>>>>> BVLC/device-abstraction
layer {
  name: "conv2"
  type: "Convolution"
  bottom: "norm1"
  top: "conv2"
=======
layer {
  name: "norm2"
  type: "LRN"
=======
layers {
  name: "norm2"
  type: LRN
>>>>>>> origin/BVLC/parallel
=======
layer {
  name: "norm2"
  type: "LRN"
>>>>>>> caffe
  bottom: "pool2"
  top: "norm2"
  lrn_param {
    local_size: 5
    alpha: 0.0001
    beta: 0.75
  }
}
<<<<<<< HEAD
<<<<<<< HEAD
=======
>>>>>>> caffe
layer {
  name: "conv3"
  type: "Convolution"
  bottom: "norm2"
  top: "conv3"
  param {
    lr_mult: 1
    decay_mult: 1
  }
  param {
    lr_mult: 2
    decay_mult: 0
  }
<<<<<<< HEAD
=======
layers {
  name: "conv3"
  type: CONVOLUTION
  bottom: "norm2"
  top: "conv3"
  blobs_lr: 1
  blobs_lr: 2
  weight_decay: 1
  weight_decay: 0
>>>>>>> origin/BVLC/parallel
=======
>>>>>>> caffe
  convolution_param {
    num_output: 384
    pad: 1
    kernel_size: 3
    weight_filler {
      type: "gaussian"
      std: 0.01
    }
    bias_filler {
      type: "constant"
      value: 0
    }
  }
}
<<<<<<< HEAD
<<<<<<< HEAD
=======
>>>>>>> caffe
layer {
  name: "relu3"
  type: "ReLU"
  bottom: "conv3"
  top: "conv3"
}
layer {
  name: "conv4"
  type: "Convolution"
  bottom: "conv3"
  top: "conv4"
  param {
    lr_mult: 1
    decay_mult: 1
  }
  param {
    lr_mult: 2
    decay_mult: 0
  }
<<<<<<< HEAD
=======
layers {
  name: "relu3"
  type: RELU
  bottom: "conv3"
  top: "conv3"
}
layers {
  name: "conv4"
  type: CONVOLUTION
  bottom: "conv3"
  top: "conv4"
  blobs_lr: 1
  blobs_lr: 2
  weight_decay: 1
  weight_decay: 0
>>>>>>> origin/BVLC/parallel
=======
>>>>>>> caffe
  convolution_param {
    num_output: 384
    pad: 1
    kernel_size: 3
    group: 2
    weight_filler {
      type: "gaussian"
      std: 0.01
    }
    bias_filler {
      type: "constant"
      value: 1
    }
  }
}
<<<<<<< HEAD
<<<<<<< HEAD
=======
>>>>>>> caffe
layer {
  name: "relu4"
  type: "ReLU"
  bottom: "conv4"
  top: "conv4"
}
layer {
  name: "conv5"
  type: "Convolution"
  bottom: "conv4"
  top: "conv5"
>>>>>>> pod-caffe-pod.hpp-merge
  param {
    lr_mult: 1
    decay_mult: 1
  }
  param {
    lr_mult: 2
    decay_mult: 0
  }
<<<<<<< HEAD
<<<<<<< HEAD
<<<<<<< HEAD
<<<<<<< HEAD
<<<<<<< HEAD
<<<<<<< HEAD
<<<<<<< HEAD
<<<<<<< HEAD
<<<<<<< HEAD
<<<<<<< HEAD
<<<<<<< HEAD
<<<<<<< HEAD
<<<<<<< HEAD
<<<<<<< HEAD
=======
<<<<<<< HEAD
<<<<<<< HEAD
<<<<<<< HEAD
<<<<<<< HEAD
<<<<<<< HEAD
=======
=======
>>>>>>> pod-caffe-pod.hpp-merge
=======
>>>>>>> pod/caffe-merge
=======
>>>>>>> pod/caffe-merge
=======
=======
>>>>>>> pod/device/blob.hpp
=======
=======
>>>>>>> pod-caffe-pod.hpp-merge
=======
=======
>>>>>>> pod/caffe-merge
=======
=======
<<<<<<< HEAD
=======
>>>>>>> pod/device/blob.hpp
=======
=======
>>>>>>> pod-caffe-pod.hpp-merge
=======
=======
<<<<<<< HEAD
=======
>>>>>>> pod/device/blob.hpp
=======
=======
<<<<<<< HEAD
=======
>>>>>>> pod/device/blob.hpp
=======
=======
<<<<<<< HEAD
=======
>>>>>>> pod/device/blob.hpp
layers {
  name: "conv2"
  type: CONVOLUTION
  bottom: "norm1"
  top: "conv2"
=======
=======
layers {
  name: "relu4"
  type: RELU
  bottom: "conv4"
  top: "conv4"
}
layers {
  name: "conv5"
  type: CONVOLUTION
  bottom: "conv4"
  top: "conv5"
>>>>>>> pod-caffe-pod.hpp-merge
  blobs_lr: 1
  blobs_lr: 2
  weight_decay: 1
  weight_decay: 0
>>>>>>> origin/BVLC/parallel
=======
>>>>>>> caffe
<<<<<<< HEAD
<<<<<<< HEAD
<<<<<<< HEAD
<<<<<<< HEAD
<<<<<<< HEAD
<<<<<<< HEAD
<<<<<<< HEAD
<<<<<<< HEAD
<<<<<<< HEAD
<<<<<<< HEAD
<<<<<<< HEAD
<<<<<<< HEAD
>>>>>>> pod-caffe-pod.hpp-merge
=======
>>>>>>> pod-caffe-pod.hpp-merge
=======
>>>>>>> pod/caffe-merge
=======
>>>>>>> pod/caffe-merge
=======
>>>>>>> pod-caffe-pod.hpp-merge
>>>>>>> pod/device/blob.hpp
=======
>>>>>>> BVLC/device-abstraction
=======
>>>>>>> pod-caffe-pod.hpp-merge
=======
>>>>>>> pod/caffe-merge
=======
>>>>>>> pod-caffe-pod.hpp-merge
>>>>>>> pod/device/blob.hpp
=======
=======
>>>>>>> pod/device/blob.hpp
=======
>>>>>>> pod/device/blob.hpp
>>>>>>> pod-caffe-pod.hpp-merge
=======
>>>>>>> BVLC/device-abstraction
=======
>>>>>>> pod-caffe-pod.hpp-merge
>>>>>>> pod/device/blob.hpp
=======
>>>>>>> BVLC/device-abstraction
=======
>>>>>>> BVLC/device-abstraction
=======
>>>>>>> BVLC/device-abstraction
  convolution_param {
    num_output: 256
    pad: 2
    kernel_size: 5
=======
  convolution_param {
    num_output: 256
    pad: 1
    kernel_size: 3
>>>>>>> pod-caffe-pod.hpp-merge
    group: 2
    weight_filler {
      type: "gaussian"
      std: 0.01
    }
    bias_filler {
      type: "constant"
      value: 1
    }
  }
}
<<<<<<< HEAD
<<<<<<< HEAD
<<<<<<< HEAD
<<<<<<< HEAD
<<<<<<< HEAD
<<<<<<< HEAD
<<<<<<< HEAD
<<<<<<< HEAD
<<<<<<< HEAD
<<<<<<< HEAD
<<<<<<< HEAD
<<<<<<< HEAD
<<<<<<< HEAD
<<<<<<< HEAD
<<<<<<< HEAD
<<<<<<< HEAD
=======
<<<<<<< HEAD
<<<<<<< HEAD
<<<<<<< HEAD
<<<<<<< HEAD
=======
>>>>>>> caffe
>>>>>>> pod-caffe-pod.hpp-merge
=======
<<<<<<< HEAD
=======
>>>>>>> caffe
>>>>>>> pod-caffe-pod.hpp-merge
=======
>>>>>>> caffe
>>>>>>> pod/caffe-merge
=======
>>>>>>> caffe
>>>>>>> pod/caffe-merge
=======
=======
>>>>>>> pod/device/blob.hpp
=======
<<<<<<< HEAD
<<<<<<< HEAD
=======
>>>>>>> caffe
>>>>>>> pod-caffe-pod.hpp-merge
<<<<<<< HEAD
>>>>>>> pod/device/blob.hpp
=======
>>>>>>> BVLC/device-abstraction
=======
=======
>>>>>>> caffe
>>>>>>> pod-caffe-pod.hpp-merge
=======
=======
>>>>>>> caffe
>>>>>>> pod/caffe-merge
=======
=======
>>>>>>> pod/device/blob.hpp
=======
>>>>>>> pod/device/blob.hpp
=======
<<<<<<< HEAD
<<<<<<< HEAD
=======
>>>>>>> caffe
>>>>>>> pod-caffe-pod.hpp-merge
<<<<<<< HEAD
<<<<<<< HEAD
>>>>>>> pod/device/blob.hpp
=======
=======
>>>>>>> caffe
>>>>>>> pod-caffe-pod.hpp-merge
=======
>>>>>>> pod/device/blob.hpp
=======
>>>>>>> pod/device/blob.hpp
=======
>>>>>>> BVLC/device-abstraction
=======
>>>>>>> pod/device/blob.hpp
=======
>>>>>>> BVLC/device-abstraction
=======
>>>>>>> BVLC/device-abstraction
=======
>>>>>>> BVLC/device-abstraction
layer {
  name: "relu2"
  type: "ReLU"
  bottom: "conv2"
  top: "conv2"
}
layer {
  name: "pool2"
  type: "Pooling"
<<<<<<< HEAD
<<<<<<< HEAD
<<<<<<< HEAD
<<<<<<< HEAD
<<<<<<< HEAD
<<<<<<< HEAD
<<<<<<< HEAD
<<<<<<< HEAD
<<<<<<< HEAD
<<<<<<< HEAD
<<<<<<< HEAD
<<<<<<< HEAD
<<<<<<< HEAD
=======
<<<<<<< HEAD
<<<<<<< HEAD
<<<<<<< HEAD
<<<<<<< HEAD
<<<<<<< HEAD
=======
=======
>>>>>>> pod-caffe-pod.hpp-merge
=======
>>>>>>> pod/caffe-merge
=======
>>>>>>> pod/caffe-merge
=======
=======
>>>>>>> pod/device/blob.hpp
=======
=======
>>>>>>> pod-caffe-pod.hpp-merge
=======
=======
>>>>>>> pod/caffe-merge
=======
=======
<<<<<<< HEAD
=======
>>>>>>> pod/device/blob.hpp
=======
=======
>>>>>>> pod-caffe-pod.hpp-merge
=======
=======
<<<<<<< HEAD
=======
>>>>>>> pod/device/blob.hpp
=======
=======
<<<<<<< HEAD
=======
>>>>>>> pod/device/blob.hpp
=======
=======
<<<<<<< HEAD
=======
>>>>>>> pod/device/blob.hpp
layers {
  name: "relu2"
  type: RELU
  bottom: "conv2"
  top: "conv2"
}
layers {
  name: "pool2"
  type: POOLING
>>>>>>> origin/BVLC/parallel
=======
>>>>>>> caffe
<<<<<<< HEAD
<<<<<<< HEAD
<<<<<<< HEAD
<<<<<<< HEAD
<<<<<<< HEAD
<<<<<<< HEAD
<<<<<<< HEAD
<<<<<<< HEAD
<<<<<<< HEAD
<<<<<<< HEAD
<<<<<<< HEAD
>>>>>>> pod-caffe-pod.hpp-merge
=======
>>>>>>> pod-caffe-pod.hpp-merge
=======
>>>>>>> pod/caffe-merge
=======
>>>>>>> pod/caffe-merge
=======
>>>>>>> pod-caffe-pod.hpp-merge
>>>>>>> pod/device/blob.hpp
=======
>>>>>>> BVLC/device-abstraction
=======
>>>>>>> pod-caffe-pod.hpp-merge
=======
>>>>>>> pod/caffe-merge
=======
>>>>>>> pod-caffe-pod.hpp-merge
>>>>>>> pod/device/blob.hpp
=======
=======
>>>>>>> pod/device/blob.hpp
=======
>>>>>>> pod/device/blob.hpp
>>>>>>> pod-caffe-pod.hpp-merge
=======
>>>>>>> BVLC/device-abstraction
=======
>>>>>>> pod-caffe-pod.hpp-merge
>>>>>>> pod/device/blob.hpp
=======
>>>>>>> BVLC/device-abstraction
=======
>>>>>>> BVLC/device-abstraction
=======
>>>>>>> BVLC/device-abstraction
  bottom: "conv2"
  top: "pool2"
=======
=======
>>>>>>> caffe
layer {
  name: "relu5"
  type: "ReLU"
  bottom: "conv5"
  top: "conv5"
}
layer {
  name: "pool5"
  type: "Pooling"
<<<<<<< HEAD
=======
layers {
  name: "relu5"
  type: RELU
  bottom: "conv5"
  top: "conv5"
}
layers {
  name: "pool5"
  type: POOLING
>>>>>>> origin/BVLC/parallel
=======
>>>>>>> caffe
  bottom: "conv5"
  top: "pool5"
>>>>>>> pod-caffe-pod.hpp-merge
  pooling_param {
    pool: MAX
    kernel_size: 3
    stride: 2
  }
}
<<<<<<< HEAD
<<<<<<< HEAD
<<<<<<< HEAD
<<<<<<< HEAD
<<<<<<< HEAD
<<<<<<< HEAD
<<<<<<< HEAD
<<<<<<< HEAD
<<<<<<< HEAD
<<<<<<< HEAD
<<<<<<< HEAD
<<<<<<< HEAD
<<<<<<< HEAD
<<<<<<< HEAD
<<<<<<< HEAD
<<<<<<< HEAD
=======
>>>>>>> pod/device/blob.hpp
=======
>>>>>>> pod-caffe-pod.hpp-merge
=======
>>>>>>> pod/caffe-merge
=======
>>>>>>> pod/device/blob.hpp
=======
>>>>>>> pod/device/blob.hpp
layer {
  name: "norm2"
  type: "LRN"
=======
<<<<<<< HEAD
<<<<<<< HEAD
<<<<<<< HEAD
<<<<<<< HEAD
<<<<<<< HEAD
<<<<<<< HEAD
<<<<<<< HEAD
<<<<<<< HEAD
=======
>>>>>>> pod-caffe-pod.hpp-merge
<<<<<<< HEAD
=======
>>>>>>> pod/device/blob.hpp
=======
>>>>>>> pod/device/blob.hpp
=======
>>>>>>> pod-caffe-pod.hpp-merge
=======
>>>>>>> pod/device/blob.hpp
layer {
  name: "norm2"
  type: "LRN"
=======
<<<<<<< HEAD
<<<<<<< HEAD
<<<<<<< HEAD
<<<<<<< HEAD
=======
>>>>>>> pod/caffe-merge
=======
>>>>>>> pod/caffe-merge
=======
>>>>>>> pod/device/blob.hpp
=======
>>>>>>> pod-caffe-pod.hpp-merge
=======
>>>>>>> pod/caffe-merge
=======
>>>>>>> pod/device/blob.hpp
=======
>>>>>>> pod-caffe-pod.hpp-merge
=======
>>>>>>> pod/device/blob.hpp
layers {
  name: "norm2"
  type: LRN
>>>>>>> origin/BVLC/parallel
=======
<<<<<<< HEAD
<<<<<<< HEAD
<<<<<<< HEAD
=======
>>>>>>> pod-caffe-pod.hpp-merge
layer {
  name: "norm2"
  type: "LRN"
>>>>>>> caffe
<<<<<<< HEAD
<<<<<<< HEAD
<<<<<<< HEAD
<<<<<<< HEAD
<<<<<<< HEAD
<<<<<<< HEAD
<<<<<<< HEAD
>>>>>>> pod-caffe-pod.hpp-merge
=======
>>>>>>> pod-caffe-pod.hpp-merge
=======
>>>>>>> pod/caffe-merge
=======
>>>>>>> pod/caffe-merge
=======
>>>>>>> pod-caffe-pod.hpp-merge
>>>>>>> pod/device/blob.hpp
=======
layer {
  name: "norm2"
  type: "LRN"
>>>>>>> BVLC/device-abstraction
=======
>>>>>>> pod-caffe-pod.hpp-merge
=======
>>>>>>> pod/caffe-merge
=======
layer {
  name: "norm2"
  type: "LRN"
>>>>>>> caffe
>>>>>>> pod-caffe-pod.hpp-merge
>>>>>>> pod/device/blob.hpp
=======
=======
=======
>>>>>>> pod/device/blob.hpp
layer {
  name: "norm2"
  type: "LRN"
=======
<<<<<<< HEAD
<<<<<<< HEAD
layer {
  name: "norm2"
  type: "LRN"
=======
layers {
  name: "norm2"
  type: LRN
>>>>>>> origin/BVLC/parallel
=======
<<<<<<< HEAD
layer {
  name: "norm2"
  type: "LRN"
>>>>>>> caffe
>>>>>>> pod/device/blob.hpp
=======
=======
>>>>>>> pod/device/blob.hpp
layer {
  name: "norm2"
  type: "LRN"
>>>>>>> caffe
<<<<<<< HEAD
>>>>>>> pod/device/blob.hpp
>>>>>>> pod-caffe-pod.hpp-merge
=======
layer {
  name: "norm2"
  type: "LRN"
>>>>>>> BVLC/device-abstraction
=======
>>>>>>> pod-caffe-pod.hpp-merge
>>>>>>> pod/device/blob.hpp
=======
layer {
  name: "norm2"
  type: "LRN"
>>>>>>> BVLC/device-abstraction
=======
layer {
  name: "norm2"
  type: "LRN"
>>>>>>> BVLC/device-abstraction
=======
layer {
  name: "norm2"
  type: "LRN"
>>>>>>> BVLC/device-abstraction
  bottom: "pool2"
  top: "norm2"
  lrn_param {
    local_size: 5
    alpha: 0.0001
    beta: 0.75
  }
}
<<<<<<< HEAD
<<<<<<< HEAD
<<<<<<< HEAD
<<<<<<< HEAD
<<<<<<< HEAD
<<<<<<< HEAD
<<<<<<< HEAD
<<<<<<< HEAD
<<<<<<< HEAD
<<<<<<< HEAD
<<<<<<< HEAD
<<<<<<< HEAD
<<<<<<< HEAD
<<<<<<< HEAD
<<<<<<< HEAD
=======
<<<<<<< HEAD
<<<<<<< HEAD
<<<<<<< HEAD
<<<<<<< HEAD
=======
>>>>>>> caffe
>>>>>>> pod-caffe-pod.hpp-merge
=======
<<<<<<< HEAD
=======
>>>>>>> caffe
>>>>>>> pod-caffe-pod.hpp-merge
=======
>>>>>>> caffe
>>>>>>> pod/caffe-merge
=======
>>>>>>> caffe
>>>>>>> pod/caffe-merge
=======
=======
>>>>>>> pod/device/blob.hpp
=======
<<<<<<< HEAD
<<<<<<< HEAD
=======
>>>>>>> caffe
>>>>>>> pod-caffe-pod.hpp-merge
<<<<<<< HEAD
>>>>>>> pod/device/blob.hpp
=======
>>>>>>> BVLC/device-abstraction
=======
=======
>>>>>>> caffe
>>>>>>> pod-caffe-pod.hpp-merge
=======
=======
>>>>>>> caffe
>>>>>>> pod/caffe-merge
=======
=======
>>>>>>> pod/device/blob.hpp
=======
>>>>>>> pod/device/blob.hpp
=======
<<<<<<< HEAD
<<<<<<< HEAD
=======
>>>>>>> caffe
>>>>>>> pod-caffe-pod.hpp-merge
<<<<<<< HEAD
<<<<<<< HEAD
>>>>>>> pod/device/blob.hpp
=======
=======
>>>>>>> caffe
>>>>>>> pod-caffe-pod.hpp-merge
=======
>>>>>>> pod/device/blob.hpp
=======
>>>>>>> pod/device/blob.hpp
=======
>>>>>>> BVLC/device-abstraction
=======
>>>>>>> pod/device/blob.hpp
=======
>>>>>>> BVLC/device-abstraction
=======
>>>>>>> BVLC/device-abstraction
=======
>>>>>>> BVLC/device-abstraction
layer {
  name: "conv3"
  type: "Convolution"
  bottom: "norm2"
  top: "conv3"
  param {
    lr_mult: 1
    decay_mult: 1
  }
  param {
    lr_mult: 2
<<<<<<< HEAD
<<<<<<< HEAD
<<<<<<< HEAD
<<<<<<< HEAD
<<<<<<< HEAD
    decay_mult: 0
  }
<<<<<<< HEAD
<<<<<<< HEAD
<<<<<<< HEAD
<<<<<<< HEAD
<<<<<<< HEAD
<<<<<<< HEAD
<<<<<<< HEAD
=======
<<<<<<< HEAD
<<<<<<< HEAD
<<<<<<< HEAD
<<<<<<< HEAD
<<<<<<< HEAD
=======
=======
>>>>>>> pod-caffe-pod.hpp-merge
=======
>>>>>>> pod/caffe-merge
=======
>>>>>>> pod/caffe-merge
=======
=======
>>>>>>> pod/device/blob.hpp
=======
=======
>>>>>>> pod-caffe-pod.hpp-merge
=======
=======
>>>>>>> pod/caffe-merge
=======
=======
<<<<<<< HEAD
=======
>>>>>>> pod/device/blob.hpp
=======
=======
<<<<<<< HEAD
=======
>>>>>>> pod/device/blob.hpp
=======
=======
<<<<<<< HEAD
=======
>>>>>>> pod/device/blob.hpp
layers {
  name: "conv3"
  type: CONVOLUTION
  bottom: "norm2"
  top: "conv3"
  blobs_lr: 1
  blobs_lr: 2
  weight_decay: 1
  weight_decay: 0
>>>>>>> origin/BVLC/parallel
=======
>>>>>>> caffe
<<<<<<< HEAD
<<<<<<< HEAD
<<<<<<< HEAD
<<<<<<< HEAD
<<<<<<< HEAD
<<<<<<< HEAD
<<<<<<< HEAD
<<<<<<< HEAD
<<<<<<< HEAD
>>>>>>> pod-caffe-pod.hpp-merge
=======
>>>>>>> pod-caffe-pod.hpp-merge
=======
>>>>>>> pod/caffe-merge
=======
>>>>>>> pod/caffe-merge
=======
>>>>>>> pod-caffe-pod.hpp-merge
>>>>>>> pod/device/blob.hpp
=======
>>>>>>> BVLC/device-abstraction
=======
>>>>>>> pod-caffe-pod.hpp-merge
=======
>>>>>>> pod/caffe-merge
=======
>>>>>>> pod-caffe-pod.hpp-merge
>>>>>>> pod/device/blob.hpp
=======
>>>>>>> pod-caffe-pod.hpp-merge
>>>>>>> pod/device/blob.hpp
=======
    decay_mult: 0
  }
>>>>>>> BVLC/device-abstraction
=======
    decay_mult: 0
  }
>>>>>>> BVLC/device-abstraction
=======
    decay_mult: 0
  }
>>>>>>> BVLC/device-abstraction
  convolution_param {
    num_output: 384
    pad: 1
    kernel_size: 3
    weight_filler {
      type: "gaussian"
      std: 0.01
    }
    bias_filler {
      type: "constant"
      value: 0
    }
  }
}
<<<<<<< HEAD
<<<<<<< HEAD
<<<<<<< HEAD
<<<<<<< HEAD
<<<<<<< HEAD
<<<<<<< HEAD
<<<<<<< HEAD
<<<<<<< HEAD
<<<<<<< HEAD
<<<<<<< HEAD
<<<<<<< HEAD
=======
<<<<<<< HEAD
<<<<<<< HEAD
<<<<<<< HEAD
<<<<<<< HEAD
=======
>>>>>>> caffe
>>>>>>> pod-caffe-pod.hpp-merge
=======
<<<<<<< HEAD
=======
>>>>>>> caffe
>>>>>>> pod-caffe-pod.hpp-merge
=======
>>>>>>> caffe
>>>>>>> pod/caffe-merge
=======
>>>>>>> caffe
>>>>>>> pod/caffe-merge
=======
=======
<<<<<<< HEAD
<<<<<<< HEAD
=======
>>>>>>> caffe
>>>>>>> pod-caffe-pod.hpp-merge
>>>>>>> pod/device/blob.hpp
=======
>>>>>>> BVLC/device-abstraction
=======
=======
>>>>>>> caffe
>>>>>>> pod-caffe-pod.hpp-merge
=======
=======
>>>>>>> caffe
>>>>>>> pod/caffe-merge
=======
=======
=======
    decay_mult: 0
  }
<<<<<<< HEAD
=======
layers {
  name: "conv3"
  type: CONVOLUTION
  bottom: "norm2"
  top: "conv3"
  blobs_lr: 1
  blobs_lr: 2
  weight_decay: 1
  weight_decay: 0
>>>>>>> origin/BVLC/parallel
=======
>>>>>>> caffe
=======
>>>>>>> pod-caffe-pod.hpp-merge
>>>>>>> pod/device/blob.hpp
=======
    decay_mult: 0
  }
<<<<<<< HEAD
>>>>>>> BVLC/device-abstraction
=======
<<<<<<< HEAD
=======
<<<<<<< HEAD
=======
layers {
  name: "conv3"
  type: CONVOLUTION
  bottom: "norm2"
  top: "conv3"
  blobs_lr: 1
  blobs_lr: 2
  weight_decay: 1
  weight_decay: 0
>>>>>>> origin/BVLC/parallel
=======
>>>>>>> caffe
>>>>>>> pod-caffe-pod.hpp-merge
>>>>>>> pod/device/blob.hpp
  convolution_param {
    num_output: 384
    pad: 1
    kernel_size: 3
    weight_filler {
      type: "gaussian"
      std: 0.01
    }
    bias_filler {
      type: "constant"
      value: 0
    }
  }
}
<<<<<<< HEAD
<<<<<<< HEAD
<<<<<<< HEAD
>>>>>>> pod-caffe-pod.hpp-merge
<<<<<<< HEAD
<<<<<<< HEAD
=======
>>>>>>> caffe
<<<<<<< HEAD
>>>>>>> pod-caffe-pod.hpp-merge
>>>>>>> pod/device/blob.hpp
=======
=======
<<<<<<< HEAD
=======
>>>>>>> pod/device/blob.hpp
=======
>>>>>>> pod/device/blob.hpp
=======
<<<<<<< HEAD
<<<<<<< HEAD
=======
>>>>>>> caffe
<<<<<<< HEAD
<<<<<<< HEAD
>>>>>>> pod/device/blob.hpp
=======
>>>>>>> pod/device/blob.hpp
>>>>>>> pod-caffe-pod.hpp-merge
=======
>>>>>>> BVLC/device-abstraction
=======
>>>>>>> pod-caffe-pod.hpp-merge
>>>>>>> pod/device/blob.hpp
=======
>>>>>>> BVLC/device-abstraction
=======
>>>>>>> BVLC/device-abstraction
=======
>>>>>>> BVLC/device-abstraction
layer {
  name: "relu3"
  type: "ReLU"
  bottom: "conv3"
  top: "conv3"
}
layer {
  name: "conv4"
  type: "Convolution"
  bottom: "conv3"
  top: "conv4"
  param {
    lr_mult: 1
    decay_mult: 1
  }
  param {
    lr_mult: 2
    decay_mult: 0
  }
<<<<<<< HEAD
<<<<<<< HEAD
<<<<<<< HEAD
<<<<<<< HEAD
<<<<<<< HEAD
<<<<<<< HEAD
<<<<<<< HEAD
<<<<<<< HEAD
<<<<<<< HEAD
<<<<<<< HEAD
<<<<<<< HEAD
<<<<<<< HEAD
<<<<<<< HEAD
=======
<<<<<<< HEAD
<<<<<<< HEAD
<<<<<<< HEAD
<<<<<<< HEAD
<<<<<<< HEAD
=======
=======
>>>>>>> pod-caffe-pod.hpp-merge
=======
>>>>>>> pod/caffe-merge
=======
>>>>>>> pod/caffe-merge
=======
=======
>>>>>>> pod/device/blob.hpp
=======
=======
>>>>>>> pod-caffe-pod.hpp-merge
=======
=======
>>>>>>> pod/caffe-merge
=======
=======
<<<<<<< HEAD
=======
>>>>>>> pod/device/blob.hpp
=======
=======
>>>>>>> pod-caffe-pod.hpp-merge
=======
=======
<<<<<<< HEAD
=======
>>>>>>> pod/device/blob.hpp
=======
=======
<<<<<<< HEAD
=======
>>>>>>> pod/device/blob.hpp
=======
=======
<<<<<<< HEAD
=======
>>>>>>> pod/device/blob.hpp
layers {
  name: "relu3"
  type: RELU
  bottom: "conv3"
  top: "conv3"
}
layers {
  name: "conv4"
  type: CONVOLUTION
  bottom: "conv3"
  top: "conv4"
  blobs_lr: 1
  blobs_lr: 2
  weight_decay: 1
  weight_decay: 0
>>>>>>> origin/BVLC/parallel
=======
>>>>>>> caffe
<<<<<<< HEAD
<<<<<<< HEAD
<<<<<<< HEAD
<<<<<<< HEAD
<<<<<<< HEAD
<<<<<<< HEAD
<<<<<<< HEAD
<<<<<<< HEAD
<<<<<<< HEAD
<<<<<<< HEAD
<<<<<<< HEAD
>>>>>>> pod-caffe-pod.hpp-merge
=======
>>>>>>> pod-caffe-pod.hpp-merge
=======
>>>>>>> pod/caffe-merge
=======
>>>>>>> pod/caffe-merge
=======
>>>>>>> pod-caffe-pod.hpp-merge
>>>>>>> pod/device/blob.hpp
=======
>>>>>>> BVLC/device-abstraction
=======
>>>>>>> pod-caffe-pod.hpp-merge
=======
>>>>>>> pod/caffe-merge
=======
>>>>>>> pod-caffe-pod.hpp-merge
>>>>>>> pod/device/blob.hpp
=======
=======
>>>>>>> pod/device/blob.hpp
=======
>>>>>>> pod/device/blob.hpp
>>>>>>> pod-caffe-pod.hpp-merge
=======
>>>>>>> BVLC/device-abstraction
=======
>>>>>>> pod-caffe-pod.hpp-merge
>>>>>>> pod/device/blob.hpp
=======
>>>>>>> BVLC/device-abstraction
=======
>>>>>>> BVLC/device-abstraction
=======
>>>>>>> BVLC/device-abstraction
  convolution_param {
    num_output: 384
    pad: 1
    kernel_size: 3
    group: 2
    weight_filler {
      type: "gaussian"
      std: 0.01
    }
    bias_filler {
      type: "constant"
      value: 1
    }
  }
}
<<<<<<< HEAD
<<<<<<< HEAD
<<<<<<< HEAD
<<<<<<< HEAD
<<<<<<< HEAD
<<<<<<< HEAD
<<<<<<< HEAD
<<<<<<< HEAD
<<<<<<< HEAD
<<<<<<< HEAD
<<<<<<< HEAD
<<<<<<< HEAD
<<<<<<< HEAD
<<<<<<< HEAD
<<<<<<< HEAD
=======
<<<<<<< HEAD
<<<<<<< HEAD
<<<<<<< HEAD
<<<<<<< HEAD
=======
>>>>>>> caffe
>>>>>>> pod-caffe-pod.hpp-merge
=======
<<<<<<< HEAD
=======
>>>>>>> caffe
>>>>>>> pod-caffe-pod.hpp-merge
=======
>>>>>>> caffe
>>>>>>> pod/caffe-merge
=======
>>>>>>> caffe
>>>>>>> pod/caffe-merge
=======
=======
>>>>>>> pod/device/blob.hpp
=======
<<<<<<< HEAD
<<<<<<< HEAD
=======
>>>>>>> caffe
>>>>>>> pod-caffe-pod.hpp-merge
<<<<<<< HEAD
>>>>>>> pod/device/blob.hpp
=======
>>>>>>> BVLC/device-abstraction
=======
=======
>>>>>>> caffe
>>>>>>> pod-caffe-pod.hpp-merge
=======
=======
>>>>>>> caffe
>>>>>>> pod/caffe-merge
=======
=======
>>>>>>> pod/device/blob.hpp
=======
>>>>>>> pod/device/blob.hpp
=======
<<<<<<< HEAD
<<<<<<< HEAD
=======
>>>>>>> caffe
>>>>>>> pod-caffe-pod.hpp-merge
<<<<<<< HEAD
<<<<<<< HEAD
>>>>>>> pod/device/blob.hpp
=======
=======
>>>>>>> caffe
>>>>>>> pod-caffe-pod.hpp-merge
=======
>>>>>>> pod/device/blob.hpp
=======
>>>>>>> pod/device/blob.hpp
=======
>>>>>>> BVLC/device-abstraction
=======
>>>>>>> pod/device/blob.hpp
=======
>>>>>>> BVLC/device-abstraction
=======
>>>>>>> BVLC/device-abstraction
=======
>>>>>>> BVLC/device-abstraction
layer {
  name: "relu4"
  type: "ReLU"
  bottom: "conv4"
  top: "conv4"
}
layer {
  name: "conv5"
  type: "Convolution"
  bottom: "conv4"
  top: "conv5"
  param {
    lr_mult: 1
    decay_mult: 1
  }
  param {
    lr_mult: 2
    decay_mult: 0
  }
<<<<<<< HEAD
<<<<<<< HEAD
<<<<<<< HEAD
<<<<<<< HEAD
<<<<<<< HEAD
<<<<<<< HEAD
<<<<<<< HEAD
<<<<<<< HEAD
<<<<<<< HEAD
<<<<<<< HEAD
<<<<<<< HEAD
<<<<<<< HEAD
<<<<<<< HEAD
=======
<<<<<<< HEAD
<<<<<<< HEAD
<<<<<<< HEAD
<<<<<<< HEAD
<<<<<<< HEAD
=======
=======
>>>>>>> pod-caffe-pod.hpp-merge
=======
>>>>>>> pod/caffe-merge
=======
>>>>>>> pod/caffe-merge
=======
=======
>>>>>>> pod/device/blob.hpp
=======
=======
>>>>>>> pod-caffe-pod.hpp-merge
=======
=======
>>>>>>> pod/caffe-merge
=======
=======
<<<<<<< HEAD
=======
>>>>>>> pod/device/blob.hpp
=======
=======
>>>>>>> pod-caffe-pod.hpp-merge
=======
=======
<<<<<<< HEAD
=======
>>>>>>> pod/device/blob.hpp
=======
=======
<<<<<<< HEAD
=======
>>>>>>> pod/device/blob.hpp
=======
=======
<<<<<<< HEAD
=======
>>>>>>> pod/device/blob.hpp
layers {
  name: "relu4"
  type: RELU
  bottom: "conv4"
  top: "conv4"
}
layers {
  name: "conv5"
  type: CONVOLUTION
  bottom: "conv4"
  top: "conv5"
  blobs_lr: 1
  blobs_lr: 2
  weight_decay: 1
  weight_decay: 0
>>>>>>> origin/BVLC/parallel
=======
>>>>>>> caffe
<<<<<<< HEAD
<<<<<<< HEAD
<<<<<<< HEAD
<<<<<<< HEAD
<<<<<<< HEAD
<<<<<<< HEAD
<<<<<<< HEAD
<<<<<<< HEAD
<<<<<<< HEAD
<<<<<<< HEAD
<<<<<<< HEAD
>>>>>>> pod-caffe-pod.hpp-merge
=======
>>>>>>> pod-caffe-pod.hpp-merge
=======
>>>>>>> pod/caffe-merge
=======
>>>>>>> pod/caffe-merge
=======
>>>>>>> pod-caffe-pod.hpp-merge
>>>>>>> pod/device/blob.hpp
=======
>>>>>>> BVLC/device-abstraction
=======
>>>>>>> pod-caffe-pod.hpp-merge
=======
>>>>>>> pod/caffe-merge
=======
>>>>>>> pod-caffe-pod.hpp-merge
>>>>>>> pod/device/blob.hpp
=======
=======
>>>>>>> pod/device/blob.hpp
=======
>>>>>>> pod/device/blob.hpp
>>>>>>> pod-caffe-pod.hpp-merge
=======
>>>>>>> BVLC/device-abstraction
=======
>>>>>>> pod-caffe-pod.hpp-merge
>>>>>>> pod/device/blob.hpp
=======
>>>>>>> BVLC/device-abstraction
=======
>>>>>>> BVLC/device-abstraction
=======
>>>>>>> BVLC/device-abstraction
  convolution_param {
    num_output: 256
    pad: 1
    kernel_size: 3
    group: 2
<<<<<<< HEAD
<<<<<<< HEAD
<<<<<<< HEAD
<<<<<<< HEAD
<<<<<<< HEAD
=======
>>>>>>> BVLC/device-abstraction
=======
>>>>>>> BVLC/device-abstraction
=======
>>>>>>> BVLC/device-abstraction
    weight_filler {
      type: "gaussian"
      std: 0.01
    }
    bias_filler {
      type: "constant"
      value: 1
    }
  }
}
<<<<<<< HEAD
<<<<<<< HEAD
<<<<<<< HEAD
<<<<<<< HEAD
<<<<<<< HEAD
<<<<<<< HEAD
<<<<<<< HEAD
<<<<<<< HEAD
<<<<<<< HEAD
<<<<<<< HEAD
<<<<<<< HEAD
=======
<<<<<<< HEAD
<<<<<<< HEAD
<<<<<<< HEAD
<<<<<<< HEAD
=======
>>>>>>> caffe
>>>>>>> pod-caffe-pod.hpp-merge
=======
<<<<<<< HEAD
=======
>>>>>>> caffe
>>>>>>> pod-caffe-pod.hpp-merge
=======
>>>>>>> caffe
>>>>>>> pod/caffe-merge
=======
>>>>>>> caffe
>>>>>>> pod/caffe-merge
=======
=======
<<<<<<< HEAD
<<<<<<< HEAD
=======
>>>>>>> caffe
>>>>>>> pod-caffe-pod.hpp-merge
>>>>>>> pod/device/blob.hpp
=======
>>>>>>> BVLC/device-abstraction
=======
=======
>>>>>>> caffe
>>>>>>> pod-caffe-pod.hpp-merge
=======
=======
>>>>>>> caffe
>>>>>>> pod/caffe-merge
=======
=======
>>>>>>> pod/device/blob.hpp
=======
<<<<<<< HEAD
<<<<<<< HEAD
=======
>>>>>>> caffe
>>>>>>> pod-caffe-pod.hpp-merge
<<<<<<< HEAD
>>>>>>> pod/device/blob.hpp
=======
>>>>>>> pod/device/blob.hpp
=======
>>>>>>> BVLC/device-abstraction
=======
>>>>>>> BVLC/device-abstraction
layer {
  name: "relu5"
  type: "ReLU"
  bottom: "conv5"
  top: "conv5"
}
layer {
  name: "pool5"
  type: "Pooling"
<<<<<<< HEAD
<<<<<<< HEAD
<<<<<<< HEAD
<<<<<<< HEAD
<<<<<<< HEAD
<<<<<<< HEAD
<<<<<<< HEAD
<<<<<<< HEAD
=======
<<<<<<< HEAD
<<<<<<< HEAD
<<<<<<< HEAD
<<<<<<< HEAD
<<<<<<< HEAD
=======
=======
>>>>>>> pod-caffe-pod.hpp-merge
=======
>>>>>>> pod/caffe-merge
=======
>>>>>>> pod/caffe-merge
=======
=======
>>>>>>> pod/device/blob.hpp
=======
=======
<<<<<<< HEAD
=======
>>>>>>> pod/device/blob.hpp
=======
=======
<<<<<<< HEAD
=======
>>>>>>> pod/device/blob.hpp
layers {
  name: "relu5"
  type: RELU
  bottom: "conv5"
  top: "conv5"
}
layers {
  name: "pool5"
  type: POOLING
>>>>>>> origin/BVLC/parallel
=======
>>>>>>> caffe
<<<<<<< HEAD
<<<<<<< HEAD
<<<<<<< HEAD
<<<<<<< HEAD
<<<<<<< HEAD
<<<<<<< HEAD
>>>>>>> pod-caffe-pod.hpp-merge
=======
>>>>>>> pod-caffe-pod.hpp-merge
=======
>>>>>>> pod/caffe-merge
=======
>>>>>>> pod/caffe-merge
=======
>>>>>>> pod-caffe-pod.hpp-merge
>>>>>>> pod/device/blob.hpp
=======
>>>>>>> BVLC/device-abstraction
=======
>>>>>>> BVLC/device-abstraction
  bottom: "conv5"
  top: "pool5"
  pooling_param {
    pool: MAX
    kernel_size: 3
    stride: 2
<<<<<<< HEAD
=======
=======
>>>>>>> BVLC/device-abstraction
    weight_filler {
      type: "gaussian"
      std: 0.01
    }
    bias_filler {
      type: "constant"
      value: 1
    }
<<<<<<< HEAD
>>>>>>> pod-caffe-pod.hpp-merge
  }
}
<<<<<<< HEAD
<<<<<<< HEAD
<<<<<<< HEAD
<<<<<<< HEAD
<<<<<<< HEAD
<<<<<<< HEAD
<<<<<<< HEAD
=======
<<<<<<< HEAD
<<<<<<< HEAD
<<<<<<< HEAD
<<<<<<< HEAD
=======
>>>>>>> caffe
>>>>>>> pod-caffe-pod.hpp-merge
=======
<<<<<<< HEAD
=======
>>>>>>> caffe
>>>>>>> pod-caffe-pod.hpp-merge
=======
>>>>>>> caffe
>>>>>>> pod/caffe-merge
=======
>>>>>>> caffe
>>>>>>> pod/caffe-merge
=======
=======
=======
=======
>>>>>>> pod/caffe-merge
=======
=======
=======
>>>>>>> caffe
=======
=======
>>>>>>> pod/device/blob.hpp
=======
<<<<<<< HEAD
<<<<<<< HEAD
=======
>>>>>>> caffe
>>>>>>> pod-caffe-pod.hpp-merge
<<<<<<< HEAD
>>>>>>> pod/device/blob.hpp
=======
  }
}
>>>>>>> BVLC/device-abstraction
=======
>>>>>>> pod/device/blob.hpp
=======
>>>>>>> BVLC/device-abstraction
layer {
  name: "relu5"
  type: "ReLU"
  bottom: "conv5"
  top: "conv5"
}
layer {
  name: "pool5"
  type: "Pooling"
<<<<<<< HEAD
<<<<<<< HEAD
<<<<<<< HEAD
<<<<<<< HEAD
=======
<<<<<<< HEAD
>>>>>>> pod-caffe-pod.hpp-merge
=======
<<<<<<< HEAD
=======
>>>>>>> pod/device/blob.hpp
=======
=======
<<<<<<< HEAD
=======
>>>>>>> pod/device/blob.hpp
layers {
  name: "relu5"
  type: RELU
  bottom: "conv5"
  top: "conv5"
}
layers {
  name: "pool5"
  type: POOLING
>>>>>>> origin/BVLC/parallel
=======
>>>>>>> caffe
<<<<<<< HEAD
<<<<<<< HEAD
<<<<<<< HEAD
=======
>>>>>>> pod-caffe-pod.hpp-merge
>>>>>>> pod/device/blob.hpp
=======
=======
>>>>>>> pod/device/blob.hpp
=======
>>>>>>> pod/device/blob.hpp
>>>>>>> pod-caffe-pod.hpp-merge
=======
>>>>>>> BVLC/device-abstraction
=======
>>>>>>> pod-caffe-pod.hpp-merge
>>>>>>> pod/device/blob.hpp
=======
>>>>>>> BVLC/device-abstraction
=======
>>>>>>> BVLC/device-abstraction
  bottom: "conv5"
  top: "pool5"
  pooling_param {
    pool: MAX
    kernel_size: 3
    stride: 2
  }
}
<<<<<<< HEAD
<<<<<<< HEAD
<<<<<<< HEAD
<<<<<<< HEAD
<<<<<<< HEAD
<<<<<<< HEAD
<<<<<<< HEAD
<<<<<<< HEAD
<<<<<<< HEAD
>>>>>>> pod-caffe-pod.hpp-merge
=======
>>>>>>> pod/caffe-merge
=======
=======
>>>>>>> pod/device/blob.hpp
<<<<<<< HEAD
<<<<<<< HEAD
=======
>>>>>>> caffe
<<<<<<< HEAD
<<<<<<< HEAD
<<<<<<< HEAD
>>>>>>> pod-caffe-pod.hpp-merge
>>>>>>> pod/device/blob.hpp
=======
>>>>>>> BVLC/device-abstraction
=======
>>>>>>> pod-caffe-pod.hpp-merge
=======
>>>>>>> pod/caffe-merge
=======
>>>>>>> pod-caffe-pod.hpp-merge
>>>>>>> pod/device/blob.hpp
=======
=======
=======
<<<<<<< HEAD
<<<<<<< HEAD
>>>>>>> pod/device/blob.hpp
=======
=======
<<<<<<< HEAD
<<<<<<< HEAD
>>>>>>> pod/device/blob.hpp
=======
>>>>>>> caffe
>>>>>>> pod-caffe-pod.hpp-merge
=======
>>>>>>> BVLC/device-abstraction
=======
=======
<<<<<<< HEAD
<<<<<<< HEAD
=======
>>>>>>> caffe
>>>>>>> pod-caffe-pod.hpp-merge
>>>>>>> pod/device/blob.hpp
=======
  }
}
>>>>>>> BVLC/device-abstraction
=======
>>>>>>> BVLC/device-abstraction
=======
>>>>>>> BVLC/device-abstraction
layer {
  name: "fc6"
  type: "InnerProduct"
  bottom: "pool5"
  top: "fc6"
  param {
    lr_mult: 1
    decay_mult: 1
  }
  param {
    lr_mult: 2
    decay_mult: 0
  }
<<<<<<< HEAD
<<<<<<< HEAD
<<<<<<< HEAD
<<<<<<< HEAD
<<<<<<< HEAD
<<<<<<< HEAD
<<<<<<< HEAD
<<<<<<< HEAD
<<<<<<< HEAD
<<<<<<< HEAD
<<<<<<< HEAD
<<<<<<< HEAD
<<<<<<< HEAD
=======
<<<<<<< HEAD
<<<<<<< HEAD
<<<<<<< HEAD
<<<<<<< HEAD
<<<<<<< HEAD
=======
=======
>>>>>>> pod-caffe-pod.hpp-merge
=======
>>>>>>> pod/caffe-merge
=======
>>>>>>> pod/caffe-merge
=======
=======
>>>>>>> pod/device/blob.hpp
=======
=======
>>>>>>> pod-caffe-pod.hpp-merge
=======
=======
>>>>>>> pod/caffe-merge
=======
=======
<<<<<<< HEAD
=======
>>>>>>> pod/device/blob.hpp
=======
=======
>>>>>>> pod-caffe-pod.hpp-merge
=======
=======
<<<<<<< HEAD
=======
>>>>>>> pod/device/blob.hpp
=======
=======
<<<<<<< HEAD
=======
>>>>>>> pod/device/blob.hpp
=======
=======
<<<<<<< HEAD
=======
>>>>>>> pod/device/blob.hpp
layers {
  name: "fc6"
  type: INNER_PRODUCT
  bottom: "pool5"
  top: "fc6"
  blobs_lr: 1
<<<<<<< HEAD
<<<<<<< HEAD
<<<<<<< HEAD
<<<<<<< HEAD
<<<<<<< HEAD
<<<<<<< HEAD
=======
>>>>>>> pod/device/blob.hpp
=======
>>>>>>> pod/device/blob.hpp
  blobs_lr: 2
  weight_decay: 1
  weight_decay: 0
>>>>>>> origin/BVLC/parallel
=======
>>>>>>> caffe
<<<<<<< HEAD
<<<<<<< HEAD
<<<<<<< HEAD
<<<<<<< HEAD
<<<<<<< HEAD
<<<<<<< HEAD
<<<<<<< HEAD
>>>>>>> pod-caffe-pod.hpp-merge
=======
>>>>>>> pod-caffe-pod.hpp-merge
=======
>>>>>>> pod/caffe-merge
=======
>>>>>>> pod/caffe-merge
=======
>>>>>>> pod-caffe-pod.hpp-merge
>>>>>>> pod/device/blob.hpp
=======
>>>>>>> BVLC/device-abstraction
=======
=======
>>>>>>> pod/device/blob.hpp
>>>>>>> pod-caffe-pod.hpp-merge
=======
>>>>>>> BVLC/device-abstraction
=======
>>>>>>> BVLC/device-abstraction
  inner_product_param {
    num_output: 4096
    weight_filler {
      type: "gaussian"
      std: 0.005
    }
    bias_filler {
      type: "constant"
      value: 1
    }
  }
}
<<<<<<< HEAD
<<<<<<< HEAD
<<<<<<< HEAD
<<<<<<< HEAD
<<<<<<< HEAD
<<<<<<< HEAD
<<<<<<< HEAD
<<<<<<< HEAD
=======
<<<<<<< HEAD
<<<<<<< HEAD
<<<<<<< HEAD
<<<<<<< HEAD
=======
>>>>>>> caffe
>>>>>>> pod-caffe-pod.hpp-merge
=======
<<<<<<< HEAD
=======
>>>>>>> caffe
>>>>>>> pod-caffe-pod.hpp-merge
=======
>>>>>>> caffe
>>>>>>> pod/caffe-merge
=======
>>>>>>> caffe
>>>>>>> pod/caffe-merge
=======
=======
=======
=======
>>>>>>> pod-caffe-pod.hpp-merge
=======
>>>>>>> pod/device/blob.hpp
=======
>>>>>>> pod/device/blob.hpp
  blobs_lr: 2
  weight_decay: 1
  weight_decay: 0
>>>>>>> origin/BVLC/parallel
=======
>>>>>>> caffe
<<<<<<< HEAD
<<<<<<< HEAD
<<<<<<< HEAD
=======
>>>>>>> pod-caffe-pod.hpp-merge
>>>>>>> pod/device/blob.hpp
=======
=======
>>>>>>> pod/device/blob.hpp
=======
>>>>>>> pod/device/blob.hpp
>>>>>>> pod-caffe-pod.hpp-merge
=======
>>>>>>> BVLC/device-abstraction
=======
>>>>>>> BVLC/device-abstraction
  inner_product_param {
    num_output: 4096
    weight_filler {
      type: "gaussian"
      std: 0.005
    }
    bias_filler {
      type: "constant"
      value: 1
    }
  }
}
<<<<<<< HEAD
<<<<<<< HEAD
<<<<<<< HEAD
<<<<<<< HEAD
<<<<<<< HEAD
<<<<<<< HEAD
>>>>>>> pod/caffe-merge
<<<<<<< HEAD
<<<<<<< HEAD
=======
>>>>>>> caffe
<<<<<<< HEAD
>>>>>>> pod-caffe-pod.hpp-merge
>>>>>>> pod/device/blob.hpp
=======
>>>>>>> BVLC/device-abstraction
=======
=======
>>>>>>> caffe
>>>>>>> pod-caffe-pod.hpp-merge
=======
>>>>>>> pod/caffe-merge
=======
<<<<<<< HEAD
=======
<<<<<<< HEAD
<<<<<<< HEAD
=======
>>>>>>> caffe
>>>>>>> pod-caffe-pod.hpp-merge
>>>>>>> pod/device/blob.hpp
=======
=======
=======
<<<<<<< HEAD
>>>>>>> pod/device/blob.hpp
=======
=======
<<<<<<< HEAD
>>>>>>> pod/device/blob.hpp
=======
=======
<<<<<<< HEAD
>>>>>>> pod/device/blob.hpp
<<<<<<< HEAD
=======
>>>>>>> caffe
>>>>>>> pod-caffe-pod.hpp-merge
<<<<<<< HEAD
=======
>>>>>>> BVLC/device-abstraction
=======
>>>>>>> pod/device/blob.hpp
=======
>>>>>>> BVLC/device-abstraction
=======
>>>>>>> BVLC/device-abstraction
=======
>>>>>>> BVLC/device-abstraction
layer {
  name: "relu6"
  type: "ReLU"
  bottom: "fc6"
  top: "fc6"
}
layer {
  name: "drop6"
  type: "Dropout"
<<<<<<< HEAD
<<<<<<< HEAD
<<<<<<< HEAD
<<<<<<< HEAD
<<<<<<< HEAD
<<<<<<< HEAD
<<<<<<< HEAD
<<<<<<< HEAD
<<<<<<< HEAD
<<<<<<< HEAD
<<<<<<< HEAD
<<<<<<< HEAD
<<<<<<< HEAD
=======
<<<<<<< HEAD
<<<<<<< HEAD
<<<<<<< HEAD
<<<<<<< HEAD
<<<<<<< HEAD
=======
=======
>>>>>>> pod-caffe-pod.hpp-merge
=======
>>>>>>> pod/caffe-merge
=======
>>>>>>> pod/caffe-merge
=======
=======
>>>>>>> pod/device/blob.hpp
=======
=======
>>>>>>> pod-caffe-pod.hpp-merge
=======
=======
>>>>>>> pod/caffe-merge
=======
=======
<<<<<<< HEAD
=======
>>>>>>> pod/device/blob.hpp
=======
=======
>>>>>>> pod-caffe-pod.hpp-merge
=======
=======
<<<<<<< HEAD
=======
>>>>>>> pod/device/blob.hpp
=======
=======
<<<<<<< HEAD
=======
>>>>>>> pod/device/blob.hpp
=======
=======
<<<<<<< HEAD
=======
>>>>>>> pod/device/blob.hpp
layers {
  name: "relu6"
  type: RELU
  bottom: "fc6"
  top: "fc6"
}
layers {
  name: "drop6"
  type: DROPOUT
>>>>>>> origin/BVLC/parallel
=======
>>>>>>> caffe
<<<<<<< HEAD
<<<<<<< HEAD
<<<<<<< HEAD
<<<<<<< HEAD
<<<<<<< HEAD
<<<<<<< HEAD
<<<<<<< HEAD
<<<<<<< HEAD
<<<<<<< HEAD
<<<<<<< HEAD
<<<<<<< HEAD
>>>>>>> pod-caffe-pod.hpp-merge
=======
>>>>>>> pod-caffe-pod.hpp-merge
=======
>>>>>>> pod/caffe-merge
=======
>>>>>>> pod/caffe-merge
=======
>>>>>>> pod-caffe-pod.hpp-merge
>>>>>>> pod/device/blob.hpp
=======
>>>>>>> BVLC/device-abstraction
=======
>>>>>>> pod-caffe-pod.hpp-merge
=======
>>>>>>> pod/caffe-merge
=======
>>>>>>> pod-caffe-pod.hpp-merge
>>>>>>> pod/device/blob.hpp
=======
=======
>>>>>>> pod/device/blob.hpp
=======
>>>>>>> pod/device/blob.hpp
>>>>>>> pod-caffe-pod.hpp-merge
=======
>>>>>>> BVLC/device-abstraction
=======
>>>>>>> pod-caffe-pod.hpp-merge
>>>>>>> pod/device/blob.hpp
=======
>>>>>>> BVLC/device-abstraction
=======
>>>>>>> BVLC/device-abstraction
=======
>>>>>>> BVLC/device-abstraction
  bottom: "fc6"
  top: "fc6"
  dropout_param {
    dropout_ratio: 0.5
  }
}
<<<<<<< HEAD
<<<<<<< HEAD
<<<<<<< HEAD
<<<<<<< HEAD
<<<<<<< HEAD
<<<<<<< HEAD
<<<<<<< HEAD
<<<<<<< HEAD
<<<<<<< HEAD
<<<<<<< HEAD
<<<<<<< HEAD
<<<<<<< HEAD
<<<<<<< HEAD
<<<<<<< HEAD
<<<<<<< HEAD
=======
<<<<<<< HEAD
<<<<<<< HEAD
<<<<<<< HEAD
<<<<<<< HEAD
=======
>>>>>>> caffe
>>>>>>> pod-caffe-pod.hpp-merge
=======
<<<<<<< HEAD
=======
>>>>>>> caffe
>>>>>>> pod-caffe-pod.hpp-merge
=======
>>>>>>> caffe
>>>>>>> pod/caffe-merge
=======
>>>>>>> caffe
>>>>>>> pod/caffe-merge
=======
=======
>>>>>>> pod/device/blob.hpp
=======
<<<<<<< HEAD
<<<<<<< HEAD
=======
>>>>>>> caffe
>>>>>>> pod-caffe-pod.hpp-merge
<<<<<<< HEAD
>>>>>>> pod/device/blob.hpp
=======
>>>>>>> BVLC/device-abstraction
=======
=======
>>>>>>> caffe
>>>>>>> pod-caffe-pod.hpp-merge
=======
=======
>>>>>>> caffe
>>>>>>> pod/caffe-merge
=======
=======
>>>>>>> pod/device/blob.hpp
=======
>>>>>>> pod/device/blob.hpp
=======
<<<<<<< HEAD
<<<<<<< HEAD
=======
>>>>>>> caffe
>>>>>>> pod-caffe-pod.hpp-merge
<<<<<<< HEAD
<<<<<<< HEAD
>>>>>>> pod/device/blob.hpp
=======
>>>>>>> pod/device/blob.hpp
=======
>>>>>>> BVLC/device-abstraction
=======
>>>>>>> BVLC/device-abstraction
=======
>>>>>>> BVLC/device-abstraction
layer {
  name: "fc7"
  type: "InnerProduct"
  bottom: "fc6"
  top: "fc7"
  # Note that lr_mult can be set to 0 to disable any fine-tuning of this, and any other, layer
  param {
    lr_mult: 1
    decay_mult: 1
  }
  param {
    lr_mult: 2
    decay_mult: 0
  }
<<<<<<< HEAD
<<<<<<< HEAD
<<<<<<< HEAD
<<<<<<< HEAD
<<<<<<< HEAD
<<<<<<< HEAD
<<<<<<< HEAD
<<<<<<< HEAD
<<<<<<< HEAD
=======
<<<<<<< HEAD
<<<<<<< HEAD
<<<<<<< HEAD
<<<<<<< HEAD
<<<<<<< HEAD
=======
=======
>>>>>>> pod-caffe-pod.hpp-merge
=======
>>>>>>> pod/caffe-merge
=======
>>>>>>> pod/caffe-merge
=======
=======
>>>>>>> pod/device/blob.hpp
=======
=======
>>>>>>> pod-caffe-pod.hpp-merge
=======
=======
>>>>>>> pod/caffe-merge
=======
=======
<<<<<<< HEAD
=======
>>>>>>> pod/device/blob.hpp
=======
<<<<<<< HEAD
=======
>>>>>>> caffe
=======
>>>>>>> pod/device/blob.hpp
=======
>>>>>>> pod/device/blob.hpp
=======
>>>>>>> BVLC/device-abstraction
layer {
  name: "fc7"
  type: "InnerProduct"
  bottom: "fc6"
  top: "fc7"
  # Note that lr_mult can be set to 0 to disable any fine-tuning of this, and any other, layer
=======
=======
>>>>>>> caffe
layer {
  name: "fc6"
  type: "InnerProduct"
  bottom: "pool5"
  top: "fc6"
>>>>>>> pod-caffe-pod.hpp-merge
  param {
    lr_mult: 1
    decay_mult: 1
  }
  param {
    lr_mult: 2
    decay_mult: 0
  }
<<<<<<< HEAD
<<<<<<< HEAD
<<<<<<< HEAD
=======
<<<<<<< HEAD
<<<<<<< HEAD
>>>>>>> pod-caffe-pod.hpp-merge
=======
=======
<<<<<<< HEAD
=======
>>>>>>> pod/device/blob.hpp
=======
<<<<<<< HEAD
=======
>>>>>>> pod/device/blob.hpp
=======
=======
>>>>>>> pod/device/blob.hpp
layers {
  name: "fc7"
  type: INNER_PRODUCT
  bottom: "fc6"
  top: "fc7"
  # Note that blobs_lr can be set to 0 to disable any fine-tuning of this, and any other, layer
=======
=======
layers {
  name: "fc6"
  type: INNER_PRODUCT
  bottom: "pool5"
  top: "fc6"
>>>>>>> pod-caffe-pod.hpp-merge
  blobs_lr: 1
  blobs_lr: 2
  weight_decay: 1
  weight_decay: 0
>>>>>>> origin/BVLC/parallel
=======
>>>>>>> caffe
<<<<<<< HEAD
<<<<<<< HEAD
<<<<<<< HEAD
<<<<<<< HEAD
<<<<<<< HEAD
<<<<<<< HEAD
<<<<<<< HEAD
<<<<<<< HEAD
<<<<<<< HEAD
<<<<<<< HEAD
<<<<<<< HEAD
<<<<<<< HEAD
>>>>>>> pod-caffe-pod.hpp-merge
=======
>>>>>>> pod-caffe-pod.hpp-merge
=======
>>>>>>> pod/caffe-merge
=======
>>>>>>> pod/caffe-merge
=======
>>>>>>> pod-caffe-pod.hpp-merge
>>>>>>> pod/device/blob.hpp
=======
>>>>>>> BVLC/device-abstraction
=======
>>>>>>> pod-caffe-pod.hpp-merge
=======
>>>>>>> pod/caffe-merge
=======
>>>>>>> pod-caffe-pod.hpp-merge
>>>>>>> pod/device/blob.hpp
=======
=======
>>>>>>> pod/device/blob.hpp
=======
>>>>>>> pod/device/blob.hpp
>>>>>>> pod-caffe-pod.hpp-merge
=======
>>>>>>> BVLC/device-abstraction
=======
>>>>>>> pod-caffe-pod.hpp-merge
>>>>>>> pod/device/blob.hpp
=======
>>>>>>> BVLC/device-abstraction
=======
>>>>>>> BVLC/device-abstraction
=======
>>>>>>> BVLC/device-abstraction
=======
>>>>>>> pod-caffe-pod.hpp-merge
  inner_product_param {
    num_output: 4096
    weight_filler {
      type: "gaussian"
      std: 0.005
    }
    bias_filler {
      type: "constant"
      value: 1
    }
  }
}
<<<<<<< HEAD
<<<<<<< HEAD
<<<<<<< HEAD
<<<<<<< HEAD
<<<<<<< HEAD
<<<<<<< HEAD
<<<<<<< HEAD
<<<<<<< HEAD
<<<<<<< HEAD
<<<<<<< HEAD
<<<<<<< HEAD
<<<<<<< HEAD
<<<<<<< HEAD
<<<<<<< HEAD
<<<<<<< HEAD
<<<<<<< HEAD
=======
<<<<<<< HEAD
<<<<<<< HEAD
<<<<<<< HEAD
<<<<<<< HEAD
=======
>>>>>>> caffe
>>>>>>> pod-caffe-pod.hpp-merge
=======
<<<<<<< HEAD
=======
>>>>>>> caffe
>>>>>>> pod-caffe-pod.hpp-merge
=======
>>>>>>> caffe
>>>>>>> pod/caffe-merge
=======
>>>>>>> caffe
>>>>>>> pod/caffe-merge
=======
=======
>>>>>>> pod/device/blob.hpp
=======
<<<<<<< HEAD
<<<<<<< HEAD
=======
>>>>>>> caffe
>>>>>>> pod-caffe-pod.hpp-merge
<<<<<<< HEAD
>>>>>>> pod/device/blob.hpp
=======
>>>>>>> BVLC/device-abstraction
=======
=======
>>>>>>> caffe
>>>>>>> pod-caffe-pod.hpp-merge
=======
=======
>>>>>>> caffe
>>>>>>> pod/caffe-merge
=======
=======
>>>>>>> pod/device/blob.hpp
=======
>>>>>>> pod/device/blob.hpp
=======
<<<<<<< HEAD
<<<<<<< HEAD
=======
>>>>>>> caffe
>>>>>>> pod-caffe-pod.hpp-merge
<<<<<<< HEAD
<<<<<<< HEAD
>>>>>>> pod/device/blob.hpp
=======
=======
>>>>>>> caffe
>>>>>>> pod-caffe-pod.hpp-merge
=======
>>>>>>> pod/device/blob.hpp
=======
>>>>>>> pod/device/blob.hpp
=======
>>>>>>> BVLC/device-abstraction
=======
>>>>>>> pod/device/blob.hpp
=======
>>>>>>> BVLC/device-abstraction
=======
>>>>>>> BVLC/device-abstraction
=======
>>>>>>> BVLC/device-abstraction
layer {
  name: "relu7"
  type: "ReLU"
  bottom: "fc7"
  top: "fc7"
}
layer {
  name: "drop7"
  type: "Dropout"
<<<<<<< HEAD
<<<<<<< HEAD
<<<<<<< HEAD
<<<<<<< HEAD
<<<<<<< HEAD
<<<<<<< HEAD
<<<<<<< HEAD
<<<<<<< HEAD
<<<<<<< HEAD
<<<<<<< HEAD
<<<<<<< HEAD
<<<<<<< HEAD
<<<<<<< HEAD
=======
<<<<<<< HEAD
<<<<<<< HEAD
<<<<<<< HEAD
<<<<<<< HEAD
<<<<<<< HEAD
=======
=======
>>>>>>> pod-caffe-pod.hpp-merge
=======
>>>>>>> pod/caffe-merge
=======
>>>>>>> pod/caffe-merge
=======
=======
>>>>>>> pod/device/blob.hpp
=======
=======
>>>>>>> pod-caffe-pod.hpp-merge
=======
=======
>>>>>>> pod/caffe-merge
=======
=======
<<<<<<< HEAD
=======
>>>>>>> pod/device/blob.hpp
=======
=======
>>>>>>> pod-caffe-pod.hpp-merge
=======
=======
<<<<<<< HEAD
=======
>>>>>>> pod/device/blob.hpp
=======
=======
<<<<<<< HEAD
=======
>>>>>>> pod/device/blob.hpp
=======
=======
<<<<<<< HEAD
=======
>>>>>>> pod/device/blob.hpp
layers {
  name: "relu7"
  type: RELU
  bottom: "fc7"
  top: "fc7"
}
layers {
  name: "drop7"
=======
=======
>>>>>>> caffe
layer {
  name: "relu6"
  type: "ReLU"
  bottom: "fc6"
  top: "fc6"
}
layer {
  name: "drop6"
  type: "Dropout"
<<<<<<< HEAD
=======
layers {
  name: "relu6"
  type: RELU
  bottom: "fc6"
  top: "fc6"
}
layers {
  name: "drop6"
>>>>>>> pod-caffe-pod.hpp-merge
  type: DROPOUT
>>>>>>> origin/BVLC/parallel
=======
>>>>>>> caffe
<<<<<<< HEAD
<<<<<<< HEAD
<<<<<<< HEAD
<<<<<<< HEAD
<<<<<<< HEAD
<<<<<<< HEAD
<<<<<<< HEAD
<<<<<<< HEAD
<<<<<<< HEAD
<<<<<<< HEAD
<<<<<<< HEAD
<<<<<<< HEAD
>>>>>>> pod-caffe-pod.hpp-merge
=======
>>>>>>> pod-caffe-pod.hpp-merge
=======
>>>>>>> pod/caffe-merge
=======
>>>>>>> pod/caffe-merge
=======
>>>>>>> pod-caffe-pod.hpp-merge
>>>>>>> pod/device/blob.hpp
=======
>>>>>>> BVLC/device-abstraction
=======
>>>>>>> pod-caffe-pod.hpp-merge
=======
>>>>>>> pod/caffe-merge
=======
>>>>>>> pod-caffe-pod.hpp-merge
>>>>>>> pod/device/blob.hpp
=======
=======
>>>>>>> pod/device/blob.hpp
=======
>>>>>>> pod/device/blob.hpp
>>>>>>> pod-caffe-pod.hpp-merge
=======
>>>>>>> BVLC/device-abstraction
=======
>>>>>>> pod-caffe-pod.hpp-merge
>>>>>>> pod/device/blob.hpp
=======
>>>>>>> BVLC/device-abstraction
=======
>>>>>>> BVLC/device-abstraction
=======
>>>>>>> BVLC/device-abstraction
  bottom: "fc7"
  top: "fc7"
=======
  bottom: "fc6"
  top: "fc6"
>>>>>>> pod-caffe-pod.hpp-merge
  dropout_param {
    dropout_ratio: 0.5
  }
}
<<<<<<< HEAD
<<<<<<< HEAD
<<<<<<< HEAD
<<<<<<< HEAD
<<<<<<< HEAD
<<<<<<< HEAD
<<<<<<< HEAD
<<<<<<< HEAD
<<<<<<< HEAD
<<<<<<< HEAD
<<<<<<< HEAD
<<<<<<< HEAD
<<<<<<< HEAD
<<<<<<< HEAD
<<<<<<< HEAD
<<<<<<< HEAD
=======
<<<<<<< HEAD
<<<<<<< HEAD
<<<<<<< HEAD
<<<<<<< HEAD
=======
>>>>>>> caffe
>>>>>>> pod-caffe-pod.hpp-merge
=======
<<<<<<< HEAD
=======
>>>>>>> caffe
>>>>>>> pod-caffe-pod.hpp-merge
=======
>>>>>>> caffe
>>>>>>> pod/caffe-merge
=======
>>>>>>> caffe
>>>>>>> pod/caffe-merge
=======
=======
>>>>>>> pod/device/blob.hpp
=======
=======
=======
>>>>>>> caffe
layer {
  name: "fc7"
  type: "InnerProduct"
  bottom: "fc6"
  top: "fc7"
  # Note that lr_mult can be set to 0 to disable any fine-tuning of this, and any other, layer
  param {
    lr_mult: 1
    decay_mult: 1
  }
  param {
    lr_mult: 2
    decay_mult: 0
  }
<<<<<<< HEAD
=======
layers {
  name: "fc7"
  type: INNER_PRODUCT
  bottom: "fc6"
  top: "fc7"
  # Note that blobs_lr can be set to 0 to disable any fine-tuning of this, and any other, layer
  blobs_lr: 1
  blobs_lr: 2
  weight_decay: 1
  weight_decay: 0
>>>>>>> origin/BVLC/parallel
=======
>>>>>>> caffe
  inner_product_param {
    num_output: 4096
    weight_filler {
      type: "gaussian"
      std: 0.005
    }
    bias_filler {
      type: "constant"
      value: 1
    }
  }
}
>>>>>>> pod-caffe-pod.hpp-merge
<<<<<<< HEAD
<<<<<<< HEAD
=======
>>>>>>> caffe
<<<<<<< HEAD
>>>>>>> pod-caffe-pod.hpp-merge
<<<<<<< HEAD
>>>>>>> pod/device/blob.hpp
=======
>>>>>>> BVLC/device-abstraction
=======
=======
>>>>>>> caffe
>>>>>>> pod-caffe-pod.hpp-merge
=======
=======
>>>>>>> caffe
>>>>>>> pod/caffe-merge
=======
=======
>>>>>>> pod/device/blob.hpp
=======
>>>>>>> pod/device/blob.hpp
=======
<<<<<<< HEAD
<<<<<<< HEAD
=======
>>>>>>> caffe
>>>>>>> pod-caffe-pod.hpp-merge
<<<<<<< HEAD
<<<<<<< HEAD
>>>>>>> pod/device/blob.hpp
=======
=======
>>>>>>> caffe
>>>>>>> pod-caffe-pod.hpp-merge
=======
>>>>>>> pod/device/blob.hpp
=======
>>>>>>> pod/device/blob.hpp
=======
>>>>>>> BVLC/device-abstraction
=======
>>>>>>> pod/device/blob.hpp
=======
>>>>>>> BVLC/device-abstraction
=======
>>>>>>> BVLC/device-abstraction
=======
>>>>>>> BVLC/device-abstraction
=======
layer {
  name: "relu7"
  type: "ReLU"
  bottom: "fc7"
  top: "fc7"
}
layer {
  name: "drop7"
  type: "Dropout"
<<<<<<< HEAD
=======
layers {
  name: "relu7"
  type: RELU
  bottom: "fc7"
  top: "fc7"
}
layers {
  name: "drop7"
  type: DROPOUT
>>>>>>> origin/BVLC/parallel
=======
>>>>>>> caffe
  bottom: "fc7"
  top: "fc7"
  dropout_param {
    dropout_ratio: 0.5
  }
}
<<<<<<< HEAD
<<<<<<< HEAD
=======
>>>>>>> caffe
>>>>>>> pod-caffe-pod.hpp-merge
layer {
  name: "fc8_flickr"
  type: "InnerProduct"
  bottom: "fc7"
  top: "fc8_flickr"
  # lr_mult is set to higher than for other layers, because this layer is starting from random while the others are already trained
  param {
    lr_mult: 10
    decay_mult: 1
  }
  param {
    lr_mult: 20
    decay_mult: 0
  }
<<<<<<< HEAD
<<<<<<< HEAD
<<<<<<< HEAD
<<<<<<< HEAD
<<<<<<< HEAD
<<<<<<< HEAD
<<<<<<< HEAD
<<<<<<< HEAD
<<<<<<< HEAD
<<<<<<< HEAD
<<<<<<< HEAD
<<<<<<< HEAD
<<<<<<< HEAD
<<<<<<< HEAD
=======
<<<<<<< HEAD
<<<<<<< HEAD
<<<<<<< HEAD
<<<<<<< HEAD
<<<<<<< HEAD
=======
=======
>>>>>>> pod-caffe-pod.hpp-merge
=======
>>>>>>> pod/caffe-merge
=======
>>>>>>> pod/caffe-merge
=======
=======
>>>>>>> pod/device/blob.hpp
=======
=======
>>>>>>> pod-caffe-pod.hpp-merge
=======
=======
>>>>>>> pod/caffe-merge
=======
=======
<<<<<<< HEAD
=======
>>>>>>> pod/device/blob.hpp
=======
=======
>>>>>>> pod-caffe-pod.hpp-merge
=======
=======
<<<<<<< HEAD
=======
>>>>>>> pod/device/blob.hpp
=======
=======
<<<<<<< HEAD
=======
>>>>>>> pod/device/blob.hpp
=======
=======
<<<<<<< HEAD
=======
>>>>>>> pod/device/blob.hpp
=======
=======
>>>>>>> pod-caffe-pod.hpp-merge
layers {
  name: "fc8_flickr"
  type: INNER_PRODUCT
  bottom: "fc7"
  top: "fc8_flickr"
  # blobs_lr is set to higher than for other layers, because this layer is starting from random while the others are already trained
  blobs_lr: 10
  blobs_lr: 20
  weight_decay: 1
  weight_decay: 0
>>>>>>> origin/BVLC/parallel
=======
>>>>>>> caffe
<<<<<<< HEAD
<<<<<<< HEAD
<<<<<<< HEAD
<<<<<<< HEAD
<<<<<<< HEAD
<<<<<<< HEAD
<<<<<<< HEAD
<<<<<<< HEAD
<<<<<<< HEAD
<<<<<<< HEAD
<<<<<<< HEAD
<<<<<<< HEAD
>>>>>>> pod-caffe-pod.hpp-merge
=======
>>>>>>> pod-caffe-pod.hpp-merge
=======
>>>>>>> pod/caffe-merge
=======
>>>>>>> pod/caffe-merge
=======
>>>>>>> pod-caffe-pod.hpp-merge
>>>>>>> pod/device/blob.hpp
=======
>>>>>>> BVLC/device-abstraction
=======
>>>>>>> pod-caffe-pod.hpp-merge
=======
>>>>>>> pod/caffe-merge
=======
>>>>>>> pod-caffe-pod.hpp-merge
>>>>>>> pod/device/blob.hpp
=======
=======
>>>>>>> pod/device/blob.hpp
=======
>>>>>>> pod/device/blob.hpp
>>>>>>> pod-caffe-pod.hpp-merge
=======
>>>>>>> BVLC/device-abstraction
=======
>>>>>>> pod-caffe-pod.hpp-merge
>>>>>>> pod/device/blob.hpp
=======
>>>>>>> BVLC/device-abstraction
=======
>>>>>>> BVLC/device-abstraction
=======
>>>>>>> BVLC/device-abstraction
=======
>>>>>>> pod-caffe-pod.hpp-merge
  inner_product_param {
    num_output: 20
    weight_filler {
      type: "gaussian"
      std: 0.01
    }
    bias_filler {
      type: "constant"
      value: 0
    }
  }
}
<<<<<<< HEAD
<<<<<<< HEAD
<<<<<<< HEAD
<<<<<<< HEAD
<<<<<<< HEAD
<<<<<<< HEAD
<<<<<<< HEAD
<<<<<<< HEAD
<<<<<<< HEAD
<<<<<<< HEAD
<<<<<<< HEAD
<<<<<<< HEAD
<<<<<<< HEAD
<<<<<<< HEAD
<<<<<<< HEAD
<<<<<<< HEAD
=======
<<<<<<< HEAD
<<<<<<< HEAD
<<<<<<< HEAD
<<<<<<< HEAD
=======
>>>>>>> caffe
>>>>>>> pod-caffe-pod.hpp-merge
=======
<<<<<<< HEAD
=======
>>>>>>> caffe
>>>>>>> pod-caffe-pod.hpp-merge
=======
>>>>>>> caffe
>>>>>>> pod/caffe-merge
=======
>>>>>>> caffe
>>>>>>> pod/caffe-merge
=======
=======
>>>>>>> pod/device/blob.hpp
=======
<<<<<<< HEAD
<<<<<<< HEAD
=======
>>>>>>> caffe
>>>>>>> pod-caffe-pod.hpp-merge
<<<<<<< HEAD
>>>>>>> pod/device/blob.hpp
=======
>>>>>>> BVLC/device-abstraction
=======
=======
>>>>>>> caffe
>>>>>>> pod-caffe-pod.hpp-merge
=======
=======
>>>>>>> caffe
>>>>>>> pod/caffe-merge
=======
=======
>>>>>>> pod/device/blob.hpp
=======
>>>>>>> pod/device/blob.hpp
=======
<<<<<<< HEAD
<<<<<<< HEAD
=======
>>>>>>> caffe
>>>>>>> pod-caffe-pod.hpp-merge
<<<<<<< HEAD
<<<<<<< HEAD
>>>>>>> pod/device/blob.hpp
=======
=======
>>>>>>> caffe
>>>>>>> pod-caffe-pod.hpp-merge
=======
>>>>>>> pod/device/blob.hpp
=======
>>>>>>> pod/device/blob.hpp
=======
>>>>>>> BVLC/device-abstraction
=======
>>>>>>> pod/device/blob.hpp
=======
>>>>>>> BVLC/device-abstraction
=======
>>>>>>> BVLC/device-abstraction
=======
>>>>>>> BVLC/device-abstraction
=======
=======
>>>>>>> caffe
>>>>>>> pod-caffe-pod.hpp-merge
layer {
  name: "accuracy"
  type: "Accuracy"
  bottom: "fc8_flickr"
  bottom: "label"
  top: "accuracy"
  include {
    phase: TEST
  }
}
layer {
  name: "loss"
  type: "SoftmaxWithLoss"
  bottom: "fc8_flickr"
  bottom: "label"
  top: "loss"
<<<<<<< HEAD
<<<<<<< HEAD
<<<<<<< HEAD
<<<<<<< HEAD
<<<<<<< HEAD
<<<<<<< HEAD
<<<<<<< HEAD
<<<<<<< HEAD
<<<<<<< HEAD
<<<<<<< HEAD
<<<<<<< HEAD
<<<<<<< HEAD
<<<<<<< HEAD
<<<<<<< HEAD
=======
<<<<<<< HEAD
<<<<<<< HEAD
<<<<<<< HEAD
<<<<<<< HEAD
<<<<<<< HEAD
=======
=======
>>>>>>> pod-caffe-pod.hpp-merge
=======
>>>>>>> pod/caffe-merge
=======
>>>>>>> pod/caffe-merge
=======
=======
>>>>>>> pod/device/blob.hpp
=======
=======
>>>>>>> pod-caffe-pod.hpp-merge
=======
=======
>>>>>>> pod/caffe-merge
=======
=======
<<<<<<< HEAD
=======
>>>>>>> pod/device/blob.hpp
=======
=======
>>>>>>> pod-caffe-pod.hpp-merge
=======
=======
<<<<<<< HEAD
=======
>>>>>>> pod/device/blob.hpp
=======
=======
<<<<<<< HEAD
=======
>>>>>>> pod/device/blob.hpp
=======
=======
<<<<<<< HEAD
=======
>>>>>>> pod/device/blob.hpp
=======
=======
>>>>>>> pod-caffe-pod.hpp-merge
layers {
  name: "loss"
  type: SOFTMAX_LOSS
  bottom: "fc8_flickr"
  bottom: "label"
}
layers {
  name: "accuracy"
  type: ACCURACY
  bottom: "fc8_flickr"
  bottom: "label"
  top: "accuracy"
  include: { phase: TEST }
>>>>>>> origin/BVLC/parallel
=======
>>>>>>> caffe
<<<<<<< HEAD
<<<<<<< HEAD
<<<<<<< HEAD
<<<<<<< HEAD
<<<<<<< HEAD
<<<<<<< HEAD
<<<<<<< HEAD
<<<<<<< HEAD
<<<<<<< HEAD
<<<<<<< HEAD
<<<<<<< HEAD
<<<<<<< HEAD
>>>>>>> pod-caffe-pod.hpp-merge
=======
>>>>>>> pod-caffe-pod.hpp-merge
=======
>>>>>>> pod/caffe-merge
=======
>>>>>>> pod/caffe-merge
=======
>>>>>>> pod-caffe-pod.hpp-merge
>>>>>>> pod/device/blob.hpp
=======
>>>>>>> BVLC/device-abstraction
=======
>>>>>>> pod-caffe-pod.hpp-merge
=======
>>>>>>> pod/caffe-merge
=======
>>>>>>> pod-caffe-pod.hpp-merge
>>>>>>> pod/device/blob.hpp
=======
=======
>>>>>>> pod/device/blob.hpp
=======
>>>>>>> pod/device/blob.hpp
>>>>>>> pod-caffe-pod.hpp-merge
=======
>>>>>>> BVLC/device-abstraction
=======
>>>>>>> pod-caffe-pod.hpp-merge
>>>>>>> pod/device/blob.hpp
=======
>>>>>>> BVLC/device-abstraction
=======
>>>>>>> BVLC/device-abstraction
=======
>>>>>>> BVLC/device-abstraction
=======
>>>>>>> pod-caffe-pod.hpp-merge
}
