…
I0116 15:17:38.350584  5685 net.cpp:296] The NetState phase (0) differed from the phase (1) specified by a rule in layer accuracy
I0116 15:17:38.350638  5685 net.cpp:53] Initializing net from parameters: 
name: "lstm_ctc_net"
state {
  phase: TRAIN
  level: 0
  stage: ""
}
layer {
  name: "data"
  type: "HDF5Data"
  top: "data"
  top: "label"
  include {
    phase: TRAIN
  }
  hdf5_data_param {
    source: "./data/captcha/trainning.list"
    batch_size: 512
  }
}
layer {
  name: "indicator"
  type: "ContinuationIndicator"
  top: "indicator"
  continuation_indicator_param {
    time_step: 80
    batch_size: 512
  }
}
layer {
  name: "permuted_data"
  type: "Permute"
  bottom: "data"
  top: "permuted_data"
  permute_param {
    order: 3
    order: 0
    order: 1
    order: 2
  }
}
layer {
  name: "lstm1"
  type: "LSTM"
  bottom: "permuted_data"
  bottom: "indicator"
  top: "lstm1"
  recurrent_param {
    num_output: 100
    weight_filler {
      type: "xavier"
    }
    bias_filler {
      type: "constant"
      value: 0
    }
  }
}
layer {
  name: "lstm2"
  type: "LSTM"
  bottom: "lstm1"
  bottom: "indicator"
  top: "lstm2"
  recurrent_param {
    num_output: 100
    weight_filler {
      type: "xavier"
    }
    bias_filler {
      type: "constant"
      value: 0
    }
  }
}
layer {
  name: "fc1"
  type: "InnerProduct"
  bottom: "lstm2"
  top: "fc1"
  param {
    lr_mult: 1
    decay_mult: 1
  }
  param {
    lr_mult: 2
    decay_mult: 0
  }
  inner_product_param {
    num_output: 11
    weight_filler {
      type: "xavier"
    }
    bias_filler {
      type: "constant"
      value: 0
    }
    axis: 2
  }
}
layer {
  name: "ctc_loss"
  type: "CtcLoss"
  bottom: "fc1"
  bottom: "label"
  top: "ctc_loss"
  loss_weight: 1
  ctc_loss_param {
    alphabet_size: 11
    time_step: 80
    blank_label: 10
  }
}
I0116 15:17:38.350873  5685 layer_factory.hpp:77] Creating layer data
I0116 15:17:38.350886  5685 net.cpp:86] Creating Layer data
I0116 15:17:38.350893  5685 net.cpp:382] data -> data
I0116 15:17:38.350910  5685 net.cpp:382] data -> label
I0116 15:17:38.350919  5685 hdf5_data_layer.cpp:79] Loading list of HDF5 filenames from: ./data/captcha/trainning.list
I0116 15:17:38.350953  5685 hdf5_data_layer.cpp:93] Number of HDF5 files: 4
I0116 15:17:38.359658  5685 hdf5.cpp:32] Datatype class: H5T_FLOAT
I0116 15:17:39.610826  5685 net.cpp:124] Setting up data
I0116 15:17:39.610848  5685 net.cpp:131] Top shape: 512 3 30 80 (3686400)
I0116 15:17:39.610853  5685 net.cpp:131] Top shape: 512 5 (2560)
I0116 15:17:39.610854  5685 net.cpp:139] Memory required for data: 14755840
I0116 15:17:39.610860  5685 layer_factory.hpp:77] Creating layer indicator
I0116 15:17:39.610885  5685 net.cpp:86] Creating Layer indicator
I0116 15:17:39.610893  5685 net.cpp:382] indicator -> indicator
I0116 15:17:39.610932  5685 net.cpp:124] Setting up indicator
I0116 15:17:39.610944  5685 net.cpp:131] Top shape: 80 512 (40960)
I0116 15:17:39.610949  5685 net.cpp:139] Memory required for data: 14919680
I0116 15:17:39.610954  5685 layer_factory.hpp:77] Creating layer indicator_indicator_0_split
I0116 15:17:39.610965  5685 net.cpp:86] Creating Layer indicator_indicator_0_split
I0116 15:17:39.610997  5685 net.cpp:408] indicator_indicator_0_split <- indicator
I0116 15:17:39.611014  5685 net.cpp:382] indicator_indicator_0_split -> indicator_indicator_0_split_0
I0116 15:17:39.611026  5685 net.cpp:382] indicator_indicator_0_split -> indicator_indicator_0_split_1
I0116 15:17:39.611074  5685 net.cpp:124] Setting up indicator_indicator_0_split
I0116 15:17:39.611083  5685 net.cpp:131] Top shape: 80 512 (40960)
I0116 15:17:39.611088  5685 net.cpp:131] Top shape: 80 512 (40960)
I0116 15:17:39.611094  5685 net.cpp:139] Memory required for data: 15247360
I0116 15:17:39.611099  5685 layer_factory.hpp:77] Creating layer permuted_data
I0116 15:17:39.611119  5685 net.cpp:86] Creating Layer permuted_data
I0116 15:17:39.611124  5685 net.cpp:408] permuted_data <- data
I0116 15:17:39.611133  5685 net.cpp:382] permuted_data -> permuted_data
I0116 15:17:39.611248  5685 net.cpp:124] Setting up permuted_data
I0116 15:17:39.611258  5685 net.cpp:131] Top shape: 80 512 3 30 (3686400)
I0116 15:17:39.611260  5685 net.cpp:139] Memory required for data: 29992960
I0116 15:17:39.611268  5685 layer_factory.hpp:77] Creating layer lstm1
I0116 15:17:39.611280  5685 net.cpp:86] Creating Layer lstm1
I0116 15:17:39.611285  5685 net.cpp:408] lstm1 <- permuted_data
I0116 15:17:39.611294  5685 net.cpp:408] lstm1 <- indicator_indicator_0_split_0
I0116 15:17:39.611304  5685 net.cpp:382] lstm1 -> lstm1
I0116 15:17:39.611318  5685 recurrent_layer.cpp:20] Initializing recurrent layer: assuming input batch contains 80 timesteps of 512 independent streams.
I0116 15:17:39.614393  5685 net.cpp:53] Initializing net from parameters: 
layer {
  name: "lstm1_"
  type: "Input"
  top: "x"
  top: "cont"
  input_param {
    shape {
      dim: 80
      dim: 512
      dim: 3
      dim: 30
    }
    shape {
      dim: 80
      dim: 512
    }
  }
}
layer {
  name: "lstm1_"
  type: "Input"
  top: "c_0"
  top: "h_0"
  input_param {
    shape {
      dim: 1
      dim: 512
      dim: 100
    }
    shape {
      dim: 1
      dim: 512
      dim: 100
    }
  }
}
layer {
  name: "lstm1_cont_slice"
  type: "Slice"
  bottom: "cont"
  top: "cont_1"
  top: "cont_2"
  top: "cont_3"
  top: "cont_4"
  top: "cont_5"
  top: "cont_6"
  top: "cont_7"
  top: "cont_8"
  top: "cont_9"
  top: "cont_10"
  top: "cont_11"
  top: "cont_12"
  top: "cont_13"
  top: "cont_14"
  top: "cont_15"
  top: "cont_16"
  top: "cont_17"
  top: "cont_18"
  top: "cont_19"
  top: "cont_20"
  top: "cont_21"
  top: "cont_22"
  top: "cont_23"
  top: "cont_24"
  top: "cont_25"
  top: "cont_26"
  top: "cont_27"
  top: "cont_28"
  top: "cont_29"
  top: "cont_30"
  top: "cont_31"
  top: "cont_32"
  top: "cont_33"
  top: "cont_34"
  top: "cont_35"
  top: "cont_36"
  top: "cont_37"
  top: "cont_38"
  top: "cont_39"
  top: "cont_40"
  top: "cont_41"
  top: "cont_42"
  top: "cont_43"
  top: "cont_44"
  top: "cont_45"
  top: "cont_46"
  top: "cont_47"
  top: "cont_48"
  top: "cont_49"
  top: "cont_50"
  top: "cont_51"
  top: "cont_52"
  top: "cont_53"
  top: "cont_54"
  top: "cont_55"
  top: "cont_56"
  top: "cont_57"
  top: "cont_58"
  top: "cont_59"
  top: "cont_60"
  top: "cont_61"
  top: "cont_62"
  top: "cont_63"
  top: "cont_64"
  top: "cont_65"
  top: "cont_66"
  top: "cont_67"
  top: "cont_68"
  top: "cont_69"
  top: "cont_70"
  top: "cont_71"
  top: "cont_72"
  top: "cont_73"
  top: "cont_74"
  top: "cont_75"
  top: "cont_76"
  top: "cont_77"
  top: "cont_78"
  top: "cont_79"
  top: "cont_80"
  slice_param {
    axis: 0
  }
}
layer {
  name: "lstm1_x_transform"
  type: "InnerProduct"
  bottom: "x"
  top: "W_xc_x"
  param {
    name: "W_xc"
  }
  param {
    name: "b_c"
  }
  propagate_down: true
  inner_product_param {
    num_output: 400
    bias_term: true
    weight_filler {
      type: "xavier"
    }
    bias_filler {
      type: "constant"
      value: 0
    }
    axis: 2
  }
}
layer {
  name: "lstm1_W_xc_x_slice"
  type: "Slice"
  bottom: "W_xc_x"
  top: "W_xc_x_1"
  top: "W_xc_x_2"
  top: "W_xc_x_3"
  top: "W_xc_x_4"
  top: "W_xc_x_5"
  top: "W_xc_x_6"
  top: "W_xc_x_7"
  top: "W_xc_x_8"
  top: "W_xc_x_9"
  top: "W_xc_x_10"
  top: "W_xc_x_11"
  top: "W_xc_x_12"
  top: "W_xc_x_13"
  top: "W_xc_x_14"
  top: "W_xc_x_15"
  top: "W_xc_x_16"
  top: "W_xc_x_17"
  top: "W_xc_x_18"
  top: "W_xc_x_19"
  top: "W_xc_x_20"
  top: "W_xc_x_21"
  top: "W_xc_x_22"
…
  top: "W_xc_x_53"
  top: "W_xc_x_54"
  top: "W_xc_x_55"
  top: "W_xc_x_56"
  top: "W_xc_x_57"
  top: "W_xc_x_58"
  top: "W_xc_x_59"
  top: "W_xc_x_60"
  top: "W_xc_x_61"
  top: "W_xc_x_62"
  top: "W_xc_x_63"
  top: "W_xc_x_64"
  top: "W_xc_x_65"
  top: "W_xc_x_66"
  top: "W_xc_x_67"
  top: "W_xc_x_68"
  top: "W_xc_x_69"
  top: "W_xc_x_70"
  top: "W_xc_x_71"
  top: "W_xc_x_72"
  top: "W_xc_x_73"
  top: "W_xc_x_74"
  top: "W_xc_x_75"
  top: "W_xc_x_76"
  top: "W_xc_x_77"
  top: "W_xc_x_78"
  top: "W_xc_x_79"
  top: "W_xc_x_80"
  slice_param {
    axis: 0
  }
}
layer {
  name: "lstm1_h_conted_0"
  type: "Scale"
  bottom: "h_0"
  bottom: "cont_1"
  top: "h_conted_0"
  scale_param {
    axis: 0
  }
}
layer {
  name: "lstm1_transform_1"
  type: "InnerProduct"
  bottom: "h_conted_0"
  top: "W_hc_h_0"
  param {
    name: "W_hc"
  }
  inner_product_param {
    num_output: 400
    bias_term: false
    weight_filler {
      type: "xavier"
    }
    axis: 2
  }
}
layer {
  name: "lstm1_gate_input_1"
  type: "Eltwise"
  bottom: "W_hc_h_0"
  bottom: "W_xc_x_1"
  top: "gate_input_1"
  eltwise_param {
    operation: SUM
  }
}
layer {
  name: "lstm1_unit_1"
  type: "LSTMUnit"
  bottom: "c_0"
  bottom: "gate_input_1"
  bottom: "cont_1"
  top: "c_1"
  top: "h_1"
}
layer {
  name: "lstm1_h_conted_1"
  type: "Scale"
  bottom: "h_1"
  bottom: "cont_2"
  top: "h_conted_1"
  scale_param {
    axis: 0
  }
}
layer {
  name: "lstm1_transform_2"
  type: "InnerProduct"
  bottom: "h_conted_1"
  top: "W_hc_h_1"
  param {
    name: "W_hc"
  }
  inner_product_param {
    num_output: 400
    bias_term: false
    weight_filler {
      type: "xavier"
    }
    axis: 2
  }
}
layer {
  name: "lstm1_gate_input_2"
  type: "Eltwise"
  bottom: "W_hc_h_1"
  bottom: "W_xc_x_2"
  top: "gate_input_2"
  eltwise_param {
    operation: SUM
  }
}
layer {
  name: "lstm1_unit_2"
  type: "LSTMUnit"
  bottom: "c_1"
  bottom: "gate_input_2"
  bottom: "cont_2"
  top: "c_2"
  top: "h_2"
}
layer {
  name: "lstm1_h_conted_2"
  type: "Scale"
  bottom: "h_2"
  bottom: "cont_3"
  top: "h_conted_2"
  scale_param {
    axis: 0
  }
}
layer {
  name: "lstm1_transform_3"
  type: "InnerProduct"
  bottom: "h_conted_2"
  top: "W_hc_h_2"
  param {
    name: "W_hc"
  }
  inner_product_param {
    num_output: 400
    bias_term: false
    weight_filler {
      type: "xavier"
    }
    axis: 2
  }
}
layer {
  name: "lstm1_gate_input_3"
  type: "Eltwise"
  bottom: "W_hc_h_2"
  bottom: "W_xc_x_3"
  top: "gate_input_3"
  eltwise_param {
    operation: SUM
  }
}
layer {
  name: "lstm1_unit_3"
  type: "LSTMUnit"
  bottom: "c_2"
  bottom: "gate_input_3"
  bottom: "cont_3"
  top: "c_3"
  top: "h_3"
}
layer {
  name: "lstm1_h_conted_3"
  type: "Scale"
  bottom: "h_3"
  bottom: "cont_4"
  top: "h_conted_3"
  scale_param {
    axis: 0
  }
}
layer {
  name: "lstm1_transform_4"
  type: "InnerProduct"
  bottom: "h_conted_3"
  top: "W_hc_h_3"
  param {
    name: "W_hc"
  }
  inner_product_param {
    num_output: 400
    bias_term: false
    weight_filler {
      type: "xavier"
    }
    axis: 2
  }
}
layer {
  name: "lstm1_gate_input_4"
  type: "Eltwise"
  bottom: "W_hc_h_3"
  bottom: "W_xc_x_4"
  top: "gate_input_4"
  eltwise_param {
    operation: SUM
  }
}
layer {
  name: "lstm1_unit_4"
  type: "LSTMUnit"
  bottom: "c_3"
  bottom: "gate_input_4"
  bottom: "cont_4"
  top: "c_4"
  top: "h_4"
}
layer {
  name: "lstm1_h_conted_4"
  type: "Scale"
  bottom: "h_4"
  bottom: "cont_5"
  top: "h_conted_4"
  scale_param {
    axis: 0
  }
}
layer {
  name: "lstm1_transform_5"
  type: "InnerProduct"
  bottom: "h_conted_4"
  top: "W_hc_h_4"
  param {
    name: "W_hc"
  }
  inner_product_param {
    num_output: 400
    bias_term: false
    weight_filler {
      type: "xavier"
    }
    axis: 2
  }
}
layer {
  name: "lstm1_gate_input_5"
  type: "Eltwise"
  bottom: "W_hc_h_4"
  bottom: "W_xc_x_5"
  top: "gate_input_5"
  eltwise_param {
    operation: SUM
  }
}
layer {
  name: "lstm1_unit_5"
  type: "LSTMUnit"
  bottom: "c_4"
  bottom: "gate_input_5"
  bottom: "cont_5"
  top: "c_5"
  top: "h_5"
}
layer {
  name: "lstm1_h_conted_5"
  type: "Scale"
  bottom: "h_5"
  bottom: "cont_6"
  top: "h_conted_5"
  scale_param {
    axis: 0
  }
}
layer {
  name: "lstm1_transform_6"
  type: "InnerProduct"
  bottom: "h_conted_5"
  top: "W_hc_h_5"
  param {
    name: "W_hc"
  }
  inner_product_param {
    num_output: 400
    bias_term: false
    weight_filler {
      type: "xavier"
    }
    axis: 2
  }
}
layer {
  name: "lstm1_gate_input_6"
  type: "Eltwise"
  bottom: "W_hc_h_5"
  bottom: "W_xc_x_6"
  top: "gate_input_6"
  eltwise_param {
    operation: SUM
  }
}
layer {
  name: "lstm1_unit_6"
  type: "LSTMUnit"
  bottom: "c_5"
  bottom: "gate_input_6"
  bottom: "cont_6"
  top: "c_6"
  top: "h_6"
}
layer {
  name: "lstm1_h_conted_6"
  type: "Scale"
  bottom: "h_6"
  bottom: "cont_7"
  top: "h_conted_6"
  scale_param {
    axis: 0
  }
}
layer {
  name: "lstm1_transform_7"
  type: "InnerProduct"
  bottom: "h_conted_6"
  top: "W_hc_h_6"
  param {
    name: "W_hc"
  }
  inner_product_param {
    num_output: 400
    bias_term: false
    weight_filler {
      type: "xavier"
    }
    axis: 2
  }
}
layer {
  name: "lstm1_gate_input_7"
  type: "Eltwise"
  bottom: "W_hc_h_6"
  bottom: "W_xc_x_7"
  top: "gate_input_7"
  eltwise_param {
    operation: SUM
  }
}
layer {
  name: "lstm1_unit_7"
  type: "LSTMUnit"
  bottom: "c_6"
  bottom: "gate_input_7"
  bottom: "cont_7"
  top: "c_7"
  top: "h_7"
}
layer {
  name: "lstm1_h_conted_7"
  type: "Scale"
  bottom: "h_7"
  bottom: "cont_8"
  top: "h_conted_7"
  scale_param {
    axis: 0
  }
}
layer {
  name: "lstm1_transform_8"
  type: "InnerProduct"
  bottom: "h_conted_7"
  top: "W_hc_h_7"
  param {
    name: "W_hc"
  }
  inner_product_param {
    num_output: 400
    bias_term: false
    weight_filler {
      type: "xavier"
    }
    axis: 2
  }
}
layer {
  name: "lstm1_gate_input_8"
  type: "Eltwise"
  bottom: "W_hc_h_7"
  bottom: "W_xc_x_8"
  top: "gate_input_8"
  eltwise_param {
    operation: SUM
  }
}
layer {
  name: "lstm1_unit_8"
  type: "LSTMUnit"
  bottom: "c_7"
  bottom: "gate_input_8"
  bottom: "cont_8"
  top: "c_8"
  top: "h_8"
}
layer {
  name: "lstm1_h_conted_8"
  type: "Scale"
  bottom: "h_8"
  bottom: "cont_9"
  top: "h_conted_8"
  scale_param {
    axis: 0
  }
}
layer {
  name: "lstm1_transform_9"
  type: "InnerProduct"
  bottom: "h_conted_8"
  top: "W_hc_h_8"
  param {
    name: "W_hc"
  }
  inner_product_param {
    num_output: 400
    bias_term: false
    weight_filler {
      type: "xavier"
    }
    axis: 2
  }
}
layer {
  name: "lstm1_gate_input_9"
  type: "Eltwise"
  bottom: "W_hc_h_8"
  bottom: "W_xc_x_9"
  top: "gate_input_9"
  eltwise_param {
    operation: SUM
  }
}
layer {
  name: "lstm1_unit_9"
  type: "LSTMUnit"
  bottom: "c_8"
  bottom: "gate_input_9"
  bottom: "cont_9"
  top: "c_9"
  top: "h_9"
}
layer {
  name: "lstm1_h_conted_9"
  type: "Scale"
  bottom: "h_9"
  bottom: "cont_10"
  top: "h_conted_9"
  scale_param {
    axis: 0
  }
}
layer {
  name: "lstm1_transform_10"
  type: "InnerProduct"
  bottom: "h_conted_9"
  top: "W_hc_h_9"
  param {
    name: "W_hc"
  }
  inner_product_param {
    num_output: 400
    bias_term: false
    weight_filler {
      type: "xavier"
    }
    axis: 2
  }
}
layer {
  name: "lstm1_gate_input_10"
  type: "Eltwise"
  bottom: "W_hc_h_9"
  bottom: "W_xc_x_10"
  top: "gate_input_10"
  eltwise_param {
    operation: SUM
  }
}
layer {
  name: "lstm1_unit_10"
  type: "LSTMUnit"
  bottom: "c_9"
  bottom: "gate_input_10"
  bottom: "cont_10"
  top: "c_10"
  top: "h_10"
}
layer {
  name: "lstm1_h_conted_10"
  type: "Scale"
  bottom: "h_10"
  bottom: "cont_11"
  top: "h_conted_10"
  scale_param {
    axis: 0
  }
}
layer {
  name: "lstm1_transform_11"
  type: "InnerProduct"
  bottom: "h_conted_10"
  top: "W_hc_h_10"
  param {
    name: "W_hc"
  }
  inner_product_param {
    num_output: 400
    bias_term: false
    weight_filler {
      type: "xavier"
    }
    axis: 2
  }
}
layer {
  name: "lstm1_gate_input_11"
  type: "Eltwise"
  bottom: "W_hc_h_10"
  bottom: "W_xc_x_11"
  top: "gate_input_11"
  eltwise_param {
    operation: SUM
  }
}
layer {
  name: "lstm1_unit_11"
  type: "LSTMUnit"
  bottom: "c_10"
  bottom: "gate_input_11"
  bottom: "cont_11"
  top: "c_11"
  top: "h_11"
}
layer {
  name: "lstm1_h_conted_11"
  type: "Scale"
  bottom: "h_11"
  bottom: "cont_12"
  top: "h_conted_11"
  scale_param {
    axis: 0
  }
}
layer {
  name: "lstm1_transform_12"
  type: "InnerProduct"
  bottom: "h_conted_11"
  top: "W_hc_h_11"
  param {
    name: "W_hc"
  }
  inner_product_param {
    num_output: 400
    bias_term: false
    weight_filler {
      type: "xavier"
    }
    axis: 2
  }
}
layer {
  name: "lstm1_gate_input_12"
  type: "Eltwise"
  bottom: "W_hc_h_11"
  bottom: "W_xc_x_12"
  top: "gate_input_12"
  eltwise_param {
    operation: SUM
  }
}
layer {
  name: "lstm1_unit_12"
  type: "LSTMUnit"
  bottom: "c_11"
  bottom: "gate_input_12"
  bottom: "cont_12"
  top: "c_12"
  top: "h_12"
}
layer {
  name: "lstm1_h_conted_12"
  type: "Scale"
  bottom: "h_12"
  bottom: "cont_13"
  top: "h_conted_12"
  scale_param {
    axis: 0
  }
}
layer {
  name: "lstm1_transform_13"
  type: "InnerProduct"
  bottom: "h_conted_12"
  top: "W_hc_h_12"
  param {
    name: "W_hc"
  }
  inner_product_param {
    num_output: 400
    bias_term: false
    weight_filler {
      type: "xavier"
    }
    axis: 2
  }
}
layer {
  name: "lstm1_gate_input_13"
  type: "Eltwise"
  bottom: "W_hc_h_12"
  bottom: "W_xc_x_13"
  top: "gate_input_13"
  eltwise_param {
    operation: SUM
  }
}
layer {
  name: "lstm1_unit_13"
  type: "LSTMUnit"
  bottom: "c_12"
  bottom: "gate_input_13"
  bottom: "cont_13"
  top: "c_13"
  top: "h_13"
}
layer {
  name: "lstm1_h_conted_13"
  type: "Scale"
  bottom: "h_13"
  bottom: "cont_14"
  top: "h_conted_13"
  scale_param {
    axis: 0
  }
}
layer {
  name: "lstm1_transform_14"
  type: "InnerProduct"
  bottom: "h_conted_13"
  top: "W_hc_h_13"
  param {
    name: "W_hc"
  }
  inner_product_param {
    num_output: 400
    bias_term: false
    weight_filler {
      type: "xavier"
    }
    axis: 2
  }
}
layer {
  name: "lstm1_gate_input_14"
  type: "Eltwise"
  bottom: "W_hc_h_13"
  bottom: "W_xc_x_14"
  top: "gate_input_14"
  eltwise_param {
    operation: SUM
  }
}
layer {
  name: "lstm1_unit_14"
  type: "LSTMUnit"
  bottom: "c_13"
  bottom: "gate_input_14"
  bottom: "cont_14"
  top: "c_14"
  top: "h_14"
}
layer {
  name: "lstm1_h_conted_14"
  type: "Scale"
  bottom: "h_14"
  bottom: "cont_15"
  top: "h_conted_14"
  scale_param {
    axis: 0
  }
}
layer {
  name: "lstm1_transform_15"
  type: "InnerProduct"
  bottom: "h_conted_14"
  top: "W_hc_h_14"
  param {
    name: "W_hc"
  }
  inner_product_param {
    num_output: 400
    bias_term: false
    weight_filler {
      type: "xavier"
    }
    axis: 2
  }
}
layer {
  name: "lstm1_gate_input_15"
  type: "Eltwise"
  bottom: "W_hc_h_14"
  bottom: "W_xc_x_15"
  top: "gate_input_15"
  eltwise_param {
    operation: SUM
  }
}
layer {
  name: "lstm1_unit_15"
  type: "LSTMUnit"
  bottom: "c_14"
  bottom: "gate_input_15"
  bottom: "cont_15"
  top: "c_15"
  top: "h_15"
}
layer {
  name: "lstm1_h_conted_15"
  type: "Scale"
  bottom: "h_15"
  bottom: "cont_16"
  top: "h_conted_15"
  scale_param {
    axis: 0
  }
}
layer {
  name: "lstm1_transform_16"
  type: "InnerProduct"
  bottom: "h_conted_15"
  top: "W_hc_h_15"
  param {
    name: "W_hc"
  }
  inner_product_param {
    num_output: 400
    bias_term: false
    weight_filler {
      type: "xavier"
    }
    axis: 2
  }
}
layer {
  name: "lstm1_gate_input_16"
  type: "Eltwise"
  bottom: "W_hc_h_15"
  bottom: "W_xc_x_16"
  top: "gate_input_16"
  eltwise_param {
    operation: SUM
  }
}
layer {
  name: "lstm1_unit_16"
  type: "LSTMUnit"
  bottom: "c_15"
  bottom: "gate_input_16"
  bottom: "cont_16"
  top: "c_16"
  top: "h_16"
}
layer {
  name: "lstm1_h_conted_16"
  type: "Scale"
  bottom: "h_16"
  bottom: "cont_17"
  top: "h_conted_16"
  scale_param {
    axis: 0
  }
}
layer {
  name: "lstm1_transform_17"
  type: "InnerProduct"
  bottom: "h_conted_16"
  top: "W_hc_h_16"
  param {
    name: "W_hc"
  }
  inner_product_param {
    num_output: 400
    bias_term: false
    weight_filler {
      type: "xavier"
    }
    axis: 2
  }
}
layer {
  name: "lstm1_gate_input_17"
  type: "Eltwise"
  bottom: "W_hc_h_16"
  bottom: "W_xc_x_17"
  top: "gate_input_17"
  eltwise_param {
    operation: SUM
  }
}
layer {
  name: "lstm1_unit_17"
  type: "LSTMUnit"
  bottom: "c_16"
  bottom: "gate_input_17"
  bottom: "cont_17"
  top: "c_17"
  top: "h_17"
}
layer {
  name: "lstm1_h_conted_17"
  type: "Scale"
  bottom: "h_17"
  bottom: "cont_18"
  top: "h_conted_17"
  scale_param {
    axis: 0
  }
}
layer {
  name: "lstm1_transform_18"
  type: "InnerProduct"
  bottom: "h_conted_17"
  top: "W_hc_h_17"
  param {
    name: "W_hc"
  }
  inner_product_param {
    num_output: 400
    bias_term: false
    weight_filler {
      type: "xavier"
    }
    axis: 2
  }
}
layer {
  name: "lstm1_gate_input_18"
  type: "Eltwise"
  bottom: "W_hc_h_17"
  bottom: "W_xc_x_18"
  top: "gate_input_18"
  eltwise_param {
    operation: SUM
  }
}
layer {
  name: "lstm1_unit_18"
  type: "LSTMUnit"
  bottom: "c_17"
  bottom: "gate_input_18"
  bottom: "cont_18"
  top: "c_18"
  top: "h_18"
}
layer {
  name: "lstm1_h_conted_18"
  type: "Scale"
  bottom: "h_18"
  bottom: "cont_19"
  top: "h_conted_18"
  scale_param {
    axis: 0
  }
}
layer {
  name: "lstm1_transform_19"
  type: "InnerProduct"
  bottom: "h_conted_18"
  top: "W_hc_h_18"
  param {
    name: "W_hc"
  }
  inner_product_param {
    num_output: 400
    bias_term: false
    weight_filler {
      type: "xavier"
    }
    axis: 2
  }
}
layer {
  name: "lstm1_gate_input_19"
  type: "Eltwise"
  bottom: "W_hc_h_18"
  bottom: "W_xc_x_19"
  top: "gate_input_19"
  eltwise_param {
    operation: SUM
  }
}
layer {
  name: "lstm1_unit_19"
  type: "LSTMUnit"
  bottom: "c_18"
  bottom: "gate_input_19"
  bottom: "cont_19"
  top: "c_19"
  top: "h_19"
}
layer {
  name: "lstm1_h_conted_19"
  type: "Scale"
  bottom: "h_19"
  bottom: "cont_20"
  top: "h_conted_19"
  scale_param {
    axis: 0
  }
}
layer {
  name: "lstm1_transform_20"
  type: "InnerProduct"
  bottom: "h_conted_19"
  top: "W_hc_h_19"
  param {
    name: "W_hc"
  }
  inner_product_param {
    num_output: 400
    bias_term: false
    weight_filler {
      type: "xavier"
    }
    axis: 2
  }
}
layer {
  name: "lstm1_gate_input_20"
  type: "Eltwise"
  bottom: "W_hc_h_19"
  bottom: "W_xc_x_20"
  top: "gate_input_20"
  eltwise_param {
    operation: SUM
  }
}
layer {
  name: "lstm1_unit_20"
  type: "LSTMUnit"
  bottom: "c_19"
  bottom: "gate_input_20"
  bottom: "cont_20"
  top: "c_20"
  top: "h_20"
}
layer {
  name: "lstm1_h_conted_20"
  type: "Scale"
  bottom: "h_20"
  bottom: "cont_21"
  top: "h_conted_20"
  scale_param {
    axis: 0
  }
}
layer {
  name: "lstm1_transform_21"
  type: "InnerProduct"
  bottom: "h_conted_20"
  top: "W_hc_h_20"
  param {
    name: "W_hc"
  }
  inner_product_param {
    num_output: 400
    bias_term: false
    weight_filler {
      type: "xavier"
    }
    axis: 2
  }
}
layer {
  name: "lstm1_gate_input_21"
  type: "Eltwise"
  bottom: "W_hc_h_20"
  bottom: "W_xc_x_21"
  top: "gate_input_21"
  eltwise_param {
    operation: SUM
  }
}
layer {
  name: "lstm1_unit_21"
  type: "LSTMUnit"
  bottom: "c_20"
  bottom: "gate_input_21"
  bottom: "cont_21"
  top: "c_21"
  top: "h_21"
}
layer {
  name: "lstm1_h_conted_21"
  type: "Scale"
  bottom: "h_21"
  bottom: "cont_22"
  top: "h_conted_21"
  scale_param {
    axis: 0
  }
}
layer {
  name: "lstm1_transform_22"
  type: "InnerProduct"
  bottom: "h_conted_21"
  top: "W_hc_h_21"
  param {
    name: "W_hc"
  }
  inner_product_param {
    num_output: 400
    bias_term: false
    weight_filler {
      type: "xavier"
    }
    axis: 2
  }
}
layer {
  name: "lstm1_gate_input_22"
  type: "Eltwise"
  bottom: "W_hc_h_21"
  bottom: "W_xc_x_22"
  top: "gate_input_22"
  eltwise_param {
    operation: SUM
  }
}
layer {
  name: "lstm1_unit_22"
  type: "LSTMUnit"
  bottom: "c_21"
  bottom: "gate_input_22"
  bottom: "cont_22"
  top: "c_22"
  top: "h_22"
}
layer {
  name: "lstm1_h_conted_22"
  type: "Scale"
  bottom: "h_22"
  bottom: "cont_23"
  top: "h_conted_22"
  scale_param {
    axis: 0
  }
}
layer {
  name: "lstm1_transform_23"
  type: "InnerProduct"
  bottom: "h_conted_22"
  top: "W_hc_h_22"
  param {
    name: "W_hc"
  }
  inner_product_param {
    num_output: 400
    bias_term: false
    weight_filler {
      type: "xavier"
    }
    axis: 2
  }
}
layer {
  name: "lstm1_gate_input_23"
  type: "Eltwise"
  bottom: "W_hc_h_22"
  bottom: "W_xc_x_23"
  top: "gate_input_23"
  eltwise_param {
    operation: SUM
  }
}
layer {
  name: "lstm1_unit_23"
  type: "LSTMUnit"
  bottom: "c_22"
  bottom: "gate_input_23"
  bottom: "cont_23"
  top: "c_23"
  top: "h_23"
}
layer {
  name: "lstm1_h_conted_23"
  type: "Scale"
  bottom: "h_23"
  bottom: "cont_24"
  top: "h_conted_23"
  scale_param {
    axis: 0
  }
}
layer {
  name: "lstm1_transform_24"
  type: "InnerProduct"
  bottom: "h_conted_23"
  top: "W_hc_h_23"
  param {
    name: "W_hc"
  }
  inner_product_param {
    num_output: 400
    bias_term: false
    weight_filler {
      type: "xavier"
    }
    axis: 2
  }
}
layer {
  name: "lstm1_gate_input_24"
  type: "Eltwise"
  bottom: "W_hc_h_23"
  bottom: "W_xc_x_24"
  top: "gate_input_24"
  eltwise_param {
    operation: SUM
  }
}
layer {
  name: "lstm1_unit_24"
  type: "LSTMUnit"
  bottom: "c_23"
  bottom: "gate_input_24"
  bottom: "cont_24"
  top: "c_24"
  top: "h_24"
}
layer {
  name: "lstm1_h_conted_24"
  type: "Scale"
  bottom: "h_24"
  bottom: "cont_25"
  top: "h_conted_24"
  scale_param {
    axis: 0
  }
}
layer {
  name: "lstm1_transform_25"
  type: "InnerProduct"
  bottom: "h_conted_24"
  top: "W_hc_h_24"
  param {
    name: "W_hc"
  }
  inner_product_param {
    num_output: 400
    bias_term: false
    weight_filler {
      type: "xavier"
    }
    axis: 2
  }
}
layer {
  name: "lstm1_gate_input_25"
  type: "Eltwise"
  bottom: "W_hc_h_24"
  bottom: "W_xc_x_25"
  top: "gate_input_25"
  eltwise_param {
    operation: SUM
  }
}
layer {
  name: "lstm1_unit_25"
  type: "LSTMUnit"
  bottom: "c_24"
  bottom: "gate_input_25"
  bottom: "cont_25"
  top: "c_25"
  top: "h_25"
}
layer {
  name: "lstm1_h_conted_25"
  type: "Scale"
  bottom: "h_25"
  bottom: "cont_26"
  top: "h_conted_25"
  scale_param {
    axis: 0
  }
}
layer {
  name: "lstm1_transform_26"
  type: "InnerProduct"
  bottom: "h_conted_25"
  top: "W_hc_h_25"
  param {
    name: "W_hc"
  }
  inner_product_param {
    num_output: 400
    bias_term: false
    weight_filler {
      type: "xavier"
    }
    axis: 2
  }
}
layer {
  name: "lstm1_gate_input_26"
  type: "Eltwise"
  bottom: "W_hc_h_25"
  bottom: "W_xc_x_26"
  top: "gate_input_26"
  eltwise_param {
    operation: SUM
  }
}
layer {
  name: "lstm1_unit_26"
  type: "LSTMUnit"
  bottom: "c_25"
  bottom: "gate_input_26"
  bottom: "cont_26"
  top: "c_26"
  top: "h_26"
}
layer {
  name: "lstm1_h_conted_26"
  type: "Scale"
  bottom: "h_26"
  bottom: "cont_27"
  top: "h_conted_26"
  scale_param {
    axis: 0
  }
}
layer {
  name: "lstm1_transform_27"
  type: "InnerProduct"
  bottom: "h_conted_26"
  top: "W_hc_h_26"
  param {
    name: "W_hc"
  }
  inner_product_param {
    num_output: 400
    bias_term: false
    weight_filler {
      type: "xavier"
    }
    axis: 2
  }
}
layer {
  name: "lstm1_gate_input_27"
  type: "Eltwise"
  bottom: "W_hc_h_26"
  bottom: "W_xc_x_27"
  top: "gate_input_27"
  eltwise_param {
    operation: SUM
  }
}
layer {
  name: "lstm1_unit_27"
  type: "LSTMUnit"
  bottom: "c_26"
  bottom: "gate_input_27"
  bottom: "cont_27"
  top: "c_27"
  top: "h_27"
}
layer {
  name: "lstm1_h_conted_27"
  type: "Scale"
  bottom: "h_27"
  bottom: "cont_28"
  top: "h_conted_27"
  scale_param {
    axis: 0
  }
}
layer {
  name: "lstm1_transform_28"
  type: "InnerProduct"
  bottom: "h_conted_27"
  top: "W_hc_h_27"
  param {
    name: "W_hc"
  }
  inner_product_param {
    num_output: 400
    bias_term: false
    weight_filler {
      type: "xavier"
    }
    axis: 2
  }
}
layer {
  name: "lstm1_gate_input_28"
  type: "Eltwise"
  bottom: "W_hc_h_27"
  bottom: "W_xc_x_28"
  top: "gate_input_28"
  eltwise_param {
    operation: SUM
  }
}
layer {
  name: "lstm1_unit_28"
  type: "LSTMUnit"
  bottom: "c_27"
  bottom: "gate_input_28"
  bottom: "cont_28"
  top: "c_28"
  top: "h_28"
}
layer {
  name: "lstm1_h_conted_28"
  type: "Scale"
  bottom: "h_28"
  bottom: "cont_29"
  top: "h_conted_28"
  scale_param {
    axis: 0
  }
}
layer {
  name: "lstm1_transform_29"
  type: "InnerProduct"
  bottom: "h_conted_28"
  top: "W_hc_h_28"
  param {
    name: "W_hc"
  }
  inner_product_param {
    num_output: 400
    bias_term: false
    weight_filler {
      type: "xavier"
    }
    axis: 2
  }
}
layer {
  name: "lstm1_gate_input_29"
  type: "Eltwise"
  bottom: "W_hc_h_28"
  bottom: "W_xc_x_29"
  top: "gate_input_29"
  eltwise_param {
    operation: SUM
  }
}
layer {
  name: "lstm1_unit_29"
  type: "LSTMUnit"
  bottom: "c_28"
  bottom: "gate_input_29"
  bottom: "cont_29"
  top: "c_29"
  top: "h_29"
}
layer {
  name: "lstm1_h_conted_29"
  type: "Scale"
  bottom: "h_29"
  bottom: "cont_30"
  top: "h_conted_29"
  scale_param {
    axis: 0
  }
}
layer {
  name: "lstm1_transform_30"
  type: "InnerProduct"
  bottom: "h_conted_29"
  top: "W_hc_h_29"
  param {
    name: "W_hc"
  }
  inner_product_param {
    num_output: 400
    bias_term: false
    weight_filler {
      type: "xavier"
    }
    axis: 2
  }
}
layer {
  name: "lstm1_gate_input_30"
  type: "Eltwise"
  bottom: "W_hc_h_29"
  bottom: "W_xc_x_30"
  top: "gate_input_30"
  eltwise_param {
    operation: SUM
  }
}
layer {
  name: "lstm1_unit_30"
  type: "LSTMUnit"
  bottom: "c_29"
  bottom: "gate_input_30"
  bottom: "cont_30"
  top: "c_30"
  top: "h_30"
}
layer {
  name: "lstm1_h_conted_30"
  type: "Scale"
  bottom: "h_30"
  bottom: "cont_31"
  top: "h_conted_30"
  scale_param {
    axis: 0
  }
}
layer {
  name: "lstm1_transform_31"
  type: "InnerProduct"
  bottom: "h_conted_30"
  top: "W_hc_h_30"
  param {
    name: "W_hc"
  }
  inner_product_param {
    num_output: 400
    bias_term: false
    weight_filler {
      type: "xavier"
    }
    axis: 2
  }
}
layer {
  name: "lstm1_gate_input_31"
  type: "Eltwise"
  bottom: "W_hc_h_30"
  bottom: "W_xc_x_31"
  top: "gate_input_31"
  eltwise_param {
    operation: SUM
  }
}
layer {
  name: "lstm1_unit_31"
  type: "LSTMUnit"
  bottom: "c_30"
  bottom: "gate_input_31"
  bottom: "cont_31"
  top: "c_31"
  top: "h_31"
}
layer {
  name: "lstm1_h_conted_31"
  type: "Scale"
  bottom: "h_31"
  bottom: "cont_32"
  top: "h_conted_31"
  scale_param {
    axis: 0
  }
}
layer {
  name: "lstm1_transform_32"
  type: "InnerProduct"
  bottom: "h_conted_31"
  top: "W_hc_h_31"
  param {
    name: "W_hc"
  }
  inner_product_param {
    num_output: 400
    bias_term: false
    weight_filler {
      type: "xavier"
    }
    axis: 2
  }
}
layer {
  name: "lstm1_gate_input_32"
  type: "Eltwise"
  bottom: "W_hc_h_31"
  bottom: "W_xc_x_32"
  top: "gate_input_32"
  eltwise_param {
    operation: SUM
  }
}
layer {
  name: "lstm1_unit_32"
  type: "LSTMUnit"
  bottom: "c_31"
  bottom: "gate_input_32"
  bottom: "cont_32"
  top: "c_32"
  top: "h_32"
}
layer {
  name: "lstm1_h_conted_32"
  type: "Scale"
  bottom: "h_32"
  bottom: "cont_33"
  top: "h_conted_32"
  scale_param {
    axis: 0
  }
}
layer {
  name: "lstm1_transform_33"
  type: "InnerProduct"
  bottom: "h_conted_32"
  top: "W_hc_h_32"
  param {
    name: "W_hc"
  }
  inner_product_param {
    num_output: 400
    bias_term: false
    weight_filler {
      type: "xavier"
    }
    axis: 2
  }
}
layer {
  name: "lstm1_gate_input_33"
  type: "Eltwise"
  bottom: "W_hc_h_32"
  bottom: "W_xc_x_33"
  top: "gate_input_33"
  eltwise_param {
    operation: SUM
  }
}
layer {
  name: "lstm1_unit_33"
  type: "LSTMUnit"
  bottom: "c_32"
  bottom: "gate_input_33"
  bottom: "cont_33"
  top: "c_33"
  top: "h_33"
}
layer {
  name: "lstm1_h_conted_33"
  type: "Scale"
  bottom: "h_33"
  bottom: "cont_34"
  top: "h_conted_33"
  scale_param {
    axis: 0
  }
}
layer {
  name: "lstm1_transform_34"
  type: "InnerProduct"
  bottom: "h_conted_33"
  top: "W_hc_h_33"
  param {
    name: "W_hc"
  }
  inner_product_param {
    num_output: 400
    bias_term: false
    weight_filler {
      type: "xavier"
    }
    axis: 2
  }
}
layer {
  name: "lstm1_gate_input_34"
  type: "Eltwise"
  bottom: "W_hc_h_33"
  bottom: "W_xc_x_34"
  top: "gate_input_34"
  eltwise_param {
    operation: SUM
  }
}
layer {
  name: "lstm1_unit_34"
  type: "LSTMUnit"
  bottom: "c_33"
  bottom: "gate_input_34"
  bottom: "cont_34"
  top: "c_34"
  top: "h_34"
}
layer {
  name: "lstm1_h_conted_34"
  type: "Scale"
  bottom: "h_34"
  bottom: "cont_35"
  top: "h_conted_34"
  scale_param {
    axis: 0
  }
}
layer {
  name: "lstm1_transform_35"
  type: "InnerProduct"
  bottom: "h_conted_34"
  top: "W_hc_h_34"
  param {
    name: "W_hc"
  }
  inner_product_param {
    num_output: 400
    bias_term: false
    weight_filler {
      type: "xavier"
    }
    axis: 2
  }
}
layer {
  name: "lstm1_gate_input_35"
  type: "Eltwise"
  bottom: "W_hc_h_34"
  bottom: "W_xc_x_35"
  top: "gate_input_35"
  eltwise_param {
    operation: SUM
  }
}
layer {
  name: "lstm1_unit_35"
  type: "LSTMUnit"
  bottom: "c_34"
  bottom: "gate_input_35"
  bottom: "cont_35"
  top: "c_35"
  top: "h_35"
}
layer {
  name: "lstm1_h_conted_35"
  type: "Scale"
  bottom: "h_35"
  bottom: "cont_36"
  top: "h_conted_35"
  scale_param {
    axis: 0
  }
}
layer {
  name: "lstm1_transform_36"
  type: "InnerProduct"
  bottom: "h_conted_35"
  top: "W_hc_h_35"
  param {
    name: "W_hc"
  }
  inner_product_param {
    num_output: 400
    bias_term: false
    weight_filler {
      type: "xavier"
    }
    axis: 2
  }
}
layer {
  name: "lstm1_gate_input_36"
  type: "Eltwise"
  bottom: "W_hc_h_35"
  bottom: "W_xc_x_36"
  top: "gate_input_36"
  eltwise_param {
    operation: SUM
  }
}
layer {
  name: "lstm1_unit_36"
  type: "LSTMUnit"
  bottom: "c_35"
  bottom: "gate_input_36"
  bottom: "cont_36"
  top: "c_36"
  top: "h_36"
}
layer {
  name: "lstm1_h_conted_36"
  type: "Scale"
  bottom: "h_36"
  bottom: "cont_37"
  top: "h_conted_36"
  scale_param {
    axis: 0
  }
}
layer {
  name: "lstm1_transform_37"
  type: "InnerProduct"
  bottom: "h_conted_36"
  top: "W_hc_h_36"
  param {
    name: "W_hc"
  }
  inner_product_param {
    num_output: 400
    bias_term: false
    weight_filler {
      type: "xavie
I0116 15:17:39.618611  5685 layer_factory.hpp:77] Creating layer lstm1_
I0116 15:17:39.618629  5685 net.cpp:86] Creating Layer lstm1_
I0116 15:17:39.618635  5685 net.cpp:382] lstm1_ -> x
I0116 15:17:39.618650  5685 net.cpp:382] lstm1_ -> cont
I0116 15:17:39.618726  5685 net.cpp:124] Setting up lstm1_
I0116 15:17:39.618734  5685 net.cpp:131] Top shape: 80 512 3 30 (3686400)
I0116 15:17:39.618739  5685 net.cpp:131] Top shape: 80 512 (40960)
I0116 15:17:39.618742  5685 net.cpp:139] Memory required for data: 14909440
I0116 15:17:39.618746  5685 layer_factory.hpp:77] Creating layer lstm1_
I0116 15:17:39.618753  5685 net.cpp:86] Creating Layer lstm1_
I0116 15:17:39.618758  5685 net.cpp:382] lstm1_ -> c_0
I0116 15:17:39.618767  5685 net.cpp:382] lstm1_ -> h_0
I0116 15:17:39.618822  5685 net.cpp:124] Setting up lstm1_
I0116 15:17:39.618830  5685 net.cpp:131] Top shape: 1 512 100 (51200)
I0116 15:17:39.618835  5685 net.cpp:131] Top shape: 1 512 100 (51200)
I0116 15:17:39.618839  5685 net.cpp:139] Memory required for data: 15319040
I0116 15:17:39.618842  5685 layer_factory.hpp:77] Creating layer lstm1_cont_slice
I0116 15:17:39.618856  5685 net.cpp:86] Creating Layer lstm1_cont_slice
I0116 15:17:39.618860  5685 net.cpp:408] lstm1_cont_slice <- cont
I0116 15:17:39.618887  5685 net.cpp:382] lstm1_cont_slice -> cont_1
I0116 15:17:39.618904  5685 net.cpp:382] lstm1_cont_slice -> cont_2
…
I0116 15:17:39.619892  5685 net.cpp:382] lstm1_cont_slice -> cont_73
I0116 15:17:39.619905  5685 net.cpp:382] lstm1_cont_slice -> cont_74
I0116 15:17:39.619920  5685 net.cpp:382] lstm1_cont_slice -> cont_75
I0116 15:17:39.619932  5685 net.cpp:382] lstm1_cont_slice -> cont_76
I0116 15:17:39.619946  5685 net.cpp:382] lstm1_cont_slice -> cont_77
I0116 15:17:39.619958  5685 net.cpp:382] lstm1_cont_slice -> cont_78
I0116 15:17:39.619972  5685 net.cpp:382] lstm1_cont_slice -> cont_79
I0116 15:17:39.619985  5685 net.cpp:382] lstm1_cont_slice -> cont_80
I0116 15:17:39.621153  5685 net.cpp:124] Setting up lstm1_cont_slice
I0116 15:17:39.621161  5685 net.cpp:131] Top shape: 1 512 (512)
I0116 15:17:39.621167  5685 net.cpp:131] Top shape: 1 512 (512)
I0116 15:17:39.621171  5685 net.cpp:131] Top shape: 1 512 (512)
I0116 15:17:39.621176  5685 net.cpp:131] Top shape: 1 512 (512)
I0116 15:17:39.621179  5685 net.cpp:131] Top shape: 1 512 (512)
I0116 15:17:39.621184  5685 net.cpp:131] Top shape: 1 512 (512)
I0116 15:17:39.621188  5685 net.cpp:131] Top shape: 1 512 (512)
I0116 15:17:39.621191  5685 net.cpp:131] Top shape: 1 512 (512)
I0116 15:17:39.621196  5685 net.cpp:131] Top shape: 1 512 (512)
I0116 15:17:39.621201  5685 net.cpp:131] Top shape: 1 512 (512)
I0116 15:17:39.621204  5685 net.cpp:131] Top shape: 1 512 (512)
I0116 15:17:39.621208  5685 net.cpp:131] Top shape: 1 512 (512)
I0116 15:17:39.621212  5685 net.cpp:131] Top shape: 1 512 (512)
I0116 15:17:39.621217  5685 net.cpp:131] Top shape: 1 512 (512)
I0116 15:17:39.621222  5685 net.cpp:131] Top shape: 1 512 (512)
I0116 15:17:39.621224  5685 net.cpp:131] Top shape: 1 512 (512)
I0116 15:17:39.621228  5685 net.cpp:131] Top shape: 1 512 (512)
I0116 15:17:39.621233  5685 net.cpp:131] Top shape: 1 512 (512)
I0116 15:17:39.621237  5685 net.cpp:131] Top shape: 1 512 (512)
I0116 15:17:39.621242  5685 net.cpp:131] Top shape: 1 512 (512)
I0116 15:17:39.621244  5685 net.cpp:131] Top shape: 1 512 (512)
I0116 15:17:39.621249  5685 net.cpp:131] Top shape: 1 512 (512)
I0116 15:17:39.621253  5685 net.cpp:131] Top shape: 1 512 (512)
I0116 15:17:39.621258  5685 net.cpp:131] Top shape: 1 512 (512)
I0116 15:17:39.621260  5685 net.cpp:131] Top shape: 1 512 (512)
I0116 15:17:39.621265  5685 net.cpp:131] Top shape: 1 512 (512)
I0116 15:17:39.621269  5685 net.cpp:131] Top shape: 1 512 (512)
I0116 15:17:39.621273  5685 net.cpp:131] Top shape: 1 512 (512)
I0116 15:17:39.621280  5685 net.cpp:131] Top shape: 1 512 (512)
I0116 15:17:39.621286  5685 net.cpp:131] Top shape: 1 512 (512)
I0116 15:17:39.621289  5685 net.cpp:131] Top shape: 1 512 (512)
I0116 15:17:39.621294  5685 net.cpp:131] Top shape: 1 512 (512)
I0116 15:17:39.621297  5685 net.cpp:131] Top shape: 1 512 (512)
I0116 15:17:39.621302  5685 net.cpp:131] Top shape: 1 512 (512)
I0116 15:17:39.621305  5685 net.cpp:131] Top shape: 1 512 (512)
I0116 15:17:39.621309  5685 net.cpp:131] Top shape: 1 512 (512)
I0116 15:17:39.621314  5685 net.cpp:131] Top shape: 1 512 (512)
I0116 15:17:39.621318  5685 net.cpp:131] Top shape: 1 512 (512)
I0116 15:17:39.621322  5685 net.cpp:131] Top shape: 1 512 (512)
I0116 15:17:39.621325  5685 net.cpp:131] Top shape: 1 512 (512)
I0116 15:17:39.621338  5685 net.cpp:131] Top shape: 1 512 (512)
I0116 15:17:39.621345  5685 net.cpp:131] Top shape: 1 512 (512)
I0116 15:17:39.621347  5685 net.cpp:131] Top shape: 1 512 (512)
I0116 15:17:39.621351  5685 net.cpp:131] Top shape: 1 512 (512)
I0116 15:17:39.621356  5685 net.cpp:131] Top shape: 1 512 (512)
I0116 15:17:39.621361  5685 net.cpp:131] Top shape: 1 512 (512)
I0116 15:17:39.621364  5685 net.cpp:131] Top shape: 1 512 (512)
I0116 15:17:39.621367  5685 net.cpp:131] Top shape: 1 512 (512)
I0116 15:17:39.621371  5685 net.cpp:131] Top shape: 1 512 (512)
I0116 15:17:39.621376  5685 net.cpp:131] Top shape: 1 512 (512)
I0116 15:17:39.621381  5685 net.cpp:131] Top shape: 1 512 (512)
I0116 15:17:39.621383  5685 net.cpp:131] Top shape: 1 512 (512)
I0116 15:17:39.621387  5685 net.cpp:131] Top shape: 1 512 (512)
I0116 15:17:39.621392  5685 net.cpp:131] Top shape: 1 512 (512)
I0116 15:17:39.621397  5685 net.cpp:131] Top shape: 1 512 (512)
I0116 15:17:39.621400  5685 net.cpp:131] Top shape: 1 512 (512)
I0116 15:17:39.621403  5685 net.cpp:131] Top shape: 1 512 (512)
I0116 15:17:39.621408  5685 net.cpp:131] Top shape: 1 512 (512)
I0116 15:17:39.621412  5685 net.cpp:131] Top shape: 1 512 (512)
I0116 15:17:39.621417  5685 net.cpp:131] Top shape: 1 512 (512)
I0116 15:17:39.621420  5685 net.cpp:131] Top shape: 1 512 (512)
I0116 15:17:39.621425  5685 net.cpp:131] Top shape: 1 512 (512)
I0116 15:17:39.621429  5685 net.cpp:131] Top shape: 1 512 (512)
I0116 15:17:39.621433  5685 net.cpp:131] Top shape: 1 512 (512)
I0116 15:17:39.621436  5685 net.cpp:131] Top shape: 1 512 (512)
I0116 15:17:39.621441  5685 net.cpp:131] Top shape: 1 512 (512)
I0116 15:17:39.621445  5685 net.cpp:131] Top shape: 1 512 (512)
I0116 15:17:39.621449  5685 net.cpp:131] Top shape: 1 512 (512)
I0116 15:17:39.621454  5685 net.cpp:131] Top shape: 1 512 (512)
I0116 15:17:39.621459  5685 net.cpp:131] Top shape: 1 512 (512)
I0116 15:17:39.621461  5685 net.cpp:131] Top shape: 1 512 (512)
I0116 15:17:39.621465  5685 net.cpp:131] Top shape: 1 512 (512)
I0116 15:17:39.621469  5685 net.cpp:131] Top shape: 1 512 (512)
I0116 15:17:39.621474  5685 net.cpp:131] Top shape: 1 512 (512)
I0116 15:17:39.621479  5685 net.cpp:131] Top shape: 1 512 (512)
I0116 15:17:39.621482  5685 net.cpp:131] Top shape: 1 512 (512)
I0116 15:17:39.621485  5685 net.cpp:131] Top shape: 1 512 (512)
I0116 15:17:39.621490  5685 net.cpp:131] Top shape: 1 512 (512)
I0116 15:17:39.621495  5685 net.cpp:131] Top shape: 1 512 (512)
I0116 15:17:39.621498  5685 net.cpp:131] Top shape: 1 512 (512)
I0116 15:17:39.621501  5685 net.cpp:139] Memory required for data: 15482880
I0116 15:17:39.621505  5685 layer_factory.hpp:77] Creating layer cont_1_lstm1_cont_slice_0_split
I0116 15:17:39.621512  5685 net.cpp:86] Creating Layer cont_1_lstm1_cont_slice_0_split
I0116 15:17:39.621516  5685 net.cpp:408] cont_1_lstm1_cont_slice_0_split <- cont_1
I0116 15:17:39.621526  5685 net.cpp:382] cont_1_lstm1_cont_slice_0_split -> cont_1_lstm1_cont_slice_0_split_0
I0116 15:17:39.621536  5685 net.cpp:382] cont_1_lstm1_cont_slice_0_split -> cont_1_lstm1_cont_slice_0_split_1
I0116 15:17:39.621577  5685 net.cpp:124] Setting up cont_1_lstm1_cont_slice_0_split
I0116 15:17:39.621582  5685 net.cpp:131] Top shape: 1 512 (512)
I0116 15:17:39.621587  5685 net.cpp:131] Top shape: 1 512 (512)
I0116 15:17:39.621590  5685 net.cpp:139] Memory required for data: 15486976
I0116 15:17:39.621593  5685 layer_factory.hpp:77] Creating layer cont_2_lstm1_cont_slice_1_split
I0116 15:17:39.621600  5685 net.cpp:86] Creating Layer cont_2_lstm1_cont_slice_1_split
I0116 15:17:39.621604  5685 net.cpp:408] cont_2_lstm1_cont_slice_1_split <- cont_2
I0116 15:17:39.621613  5685 net.cpp:382] cont_2_lstm1_cont_slice_1_split -> cont_2_lstm1_cont_slice_1_split_0
I0116 15:17:39.621620  5685 net.cpp:382] cont_2_lstm1_cont_slice_1_split -> cont_2_lstm1_cont_slice_1_split_1
I0116 15:17:39.621657  5685 net.cpp:124] Setting up cont_2_lstm1_cont_slice_1_split
I0116 15:17:39.621662  5685 net.cpp:131] Top shape: 1 512 (512)
I0116 15:17:39.621667  5685 net.cpp:131] Top shape: 1 512 (512)
I0116 15:17:39.621678  5685 net.cpp:139] Memory required for data: 15491072
I0116 15:17:39.621681  5685 layer_factory.hpp:77] Creating layer cont_3_lstm1_cont_slice_2_split
I0116 15:17:39.621686  5685 net.cpp:86] Creating Layer cont_3_lstm1_cont_slice_2_split
I0116 15:17:39.621691  5685 net.cpp:408] cont_3_lstm1_cont_slice_2_split <- cont_3
I0116 15:17:39.621700  5685 net.cpp:382] cont_3_lstm1_cont_slice_2_split -> cont_3_lstm1_cont_slice_2_split_0
I0116 15:17:39.621706  5685 net.cpp:382] cont_3_lstm1_cont_slice_2_split -> cont_3_lstm1_cont_slice_2_split_1
I0116 15:17:39.621743  5685 net.cpp:124] Setting up cont_3_lstm1_cont_slice_2_split
I0116 15:17:39.621749  5685 net.cpp:131] Top shape: 1 512 (512)
I0116 15:17:39.621753  5685 net.cpp:131] Top shape: 1 512 (512)
I0116 15:17:39.621757  5685 net.cpp:139] Memory required for data: 15495168
I0116 15:17:39.621759  5685 layer_factory.hpp:77] Creating layer cont_4_lstm1_cont_slice_3_split
I0116 15:17:39.621765  5685 net.cpp:86] Creating Layer cont_4_lstm1_cont_slice_3_split
I0116 15:17:39.621768  5685 net.cpp:408] cont_4_lstm1_cont_slice_3_split <- cont_4
I0116 15:17:39.621775  5685 net.cpp:382] cont_4_lstm1_cont_slice_3_split -> cont_4_lstm1_cont_slice_3_split_0
I0116 15:17:39.621783  5685 net.cpp:382] cont_4_lstm1_cont_slice_3_split -> cont_4_lstm1_cont_slice_3_split_1
I0116 15:17:39.621817  5685 net.cpp:124] Setting up cont_4_lstm1_cont_slice_3_split
I0116 15:17:39.621822  5685 net.cpp:131] Top shape: 1 512 (512)
I0116 15:17:39.621826  5685 net.cpp:131] Top shape: 1 512 (512)
I0116 15:17:39.621830  5685 net.cpp:139] Memory required for data: 15499264
I0116 15:17:39.621834  5685 layer_factory.hpp:77] Creating layer cont_5_lstm1_cont_slice_4_split
I0116 15:17:39.621840  5685 net.cpp:86] Creating Layer cont_5_lstm1_cont_slice_4_split
I0116 15:17:39.621845  5685 net.cpp:408] cont_5_lstm1_cont_slice_4_split <- cont_5
I0116 15:17:39.621850  5685 net.cpp:382] cont_5_lstm1_cont_slice_4_split -> cont_5_lstm1_cont_slice_4_split_0
I0116 15:17:39.621856  5685 net.cpp:382] cont_5_lstm1_cont_slice_4_split -> cont_5_lstm1_cont_slice_4_split_1
I0116 15:17:39.621891  5685 net.cpp:124] Setting up cont_5_lstm1_cont_slice_4_split
I0116 15:17:39.621896  5685 net.cpp:131] Top shape: 1 512 (512)
I0116 15:17:39.621901  5685 net.cpp:131] Top shape: 1 512 (512)
I0116 15:17:39.621904  5685 net.cpp:139] Memory required for data: 15503360
I0116 15:17:39.621907  5685 layer_factory.hpp:77] Creating layer cont_6_lstm1_cont_slice_5_split
I0116 15:17:39.621913  5685 net.cpp:86] Creating Layer cont_6_lstm1_cont_slice_5_split
I0116 15:17:39.621917  5685 net.cpp:408] cont_6_lstm1_cont_slice_5_split <- cont_6
I0116 15:17:39.621927  5685 net.cpp:382] cont_6_lstm1_cont_slice_5_split -> cont_6_lstm1_cont_slice_5_split_0
I0116 15:17:39.621933  5685 net.cpp:382] cont_6_lstm1_cont_slice_5_split -> cont_6_lstm1_cont_slice_5_split_1
I0116 15:17:39.621968  5685 net.cpp:124] Setting up cont_6_lstm1_cont_slice_5_split
I0116 15:17:39.621973  5685 net.cpp:131] Top shape: 1 512 (512)
I0116 15:17:39.621978  5685 net.cpp:131] Top shape: 1 512 (512)
I0116 15:17:39.621980  5685 net.cpp:139] Memory required for data: 15507456
I0116 15:17:39.621984  5685 layer_factory.hpp:77] Creating layer cont_7_lstm1_cont_slice_6_split
I0116 15:17:39.621989  5685 net.cpp:86] Creating Layer cont_7_lstm1_cont_slice_6_split
I0116 15:17:39.621994  5685 net.cpp:408] cont_7_lstm1_cont_slice_6_split <- cont_7
I0116 15:17:39.621999  5685 net.cpp:382] cont_7_lstm1_cont_slice_6_split -> cont_7_lstm1_cont_slice_6_split_0
I0116 15:17:39.622004  5685 net.cpp:382] cont_7_lstm1_cont_slice_6_split -> cont_7_lstm1_cont_slice_6_split_1
I0116 15:17:39.622040  5685 net.cpp:124] Setting up cont_7_lstm1_cont_slice_6_split
I0116 15:17:39.622045  5685 net.cpp:131] Top shape: 1 512 (512)
I0116 15:17:39.622050  5685 net.cpp:131] Top shape: 1 512 (512)
I0116 15:17:39.622052  5685 net.cpp:139] Memory required for data: 15511552
I0116 15:17:39.622056  5685 layer_factory.hpp:77] Creating layer cont_8_lstm1_cont_slice_7_split
I0116 15:17:39.622061  5685 net.cpp:86] Creating Layer cont_8_lstm1_cont_slice_7_split
I0116 15:17:39.622072  5685 net.cpp:408] cont_8_lstm1_cont_slice_7_split <- cont_8
I0116 15:17:39.622079  5685 net.cpp:382] cont_8_lstm1_cont_slice_7_split -> cont_8_lstm1_cont_slice_7_split_0
I0116 15:17:39.622087  5685 net.cpp:382] cont_8_lstm1_cont_slice_7_split -> cont_8_lstm1_cont_slice_7_split_1
I0116 15:17:39.622123  5685 net.cpp:124] Setting up cont_8_lstm1_cont_slice_7_split
I0116 15:17:39.622128  5685 net.cpp:131] Top shape: 1 512 (512)
I0116 15:17:39.622133  5685 net.cpp:131] Top shape: 1 512 (512)
I0116 15:17:39.622135  5685 net.cpp:139] Memory required for data: 15515648
I0116 15:17:39.622139  5685 layer_factory.hpp:77] Creating layer cont_9_lstm1_cont_slice_8_split
I0116 15:17:39.622145  5685 net.cpp:86] Creating Layer cont_9_lstm1_cont_slice_8_split
I0116 15:17:39.622149  5685 net.cpp:408] cont_9_lstm1_cont_slice_8_split <- cont_9
I0116 15:17:39.622154  5685 net.cpp:382] cont_9_lstm1_cont_slice_8_split -> cont_9_lstm1_cont_slice_8_split_0
I0116 15:17:39.622162  5685 net.cpp:382] cont_9_lstm1_cont_slice_8_split -> cont_9_lstm1_cont_slice_8_split_1
I0116 15:17:39.622196  5685 net.cpp:124] Setting up cont_9_lstm1_cont_slice_8_split
I0116 15:17:39.622201  5685 net.cpp:131] Top shape: 1 512 (512)
I0116 15:17:39.622205  5685 net.cpp:131] Top shape: 1 512 (512)
I0116 15:17:39.622210  5685 net.cpp:139] Memory required for data: 15519744
I0116 15:17:39.622212  5685 layer_factory.hpp:77] Creating layer cont_10_lstm1_cont_slice_9_split
I0116 15:17:39.622217  5685 net.cpp:86] Creating Layer cont_10_lstm1_cont_slice_9_split
I0116 15:17:39.622221  5685 net.cpp:408] cont_10_lstm1_cont_slice_9_split <- cont_10
I0116 15:17:39.622227  5685 net.cpp:382] cont_10_lstm1_cont_slice_9_split -> cont_10_lstm1_cont_slice_9_split_0
I0116 15:17:39.622237  5685 net.cpp:382] cont_10_lstm1_cont_slice_9_split -> cont_10_lstm1_cont_slice_9_split_1
I0116 15:17:39.622272  5685 net.cpp:124] Setting up cont_10_lstm1_cont_slice_9_split
I0116 15:17:39.622277  5685 net.cpp:131] Top shape: 1 512 (512)
I0116 15:17:39.622282  5685 net.cpp:131] Top shape: 1 512 (512)
I0116 15:17:39.622284  5685 net.cpp:139] Memory required for data: 15523840
I0116 15:17:39.622287  5685 layer_factory.hpp:77] Creating layer cont_11_lstm1_cont_slice_10_split
I0116 15:17:39.622293  5685 net.cpp:86] Creating Layer cont_11_lstm1_cont_slice_10_split
I0116 15:17:39.622298  5685 net.cpp:408] cont_11_lstm1_cont_slice_10_split <- cont_11
I0116 15:17:39.622303  5685 net.cpp:382] cont_11_lstm1_cont_slice_10_split -> cont_11_lstm1_cont_slice_10_split_0
I0116 15:17:39.622310  5685 net.cpp:382] cont_11_lstm1_cont_slice_10_split -> cont_11_lstm1_cont_slice_10_split_1
I0116 15:17:39.622344  5685 net.cpp:124] Setting up cont_11_lstm1_cont_slice_10_split
I0116 15:17:39.622350  5685 net.cpp:131] Top shape: 1 512 (512)
I0116 15:17:39.622354  5685 net.cpp:131] Top shape: 1 512 (512)
I0116 15:17:39.622357  5685 net.cpp:139] Memory required for data: 15527936
I0116 15:17:39.622360  5685 layer_factory.hpp:77] Creating layer cont_12_lstm1_cont_slice_11_split
I0116 15:17:39.622365  5685 net.cpp:86] Creating Layer cont_12_lstm1_cont_slice_11_split
I0116 15:17:39.622370  5685 net.cpp:408] cont_12_lstm1_cont_slice_11_split <- cont_12
I0116 15:17:39.622375  5685 net.cpp:382] cont_12_lstm1_cont_slice_11_split -> cont_12_lstm1_cont_slice_11_split_0
I0116 15:17:39.622382  5685 net.cpp:382] cont_12_lstm1_cont_slice_11_split -> cont_12_lstm1_cont_slice_11_split_1
I0116 15:17:39.622416  5685 net.cpp:124] Setting up cont_12_lstm1_cont_slice_11_split
I0116 15:17:39.622421  5685 net.cpp:131] Top shape: 1 512 (512)
I0116 15:17:39.622426  5685 net.cpp:131] Top shape: 1 512 (512)
I0116 15:17:39.622428  5685 net.cpp:139] Memory required for data: 15532032
I0116 15:17:39.622432  5685 layer_factory.hpp:77] Creating layer cont_13_lstm1_cont_slice_12_split
I0116 15:17:39.622439  5685 net.cpp:86] Creating Layer cont_13_lstm1_cont_slice_12_split
I0116 15:17:39.622442  5685 net.cpp:408] cont_13_lstm1_cont_slice_12_split <- cont_13
I0116 15:17:39.622448  5685 net.cpp:382] cont_13_lstm1_cont_slice_12_split -> cont_13_lstm1_cont_slice_12_split_0
I0116 15:17:39.622463  5685 net.cpp:382] cont_13_lstm1_cont_slice_12_split -> cont_13_lstm1_cont_slice_12_split_1
I0116 15:17:39.622498  5685 net.cpp:124] Setting up cont_13_lstm1_cont_slice_12_split
I0116 15:17:39.622503  5685 net.cpp:131] Top shape: 1 512 (512)
I0116 15:17:39.622508  5685 net.cpp:131] Top shape: 1 512 (512)
I0116 15:17:39.622511  5685 net.cpp:139] Memory required for data: 15536128
I0116 15:17:39.622514  5685 layer_factory.hpp:77] Creating layer cont_14_lstm1_cont_slice_13_split
I0116 15:17:39.622520  5685 net.cpp:86] Creating Layer cont_14_lstm1_cont_slice_13_split
I0116 15:17:39.622524  5685 net.cpp:408] cont_14_lstm1_cont_slice_13_split <- cont_14
I0116 15:17:39.622534  5685 net.cpp:382] cont_14_lstm1_cont_slice_13_split -> cont_14_lstm1_cont_slice_13_split_0
I0116 15:17:39.622540  5685 net.cpp:382] cont_14_lstm1_cont_slice_13_split -> cont_14_lstm1_cont_slice_13_split_1
I0116 15:17:39.622575  5685 net.cpp:124] Setting up cont_14_lstm1_cont_slice_13_split
I0116 15:17:39.622579  5685 net.cpp:131] Top shape: 1 512 (512)
I0116 15:17:39.622584  5685 net.cpp:131] Top shape: 1 512 (512)
I0116 15:17:39.622586  5685 net.cpp:139] Memory required for data: 15540224
I0116 15:17:39.622589  5685 layer_factory.hpp:77] Creating layer cont_15_lstm1_cont_slice_14_split
I0116 15:17:39.622598  5685 net.cpp:86] Creating Layer cont_15_lstm1_cont_slice_14_split
I0116 15:17:39.622603  5685 net.cpp:408] cont_15_lstm1_cont_slice_14_split <- cont_15
I0116 15:17:39.622608  5685 net.cpp:382] cont_15_lstm1_cont_slice_14_split -> cont_15_lstm1_cont_slice_14_split_0
I0116 15:17:39.622615  5685 net.cpp:382] cont_15_lstm1_cont_slice_14_split -> cont_15_lstm1_cont_slice_14_split_1
I0116 15:17:39.622649  5685 net.cpp:124] Setting up cont_15_lstm1_cont_slice_14_split
I0116 15:17:39.622655  5685 net.cpp:131] Top shape: 1 512 (512)
I0116 15:17:39.622659  5685 net.cpp:131] Top shape: 1 512 (512)
I0116 15:17:39.622663  5685 net.cpp:139] Memory required for data: 15544320
I0116 15:17:39.622665  5685 layer_factory.hpp:77] Creating layer cont_16_lstm1_cont_slice_15_split
I0116 15:17:39.622670  5685 net.cpp:86] Creating Layer cont_16_lstm1_cont_slice_15_split
I0116 15:17:39.622674  5685 net.cpp:408] cont_16_lstm1_cont_slice_15_split <- cont_16
I0116 15:17:39.622679  5685 net.cpp:382] cont_16_lstm1_cont_slice_15_split -> cont_16_lstm1_cont_slice_15_split_0
I0116 15:17:39.622687  5685 net.cpp:382] cont_16_lstm1_cont_slice_15_split -> cont_16_lstm1_cont_slice_15_split_1
I0116 15:17:39.622725  5685 net.cpp:124] Setting up cont_16_lstm1_cont_slice_15_split
I0116 15:17:39.622730  5685 net.cpp:131] Top shape: 1 512 (512)
I0116 15:17:39.622733  5685 net.cpp:131] Top shape: 1 512 (512)
I0116 15:17:39.622736  5685 net.cpp:139] Memory required for data: 15548416
I0116 15:17:39.622740  5685 layer_factory.hpp:77] Creating layer cont_17_lstm1_cont_slice_16_split
I0116 15:17:39.622746  5685 net.cpp:86] Creating Layer cont_17_lstm1_cont_slice_16_split
I0116 15:17:39.622750  5685 net.cpp:408] cont_17_lstm1_cont_slice_16_split <- cont_17
I0116 15:17:39.622756  5685 net.cpp:382] cont_17_lstm1_cont_slice_16_split -> cont_17_lstm1_cont_slice_16_split_0
I0116 15:17:39.622763  5685 net.cpp:382] cont_17_lstm1_cont_slice_16_split -> cont_17_lstm1_cont_slice_16_split_1
I0116 15:17:39.622810  5685 net.cpp:124] Setting up cont_17_lstm1_cont_slice_16_split
I0116 15:17:39.622817  5685 net.cpp:131] Top shape: 1 512 (512)
I0116 15:17:39.622820  5685 net.cpp:131] Top shape: 1 512 (512)
I0116 15:17:39.622824  5685 net.cpp:139] Memory required for data: 15552512
I0116 15:17:39.622828  5685 layer_factory.hpp:77] Creating layer cont_18_lstm1_cont_slice_17_split
I0116 15:17:39.622833  5685 net.cpp:86] Creating Layer cont_18_lstm1_cont_slice_17_split
I0116 15:17:39.622835  5685 net.cpp:408] cont_18_lstm1_cont_slice_17_split <- cont_18
I0116 15:17:39.622843  5685 net.cpp:382] cont_18_lstm1_cont_slice_17_split -> cont_18_lstm1_cont_slice_17_split_0
I0116 15:17:39.622850  5685 net.cpp:382] cont_18_lstm1_cont_slice_17_split -> cont_18_lstm1_cont_slice_17_split_1
I0116 15:17:39.622896  5685 net.cpp:124] Setting up cont_18_lstm1_cont_slice_17_split
I0116 15:17:39.622901  5685 net.cpp:131] Top shape: 1 512 (512)
I0116 15:17:39.622906  5685 net.cpp:131] Top shape: 1 512 (512)
I0116 15:17:39.622910  5685 net.cpp:139] Memory required for data: 15556608
I0116 15:17:39.622912  5685 layer_factory.hpp:77] Creating layer cont_19_lstm1_cont_slice_18_split
I0116 15:17:39.622920  5685 net.cpp:86] Creating Layer cont_19_lstm1_cont_slice_18_split
I0116 15:17:39.622923  5685 net.cpp:408] cont_19_lstm1_cont_slice_18_split <- cont_19
I0116 15:17:39.622930  5685 net.cpp:382] cont_19_lstm1_cont_slice_18_split -> cont_19_lstm1_cont_slice_18_split_0
I0116 15:17:39.622936  5685 net.cpp:382] cont_19_lstm1_cont_slice_18_split -> cont_19_lstm1_cont_slice_18_split_1
I0116 15:17:39.622972  5685 net.cpp:124] Setting up cont_19_lstm1_cont_slice_18_split
I0116 15:17:39.622977  5685 net.cpp:131] Top shape: 1 512 (512)
I0116 15:17:39.622982  5685 net.cpp:131] Top shape: 1 512 (512)
I0116 15:17:39.622984  5685 net.cpp:139] Memory required for data: 15560704
I0116 15:17:39.622987  5685 layer_factory.hpp:77] Creating layer cont_20_lstm1_cont_slice_19_split
I0116 15:17:39.622992  5685 net.cpp:86] Creating Layer cont_20_lstm1_cont_slice_19_split
I0116 15:17:39.622997  5685 net.cpp:408] cont_20_lstm1_cont_slice_19_split <- cont_20
I0116 15:17:39.623001  5685 net.cpp:382] cont_20_lstm1_cont_slice_19_split -> cont_20_lstm1_cont_slice_19_split_0
I0116 15:17:39.623008  5685 net.cpp:382] cont_20_lstm1_cont_slice_19_split -> cont_20_lstm1_cont_slice_19_split_1
I0116 15:17:39.623044  5685 net.cpp:124] Setting up cont_20_lstm1_cont_slice_19_split
I0116 15:17:39.623049  5685 net.cpp:131] Top shape: 1 512 (512)
I0116 15:17:39.623054  5685 net.cpp:131] Top shape: 1 512 (512)
I0116 15:17:39.623056  5685 net.cpp:139] Memory required for data: 15564800
I0116 15:17:39.623060  5685 layer_factory.hpp:77] Creating layer cont_21_lstm1_cont_slice_20_split
I0116 15:17:39.623066  5685 net.cpp:86] Creating Layer cont_21_lstm1_cont_slice_20_split
I0116 15:17:39.623070  5685 net.cpp:408] cont_21_lstm1_cont_slice_20_split <- cont_21
I0116 15:17:39.623075  5685 net.cpp:382] cont_21_lstm1_cont_slice_20_split -> cont_21_lstm1_cont_slice_20_split_0
I0116 15:17:39.623082  5685 net.cpp:382] cont_21_lstm1_cont_slice_20_split -> cont_21_lstm1_cont_slice_20_split_1
I0116 15:17:39.623116  5685 net.cpp:124] Setting up cont_21_lstm1_cont_slice_20_split
I0116 15:17:39.623121  5685 net.cpp:131] Top shape: 1 512 (512)
I0116 15:17:39.623126  5685 net.cpp:131] Top shape: 1 512 (512)
I0116 15:17:39.623129  5685 net.cpp:139] Memory required for data: 15568896
I0116 15:17:39.623132  5685 layer_factory.hpp:77] Creating layer cont_22_lstm1_cont_slice_21_split
I0116 15:17:39.623136  5685 net.cpp:86] Creating Layer cont_22_lstm1_cont_slice_21_split
I0116 15:17:39.623141  5685 net.cpp:408] cont_22_lstm1_cont_slice_21_split <- cont_22
I0116 15:17:39.623147  5685 net.cpp:382] cont_22_lstm1_cont_slice_21_split -> cont_22_lstm1_cont_slice_21_split_0
I0116 15:17:39.623153  5685 net.cpp:382] cont_22_lstm1_cont_slice_21_split -> cont_22_lstm1_cont_slice_21_split_1
I0116 15:17:39.623188  5685 net.cpp:124] Setting up cont_22_lstm1_cont_slice_21_split
I0116 15:17:39.623203  5685 net.cpp:131] Top shape: 1 512 (512)
I0116 15:17:39.623208  5685 net.cpp:131] Top shape: 1 512 (512)
I0116 15:17:39.623210  5685 net.cpp:139] Memory required for data: 15572992
I0116 15:17:39.623214  5685 layer_factory.hpp:77] Creating layer cont_23_lstm1_cont_slice_22_split
I0116 15:17:39.623219  5685 net.cpp:86] Creating Layer cont_23_lstm1_cont_slice_22_split
I0116 15:17:39.623222  5685 net.cpp:408] cont_23_lstm1_cont_slice_22_split <- cont_23
I0116 15:17:39.623229  5685 net.cpp:382] cont_23_lstm1_cont_slice_22_split -> cont_23_lstm1_cont_slice_22_split_0
I0116 15:17:39.623242  5685 net.cpp:382] cont_23_lstm1_cont_slice_22_split -> cont_23_lstm1_cont_slice_22_split_1
I0116 15:17:39.623275  5685 net.cpp:124] Setting up cont_23_lstm1_cont_slice_22_split
I0116 15:17:39.623288  5685 net.cpp:131] Top shape: 1 512 (512)
I0116 15:17:39.623292  5685 net.cpp:131] Top shape: 1 512 (512)
I0116 15:17:39.623294  5685 net.cpp:139] Memory required for data: 15577088
I0116 15:17:39.623297  5685 layer_factory.hpp:77] Creating layer cont_24_lstm1_cont_slice_23_split
I0116 15:17:39.623303  5685 net.cpp:86] Creating Layer cont_24_lstm1_cont_slice_23_split
I0116 15:17:39.623307  5685 net.cpp:408] cont_24_lstm1_cont_slice_23_split <- cont_24
I0116 15:17:39.623313  5685 net.cpp:382] cont_24_lstm1_cont_slice_23_split -> cont_24_lstm1_cont_slice_23_split_0
I0116 15:17:39.623320  5685 net.cpp:382] cont_24_lstm1_cont_slice_23_split -> cont_24_lstm1_cont_slice_23_split_1
I0116 15:17:39.623355  5685 net.cpp:124] Setting up cont_24_lstm1_cont_slice_23_split
I0116 15:17:39.623360  5685 net.cpp:131] Top shape: 1 512 (512)
I0116 15:17:39.623364  5685 net.cpp:131] Top shape: 1 512 (512)
I0116 15:17:39.623368  5685 net.cpp:139] Memory required for data: 15581184
I0116 15:17:39.623370  5685 layer_factory.hpp:77] Creating layer cont_25_lstm1_cont_slice_24_split
I0116 15:17:39.623375  5685 net.cpp:86] Creating Layer cont_25_lstm1_cont_slice_24_split
I0116 15:17:39.623378  5685 net.cpp:408] cont_25_lstm1_cont_slice_24_split <- cont_25
I0116 15:17:39.623383  5685 net.cpp:382] cont_25_lstm1_cont_slice_24_split -> cont_25_lstm1_cont_slice_24_split_0
I0116 15:17:39.623390  5685 net.cpp:382] cont_25_lstm1_cont_slice_24_split -> cont_25_lstm1_cont_slice_24_split_1
I0116 15:17:39.623423  5685 net.cpp:124] Setting up cont_25_lstm1_cont_slice_24_split
I0116 15:17:39.623428  5685 net.cpp:131] Top shape: 1 512 (512)
I0116 15:17:39.623432  5685 net.cpp:131] Top shape: 1 512 (512)
I0116 15:17:39.623436  5685 net.cpp:139] Memory required for data: 15585280
I0116 15:17:39.623440  5685 layer_factory.hpp:77] Creating layer cont_26_lstm1_cont_slice_25_split
I0116 15:17:39.623443  5685 net.cpp:86] Creating Layer cont_26_lstm1_cont_slice_25_split
I0116 15:17:39.623446  5685 net.cpp:408] cont_26_lstm1_cont_slice_25_split <- cont_26
I0116 15:17:39.623458  5685 net.cpp:382] cont_26_lstm1_cont_slice_25_split -> cont_26_lstm1_cont_slice_25_split_0
I0116 15:17:39.623467  5685 net.cpp:382] cont_26_lstm1_cont_slice_25_split -> cont_26_lstm1_cont_slice_25_split_1
I0116 15:17:39.623517  5685 net.cpp:124] Setting up cont_26_lstm1_cont_slice_25_split
I0116 15:17:39.623524  5685 net.cpp:131] Top shape: 1 512 (512)
I0116 15:17:39.623529  5685 net.cpp:131] Top shape: 1 512 (512)
I0116 15:17:39.623531  5685 net.cpp:139] Memory required for data: 15589376
I0116 15:17:39.623534  5685 layer_factory.hpp:77] Creating layer cont_27_lstm1_cont_slice_26_split
I0116 15:17:39.623539  5685 net.cpp:86] Creating Layer cont_27_lstm1_cont_slice_26_split
I0116 15:17:39.623544  5685 net.cpp:408] cont_27_lstm1_cont_slice_26_split <- cont_27
I0116 15:17:39.623549  5685 net.cpp:382] cont_27_lstm1_cont_slice_26_split -> cont_27_lstm1_cont_slice_26_split_0
I0116 15:17:39.623556  5685 net.cpp:382] cont_27_lstm1_cont_slice_26_split -> cont_27_lstm1_cont_slice_26_split_1
I0116 15:17:39.623592  5685 net.cpp:124] Setting up cont_27_lstm1_cont_slice_26_split
I0116 15:17:39.623598  5685 net.cpp:131] Top shape: 1 512 (512)
I0116 15:17:39.623602  5685 net.cpp:131] Top shape: 1 512 (512)
I0116 15:17:39.623605  5685 net.cpp:139] Memory required for data: 15593472
I0116 15:17:39.623607  5685 layer_factory.hpp:77] Creating layer cont_28_lstm1_cont_slice_27_split
I0116 15:17:39.623613  5685 net.cpp:86] Creating Layer cont_28_lstm1_cont_slice_27_split
I0116 15:17:39.623616  5685 net.cpp:408] cont_28_lstm1_cont_slice_27_split <- cont_28
I0116 15:17:39.623623  5685 net.cpp:382] cont_28_lstm1_cont_slice_27_split -> cont_28_lstm1_cont_slice_27_split_0
I0116 15:17:39.623630  5685 net.cpp:382] cont_28_lstm1_cont_slice_27_split -> cont_28_lstm1_cont_slice_27_split_1
I0116 15:17:39.623666  5685 net.cpp:124] Setting up cont_28_lstm1_cont_slice_27_split
I0116 15:17:39.623670  5685 net.cpp:131] Top shape: 1 512 (512)
I0116 15:17:39.623674  5685 net.cpp:131] Top shape: 1 512 (512)
I0116 15:17:39.623685  5685 net.cpp:139] Memory required for data: 15597568
I0116 15:17:39.623689  5685 layer_factory.hpp:77] Creating layer cont_29_lstm1_cont_slice_28_split
I0116 15:17:39.623694  5685 net.cpp:86] Creating Layer cont_29_lstm1_cont_slice_28_split
I0116 15:17:39.623697  5685 net.cpp:408] cont_29_lstm1_cont_slice_28_split <- cont_29
I0116 15:17:39.623703  5685 net.cpp:382] cont_29_lstm1_cont_slice_28_split -> cont_29_lstm1_cont_slice_28_split_0
I0116 15:17:39.623709  5685 net.cpp:382] cont_29_lstm1_cont_slice_28_split -> cont_29_lstm1_cont_slice_28_split_1
I0116 15:17:39.623744  5685 net.cpp:124] Setting up cont_29_lstm1_cont_slice_28_split
I0116 15:17:39.623749  5685 net.cpp:131] Top shape: 1 512 (512)
I0116 15:17:39.623754  5685 net.cpp:131] Top shape: 1 512 (512)
I0116 15:17:39.623757  5685 net.cpp:139] Memory required for data: 15601664
I0116 15:17:39.623759  5685 layer_factory.hpp:77] Creating layer cont_30_lstm1_cont_slice_29_split
I0116 15:17:39.623769  5685 net.cpp:86] Creating Layer cont_30_lstm1_cont_slice_29_split
I0116 15:17:39.623772  5685 net.cpp:408] cont_30_lstm1_cont_slice_29_split <- cont_30
I0116 15:17:39.623780  5685 net.cpp:382] cont_30_lstm1_cont_slice_29_split -> cont_30_lstm1_cont_slice_29_split_0
I0116 15:17:39.623785  5685 net.cpp:382] cont_30_lstm1_cont_slice_29_split -> cont_30_lstm1_cont_slice_29_split_1
I0116 15:17:39.623821  5685 net.cpp:124] Setting up cont_30_lstm1_cont_slice_29_split
I0116 15:17:39.623826  5685 net.cpp:131] Top shape: 1 512 (512)
I0116 15:17:39.623829  5685 net.cpp:131] Top shape: 1 512 (512)
I0116 15:17:39.623832  5685 net.cpp:139] Memory required for data: 15605760
I0116 15:17:39.623836  5685 layer_factory.hpp:77] Creating layer cont_31_lstm1_cont_slice_30_split
I0116 15:17:39.623839  5685 net.cpp:86] Creating Layer cont_31_lstm1_cont_slice_30_split
I0116 15:17:39.623844  5685 net.cpp:408] cont_31_lstm1_cont_slice_30_split <- cont_31
I0116 15:17:39.623850  5685 net.cpp:382] cont_31_lstm1_cont_slice_30_split -> cont_31_lstm1_cont_slice_30_split_0
I0116 15:17:39.623857  5685 net.cpp:382] cont_31_lstm1_cont_slice_30_split -> cont_31_lstm1_cont_slice_30_split_1
I0116 15:17:39.623888  5685 net.cpp:124] Setting up cont_31_lstm1_cont_slice_30_split
I0116 15:17:39.623894  5685 net.cpp:131] Top shape: 1 512 (512)
I0116 15:17:39.623898  5685 net.cpp:131] Top shape: 1 512 (512)
I0116 15:17:39.623900  5685 net.cpp:139] Memory required for data: 15609856
I0116 15:17:39.623903  5685 layer_factory.hpp:77] Creating layer cont_32_lstm1_cont_slice_31_split
I0116 15:17:39.623910  5685 net.cpp:86] Creating Layer cont_32_lstm1_cont_slice_31_split
I0116 15:17:39.623914  5685 net.cpp:408] cont_32_lstm1_cont_slice_31_split <- cont_32
I0116 15:17:39.623919  5685 net.cpp:382] cont_32_lstm1_cont_slice_31_split -> cont_32_lstm1_cont_slice_31_split_0
I0116 15:17:39.623925  5685 net.cpp:382] cont_32_lstm1_cont_slice_31_split -> cont_32_lstm1_cont_slice_31_split_1
I0116 15:17:39.623961  5685 net.cpp:124] Setting up cont_32_lstm1_cont_slice_31_split
I0116 15:17:39.623966  5685 net.cpp:131] Top shape: 1 512 (512)
I0116 15:17:39.623970  5685 net.cpp:131] Top shape: 1 512 (512)
I0116 15:17:39.623972  5685 net.cpp:139] Memory required for data: 15613952
I0116 15:17:39.623976  5685 layer_factory.hpp:77] Creating layer cont_33_lstm1_cont_slice_32_split
I0116 15:17:39.623980  5685 net.cpp:86] Creating Layer cont_33_lstm1_cont_slice_32_split
I0116 15:17:39.623984  5685 net.cpp:408] cont_33_lstm1_cont_slice_32_split <- cont_33
I0116 15:17:39.623988  5685 net.cpp:382] cont_33_lstm1_cont_slice_32_split -> cont_33_lstm1_cont_slice_32_split_0
I0116 15:17:39.623998  5685 net.cpp:382] cont_33_lstm1_cont_slice_32_split -> cont_33_lstm1_cont_slice_32_split_1
I0116 15:17:39.624029  5685 net.cpp:124] Setting up cont_33_lstm1_cont_slice_32_split
I0116 15:17:39.624034  5685 net.cpp:131] Top shape: 1 512 (512)
I0116 15:17:39.624038  5685 net.cpp:131] Top shape: 1 512 (512)
I0116 15:17:39.624042  5685 net.cpp:139] Memory required for data: 15618048
I0116 15:17:39.624044  5685 layer_factory.hpp:77] Creating layer cont_34_lstm1_cont_slice_33_split
I0116 15:17:39.624058  5685 net.cpp:86] Creating Layer cont_34_lstm1_cont_slice_33_split
I0116 15:17:39.624063  5685 net.cpp:408] cont_34_lstm1_cont_slice_33_split <- cont_34
I0116 15:17:39.624068  5685 net.cpp:382] cont_34_lstm1_cont_slice_33_split -> cont_34_lstm1_cont_slice_33_split_0
I0116 15:17:39.624074  5685 net.cpp:382] cont_34_lstm1_cont_slice_33_split -> cont_34_lstm1_cont_slice_33_split_1
I0116 15:17:39.624109  5685 net.cpp:124] Setting up cont_34_lstm1_cont_slice_33_split
I0116 15:17:39.624114  5685 net.cpp:131] Top shape: 1 512 (512)
I0116 15:17:39.624119  5685 net.cpp:131] Top shape: 1 512 (512)
I0116 15:17:39.624120  5685 net.cpp:139] Memory required for data: 15622144
I0116 15:17:39.624124  5685 layer_factory.hpp:77] Creating layer cont_35_lstm1_cont_slice_34_split
I0116 15:17:39.624128  5685 net.cpp:86] Creating Layer cont_35_lstm1_cont_slice_34_split
I0116 15:17:39.624132  5685 net.cpp:408] cont_35_lstm1_cont_slice_34_split <- cont_35
I0116 15:17:39.624137  5685 net.cpp:382] cont_35_lstm1_cont_slice_34_split -> cont_35_lstm1_cont_slice_34_split_0
I0116 15:17:39.624143  5685 net.cpp:382] cont_35_lstm1_cont_slice_34_split -> cont_35_lstm1_cont_slice_34_split_1
I0116 15:17:39.624176  5685 net.cpp:124] Setting up cont_35_lstm1_cont_slice_34_split
I0116 15:17:39.624182  5685 net.cpp:131] Top shape: 1 512 (512)
I0116 15:17:39.624186  5685 net.cpp:131] Top shape: 1 512 (512)
I0116 15:17:39.624188  5685 net.cpp:139] Memory required for data: 15626240
I0116 15:17:39.624191  5685 layer_factory.hpp:77] Creating layer cont_36_lstm1_cont_slice_35_split
I0116 15:17:39.624198  5685 net.cpp:86] Creating Layer cont_36_lstm1_cont_slice_35_split
I0116 15:17:39.624202  5685 net.cpp:408] cont_36_lstm1_cont_slice_35_split <- cont_36
I0116 15:17:39.624207  5685 net.cpp:382] cont_36_lstm1_cont_slice_35_split -> cont_36_lstm1_cont_slice_35_split_0
I0116 15:17:39.624212  5685 net.cpp:382] cont_36_lstm1_cont_slice_35_split -> cont_36_lstm1_cont_slice_35_split_1
I0116 15:17:39.624246  5685 net.cpp:124] Setting up cont_36_lstm1_cont_slice_35_split
I0116 15:17:39.624251  5685 net.cpp:131] Top shape: 1 512 (512)
I0116 15:17:39.624255  5685 net.cpp:131] Top shape: 1 512 (512)
I0116 15:17:39.624258  5685 net.cpp:139] Memory required for data: 15630336
I0116 15:17:39.624261  5685 layer_factory.hpp:77] Creating layer cont_37_lstm1_cont_slice_36_split
I0116 15:17:39.624265  5685 net.cpp:86] Creating Layer cont_37_lstm1_cont_slice_36_split
I0116 15:17:39.624269  5685 net.cpp:408] cont_37_lstm1_cont_slice_36_split <- cont_37
I0116 15:17:39.624274  5685 net.cpp:382] cont_37_lstm1_cont_slice_36_split -> cont_37_lstm1_cont_slice_36_split_0
I0116 15:17:39.624280  5685 net.cpp:382] cont_37_lstm1_cont_slice_36_split -> cont_37_lstm1_cont_slice_36_split_1
I0116 15:17:39.624313  5685 net.cpp:124] Setting up cont_37_lstm1_cont_slice_36_split
I0116 15:17:39.624318  5685 net.cpp:131] Top shape: 1 512 (512)
I0116 15:17:39.624321  5685 net.cpp:131] Top shape: 1 512 (512)
I0116 15:17:39.624325  5685 net.cpp:139] Memory required for data: 15634432
I0116 15:17:39.624328  5685 layer_factory.hpp:77] Creating layer cont_38_lstm1_cont_slice_37_split
I0116 15:17:39.624332  5685 net.cpp:86] Creating Layer cont_38_lstm1_cont_slice_37_split
I0116 15:17:39.624336  5685 net.cpp:408] cont_38_lstm1_cont_slice_37_split <- cont_38
I0116 15:17:39.624343  5685 net.cpp:382] cont_38_lstm1_cont_slice_37_split -> cont_38_lstm1_cont_slice_37_split_0
I0116 15:17:39.624349  5685 net.cpp:382] cont_38_lstm1_cont_slice_37_split -> cont_38_lstm1_cont_slice_37_split_1
I0116 15:17:39.624385  5685 net.cpp:124] Setting up cont_38_lstm1_cont_slice_37_split
I0116 15:17:39.624390  5685 net.cpp:131] Top shape: 1 512 (512)
I0116 15:17:39.624395  5685 net.cpp:131] Top shape: 1 512 (512)
I0116 15:17:39.624398  5685 net.cpp:139] Memory required for data: 15638528
I0116 15:17:39.624402  5685 layer_factory.hpp:77] Creating layer cont_39_lstm1_cont_slice_38_split
I0116 15:17:39.624405  5685 net.cpp:86] Creating Layer cont_39_lstm1_cont_slice_38_split
I0116 15:17:39.624410  5685 net.cpp:408] cont_39_lstm1_cont_slice_38_split <- cont_39
I0116 15:17:39.624423  5685 net.cpp:382] cont_39_lstm1_cont_slice_38_split -> cont_39_lstm1_cont_slice_38_split_0
I0116 15:17:39.624429  5685 net.cpp:382] cont_39_lstm1_cont_slice_38_split -> cont_39_lstm1_cont_slice_38_split_1
I0116 15:17:39.624464  5685 net.cpp:124] Setting up cont_39_lstm1_cont_slice_38_split
I0116 15:17:39.624469  5685 net.cpp:131] Top shape: 1 512 (512)
I0116 15:17:39.624472  5685 net.cpp:131] Top shape: 1 512 (512)
I0116 15:17:39.624475  5685 net.cpp:139] Memory required for data: 15642624
I0116 15:17:39.624478  5685 layer_factory.hpp:77] Creating layer cont_40_lstm1_cont_slice_39_split
I0116 15:17:39.624483  5685 net.cpp:86] Creating Layer cont_40_lstm1_cont_slice_39_split
I0116 15:17:39.624486  5685 net.cpp:408] cont_40_lstm1_cont_slice_39_split <- cont_40
I0116 15:17:39.624493  5685 net.cpp:382] cont_40_lstm1_cont_slice_39_split -> cont_40_lstm1_cont_slice_39_split_0
I0116 15:17:39.624500  5685 net.cpp:382] cont_40_lstm1_cont_slice_39_split -> cont_40_lstm1_cont_slice_39_split_1
I0116 15:17:39.624533  5685 net.cpp:124] Setting up cont_40_lstm1_cont_slice_39_split
I0116 15:17:39.624538  5685 net.cpp:131] Top shape: 1 512 (512)
I0116 15:17:39.624542  5685 net.cpp:131] Top shape: 1 512 (512)
I0116 15:17:39.624545  5685 net.cpp:139] Memory required for data: 15646720
I0116 15:17:39.624548  5685 layer_factory.hpp:77] Creating layer cont_41_lstm1_cont_slice_40_split
I0116 15:17:39.624553  5685 net.cpp:86] Creating Layer cont_41_lstm1_cont_slice_40_split
I0116 15:17:39.624557  5685 net.cpp:408] cont_41_lstm1_cont_slice_40_split <- cont_41
I0116 15:17:39.624562  5685 net.cpp:382] cont_41_lstm1_cont_slice_40_split -> cont_41_lstm1_cont_slice_40_split_0
I0116 15:17:39.624568  5685 net.cpp:382] cont_41_lstm1_cont_slice_40_split -> cont_41_lstm1_cont_slice_40_split_1
I0116 15:17:39.624600  5685 net.cpp:124] Setting up cont_41_lstm1_cont_slice_40_split
I0116 15:17:39.624605  5685 net.cpp:131] Top shape: 1 512 (512)
I0116 15:17:39.624608  5685 net.cpp:131] Top shape: 1 512 (512)
I0116 15:17:39.624613  5685 net.cpp:139] Memory required for data: 15650816
I0116 15:17:39.624615  5685 layer_factory.hpp:77] Creating layer cont_42_lstm1_cont_slice_41_split
I0116 15:17:39.624619  5685 net.cpp:86] Creating Layer cont_42_lstm1_cont_slice_41_split
I0116 15:17:39.624624  5685 net.cpp:408] cont_42_lstm1_cont_slice_41_split <- cont_42
I0116 15:17:39.624630  5685 net.cpp:382] cont_42_lstm1_cont_slice_41_split -> cont_42_lstm1_cont_slice_41_split_0
I0116 15:17:39.624636  5685 net.cpp:382] cont_42_lstm1_cont_slice_41_split -> cont_42_lstm1_cont_slice_41_split_1
I0116 15:17:39.624670  5685 net.cpp:124] Setting up cont_42_lstm1_cont_slice_41_split
I0116 15:17:39.624673  5685 net.cpp:131] Top shape: 1 512 (512)
I0116 15:17:39.624678  5685 net.cpp:131] Top shape: 1 512 (512)
I0116 15:17:39.624681  5685 net.cpp:139] Memory required for data: 15654912
I0116 15:17:39.624685  5685 layer_factory.hpp:77] Creating layer cont_43_lstm1_cont_slice_42_split
I0116 15:17:39.624688  5685 net.cpp:86] Creating Layer cont_43_lstm1_cont_slice_42_split
I0116 15:17:39.624692  5685 net.cpp:408] cont_43_lstm1_cont_slice_42_split <- cont_43
I0116 15:17:39.624697  5685 net.cpp:382] cont_43_lstm1_cont_slice_42_split -> cont_43_lstm1_cont_slice_42_split_0
I0116 15:17:39.624703  5685 net.cpp:382] cont_43_lstm1_cont_slice_42_split -> cont_43_lstm1_cont_slice_42_split_1
I0116 15:17:39.624737  5685 net.cpp:124] Setting up cont_43_lstm1_cont_slice_42_split
I0116 15:17:39.624742  5685 net.cpp:131] Top shape: 1 512 (512)
I0116 15:17:39.624745  5685 net.cpp:131] Top shape: 1 512 (512)
I0116 15:17:39.624748  5685 net.cpp:139] Memory required for data: 15659008
I0116 15:17:39.624750  5685 layer_factory.hpp:77] Creating layer cont_44_lstm1_cont_slice_43_split
I0116 15:17:39.624756  5685 net.cpp:86] Creating Layer cont_44_lstm1_cont_slice_43_split
I0116 15:17:39.624759  5685 net.cpp:408] cont_44_lstm1_cont_slice_43_split <- cont_44
I0116 15:17:39.624766  5685 net.cpp:382] cont_44_lstm1_cont_slice_43_split -> cont_44_lstm1_cont_slice_43_split_0
I0116 15:17:39.624779  5685 net.cpp:382] cont_44_lstm1_cont_slice_43_split -> cont_44_lstm1_cont_slice_43_split_1
I0116 15:17:39.624815  5685 net.cpp:124] Setting up cont_44_lstm1_cont_slice_43_split
I0116 15:17:39.624820  5685 net.cpp:131] Top shape: 1 512 (512)
I0116 15:17:39.624824  5685 net.cpp:131] Top shape: 1 512 (512)
I0116 15:17:39.624826  5685 net.cpp:139] Memory required for data: 15663104
I0116 15:17:39.624830  5685 layer_factory.hpp:77] Creating layer cont_45_lstm1_cont_slice_44_split
I0116 15:17:39.624835  5685 net.cpp:86] Creating Layer cont_45_lstm1_cont_slice_44_split
I0116 15:17:39.624838  5685 net.cpp:408] cont_45_lstm1_cont_slice_44_split <- cont_45
I0116 15:17:39.624843  5685 net.cpp:382] cont_45_lstm1_cont_slice_44_split -> cont_45_lstm1_cont_slice_44_split_0
I0116 15:17:39.624850  5685 net.cpp:382] cont_45_lstm1_cont_slice_44_split -> cont_45_lstm1_cont_slice_44_split_1
I0116 15:17:39.624882  5685 net.cpp:124] Setting up cont_45_lstm1_cont_slice_44_split
I0116 15:17:39.624887  5685 net.cpp:131] Top shape: 1 512 (512)
I0116 15:17:39.624891  5685 net.cpp:131] Top shape: 1 512 (512)
I0116 15:17:39.624896  5685 net.cpp:139] Memory required for data: 15667200
I0116 15:17:39.624898  5685 layer_factory.hpp:77] Creating layer cont_46_lstm1_cont_slice_45_split
I0116 15:17:39.624902  5685 net.cpp:86] Creating Layer cont_46_lstm1_cont_slice_45_split
I0116 15:17:39.624907  5685 net.cpp:408] cont_46_lstm1_cont_slice_45_split <- cont_46
I0116 15:17:39.624913  5685 net.cpp:382] cont_46_lstm1_cont_slice_45_split -> cont_46_lstm1_cont_slice_45_split_0
I0116 15:17:39.624919  5685 net.cpp:382] cont_46_lstm1_cont_slice_45_split -> cont_46_lstm1_cont_slice_45_split_1
I0116 15:17:39.624950  5685 net.cpp:124] Setting up cont_46_lstm1_cont_slice_45_split
I0116 15:17:39.624954  5685 net.cpp:131] Top shape: 1 512 (512)
I0116 15:17:39.624959  5685 net.cpp:131] Top shape: 1 512 (512)
I0116 15:17:39.624963  5685 net.cpp:139] Memory required for data: 15671296
I0116 15:17:39.624964  5685 layer_factory.hpp:77] Creating layer cont_47_lstm1_cont_slice_46_split
I0116 15:17:39.624971  5685 net.cpp:86] Creating Layer cont_47_lstm1_cont_slice_46_split
I0116 15:17:39.624976  5685 net.cpp:408] cont_47_lstm1_cont_slice_46_split <- cont_47
I0116 15:17:39.624981  5685 net.cpp:382] cont_47_lstm1_cont_slice_46_split -> cont_47_lstm1_cont_slice_46_split_0
I0116 15:17:39.624987  5685 net.cpp:382] cont_47_lstm1_cont_slice_46_split -> cont_47_lstm1_cont_slice_46_split_1
I0116 15:17:39.625020  5685 net.cpp:124] Setting up cont_47_lstm1_cont_slice_46_split
I0116 15:17:39.625025  5685 net.cpp:131] Top shape: 1 512 (512)
I0116 15:17:39.625028  5685 net.cpp:131] Top shape: 1 512 (512)
I0116 15:17:39.625031  5685 net.cpp:139] Memory required for data: 15675392
I0116 15:17:39.625033  5685 layer_factory.hpp:77] Creating layer cont_48_lstm1_cont_slice_47_split
I0116 15:17:39.625039  5685 net.cpp:86] Creating Layer cont_48_lstm1_cont_slice_47_split
I0116 15:17:39.625042  5685 net.cpp:408] cont_48_lstm1_cont_slice_47_split <- cont_48
I0116 15:17:39.625047  5685 net.cpp:382] cont_48_lstm1_cont_slice_47_split -> cont_48_lstm1_cont_slice_47_split_0
I0116 15:17:39.625056  5685 net.cpp:382] cont_48_lstm1_cont_slice_47_split -> cont_48_lstm1_cont_slice_47_split_1
I0116 15:17:39.625098  5685 net.cpp:124] Setting up cont_48_lstm1_cont_slice_47_split
I0116 15:17:39.625108  5685 net.cpp:131] Top shape: 1 512 (512)
I0116 15:17:39.625113  5685 net.cpp:131] Top shape: 1 512 (512)
I0116 15:17:39.625118  5685 net.cpp:139] Memory required for data: 15679488
I0116 15:17:39.625124  5685 layer_factory.hpp:77] Creating layer cont_49_lstm1_cont_slice_48_split
I0116 15:17:39.625135  5685 net.cpp:86] Creating Layer cont_49_lstm1_cont_slice_48_split
I0116 15:17:39.625139  5685 net.cpp:408] cont_49_lstm1_cont_slice_48_split <- cont_49
I0116 15:17:39.625144  5685 net.cpp:382] cont_49_lstm1_cont_slice_48_split -> cont_49_lstm1_cont_slice_48_split_0
I0116 15:17:39.625152  5685 net.cpp:382] cont_49_lstm1_cont_slice_48_split -> cont_49_lstm1_cont_slice_48_split_1
I0116 15:17:39.625206  5685 net.cpp:124] Setting up cont_49_lstm1_cont_slice_48_split
I0116 15:17:39.625216  5685 net.cpp:131] Top shape: 1 512 (512)
I0116 15:17:39.625221  5685 net.cpp:131] Top shape: 1 512 (512)
I0116 15:17:39.625227  5685 net.cpp:139] Memory required for data: 15683584
I0116 15:17:39.625232  5685 layer_factory.hpp:77] Creating layer cont_50_lstm1_cont_slice_49_split
I0116 15:17:39.625241  5685 net.cpp:86] Creating Layer cont_50_lstm1_cont_slice_49_split
I0116 15:17:39.625244  5685 net.cpp:408] cont_50_lstm1_cont_slice_49_split <- cont_50
I0116 15:17:39.625250  5685 net.cpp:382] cont_50_lstm1_cont_slice_49_split -> cont_50_lstm1_cont_slice_49_split_0
I0116 15:17:39.625262  5685 net.cpp:382] cont_50_lstm1_cont_slice_49_split -> cont_50_lstm1_cont_slice_49_split_1
I0116 15:17:39.625308  5685 net.cpp:124] Setting up cont_50_lstm1_cont_slice_49_split
I0116 15:17:39.625316  5685 net.cpp:131] Top shape: 1 512 (512)
I0116 15:17:39.625324  5685 net.cpp:131] Top shape: 1 512 (512)
I0116 15:17:39.625327  5685 net.cpp:139] Memory required for data: 15687680
I0116 15:17:39.625332  5685 layer_factory.hpp:77] Creating layer cont_51_lstm1_cont_slice_50_split
I0116 15:17:39.625344  5685 net.cpp:86] Creating Layer cont_51_lstm1_cont_slice_50_split
I0116 15:17:39.625351  5685 net.cpp:408] cont_51_lstm1_cont_slice_50_split <- cont_51
I0116 15:17:39.625360  5685 net.cpp:382] cont_51_lstm1_cont_slice_50_split -> cont_51_lstm1_cont_slice_50_split_0
I0116 15:17:39.625370  5685 net.cpp:382] cont_51_lstm1_cont_slice_50_split -> cont_51_lstm1_cont_slice_50_split_1
I0116 15:17:39.625416  5685 net.cpp:124] Setting up cont_51_lstm1_cont_slice_50_split
I0116 15:17:39.625423  5685 net.cpp:131] Top shape: 1 512 (512)
I0116 15:17:39.625430  5685 net.cpp:131] Top shape: 1 512 (512)
I0116 15:17:39.625434  5685 net.cpp:139] Memory required for data: 15691776
I0116 15:17:39.625439  5685 layer_factory.hpp:77] Creating layer cont_52_lstm1_cont_slice_51_split
I0116 15:17:39.625445  5685 net.cpp:86] Creating Layer cont_52_lstm1_cont_slice_51_split
I0116 15:17:39.625452  5685 net.cpp:408] cont_52_lstm1_cont_slice_51_split <- cont_52
I0116 15:17:39.625459  5685 net.cpp:382] cont_52_lstm1_cont_slice_51_split -> cont_52_lstm1_cont_slice_51_split_0
I0116 15:17:39.625468  5685 net.cpp:382] cont_52_lstm1_cont_slice_51_split -> cont_52_lstm1_cont_slice_51_split_1
I0116 15:17:39.625510  5685 net.cpp:124] Setting up cont_52_lstm1_cont_slice_51_split
I0116 15:17:39.625519  5685 net.cpp:131] Top shape: 1 512 (512)
I0116 15:17:39.625524  5685 net.cpp:131] Top shape: 1 512 (512)
I0116 15:17:39.625526  5685 net.cpp:139] Memory required for data: 15695872
I0116 15:17:39.625531  5685 layer_factory.hpp:77] Creating layer cont_53_lstm1_cont_slice_52_split
I0116 15:17:39.625540  5685 net.cpp:86] Creating Layer cont_53_lstm1_cont_slice_52_split
I0116 15:17:39.625545  5685 net.cpp:408] cont_53_lstm1_cont_slice_52_split <- cont_53
I0116 15:17:39.625552  5685 net.cpp:382] cont_53_lstm1_cont_slice_52_split -> cont_53_lstm1_cont_slice_52_split_0
I0116 15:17:39.625563  5685 net.cpp:382] cont_53_lstm1_cont_slice_52_split -> cont_53_lstm1_cont_slice_52_split_1
I0116 15:17:39.625607  5685 net.cpp:124] Setting up cont_53_lstm1_cont_slice_52_split
I0116 15:17:39.625613  5685 net.cpp:131] Top shape: 1 512 (512)
I0116 15:17:39.625617  5685 net.cpp:131] Top shape: 1 512 (512)
I0116 15:17:39.625623  5685 net.cpp:139] Memory required for data: 15699968
I0116 15:17:39.625628  5685 layer_factory.hpp:77] Creating layer cont_54_lstm1_cont_slice_53_split
I0116 15:17:39.625635  5685 net.cpp:86] Creating Layer cont_54_lstm1_cont_slice_53_split
I0116 15:17:39.625641  5685 net.cpp:408] cont_54_lstm1_cont_slice_53_split <- cont_54
I0116 15:17:39.625648  5685 net.cpp:382] cont_54_lstm1_cont_slice_53_split -> cont_54_lstm1_cont_slice_53_split_0
I0116 15:17:39.625655  5685 net.cpp:382] cont_54_lstm1_cont_slice_53_split -> cont_54_lstm1_cont_slice_53_split_1
I0116 15:17:39.625695  5685 net.cpp:124] Setting up cont_54_lstm1_cont_slice_53_split
I0116 15:17:39.625700  5685 net.cpp:131] Top shape: 1 512 (512)
I0116 15:17:39.625713  5685 net.cpp:131] Top shape: 1 512 (512)
I0116 15:17:39.625716  5685 net.cpp:139] Memory required for data: 15704064
I0116 15:17:39.625720  5685 layer_factory.hpp:77] Creating layer cont_55_lstm1_cont_slice_54_split
I0116 15:17:39.625725  5685 net.cpp:86] Creating Layer cont_55_lstm1_cont_slice_54_split
I0116 15:17:39.625728  5685 net.cpp:408] cont_55_lstm1_cont_slice_54_split <- cont_55
I0116 15:17:39.625736  5685 net.cpp:382] cont_55_lstm1_cont_slice_54_split -> cont_55_lstm1_cont_slice_54_split_0
I0116 15:17:39.625743  5685 net.cpp:382] cont_55_lstm1_cont_slice_54_split -> cont_55_lstm1_cont_slice_54_split_1
I0116 15:17:39.625779  5685 net.cpp:124] Setting up cont_55_lstm1_cont_slice_54_split
I0116 15:17:39.625784  5685 net.cpp:131] Top shape: 1 512 (512)
I0116 15:17:39.625788  5685 net.cpp:131] Top shape: 1 512 (512)
I0116 15:17:39.625792  5685 net.cpp:139] Memory required for data: 15708160
I0116 15:17:39.625794  5685 layer_factory.hpp:77] Creating layer cont_56_lstm1_cont_slice_55_split
I0116 15:17:39.625799  5685 net.cpp:86] Creating Layer cont_56_lstm1_cont_slice_55_split
I0116 15:17:39.625803  5685 net.cpp:408] cont_56_lstm1_cont_slice_55_split <- cont_56
I0116 15:17:39.625808  5685 net.cpp:382] cont_56_lstm1_cont_slice_55_split -> cont_56_lstm1_cont_slice_55_split_0
I0116 15:17:39.625814  5685 net.cpp:382] cont_56_lstm1_cont_slice_55_split -> cont_56_lstm1_cont_slice_55_split_1
I0116 15:17:39.625849  5685 net.cpp:124] Setting up cont_56_lstm1_cont_slice_55_split
I0116 15:17:39.625854  5685 net.cpp:131] Top shape: 1 512 (512)
I0116 15:17:39.625857  5685 net.cpp:131] Top shape: 1 512 (512)
I0116 15:17:39.625860  5685 net.cpp:139] Memory required for data: 15712256
I0116 15:17:39.625864  5685 layer_factory.hpp:77] Creating layer cont_57_lstm1_cont_slice_56_split
I0116 15:17:39.625869  5685 net.cpp:86] Creating Layer cont_57_lstm1_cont_slice_56_split
I0116 15:17:39.625871  5685 net.cpp:408] cont_57_lstm1_cont_slice_56_split <- cont_57
I0116 15:17:39.625879  5685 net.cpp:382] cont_57_lstm1_cont_slice_56_split -> cont_57_lstm1_cont_slice_56_split_0
I0116 15:17:39.625886  5685 net.cpp:382] cont_57_lstm1_cont_slice_56_split -> cont_57_lstm1_cont_slice_56_split_1
I0116 15:17:39.625918  5685 net.cpp:124] Setting up cont_57_lstm1_cont_slice_56_split
I0116 15:17:39.625923  5685 net.cpp:131] Top shape: 1 512 (512)
I0116 15:17:39.625927  5685 net.cpp:131] Top shape: 1 512 (512)
I0116 15:17:39.625931  5685 net.cpp:139] Memory required for data: 15716352
I0116 15:17:39.625933  5685 layer_factory.hpp:77] Creating layer cont_58_lstm1_cont_slice_57_split
I0116 15:17:39.625938  5685 net.cpp:86] Creating Layer cont_58_lstm1_cont_slice_57_split
I0116 15:17:39.625941  5685 net.cpp:408] cont_58_lstm1_cont_slice_57_split <- cont_58
I0116 15:17:39.625947  5685 net.cpp:382] cont_58_lstm1_cont_slice_57_split -> cont_58_lstm1_cont_slice_57_split_0
I0116 15:17:39.625953  5685 net.cpp:382] cont_58_lstm1_cont_slice_57_split -> cont_58_lstm1_cont_slice_57_split_1
I0116 15:17:39.625986  5685 net.cpp:124] Setting up cont_58_lstm1_cont_slice_57_split
I0116 15:17:39.625991  5685 net.cpp:131] Top shape: 1 512 (512)
I0116 15:17:39.625996  5685 net.cpp:131] Top shape: 1 512 (512)
I0116 15:17:39.625998  5685 net.cpp:139] Memory required for data: 15720448
I0116 15:17:39.626001  5685 layer_factory.hpp:77] Creating layer cont_59_lstm1_cont_slice_58_split
I0116 15:17:39.626006  5685 net.cpp:86] Creating Layer cont_59_lstm1_cont_slice_58_split
I0116 15:17:39.626010  5685 net.cpp:408] cont_59_lstm1_cont_slice_58_split <- cont_59
I0116 15:17:39.626016  5685 net.cpp:382] cont_59_lstm1_cont_slice_58_split -> cont_59_lstm1_cont_slice_58_split_0
I0116 15:17:39.626024  5685 net.cpp:382] cont_59_lstm1_cont_slice_58_split -> cont_59_lstm1_cont_slice_58_split_1
I0116 15:17:39.626056  5685 net.cpp:124] Setting up cont_59_lstm1_cont_slice_58_split
I0116 15:17:39.626062  5685 net.cpp:131] Top shape: 1 512 (512)
I0116 15:17:39.626065  5685 net.cpp:131] Top shape: 1 512 (512)
I0116 15:17:39.626068  5685 net.cpp:139] Memory required for data: 15724544
I0116 15:17:39.626078  5685 layer_factory.hpp:77] Creating layer cont_60_lstm1_cont_slice_59_split
I0116 15:17:39.626085  5685 net.cpp:86] Creating Layer cont_60_lstm1_cont_slice_59_split
I0116 15:17:39.626087  5685 net.cpp:408] cont_60_lstm1_cont_slice_59_split <- cont_60
I0116 15:17:39.626092  5685 net.cpp:382] cont_60_lstm1_cont_slice_59_split -> cont_60_lstm1_cont_slice_59_split_0
I0116 15:17:39.626098  5685 net.cpp:382] cont_60_lstm1_cont_slice_59_split -> cont_60_lstm1_cont_slice_59_split_1
I0116 15:17:39.626133  5685 net.cpp:124] Setting up cont_60_lstm1_cont_slice_59_split
I0116 15:17:39.626138  5685 net.cpp:131] Top shape: 1 512 (512)
I0116 15:17:39.626142  5685 net.cpp:131] Top shape: 1 512 (512)
I0116 15:17:39.626145  5685 net.cpp:139] Memory required for data: 15728640
I0116 15:17:39.626148  5685 layer_factory.hpp:77] Creating layer cont_61_lstm1_cont_slice_60_split
I0116 15:17:39.626153  5685 net.cpp:86] Creating Layer cont_61_lstm1_cont_slice_60_split
I0116 15:17:39.626157  5685 net.cpp:408] cont_61_lstm1_cont_slice_60_split <- cont_61
I0116 15:17:39.626165  5685 net.cpp:382] cont_61_lstm1_cont_slice_60_split -> cont_61_lstm1_cont_slice_60_split_0
I0116 15:17:39.626173  5685 net.cpp:382] cont_61_lstm1_cont_slice_60_split -> cont_61_lstm1_cont_slice_60_split_1
I0116 15:17:39.626205  5685 net.cpp:124] Setting up cont_61_lstm1_cont_slice_60_split
I0116 15:17:39.626209  5685 net.cpp:131] Top shape: 1 512 (512)
I0116 15:17:39.626214  5685 net.cpp:131] Top shape: 1 512 (512)
I0116 15:17:39.626217  5685 net.cpp:139] Memory required for data: 15732736
I0116 15:17:39.626219  5685 layer_factory.hpp:77] Creating layer cont_62_lstm1_cont_slice_61_split
I0116 15:17:39.626229  5685 net.cpp:86] Creating Layer cont_62_lstm1_cont_slice_61_split
I0116 15:17:39.626232  5685 net.cpp:408] cont_62_lstm1_cont_slice_61_split <- cont_62
I0116 15:17:39.626240  5685 net.cpp:382] cont_62_lstm1_cont_slice_61_split -> cont_62_lstm1_cont_slice_61_split_0
I0116 15:17:39.626245  5685 net.cpp:382] cont_62_lstm1_cont_slice_61_split -> cont_62_lstm1_cont_slice_61_split_1
I0116 15:17:39.626281  5685 net.cpp:124] Setting up cont_62_lstm1_cont_slice_61_split
I0116 15:17:39.626286  5685 net.cpp:131] Top shape: 1 512 (512)
I0116 15:17:39.626289  5685 net.cpp:131] Top shape: 1 512 (512)
I0116 15:17:39.626292  5685 net.cpp:139] Memory required for data: 15736832
I0116 15:17:39.626296  5685 layer_factory.hpp:77] Creating layer cont_63_lstm1_cont_slice_62_split
I0116 15:17:39.626301  5685 net.cpp:86] Creating Layer cont_63_lstm1_cont_slice_62_split
I0116 15:17:39.626305  5685 net.cpp:408] cont_63_lstm1_cont_slice_62_split <- cont_63
I0116 15:17:39.626310  5685 net.cpp:382] cont_63_lstm1_cont_slice_62_split -> cont_63_lstm1_cont_slice_62_split_0
I0116 15:17:39.626315  5685 net.cpp:382] cont_63_lstm1_cont_slice_62_split -> cont_63_lstm1_cont_slice_62_split_1
I0116 15:17:39.626349  5685 net.cpp:124] Setting up cont_63_lstm1_cont_slice_62_split
I0116 15:17:39.626355  5685 net.cpp:131] Top shape: 1 512 (512)
I0116 15:17:39.626359  5685 net.cpp:131] Top shape: 1 512 (512)
I0116 15:17:39.626361  5685 net.cpp:139] Memory required for data: 15740928
I0116 15:17:39.626364  5685 layer_factory.hpp:77] Creating layer cont_64_lstm1_cont_slice_63_split
I0116 15:17:39.626370  5685 net.cpp:86] Creating Layer cont_64_lstm1_cont_slice_63_split
I0116 15:17:39.626374  5685 net.cpp:408] cont_64_lstm1_cont_slice_63_split <- cont_64
I0116 15:17:39.626380  5685 net.cpp:382] cont_64_lstm1_cont_slice_63_split -> cont_64_lstm1_cont_slice_63_split_0
I0116 15:17:39.626387  5685 net.cpp:382] cont_64_lstm1_cont_slice_63_split -> cont_64_lstm1_cont_slice_63_split_1
I0116 15:17:39.626420  5685 net.cpp:124] Setting up cont_64_lstm1_cont_slice_63_split
I0116 15:17:39.626425  5685 net.cpp:131] Top shape: 1 512 (512)
I0116 15:17:39.626430  5685 net.cpp:131] Top shape: 1 512 (512)
I0116 15:17:39.626432  5685 net.cpp:139] Memory required for data: 15745024
I0116 15:17:39.626436  5685 layer_factory.hpp:77] Creating layer cont_65_lstm1_cont_slice_64_split
I0116 15:17:39.626449  5685 net.cpp:86] Creating Layer cont_65_lstm1_cont_slice_64_split
I0116 15:17:39.626453  5685 net.cpp:408] cont_65_lstm1_cont_slice_64_split <- cont_65
I0116 15:17:39.626458  5685 net.cpp:382] cont_65_lstm1_cont_slice_64_split -> cont_65_lstm1_cont_slice_64_split_0
I0116 15:17:39.626466  5685 net.cpp:382] cont_65_lstm1_cont_slice_64_split -> cont_65_lstm1_cont_slice_64_split_1
I0116 15:17:39.626500  5685 net.cpp:124] Setting up cont_65_lstm1_cont_slice_64_split
I0116 15:17:39.626505  5685 net.cpp:131] Top shape: 1 512 (512)
I0116 15:17:39.626508  5685 net.cpp:131] Top shape: 1 512 (512)
I0116 15:17:39.626513  5685 net.cpp:139] Memory required for data: 15749120
I0116 15:17:39.626515  5685 layer_factory.hpp:77] Creating layer cont_66_lstm1_cont_slice_65_split
I0116 15:17:39.626519  5685 net.cpp:86] Creating Layer cont_66_lstm1_cont_slice_65_split
I0116 15:17:39.626523  5685 net.cpp:408] cont_66_lstm1_cont_slice_65_split <- cont_66
I0116 15:17:39.626530  5685 net.cpp:382] cont_66_lstm1_cont_slice_65_split -> cont_66_lstm1_cont_slice_65_split_0
I0116 15:17:39.626538  5685 net.cpp:382] cont_66_lstm1_cont_slice_65_split -> cont_66_lstm1_cont_slice_65_split_1
I0116 15:17:39.626572  5685 net.cpp:124] Setting up cont_66_lstm1_cont_slice_65_split
I0116 15:17:39.626577  5685 net.cpp:131] Top shape: 1 512 (512)
I0116 15:17:39.626582  5685 net.cpp:131] Top shape: 1 512 (512)
I0116 15:17:39.626585  5685 net.cpp:139] Memory required for data: 15753216
I0116 15:17:39.626587  5685 layer_factory.hpp:77] Creating layer cont_67_lstm1_cont_slice_66_split
I0116 15:17:39.626592  5685 net.cpp:86] Creating Layer cont_67_lstm1_cont_slice_66_split
I0116 15:17:39.626596  5685 net.cpp:408] cont_67_lstm1_cont_slice_66_split <- cont_67
I0116 15:17:39.626601  5685 net.cpp:382] cont_67_lstm1_cont_slice_66_split -> cont_67_lstm1_cont_slice_66_split_0
I0116 15:17:39.626606  5685 net.cpp:382] cont_67_lstm1_cont_slice_66_split -> cont_67_lstm1_cont_slice_66_split_1
I0116 15:17:39.626639  5685 net.cpp:124] Setting up cont_67_lstm1_cont_slice_66_split
I0116 15:17:39.626646  5685 net.cpp:131] Top shape: 1 512 (512)
I0116 15:17:39.626649  5685 net.cpp:131] Top shape: 1 512 (512)
I0116 15:17:39.626652  5685 net.cpp:139] Memory required for data: 15757312
I0116 15:17:39.626654  5685 layer_factory.hpp:77] Creating layer cont_68_lstm1_cont_slice_67_split
I0116 15:17:39.626660  5685 net.cpp:86] Creating Layer cont_68_lstm1_cont_slice_67_split
I0116 15:17:39.626663  5685 net.cpp:408] cont_68_lstm1_cont_slice_67_split <- cont_68
I0116 15:17:39.626669  5685 net.cpp:382] cont_68_lstm1_cont_slice_67_split -> cont_68_lstm1_cont_slice_67_split_0
I0116 15:17:39.626677  5685 net.cpp:382] cont_68_lstm1_cont_slice_67_split -> cont_68_lstm1_cont_slice_67_split_1
I0116 15:17:39.626711  5685 net.cpp:124] Setting up cont_68_lstm1_cont_slice_67_split
I0116 15:17:39.626716  5685 net.cpp:131] Top shape: 1 512 (512)
I0116 15:17:39.626719  5685 net.cpp:131] Top shape: 1 512 (512)
I0116 15:17:39.626722  5685 net.cpp:139] Memory required for data: 15761408
I0116 15:17:39.626726  5685 layer_factory.hpp:77] Creating layer cont_69_lstm1_cont_slice_68_split
I0116 15:17:39.626730  5685 net.cpp:86] Creating Layer cont_69_lstm1_cont_slice_68_split
I0116 15:17:39.626734  5685 net.cpp:408] cont_69_lstm1_cont_slice_68_split <- cont_69
I0116 15:17:39.626739  5685 net.cpp:382] cont_69_lstm1_cont_slice_68_split -> cont_69_lstm1_cont_slice_68_split_0
I0116 15:17:39.626745  5685 net.cpp:382] cont_69_lstm1_cont_slice_68_split -> cont_69_lstm1_cont_slice_68_split_1
I0116 15:17:39.626788  5685 net.cpp:124] Setting up cont_69_lstm1_cont_slice_68_split
I0116 15:17:39.626794  5685 net.cpp:131] Top shape: 1 512 (512)
I0116 15:17:39.626798  5685 net.cpp:131] Top shape: 1 512 (512)
I0116 15:17:39.626802  5685 net.cpp:139] Memory required for data: 15765504
I0116 15:17:39.626806  5685 layer_factory.hpp:77] Creating layer cont_70_lstm1_cont_slice_69_split
I0116 15:17:39.626809  5685 net.cpp:86] Creating Layer cont_70_lstm1_cont_slice_69_split
I0116 15:17:39.626813  5685 net.cpp:408] cont_70_lstm1_cont_slice_69_split <- cont_70
I0116 15:17:39.626829  5685 net.cpp:382] cont_70_lstm1_cont_slice_69_split -> cont_70_lstm1_cont_slice_69_split_0
I0116 15:17:39.626837  5685 net.cpp:382] cont_70_lstm1_cont_slice_69_split -> cont_70_lstm1_cont_slice_69_split_1
I0116 15:17:39.626870  5685 net.cpp:124] Setting up cont_70_lstm1_cont_slice_69_split
I0116 15:17:39.626874  5685 net.cpp:131] Top shape: 1 512 (512)
I0116 15:17:39.626879  5685 net.cpp:131] Top shape: 1 512 (512)
I0116 15:17:39.626883  5685 net.cpp:139] Memory required for data: 15769600
I0116 15:17:39.626885  5685 layer_factory.hpp:77] Creating layer cont_71_lstm1_cont_slice_70_split
I0116 15:17:39.626891  5685 net.cpp:86] Creating Layer cont_71_lstm1_cont_slice_70_split
I0116 15:17:39.626896  5685 net.cpp:408] cont_71_lstm1_cont_slice_70_split <- cont_71
I0116 15:17:39.626901  5685 net.cpp:382] cont_71_lstm1_cont_slice_70_split -> cont_71_lstm1_cont_slice_70_split_0
I0116 15:17:39.626907  5685 net.cpp:382] cont_71_lstm1_cont_slice_70_split -> cont_71_lstm1_cont_slice_70_split_1
I0116 15:17:39.629197  5685 net.cpp:124] Setting up cont_71_lstm1_cont_slice_70_split
I0116 15:17:39.629207  5685 net.cpp:131] Top shape: 1 512 (512)
I0116 15:17:39.629211  5685 net.cpp:131] Top shape: 1 512 (512)
I0116 15:17:39.629215  5685 net.cpp:139] Memory required for data: 15773696
I0116 15:17:39.629217  5685 layer_factory.hpp:77] Creating layer cont_72_lstm1_cont_slice_71_split
I0116 15:17:39.629223  5685 net.cpp:86] Creating Layer cont_72_lstm1_cont_slice_71_split
I0116 15:17:39.629226  5685 net.cpp:408] cont_72_lstm1_cont_slice_71_split <- cont_72
I0116 15:17:39.629232  5685 net.cpp:382] cont_72_lstm1_cont_slice_71_split -> cont_72_lstm1_cont_slice_71_split_0
I0116 15:17:39.629240  5685 net.cpp:382] cont_72_lstm1_cont_slice_71_split -> cont_72_lstm1_cont_slice_71_split_1
I0116 15:17:39.629276  5685 net.cpp:124] Setting up cont_72_lstm1_cont_slice_71_split
I0116 15:17:39.629281  5685 net.cpp:131] Top shape: 1 512 (512)
I0116 15:17:39.629283  5685 net.cpp:131] Top shape: 1 512 (512)
I0116 15:17:39.629287  5685 net.cpp:139] Memory required for data: 15777792
I0116 15:17:39.629290  5685 layer_factory.hpp:77] Creating layer cont_73_lstm1_cont_slice_72_split
I0116 15:17:39.629297  5685 net.cpp:86] Creating Layer cont_73_lstm1_cont_slice_72_split
I0116 15:17:39.629300  5685 net.cpp:408] cont_73_lstm1_cont_slice_72_split <- cont_73
I0116 15:17:39.629305  5685 net.cpp:382] cont_73_lstm1_cont_slice_72_split -> cont_73_lstm1_cont_slice_72_split_0
I0116 15:17:39.629312  5685 net.cpp:382] cont_73_lstm1_cont_slice_72_split -> cont_73_lstm1_cont_slice_72_split_1
I0116 15:17:39.629345  5685 net.cpp:124] Setting up cont_73_lstm1_cont_slice_72_split
I0116 15:17:39.629350  5685 net.cpp:131] Top shape: 1 512 (512)
I0116 15:17:39.629354  5685 net.cpp:131] Top shape: 1 512 (512)
I0116 15:17:39.629357  5685 net.cpp:139] Memory required for data: 15781888
I0116 15:17:39.629360  5685 layer_factory.hpp:77] Creating layer cont_74_lstm1_cont_slice_73_split
I0116 15:17:39.629365  5685 net.cpp:86] Creating Layer cont_74_lstm1_cont_slice_73_split
I0116 15:17:39.629369  5685 net.cpp:408] cont_74_lstm1_cont_slice_73_split <- cont_74
I0116 15:17:39.629374  5685 net.cpp:382] cont_74_lstm1_cont_slice_73_split -> cont_74_lstm1_cont_slice_73_split_0
I0116 15:17:39.629381  5685 net.cpp:382] cont_74_lstm1_cont_slice_73_split -> cont_74_lstm1_cont_slice_73_split_1
I0116 15:17:39.629413  5685 net.cpp:124] Setting up cont_74_lstm1_cont_slice_73_split
I0116 15:17:39.629418  5685 net.cpp:131] Top shape: 1 512 (512)
I0116 15:17:39.629423  5685 net.cpp:131] Top shape: 1 512 (512)
I0116 15:17:39.629426  5685 net.cpp:139] Memory required for data: 15785984
I0116 15:17:39.629428  5685 layer_factory.hpp:77] Creating layer cont_75_lstm1_cont_slice_74_split
I0116 15:17:39.629434  5685 net.cpp:86] Creating Layer cont_75_lstm1_cont_slice_74_split
I0116 15:17:39.629439  5685 net.cpp:408] cont_75_lstm1_cont_slice_74_split <- cont_75
I0116 15:17:39.629444  5685 net.cpp:382] cont_75_lstm1_cont_slice_74_split -> cont_75_lstm1_cont_slice_74_split_0
I0116 15:17:39.629459  5685 net.cpp:382] cont_75_lstm1_cont_slice_74_split -> cont_75_lstm1_cont_slice_74_split_1
I0116 15:17:39.629493  5685 net.cpp:124] Setting up cont_75_lstm1_cont_slice_74_split
I0116 15:17:39.629499  5685 net.cpp:131] Top shape: 1 512 (512)
I0116 15:17:39.629503  5685 net.cpp:131] Top shape: 1 512 (512)
I0116 15:17:39.629506  5685 net.cpp:139] Memory required for data: 15790080
I0116 15:17:39.629509  5685 layer_factory.hpp:77] Creating layer cont_76_lstm1_cont_slice_75_split
I0116 15:17:39.629514  5685 net.cpp:86] Creating Layer cont_76_lstm1_cont_slice_75_split
I0116 15:17:39.629518  5685 net.cpp:408] cont_76_lstm1_cont_slice_75_split <- cont_76
I0116 15:17:39.629523  5685 net.cpp:382] cont_76_lstm1_cont_slice_75_split -> cont_76_lstm1_cont_slice_75_split_0
I0116 15:17:39.629528  5685 net.cpp:382] cont_76_lstm1_cont_slice_75_split -> cont_76_lstm1_cont_slice_75_split_1
I0116 15:17:39.629562  5685 net.cpp:124] Setting up cont_76_lstm1_cont_slice_75_split
I0116 15:17:39.629567  5685 net.cpp:131] Top shape: 1 512 (512)
I0116 15:17:39.629571  5685 net.cpp:131] Top shape: 1 512 (512)
I0116 15:17:39.629573  5685 net.cpp:139] Memory required for data: 15794176
I0116 15:17:39.629577  5685 layer_factory.hpp:77] Creating layer cont_77_lstm1_cont_slice_76_split
I0116 15:17:39.629583  5685 net.cpp:86] Creating Layer cont_77_lstm1_cont_slice_76_split
I0116 15:17:39.629587  5685 net.cpp:408] cont_77_lstm1_cont_slice_76_split <- cont_77
I0116 15:17:39.629592  5685 net.cpp:382] cont_77_lstm1_cont_slice_76_split -> cont_77_lstm1_cont_slice_76_split_0
I0116 15:17:39.629600  5685 net.cpp:382] cont_77_lstm1_cont_slice_76_split -> cont_77_lstm1_cont_slice_76_split_1
I0116 15:17:39.629632  5685 net.cpp:124] Setting up cont_77_lstm1_cont_slice_76_split
I0116 15:17:39.629637  5685 net.cpp:131] Top shape: 1 512 (512)
I0116 15:17:39.629640  5685 net.cpp:131] Top shape: 1 512 (512)
I0116 15:17:39.629644  5685 net.cpp:139] Memory required for data: 15798272
I0116 15:17:39.629647  5685 layer_factory.hpp:77] Creating layer cont_78_lstm1_cont_slice_77_split
I0116 15:17:39.629652  5685 net.cpp:86] Creating Layer cont_78_lstm1_cont_slice_77_split
I0116 15:17:39.629654  5685 net.cpp:408] cont_78_lstm1_cont_slice_77_split <- cont_78
I0116 15:17:39.629660  5685 net.cpp:382] cont_78_lstm1_cont_slice_77_split -> cont_78_lstm1_cont_slice_77_split_0
I0116 15:17:39.629667  5685 net.cpp:382] cont_78_lstm1_cont_slice_77_split -> cont_78_lstm1_cont_slice_77_split_1
I0116 15:17:39.629700  5685 net.cpp:124] Setting up cont_78_lstm1_cont_slice_77_split
I0116 15:17:39.629705  5685 net.cpp:131] Top shape: 1 512 (512)
I0116 15:17:39.629709  5685 net.cpp:131] Top shape: 1 512 (512)
I0116 15:17:39.629712  5685 net.cpp:139] Memory required for data: 15802368
I0116 15:17:39.629715  5685 layer_factory.hpp:77] Creating layer cont_79_lstm1_cont_slice_78_split
I0116 15:17:39.629719  5685 net.cpp:86] Creating Layer cont_79_lstm1_cont_slice_78_split
I0116 15:17:39.629724  5685 net.cpp:408] cont_79_lstm1_cont_slice_78_split <- cont_79
I0116 15:17:39.629730  5685 net.cpp:382] cont_79_lstm1_cont_slice_78_split -> cont_79_lstm1_cont_slice_78_split_0
I0116 15:17:39.629736  5685 net.cpp:382] cont_79_lstm1_cont_slice_78_split -> cont_79_lstm1_cont_slice_78_split_1
I0116 15:17:39.629770  5685 net.cpp:124] Setting up cont_79_lstm1_cont_slice_78_split
I0116 15:17:39.629776  5685 net.cpp:131] Top shape: 1 512 (512)
I0116 15:17:39.629779  5685 net.cpp:131] Top shape: 1 512 (512)
I0116 15:17:39.629781  5685 net.cpp:139] Memory required for data: 15806464
I0116 15:17:39.629784  5685 layer_factory.hpp:77] Creating layer cont_80_lstm1_cont_slice_79_split
I0116 15:17:39.629789  5685 net.cpp:86] Creating Layer cont_80_lstm1_cont_slice_79_split
I0116 15:17:39.629793  5685 net.cpp:408] cont_80_lstm1_cont_slice_79_split <- cont_80
I0116 15:17:39.629798  5685 net.cpp:382] cont_80_lstm1_cont_slice_79_split -> cont_80_lstm1_cont_slice_79_split_0
I0116 15:17:39.629804  5685 net.cpp:382] cont_80_lstm1_cont_slice_79_split -> cont_80_lstm1_cont_slice_79_split_1
I0116 15:17:39.629850  5685 net.cpp:124] Setting up cont_80_lstm1_cont_slice_79_split
I0116 15:17:39.629855  5685 net.cpp:131] Top shape: 1 512 (512)
I0116 15:17:39.629859  5685 net.cpp:131] Top shape: 1 512 (512)
I0116 15:17:39.629861  5685 net.cpp:139] Memory required for data: 15810560
I0116 15:17:39.629865  5685 layer_factory.hpp:77] Creating layer lstm1_x_transform
I0116 15:17:39.629875  5685 net.cpp:86] Creating Layer lstm1_x_transform
I0116 15:17:39.629878  5685 net.cpp:408] lstm1_x_transform <- x
I0116 15:17:39.629884  5685 net.cpp:382] lstm1_x_transform -> W_xc_x
I0116 15:17:39.632848  5685 net.cpp:124] Setting up lstm1_x_transform
I0116 15:17:39.632863  5685 net.cpp:131] Top shape: 80 512 400 (16384000)
I0116 15:17:39.632866  5685 net.cpp:139] Memory required for data: 81346560
I0116 15:17:39.632884  5685 layer_factory.hpp:77] Creating layer lstm1_W_xc_x_slice
I0116 15:17:39.632899  5685 net.cpp:86] Creating Layer lstm1_W_xc_x_slice
I0116 15:17:39.640249  5685 net.cpp:408] lstm1_W_xc_x_slice <- W_xc_x
I0116 15:17:39.640301  5685 net.cpp:382] lstm1_W_xc_x_slice -> W_xc_x_1
I0116 15:17:39.640343  5685 net.cpp:382] lstm1_W_xc_x_slice -> W_xc_x_2
…
I0116 15:17:39.641464  5685 net.cpp:382] lstm1_W_xc_x_slice -> W_xc_x_74
I0116 15:17:39.641477  5685 net.cpp:382] lstm1_W_xc_x_slice -> W_xc_x_75
I0116 15:17:39.641489  5685 net.cpp:382] lstm1_W_xc_x_slice -> W_xc_x_76
I0116 15:17:39.641504  5685 net.cpp:382] lstm1_W_xc_x_slice -> W_xc_x_77
I0116 15:17:39.641515  5685 net.cpp:382] lstm1_W_xc_x_slice -> W_xc_x_78
I0116 15:17:39.641528  5685 net.cpp:382] lstm1_W_xc_x_slice -> W_xc_x_79
I0116 15:17:39.641541  5685 net.cpp:382] lstm1_W_xc_x_slice -> W_xc_x_80
I0116 15:17:39.642578  5685 net.cpp:124] Setting up lstm1_W_xc_x_slice
I0116 15:17:39.642587  5685 net.cpp:131] Top shape: 1 512 400 (204800)
I0116 15:17:39.642592  5685 net.cpp:131] Top shape: 1 512 400 (204800)
I0116 15:17:39.642596  5685 net.cpp:131] Top shape: 1 512 400 (204800)
I0116 15:17:39.642601  5685 net.cpp:131] Top shape: 1 512 400 (204800)
I0116 15:17:39.642604  5685 net.cpp:131] Top shape: 1 512 400 (204800)
I0116 15:17:39.642608  5685 net.cpp:131] Top shape: 1 512 400 (204800)
I0116 15:17:39.642612  5685 net.cpp:131] Top shape: 1 512 400 (204800)
I0116 15:17:39.642616  5685 net.cpp:131] Top shape: 1 512 400 (204800)
I0116 15:17:39.642621  5685 net.cpp:131] Top shape: 1 512 400 (204800)
I0116 15:17:39.642624  5685 net.cpp:131] Top shape: 1 512 400 (204800)
I0116 15:17:39.642628  5685 net.cpp:131] Top shape: 1 512 400 (204800)
I0116 15:17:39.642637  5685 net.cpp:131] Top shape: 1 512 400 (204800)
I0116 15:17:39.642640  5685 net.cpp:131] Top shape: 1 512 400 (204800)
I0116 15:17:39.642645  5685 net.cpp:131] Top shape: 1 512 400 (204800)
I0116 15:17:39.642648  5685 net.cpp:131] Top shape: 1 512 400 (204800)
I0116 15:17:39.642652  5685 net.cpp:131] Top shape: 1 512 400 (204800)
I0116 15:17:39.642657  5685 net.cpp:131] Top shape: 1 512 400 (204800)
I0116 15:17:39.642662  5685 net.cpp:131] Top shape: 1 512 400 (204800)
I0116 15:17:39.642674  5685 net.cpp:131] Top shape: 1 512 400 (204800)
I0116 15:17:39.642679  5685 net.cpp:131] Top shape: 1 512 400 (204800)
I0116 15:17:39.642683  5685 net.cpp:131] Top shape: 1 512 400 (204800)
I0116 15:17:39.642688  5685 net.cpp:131] Top shape: 1 512 400 (204800)
I0116 15:17:39.642691  5685 net.cpp:131] Top shape: 1 512 400 (204800)
I0116 15:17:39.642695  5685 net.cpp:131] Top shape: 1 512 400 (204800)
I0116 15:17:39.642699  5685 net.cpp:131] Top shape: 1 512 400 (204800)
I0116 15:17:39.642704  5685 net.cpp:131] Top shape: 1 512 400 (204800)
I0116 15:17:39.642707  5685 net.cpp:131] Top shape: 1 512 400 (204800)
I0116 15:17:39.642711  5685 net.cpp:131] Top shape: 1 512 400 (204800)
I0116 15:17:39.642715  5685 net.cpp:131] Top shape: 1 512 400 (204800)
I0116 15:17:39.642720  5685 net.cpp:131] Top shape: 1 512 400 (204800)
I0116 15:17:39.643681  5685 net.cpp:131] Top shape: 1 512 400 (204800)
I0116 15:17:39.643700  5685 net.cpp:131] Top shape: 1 512 400 (204800)
I0116 15:17:39.643712  5685 net.cpp:131] Top shape: 1 512 400 (204800)
I0116 15:17:39.643723  5685 net.cpp:131] Top shape: 1 512 400 (204800)
I0116 15:17:39.643733  5685 net.cpp:131] Top shape: 1 512 400 (204800)
I0116 15:17:39.643743  5685 net.cpp:131] Top shape: 1 512 400 (204800)
I0116 15:17:39.643754  5685 net.cpp:131] Top shape: 1 512 400 (204800)
I0116 15:17:39.643765  5685 net.cpp:131] Top shape: 1 512 400 (204800)
I0116 15:17:39.643775  5685 net.cpp:131] Top shape: 1 512 400 (204800)
I0116 15:17:39.643785  5685 net.cpp:131] Top shape: 1 512 400 (204800)
I0116 15:17:39.643796  5685 net.cpp:131] Top shape: 1 512 400 (204800)
I0116 15:17:39.643810  5685 net.cpp:131] Top shape: 1 512 400 (204800)
I0116 15:17:39.643820  5685 net.cpp:131] Top shape: 1 512 400 (204800)
I0116 15:17:39.643829  5685 net.cpp:131] Top shape: 1 512 400 (204800)
I0116 15:17:39.643841  5685 net.cpp:131] Top shape: 1 512 400 (204800)
I0116 15:17:39.643852  5685 net.cpp:131] Top shape: 1 512 400 (204800)
I0116 15:17:39.643863  5685 net.cpp:131] Top shape: 1 512 400 (204800)
I0116 15:17:39.643873  5685 net.cpp:131] Top shape: 1 512 400 (204800)
I0116 15:17:39.643883  5685 net.cpp:131] Top shape: 1 512 400 (204800)
I0116 15:17:39.643894  5685 net.cpp:131] Top shape: 1 512 400 (204800)
I0116 15:17:39.643905  5685 net.cpp:131] Top shape: 1 512 400 (204800)
I0116 15:17:39.643915  5685 net.cpp:131] Top shape: 1 512 400 (204800)
I0116 15:17:39.643925  5685 net.cpp:131] Top shape: 1 512 400 (204800)
I0116 15:17:39.643939  5685 net.cpp:131] Top shape: 1 512 400 (204800)
I0116 15:17:39.643949  5685 net.cpp:131] Top shape: 1 512 400 (204800)
I0116 15:17:39.643959  5685 net.cpp:131] Top shape: 1 512 400 (204800)
I0116 15:17:39.643968  5685 net.cpp:131] Top shape: 1 512 400 (204800)
I0116 15:17:39.643980  5685 net.cpp:131] Top shape: 1 512 400 (204800)
I0116 15:17:39.643990  5685 net.cpp:131] Top shape: 1 512 400 (204800)
I0116 15:17:39.644001  5685 net.cpp:131] Top shape: 1 512 400 (204800)
I0116 15:17:39.644011  5685 net.cpp:131] Top shape: 1 512 400 (204800)
I0116 15:17:39.644022  5685 net.cpp:131] Top shape: 1 512 400 (204800)
I0116 15:17:39.644032  5685 net.cpp:131] Top shape: 1 512 400 (204800)
I0116 15:17:39.644042  5685 net.cpp:131] Top shape: 1 512 400 (204800)
I0116 15:17:39.644052  5685 net.cpp:131] Top shape: 1 512 400 (204800)
I0116 15:17:39.644064  5685 net.cpp:131] Top shape: 1 512 400 (204800)
I0116 15:17:39.644074  5685 net.cpp:131] Top shape: 1 512 400 (204800)
I0116 15:17:39.644084  5685 net.cpp:131] Top shape: 1 512 400 (204800)
I0116 15:17:39.644095  5685 net.cpp:131] Top shape: 1 512 400 (204800)
I0116 15:17:39.644109  5685 net.cpp:131] Top shape: 1 512 400 (204800)
I0116 15:17:39.644119  5685 net.cpp:131] Top shape: 1 512 400 (204800)
I0116 15:17:39.644129  5685 net.cpp:131] Top shape: 1 512 400 (204800)
I0116 15:17:39.644140  5685 net.cpp:131] Top shape: 1 512 400 (204800)
I0116 15:17:39.644153  5685 net.cpp:131] Top shape: 1 512 400 (204800)
I0116 15:17:39.644165  5685 net.cpp:131] Top shape: 1 512 400 (204800)
I0116 15:17:39.644174  5685 net.cpp:131] Top shape: 1 512 400 (204800)
I0116 15:17:39.644213  5685 net.cpp:131] Top shape: 1 512 400 (204800)
I0116 15:17:39.644227  5685 net.cpp:131] Top shape: 1 512 400 (204800)
I0116 15:17:39.644237  5685 net.cpp:131] Top shape: 1 512 400 (204800)
I0116 15:17:39.644248  5685 net.cpp:131] Top shape: 1 512 400 (204800)
I0116 15:17:39.644255  5685 net.cpp:139] Memory required for data: 146882560
I0116 15:17:39.644266  5685 layer_factory.hpp:77] Creating layer lstm1_h_conted_0
I0116 15:17:39.644285  5685 net.cpp:86] Creating Layer lstm1_h_conted_0
I0116 15:17:39.644295  5685 net.cpp:408] lstm1_h_conted_0 <- h_0
I0116 15:17:39.644309  5685 net.cpp:408] lstm1_h_conted_0 <- cont_1_lstm1_cont_slice_0_split_0
I0116 15:17:39.644328  5685 net.cpp:382] lstm1_h_conted_0 -> h_conted_0
I0116 15:17:39.644527  5685 net.cpp:124] Setting up lstm1_h_conted_0
I0116 15:17:39.644544  5685 net.cpp:131] Top shape: 1 512 100 (51200)
I0116 15:17:39.644552  5685 net.cpp:139] Memory required for data: 147087360
I0116 15:17:39.644562  5685 layer_factory.hpp:77] Creating layer lstm1_transform_1
I0116 15:17:39.644579  5685 net.cpp:86] Creating Layer lstm1_transform_1
I0116 15:17:39.644588  5685 net.cpp:408] lstm1_transform_1 <- h_conted_0
I0116 15:17:39.644606  5685 net.cpp:382] lstm1_transform_1 -> W_hc_h_0
I0116 15:17:39.645612  5685 net.cpp:124] Setting up lstm1_transform_1
I0116 15:17:39.645633  5685 net.cpp:131] Top shape: 1 512 400 (204800)
I0116 15:17:39.645642  5685 net.cpp:139] Memory required for data: 147906560
I0116 15:17:39.645659  5685 layer_factory.hpp:77] Creating layer lstm1_gate_input_1
I0116 15:17:39.645681  5685 net.cpp:86] Creating Layer lstm1_gate_input_1
I0116 15:17:39.645690  5685 net.cpp:408] lstm1_gate_input_1 <- W_hc_h_0
I0116 15:17:39.645702  5685 net.cpp:408] lstm1_gate_input_1 <- W_xc_x_1
I0116 15:17:39.645716  5685 net.cpp:382] lstm1_gate_input_1 -> gate_input_1
I0116 15:17:39.645782  5685 net.cpp:124] Setting up lstm1_gate_input_1
I0116 15:17:39.645797  5685 net.cpp:131] Top shape: 1 512 400 (204800)
I0116 15:17:39.645803  5685 net.cpp:139] Memory required for data: 148725760
I0116 15:17:39.645812  5685 layer_factory.hpp:77] Creating layer lstm1_unit_1
I0116 15:17:39.645828  5685 net.cpp:86] Creating Layer lstm1_unit_1
I0116 15:17:39.645839  5685 net.cpp:408] lstm1_unit_1 <- c_0
I0116 15:17:39.645851  5685 net.cpp:408] lstm1_unit_1 <- gate_input_1
I0116 15:17:39.645862  5685 net.cpp:408] lstm1_unit_1 <- cont_1_lstm1_cont_slice_0_split_1
I0116 15:17:39.645879  5685 net.cpp:382] lstm1_unit_1 -> c_1
I0116 15:17:39.645895  5685 net.cpp:382] lstm1_unit_1 -> h_1
I0116 15:17:39.646011  5685 net.cpp:124] Setting up lstm1_unit_1
I0116 15:17:39.646024  5685 net.cpp:131] Top shape: 1 512 100 (51200)
I0116 15:17:39.646041  5685 net.cpp:131] Top shape: 1 512 100 (51200)
I0116 15:17:39.646049  5685 net.cpp:139] Memory required for data: 149135360
I0116 15:17:39.646056  5685 layer_factory.hpp:77] Creating layer h_1_lstm1_unit_1_1_split
I0116 15:17:39.646070  5685 net.cpp:86] Creating Layer h_1_lstm1_unit_1_1_split
I0116 15:17:39.646080  5685 net.cpp:408] h_1_lstm1_unit_1_1_split <- h_1
I0116 15:17:39.646093  5685 net.cpp:382] h_1_lstm1_unit_1_1_split -> h_1_lstm1_unit_1_1_split_0
I0116 15:17:39.646111  5685 net.cpp:382] h_1_lstm1_unit_1_1_split -> h_1_lstm1_unit_1_1_split_1
I0116 15:17:39.646198  5685 net.cpp:124] Setting up h_1_lstm1_unit_1_1_split
I0116 15:17:39.646211  5685 net.cpp:131] Top shape: 1 512 100 (51200)
I0116 15:17:39.646224  5685 net.cpp:131] Top shape: 1 512 100 (51200)
I0116 15:17:39.646231  5685 net.cpp:139] Memory required for data: 149544960
I0116 15:17:39.646239  5685 layer_factory.hpp:77] Creating layer lstm1_h_conted_1
I0116 15:17:39.646255  5685 net.cpp:86] Creating Layer lstm1_h_conted_1
I0116 15:17:39.646265  5685 net.cpp:408] lstm1_h_conted_1 <- h_1_lstm1_unit_1_1_split_0
I0116 15:17:39.646277  5685 net.cpp:408] lstm1_h_conted_1 <- cont_2_lstm1_cont_slice_1_split_0
I0116 15:17:39.646296  5685 net.cpp:382] lstm1_h_conted_1 -> h_conted_1
I0116 15:17:39.646450  5685 net.cpp:124] Setting up lstm1_h_conted_1
I0116 15:17:39.646488  5685 net.cpp:131] Top shape: 1 512 100 (51200)
I0116 15:17:39.646497  5685 net.cpp:139] Memory required for data: 149749760
I0116 15:17:39.646504  5685 layer_factory.hpp:77] Creating layer lstm1_transform_2
I0116 15:17:39.646522  5685 net.cpp:86] Creating Layer lstm1_transform_2
I0116 15:17:39.646534  5685 net.cpp:408] lstm1_transform_2 <- h_conted_1
I0116 15:17:39.646548  5685 net.cpp:382] lstm1_transform_2 -> W_hc_h_1
I0116 15:17:39.647554  5685 net.cpp:124] Setting up lstm1_transform_2
I0116 15:17:39.647572  5685 net.cpp:131] Top shape: 1 512 400 (204800)
I0116 15:17:39.647583  5685 net.cpp:139] Memory required for data: 150568960
I0116 15:17:39.647593  5685 net.cpp:467] Sharing parameters 'W_hc' owned by layer 'lstm1_transform_1', param index 0
I0116 15:17:39.647600  5685 layer_factory.hpp:77] Creating layer lstm1_gate_input_2
I0116 15:17:39.649252  5685 net.cpp:86] Creating Layer lstm1_gate_input_2
I0116 15:17:39.649271  5685 net.cpp:408] lstm1_gate_input_2 <- W_hc_h_1
I0116 15:17:39.649283  5685 net.cpp:408] lstm1_gate_input_2 <- W_xc_x_2
I0116 15:17:39.649300  5685 net.cpp:382] lstm1_gate_input_2 -> gate_input_2
I0116 15:17:39.649369  5685 net.cpp:124] Setting up lstm1_gate_input_2
I0116 15:17:39.649386  5685 net.cpp:131] Top shape: 1 512 400 (204800)
I0116 15:17:39.649394  5685 net.cpp:139] Memory required for data: 151388160
I0116 15:17:39.649401  5685 layer_factory.hpp:77] Creating layer lstm1_unit_2
I0116 15:17:39.649415  5685 net.cpp:86] Creating Layer lstm1_unit_2
I0116 15:17:39.649425  5685 net.cpp:408] lstm1_unit_2 <- c_1
I0116 15:17:39.649436  5685 net.cpp:408] lstm1_unit_2 <- gate_input_2
I0116 15:17:39.649446  5685 net.cpp:408] lstm1_unit_2 <- cont_2_lstm1_cont_slice_1_split_1
I0116 15:17:39.649459  5685 net.cpp:382] lstm1_unit_2 -> c_2
I0116 15:17:39.649480  5685 net.cpp:382] lstm1_unit_2 -> h_2
I0116 15:17:39.649592  5685 net.cpp:124] Setting up lstm1_unit_2
I0116 15:17:39.649606  5685 net.cpp:131] Top shape: 1 512 100 (51200)
I0116 15:17:39.649617  5685 net.cpp:131] Top shape: 1 512 100 (51200)
I0116 15:17:39.649626  5685 net.cpp:139] Memory required for data: 151797760
I0116 15:17:39.649633  5685 layer_factory.hpp:77] Creating layer h_2_lstm1_unit_2_1_split
I0116 15:17:39.649646  5685 net.cpp:86] Creating Layer h_2_lstm1_unit_2_1_split
I0116 15:17:39.649654  5685 net.cpp:408] h_2_lstm1_unit_2_1_split <- h_2
I0116 15:17:39.649669  5685 net.cpp:382] h_2_lstm1_unit_2_1_split -> h_2_lstm1_unit_2_1_split_0
I0116 15:17:39.649685  5685 net.cpp:382] h_2_lstm1_unit_2_1_split -> h_2_lstm1_unit_2_1_split_1
I0116 15:17:39.649765  5685 net.cpp:124] Setting up h_2_lstm1_unit_2_1_split
I0116 15:17:39.649777  5685 net.cpp:131] Top shape: 1 512 100 (51200)
I0116 15:17:39.649790  5685 net.cpp:131] Top shape: 1 512 100 (51200)
I0116 15:17:39.649796  5685 net.cpp:139] Memory required for data: 152207360
I0116 15:17:39.649803  5685 layer_factory.hpp:77] Creating layer lstm1_h_conted_2
I0116 15:17:39.649821  5685 net.cpp:86] Creating Layer lstm1_h_conted_2
I0116 15:17:39.649830  5685 net.cpp:408] lstm1_h_conted_2 <- h_2_lstm1_unit_2_1_split_0
I0116 15:17:39.649842  5685 net.cpp:408] lstm1_h_conted_2 <- cont_3_lstm1_cont_slice_2_split_0
I0116 15:17:39.649857  5685 net.cpp:382] lstm1_h_conted_2 -> h_conted_2
I0116 15:17:39.649996  5685 net.cpp:124] Setting up lstm1_h_conted_2
I0116 15:17:39.650013  5685 net.cpp:131] Top shape: 1 512 100 (51200)
I0116 15:17:39.650020  5685 net.cpp:139] Memory required for data: 152412160
I0116 15:17:39.650028  5685 layer_factory.hpp:77] Creating layer lstm1_transform_3
I0116 15:17:39.650046  5685 net.cpp:86] Creating Layer lstm1_transform_3
I0116 15:17:39.650058  5685 net.cpp:408] lstm1_transform_3 <- h_conted_2
I0116 15:17:39.650071  5685 net.cpp:382] lstm1_transform_3 -> W_hc_h_2
I0116 15:17:39.651043  5685 net.cpp:124] Setting up lstm1_transform_3
I0116 15:17:39.651064  5685 net.cpp:131] Top shape: 1 512 400 (204800)
I0116 15:17:39.651075  5685 net.cpp:139] Memory required for data: 153231360
I0116 15:17:39.651088  5685 net.cpp:467] Sharing parameters 'W_hc' owned by layer 'lstm1_transform_1', param index 0
I0116 15:17:39.651121  5685 layer_factory.hpp:77] Creating layer lstm1_gate_input_3
I0116 15:17:39.651141  5685 net.cpp:86] Creating Layer lstm1_gate_input_3
I0116 15:17:39.651154  5685 net.cpp:408] lstm1_gate_input_3 <- W_hc_h_2
I0116 15:17:39.651165  5685 net.cpp:408] lstm1_gate_input_3 <- W_xc_x_3
I0116 15:17:39.651180  5685 net.cpp:382] lstm1_gate_input_3 -> gate_input_3
I0116 15:17:39.651252  5685 net.cpp:124] Setting up lstm1_gate_input_3
I0116 15:17:39.651268  5685 net.cpp:131] Top shape: 1 512 400 (204800)
I0116 15:17:39.651275  5685 net.cpp:139] Memory required for data: 154050560
I0116 15:17:39.651283  5685 layer_factory.hpp:77] Creating layer lstm1_unit_3
I0116 15:17:39.651295  5685 net.cpp:86] Creating Layer lstm1_unit_3
I0116 15:17:39.651307  5685 net.cpp:408] lstm1_unit_3 <- c_2
I0116 15:17:39.651322  5685 net.cpp:408] lstm1_unit_3 <- gate_input_3
I0116 15:17:39.651334  5685 net.cpp:408] lstm1_unit_3 <- cont_3_lstm1_cont_slice_2_split_1
I0116 15:17:39.651347  5685 net.cpp:382] lstm1_unit_3 -> c_3
I0116 15:17:39.651365  5685 net.cpp:382] lstm1_unit_3 -> h_3
I0116 15:17:39.651479  5685 net.cpp:124] Setting up lstm1_unit_3
I0116 15:17:39.651492  5685 net.cpp:131] Top shape: 1 512 100 (51200)
I0116 15:17:39.651504  5685 net.cpp:131] Top shape: 1 512 100 (51200)
I0116 15:17:39.651511  5685 net.cpp:139] Memory required for data: 154460160
I0116 15:17:39.651520  5685 layer_factory.hpp:77] Creating layer h_3_lstm1_unit_3_1_split
I0116 15:17:39.651532  5685 net.cpp:86] Creating Layer h_3_lstm1_unit_3_1_split
I0116 15:17:39.651540  5685 net.cpp:408] h_3_lstm1_unit_3_1_split <- h_3
I0116 15:17:39.651558  5685 net.cpp:382] h_3_lstm1_unit_3_1_split -> h_3_lstm1_unit_3_1_split_0
I0116 15:17:39.651576  5685 net.cpp:382] h_3_lstm1_unit_3_1_split -> h_3_lstm1_unit_3_1_split_1
I0116 15:17:39.651655  5685 net.cpp:124] Setting up h_3_lstm1_unit_3_1_split
I0116 15:17:39.651669  5685 net.cpp:131] Top shape: 1 512 100 (51200)
I0116 15:17:39.651681  5685 net.cpp:131] Top shape: 1 512 100 (51200)
I0116 15:17:39.651687  5685 net.cpp:139] Memory required for data: 154869760
I0116 15:17:39.651695  5685 layer_factory.hpp:77] Creating layer lstm1_h_conted_3
I0116 15:17:39.651710  5685 net.cpp:86] Creating Layer lstm1_h_conted_3
I0116 15:17:39.651720  5685 net.cpp:408] lstm1_h_conted_3 <- h_3_lstm1_unit_3_1_split_0
I0116 15:17:39.651731  5685 net.cpp:408] lstm1_h_conted_3 <- cont_4_lstm1_cont_slice_3_split_0
I0116 15:17:39.651744  5685 net.cpp:382] lstm1_h_conted_3 -> h_conted_3
I0116 15:17:39.651882  5685 net.cpp:124] Setting up lstm1_h_conted_3
I0116 15:17:39.651897  5685 net.cpp:131] Top shape: 1 512 100 (51200)
I0116 15:17:39.651904  5685 net.cpp:139] Memory required for data: 155074560
I0116 15:17:39.651911  5685 layer_factory.hpp:77] Creating layer lstm1_transform_4
I0116 15:17:39.651926  5685 net.cpp:86] Creating Layer lstm1_transform_4
I0116 15:17:39.651937  5685 net.cpp:408] lstm1_transform_4 <- h_conted_3
I0116 15:17:39.651949  5685 net.cpp:382] lstm1_transform_4 -> W_hc_h_3
I0116 15:17:39.652906  5685 net.cpp:124] Setting up lstm1_transform_4
I0116 15:17:39.652927  5685 net.cpp:131] Top shape: 1 512 400 (204800)
I0116 15:17:39.652937  5685 net.cpp:139] Memory required for data: 155893760
I0116 15:17:39.652947  5685 net.cpp:467] Sharing parameters 'W_hc' owned by layer 'lstm1_transform_1', param index 0
I0116 15:17:39.652956  5685 layer_factory.hpp:77] Creating layer lstm1_gate_input_4
I0116 15:17:39.652971  5685 net.cpp:86] Creating Layer lstm1_gate_input_4
I0116 15:17:39.652982  5685 net.cpp:408] lstm1_gate_input_4 <- W_hc_h_3
I0116 15:17:39.652994  5685 net.cpp:408] lstm1_gate_input_4 <- W_xc_x_4
I0116 15:17:39.653009  5685 net.cpp:382] lstm1_gate_input_4 -> gate_input_4
I0116 15:17:39.653067  5685 net.cpp:124] Setting up lstm1_gate_input_4
I0116 15:17:39.653082  5685 net.cpp:131] Top shape: 1 512 400 (204800)
I0116 15:17:39.653090  5685 net.cpp:139] Memory required for data: 156712960
I0116 15:17:39.653097  5685 layer_factory.hpp:77] Creating layer lstm1_unit_4
I0116 15:17:39.653113  5685 net.cpp:86] Creating Layer lstm1_unit_4
I0116 15:17:39.653143  5685 net.cpp:408] lstm1_unit_4 <- c_3
I0116 15:17:39.653154  5685 net.cpp:408] lstm1_unit_4 <- gate_input_4
I0116 15:17:39.653165  5685 net.cpp:408] lstm1_unit_4 <- cont_4_lstm1_cont_slice_3_split_1
I0116 15:17:39.653179  5685 net.cpp:382] lstm1_unit_4 -> c_4
I0116 15:17:39.653198  5685 net.cpp:382] lstm1_unit_4 -> h_4
I0116 15:17:39.653316  5685 net.cpp:124] Setting up lstm1_unit_4
I0116 15:17:39.653329  5685 net.cpp:131] Top shape: 1 512 100 (51200)
I0116 15:17:39.653340  5685 net.cpp:131] Top shape: 1 512 100 (51200)
I0116 15:17:39.653349  5685 net.cpp:139] Memory required for data: 157122560
I0116 15:17:39.653357  5685 layer_factory.hpp:77] Creating layer h_4_lstm1_unit_4_1_split
I0116 15:17:39.655998  5685 net.cpp:86] Creating Layer h_4_lstm1_unit_4_1_split
I0116 15:17:39.656015  5685 net.cpp:408] h_4_lstm1_unit_4_1_split <- h_4
I0116 15:17:39.656034  5685 net.cpp:382] h_4_lstm1_unit_4_1_split -> h_4_lstm1_unit_4_1_split_0
I0116 15:17:39.656054  5685 net.cpp:382] h_4_lstm1_unit_4_1_split -> h_4_lstm1_unit_4_1_split_1
I0116 15:17:39.656162  5685 net.cpp:124] Setting up h_4_lstm1_unit_4_1_split
I0116 15:17:39.656179  5685 net.cpp:131] Top shape: 1 512 100 (51200)
I0116 15:17:39.656193  5685 net.cpp:131] Top shape: 1 512 100 (51200)
I0116 15:17:39.656200  5685 net.cpp:139] Memory required for data: 157532160
I0116 15:17:39.656208  5685 layer_factory.hpp:77] Creating layer lstm1_h_conted_4
I0116 15:17:39.656229  5685 net.cpp:86] Creating Layer lstm1_h_conted_4
I0116 15:17:39.656239  5685 net.cpp:408] lstm1_h_conted_4 <- h_4_lstm1_unit_4_1_split_0
I0116 15:17:39.656252  5685 net.cpp:408] lstm1_h_conted_4 <- cont_5_lstm1_cont_slice_4_split_0
I0116 15:17:39.656267  5685 net.cpp:382] lstm1_h_conted_4 -> h_conted_4
I0116 15:17:39.656419  5685 net.cpp:124] Setting up lstm1_h_conted_4
I0116 15:17:39.656436  5685 net.cpp:131] Top shape: 1 512 100 (51200)
I0116 15:17:39.656443  5685 net.cpp:139] Memory required for data: 157736960
I0116 15:17:39.656451  5685 layer_factory.hpp:77] Creating layer lstm1_transform_5
I0116 15:17:39.656466  5685 net.cpp:86] Creating Layer lstm1_transform_5
I0116 15:17:39.656477  5685 net.cpp:408] lstm1_transform_5 <- h_conted_4
I0116 15:17:39.656493  5685 net.cpp:382] lstm1_transform_5 -> W_hc_h_4
I0116 15:17:39.657452  5685 net.cpp:124] Setting up lstm1_transform_5
I0116 15:17:39.657474  5685 net.cpp:131] Top shape: 1 512 400 (204800)
I0116 15:17:39.657483  5685 net.cpp:139] Memory required for data: 158556160
I0116 15:17:39.657493  5685 net.cpp:467] Sharing parameters 'W_hc' owned by layer 'lstm1_transform_1', param index 0
I0116 15:17:39.657502  5685 layer_factory.hpp:77] Creating layer lstm1_gate_input_5
I0116 15:17:39.657517  5685 net.cpp:86] Creating Layer lstm1_gate_input_5
I0116 15:17:39.657528  5685 net.cpp:408] lstm1_gate_input_5 <- W_hc_h_4
I0116 15:17:39.657541  5685 net.cpp:408] lstm1_gate_input_5 <- W_xc_x_5
I0116 15:17:39.657553  5685 net.cpp:382] lstm1_gate_input_5 -> gate_input_5
I0116 15:17:39.657616  5685 net.cpp:124] Setting up lstm1_gate_input_5
I0116 15:17:39.657631  5685 net.cpp:131] Top shape: 1 512 400 (204800)
I0116 15:17:39.657639  5685 net.cpp:139] Memory required for data: 159375360
I0116 15:17:39.657646  5685 layer_factory.hpp:77] Creating layer lstm1_unit_5
I0116 15:17:39.657660  5685 net.cpp:86] Creating Layer lstm1_unit_5
I0116 15:17:39.657670  5685 net.cpp:408] lstm1_unit_5 <- c_4
I0116 15:17:39.657681  5685 net.cpp:408] lstm1_unit_5 <- gate_input_5
I0116 15:17:39.657692  5685 net.cpp:408] lstm1_unit_5 <- cont_5_lstm1_cont_slice_4_split_1
I0116 15:17:39.657706  5685 net.cpp:382] lstm1_unit_5 -> c_5
I0116 15:17:39.657723  5685 net.cpp:382] lstm1_unit_5 -> h_5
I0116 15:17:39.657840  5685 net.cpp:124] Setting up lstm1_unit_5
I0116 15:17:39.657856  5685 net.cpp:131] Top shape: 1 512 100 (51200)
I0116 15:17:39.657871  5685 net.cpp:131] Top shape: 1 512 100 (51200)
I0116 15:17:39.657879  5685 net.cpp:139] Memory required for data: 159784960
I0116 15:17:39.657886  5685 layer_factory.hpp:77] Creating layer h_5_lstm1_unit_5_1_split
I0116 15:17:39.657924  5685 net.cpp:86] Creating Layer h_5_lstm1_unit_5_1_split
I0116 15:17:39.657935  5685 net.cpp:408] h_5_lstm1_unit_5_1_split <- h_5
I0116 15:17:39.657951  5685 net.cpp:382] h_5_lstm1_unit_5_1_split -> h_5_lstm1_unit_5_1_split_0
I0116 15:17:39.657969  5685 net.cpp:382] h_5_lstm1_unit_5_1_split -> h_5_lstm1_unit_5_1_split_1
I0116 15:17:39.658056  5685 net.cpp:124] Setting up h_5_lstm1_unit_5_1_split
I0116 15:17:39.658069  5685 net.cpp:131] Top shape: 1 512 100 (51200)
I0116 15:17:39.658082  5685 net.cpp:131] Top shape: 1 512 100 (51200)
I0116 15:17:39.658089  5685 net.cpp:139] Memory required for data: 160194560
I0116 15:17:39.658097  5685 layer_factory.hpp:77] Creating layer lstm1_h_conted_5
I0116 15:17:39.658112  5685 net.cpp:86] Creating Layer lstm1_h_conted_5
I0116 15:17:39.658121  5685 net.cpp:408] lstm1_h_conted_5 <- h_5_lstm1_unit_5_1_split_0
I0116 15:17:39.658133  5685 net.cpp:408] lstm1_h_conted_5 <- cont_6_lstm1_cont_slice_5_split_0
I0116 15:17:39.658149  5685 net.cpp:382] lstm1_h_conted_5 -> h_conted_5
I0116 15:17:39.658284  5685 net.cpp:124] Setting up lstm1_h_conted_5
I0116 15:17:39.658298  5685 net.cpp:131] Top shape: 1 512 100 (51200)
I0116 15:17:39.658305  5685 net.cpp:139] Memory required for data: 160399360
I0116 15:17:39.658313  5685 layer_factory.hpp:77] Creating layer lstm1_transform_6
I0116 15:17:39.658330  5685 net.cpp:86] Creating Layer lstm1_transform_6
I0116 15:17:39.658341  5685 net.cpp:408] lstm1_transform_6 <- h_conted_5
I0116 15:17:39.658355  5685 net.cpp:382] lstm1_transform_6 -> W_hc_h_5
I0116 15:17:39.659307  5685 net.cpp:124] Setting up lstm1_transform_6
I0116 15:17:39.659327  5685 net.cpp:131] Top shape: 1 512 400 (204800)
I0116 15:17:39.659335  5685 net.cpp:139] Memory required for data: 161218560
I0116 15:17:39.659344  5685 net.cpp:467] Sharing parameters 'W_hc' owned by layer 'lstm1_transform_1', param index 0
I0116 15:17:39.659353  5685 layer_factory.hpp:77] Creating layer lstm1_gate_input_6
I0116 15:17:39.659366  5685 net.cpp:86] Creating Layer lstm1_gate_input_6
I0116 15:17:39.659375  5685 net.cpp:408] lstm1_gate_input_6 <- W_hc_h_5
I0116 15:17:39.659386  5685 net.cpp:408] lstm1_gate_input_6 <- W_xc_x_6
I0116 15:17:39.659402  5685 net.cpp:382] lstm1_gate_input_6 -> gate_input_6
I0116 15:17:39.659456  5685 net.cpp:124] Setting up lstm1_gate_input_6
I0116 15:17:39.659471  5685 net.cpp:131] Top shape: 1 512 400 (204800)
I0116 15:17:39.659477  5685 net.cpp:139] Memory required for data: 162037760
I0116 15:17:39.659484  5685 layer_factory.hpp:77] Creating layer lstm1_unit_6
I0116 15:17:39.659495  5685 net.cpp:86] Creating Layer lstm1_unit_6
I0116 15:17:39.659504  5685 net.cpp:408] lstm1_unit_6 <- c_5
I0116 15:17:39.659514  5685 net.cpp:408] lstm1_unit_6 <- gate_input_6
I0116 15:17:39.659524  5685 net.cpp:408] lstm1_unit_6 <- cont_6_lstm1_cont_slice_5_split_1
I0116 15:17:39.659539  5685 net.cpp:382] lstm1_unit_6 -> c_6
I0116 15:17:39.659556  5685 net.cpp:382] lstm1_unit_6 -> h_6
I0116 15:17:39.659657  5685 net.cpp:124] Setting up lstm1_unit_6
I0116 15:17:39.659668  5685 net.cpp:131] Top shape: 1 512 100 (51200)
I0116 15:17:39.659677  5685 net.cpp:131] Top shape: 1 512 100 (51200)
I0116 15:17:39.659685  5685 net.cpp:139] Memory required for data: 162447360
I0116 15:17:39.659692  5685 layer_factory.hpp:77] Creating layer h_6_lstm1_unit_6_1_split
I0116 15:17:39.659703  5685 net.cpp:86] Creating Layer h_6_lstm1_unit_6_1_split
I0116 15:17:39.659710  5685 net.cpp:408] h_6_lstm1_unit_6_1_split <- h_6
I0116 15:17:39.659723  5685 net.cpp:382] h_6_lstm1_unit_6_1_split -> h_6_lstm1_unit_6_1_split_0
I0116 15:17:39.659739  5685 net.cpp:382] h_6_lstm1_unit_6_1_split -> h_6_lstm1_unit_6_1_split_1
I0116 15:17:39.659814  5685 net.cpp:124] Setting up h_6_lstm1_unit_6_1_split
I0116 15:17:39.659827  5685 net.cpp:131] Top shape: 1 512 100 (51200)
I0116 15:17:39.659838  5685 net.cpp:131] Top shape: 1 512 100 (51200)
I0116 15:17:39.659844  5685 net.cpp:139] Memory required for data: 162856960
I0116 15:17:39.659852  5685 layer_factory.hpp:77] Creating layer lstm1_h_conted_6
I0116 15:17:39.659888  5685 net.cpp:86] Creating Layer lstm1_h_conted_6
I0116 15:17:39.659899  5685 net.cpp:408] lstm1_h_conted_6 <- h_6_lstm1_unit_6_1_split_0
I0116 15:17:39.659909  5685 net.cpp:408] lstm1_h_conted_6 <- cont_7_lstm1_cont_slice_6_split_0
I0116 15:17:39.659922  5685 net.cpp:382] lstm1_h_conted_6 -> h_conted_6
I0116 15:17:39.660055  5685 net.cpp:124] Setting up lstm1_h_conted_6
I0116 15:17:39.660073  5685 net.cpp:131] Top shape: 1 512 100 (51200)
I0116 15:17:39.660079  5685 net.cpp:139] Memory required for data: 163061760
I0116 15:17:39.660085  5685 layer_factory.hpp:77] Creating layer lstm1_transform_7
I0116 15:17:39.660102  5685 net.cpp:86] Creating Layer lstm1_transform_7
I0116 15:17:39.660650  5685 net.cpp:408] lstm1_transform_7 <- h_conted_6
I0116 15:17:39.660676  5685 net.cpp:382] lstm1_transform_7 -> W_hc_h_6
I0116 15:17:39.661255  5685 net.cpp:124] Setting up lstm1_transform_7
I0116 15:17:39.661268  5685 net.cpp:131] Top shape: 1 512 400 (204800)
I0116 15:17:39.661274  5685 net.cpp:139] Memory required for data: 163880960
I0116 15:17:39.661285  5685 net.cpp:467] Sharing parameters 'W_hc' owned by layer 'lstm1_transform_1', param index 0
I0116 15:17:39.661293  5685 layer_factory.hpp:77] Creating layer lstm1_gate_input_7
I0116 15:17:39.661303  5685 net.cpp:86] Creating Layer lstm1_gate_input_7
I0116 15:17:39.661311  5685 net.cpp:408] lstm1_gate_input_7 <- W_hc_h_6
I0116 15:17:39.661319  5685 net.cpp:408] lstm1_gate_input_7 <- W_xc_x_7
I0116 15:17:39.661327  5685 net.cpp:382] lstm1_gate_input_7 -> gate_input_7
I0116 15:17:39.661370  5685 net.cpp:124] Setting up lstm1_gate_input_7
I0116 15:17:39.661378  5685 net.cpp:131] Top shape: 1 512 400 (204800)
I0116 15:17:39.661383  5685 net.cpp:139] Memory required for data: 164700160
I0116 15:17:39.661387  5685 layer_factory.hpp:77] Creating layer lstm1_unit_7
I0116 15:17:39.661398  5685 net.cpp:86] Creating Layer lstm1_unit_7
I0116 15:17:39.661406  5685 net.cpp:408] lstm1_unit_7 <- c_6
I0116 15:17:39.661413  5685 net.cpp:408] lstm1_unit_7 <- gate_input_7
I0116 15:17:39.661420  5685 net.cpp:408] lstm1_unit_7 <- cont_7_lstm1_cont_slice_6_split_1
I0116 15:17:39.661430  5685 net.cpp:382] lstm1_unit_7 -> c_7
I0116 15:17:39.661442  5685 net.cpp:382] lstm1_unit_7 -> h_7
I0116 15:17:39.661520  5685 net.cpp:124] Setting up lstm1_unit_7
I0116 15:17:39.661526  5685 net.cpp:131] Top shape: 1 512 100 (51200)
I0116 15:17:39.661533  5685 net.cpp:131] Top shape: 1 512 100 (51200)
I0116 15:17:39.661538  5685 net.cpp:139] Memory required for data: 165109760
I0116 15:17:39.661543  5685 layer_factory.hpp:77] Creating layer h_7_lstm1_unit_7_1_split
I0116 15:17:39.661551  5685 net.cpp:86] Creating Layer h_7_lstm1_unit_7_1_split
I0116 15:17:39.661556  5685 net.cpp:408] h_7_lstm1_unit_7_1_split <- h_7
I0116 15:17:39.661568  5685 net.cpp:382] h_7_lstm1_unit_7_1_split -> h_7_lstm1_unit_7_1_split_0
I0116 15:17:39.661579  5685 net.cpp:382] h_7_lstm1_unit_7_1_split -> h_7_lstm1_unit_7_1_split_1
I0116 15:17:39.661633  5685 net.cpp:124] Setting up h_7_lstm1_unit_7_1_split
I0116 15:17:39.661640  5685 net.cpp:131] Top shape: 1 512 100 (51200)
I0116 15:17:39.661648  5685 net.cpp:131] Top shape: 1 512 100 (51200)
I0116 15:17:39.661653  5685 net.cpp:139] Memory required for data: 165519360
I0116 15:17:39.661656  5685 layer_factory.hpp:77] Creating layer lstm1_h_conted_7
I0116 15:17:39.661665  5685 net.cpp:86] Creating Layer lstm1_h_conted_7
I0116 15:17:39.661672  5685 net.cpp:408] lstm1_h_conted_7 <- h_7_lstm1_unit_7_1_split_0
I0116 15:17:39.661680  5685 net.cpp:408] lstm1_h_conted_7 <- cont_8_lstm1_cont_slice_7_split_0
I0116 15:17:39.661689  5685 net.cpp:382] lstm1_h_conted_7 -> h_conted_7
I0116 15:17:39.661787  5685 net.cpp:124] Setting up lstm1_h_conted_7
I0116 15:17:39.661795  5685 net.cpp:131] Top shape: 1 512 100 (51200)
I0116 15:17:39.661800  5685 net.cpp:139] Memory required for data: 165724160
I0116 15:17:39.661804  5685 layer_factory.hpp:77] Creating layer lstm1_transform_8
I0116 15:17:39.661814  5685 net.cpp:86] Creating Layer lstm1_transform_8
I0116 15:17:39.661821  5685 net.cpp:408] lstm1_transform_8 <- h_conted_7
I0116 15:17:39.661857  5685 net.cpp:382] lstm1_transform_8 -> W_hc_h_7
I0116 15:17:39.662391  5685 net.cpp:124] Setting up lstm1_transform_8
I0116 15:17:39.662400  5685 net.cpp:131] Top shape: 1 512 400 (204800)
I0116 15:17:39.662406  5685 net.cpp:139] Memory required for data: 166543360
I0116 15:17:39.662411  5685 net.cpp:467] Sharing parameters 'W_hc' owned by layer 'lstm1_transform_1', param index 0
I0116 15:17:39.662417  5685 layer_factory.hpp:77] Creating layer lstm1_gate_input_8
I0116 15:17:39.662425  5685 net.cpp:86] Creating Layer lstm1_gate_input_8
I0116 15:17:39.662432  5685 net.cpp:408] lstm1_gate_input_8 <- W_hc_h_7
I0116 15:17:39.662441  5685 net.cpp:408] lstm1_gate_input_8 <- W_xc_x_8
I0116 15:17:39.662449  5685 net.cpp:382] lstm1_gate_input_8 -> gate_input_8
I0116 15:17:39.662487  5685 net.cpp:124] Setting up lstm1_gate_input_8
I0116 15:17:39.662497  5685 net.cpp:131] Top shape: 1 512 400 (204800)
I0116 15:17:39.662500  5685 net.cpp:139] Memory required for data: 167362560
I0116 15:17:39.662505  5685 layer_factory.hpp:77] Creating layer lstm1_unit_8
I0116 15:17:39.662513  5685 net.cpp:86] Creating Layer lstm1_unit_8
I0116 15:17:39.662520  5685 net.cpp:408] lstm1_unit_8 <- c_7
I0116 15:17:39.662526  5685 net.cpp:408] lstm1_unit_8 <- gate_input_8
I0116 15:17:39.662533  5685 net.cpp:408] lstm1_unit_8 <- cont_8_lstm1_cont_slice_7_split_1
I0116 15:17:39.662542  5685 net.cpp:382] lstm1_unit_8 -> c_8
I0116 15:17:39.662554  5685 net.cpp:382] lstm1_unit_8 -> h_8
I0116 15:17:39.662626  5685 net.cpp:124] Setting up lstm1_unit_8
I0116 15:17:39.662632  5685 net.cpp:131] Top shape: 1 512 100 (51200)
I0116 15:17:39.662642  5685 net.cpp:131] Top shape: 1 512 100 (51200)
I0116 15:17:39.662647  5685 net.cpp:139] Memory required for data: 167772160
I0116 15:17:39.662652  5685 layer_factory.hpp:77] Creating layer h_8_lstm1_unit_8_1_split
I0116 15:17:39.662660  5685 net.cpp:86] Creating Layer h_8_lstm1_unit_8_1_split
I0116 15:17:39.662668  5685 net.cpp:408] h_8_lstm1_unit_8_1_split <- h_8
I0116 15:17:39.662683  5685 net.cpp:382] h_8_lstm1_unit_8_1_split -> h_8_lstm1_unit_8_1_split_0
I0116 15:17:39.662700  5685 net.cpp:382] h_8_lstm1_unit_8_1_split -> h_8_lstm1_unit_8_1_split_1
I0116 15:17:39.662940  5685 net.cpp:124] Setting up h_8_lstm1_unit_8_1_split
I0116 15:17:39.662959  5685 net.cpp:131] Top shape: 1 512 100 (51200)
I0116 15:17:39.662973  5685 net.cpp:131] Top shape: 1 512 100 (51200)
I0116 15:17:39.662981  5685 net.cpp:139] Memory required for data: 168181760
I0116 15:17:39.662988  5685 layer_factory.hpp:77] Creating layer lstm1_h_conted_8
I0116 15:17:39.663002  5685 net.cpp:86] Creating Layer lstm1_h_conted_8
I0116 15:17:39.663013  5685 net.cpp:408] lstm1_h_conted_8 <- h_8_lstm1_unit_8_1_split_0
I0116 15:17:39.663025  5685 net.cpp:408] lstm1_h_conted_8 <- cont_9_lstm1_cont_slice_8_split_0
I0116 15:17:39.663041  5685 net.cpp:382] lstm1_h_conted_8 -> h_conted_8
I0116 15:17:39.663182  5685 net.cpp:124] Setting up lstm1_h_conted_8
I0116 15:17:39.663197  5685 net.cpp:131] Top shape: 1 512 100 (51200)
I0116 15:17:39.663204  5685 net.cpp:139] Memory required for data: 168386560
I0116 15:17:39.663211  5685 layer_factory.hpp:77] Creating layer lstm1_transform_9
I0116 15:17:39.663224  5685 net.cpp:86] Creating Layer lstm1_transform_9
I0116 15:17:39.663235  5685 net.cpp:408] lstm1_transform_9 <- h_conted_8
I0116 15:17:39.663252  5685 net.cpp:382] lstm1_transform_9 -> W_hc_h_8
I0116 15:17:39.664288  5685 net.cpp:124] Setting up lstm1_transform_9
I0116 15:17:39.664301  5685 net.cpp:131] Top shape: 1 512 400 (204800)
I0116 15:17:39.664311  5685 net.cpp:139] Memory required for data: 169205760
I0116 15:17:39.664320  5685 net.cpp:467] Sharing parameters 'W_hc' owned by layer 'lstm1_transform_1', param index 0
I0116 15:17:39.664328  5685 layer_factory.hpp:77] Creating layer lstm1_gate_input_9
I0116 15:17:39.664341  5685 net.cpp:86] Creating Layer lstm1_gate_input_9
I0116 15:17:39.664352  5685 net.cpp:408] lstm1_gate_input_9 <- W_hc_h_8
I0116 15:17:39.664362  5685 net.cpp:408] lstm1_gate_input_9 <- W_xc_x_9
I0116 15:17:39.664400  5685 net.cpp:382] lstm1_gate_input_9 -> gate_input_9
I0116 15:17:39.664451  5685 net.cpp:124] Setting up lstm1_gate_input_9
I0116 15:17:39.664466  5685 net.cpp:131] Top shape: 1 512 400 (204800)
I0116 15:17:39.664474  5685 net.cpp:139] Memory required for data: 170024960
I0116 15:17:39.664481  5685 layer_factory.hpp:77] Creating layer lstm1_unit_9
I0116 15:17:39.664510  5685 net.cpp:86] Creating Layer lstm1_unit_9
I0116 15:17:39.664522  5685 net.cpp:408] lstm1_unit_9 <- c_8
I0116 15:17:39.664533  5685 net.cpp:408] lstm1_unit_9 <- gate_input_9
I0116 15:17:39.664544  5685 net.cpp:408] lstm1_unit_9 <- cont_9_lstm1_cont_slice_8_split_1
I0116 15:17:39.667248  5685 net.cpp:382] lstm1_unit_9 -> c_9
I0116 15:17:39.667264  5685 net.cpp:382] lstm1_unit_9 -> h_9
I0116 15:17:39.667372  5685 net.cpp:124] Setting up lstm1_unit_9
I0116 15:17:39.667382  5685 net.cpp:131] Top shape: 1 512 100 (51200)
I0116 15:17:39.667388  5685 net.cpp:131] Top shape: 1 512 100 (51200)
I0116 15:17:39.667394  5685 net.cpp:139] Memory required for data: 170434560
I0116 15:17:39.667399  5685 layer_factory.hpp:77] Creating layer h_9_lstm1_unit_9_1_split
I0116 15:17:39.667408  5685 net.cpp:86] Creating Layer h_9_lstm1_unit_9_1_split
I0116 15:17:39.667413  5685 net.cpp:408] h_9_lstm1_unit_9_1_split <- h_9
I0116 15:17:39.667426  5685 net.cpp:382] h_9_lstm1_unit_9_1_split -> h_9_lstm1_unit_9_1_split_0
I0116 15:17:39.667438  5685 net.cpp:382] h_9_lstm1_unit_9_1_split -> h_9_lstm1_unit_9_1_split_1
I0116 15:17:39.667495  5685 net.cpp:124] Setting up h_9_lstm1_unit_9_1_split
I0116 15:17:39.667502  5685 net.cpp:131] Top shape: 1 512 100 (51200)
I0116 15:17:39.667510  5685 net.cpp:131] Top shape: 1 512 100 (51200)
I0116 15:17:39.667513  5685 net.cpp:139] Memory required for data: 170844160
I0116 15:17:39.667518  5685 layer_factory.hpp:77] Creating layer lstm1_h_conted_9
I0116 15:17:39.667526  5685 net.cpp:86] Creating Layer lstm1_h_conted_9
I0116 15:17:39.667533  5685 net.cpp:408] lstm1_h_conted_9 <- h_9_lstm1_unit_9_1_split_0
I0116 15:17:39.667541  5685 net.cpp:408] lstm1_h_conted_9 <- cont_10_lstm1_cont_slice_9_split_0
I0116 15:17:39.667551  5685 net.cpp:382] lstm1_h_conted_9 -> h_conted_9
I0116 15:17:39.667649  5685 net.cpp:124] Setting up lstm1_h_conted_9
I0116 15:17:39.667659  5685 net.cpp:131] Top shape: 1 512 100 (51200)
I0116 15:17:39.667663  5685 net.cpp:139] Memory required for data: 171048960
I0116 15:17:39.667667  5685 layer_factory.hpp:77] Creating layer lstm1_transform_10
I0116 15:17:39.667676  5685 net.cpp:86] Creating Layer lstm1_transform_10
I0116 15:17:39.667683  5685 net.cpp:408] lstm1_transform_10 <- h_conted_9
I0116 15:17:39.667695  5685 net.cpp:382] lstm1_transform_10 -> W_hc_h_9
I0116 15:17:39.668231  5685 net.cpp:124] Setting up lstm1_transform_10
I0116 15:17:39.668238  5685 net.cpp:131] Top shape: 1 512 400 (204800)
I0116 15:17:39.668244  5685 net.cpp:139] Memory required for data: 171868160
I0116 15:17:39.668251  5685 net.cpp:467] Sharing parameters 'W_hc' owned by layer 'lstm1_transform_1', param index 0
I0116 15:17:39.668256  5685 layer_factory.hpp:77] Creating layer lstm1_gate_input_10
I0116 15:17:39.668267  5685 net.cpp:86] Creating Layer lstm1_gate_input_10
I0116 15:17:39.668274  5685 net.cpp:408] lstm1_gate_input_10 <- W_hc_h_9
I0116 15:17:39.668280  5685 net.cpp:408] lstm1_gate_input_10 <- W_xc_x_10
I0116 15:17:39.668288  5685 net.cpp:382] lstm1_gate_input_10 -> gate_input_10
I0116 15:17:39.668326  5685 net.cpp:124] Setting up lstm1_gate_input_10
I0116 15:17:39.668335  5685 net.cpp:131] Top shape: 1 512 400 (204800)
I0116 15:17:39.668339  5685 net.cpp:139] Memory required for data: 172687360
I0116 15:17:39.668344  5685 layer_factory.hpp:77] Creating layer lstm1_unit_10
I0116 15:17:39.668351  5685 net.cpp:86] Creating Layer lstm1_unit_10
I0116 15:17:39.668359  5685 net.cpp:408] lstm1_unit_10 <- c_9
I0116 15:17:39.668365  5685 net.cpp:408] lstm1_unit_10 <- gate_input_10
I0116 15:17:39.668372  5685 net.cpp:408] lstm1_unit_10 <- cont_10_lstm1_cont_slice_9_split_1
I0116 15:17:39.668380  5685 net.cpp:382] lstm1_unit_10 -> c_10
I0116 15:17:39.668409  5685 net.cpp:382] lstm1_unit_10 -> h_10
I0116 15:17:39.668486  5685 net.cpp:124] Setting up lstm1_unit_10
I0116 15:17:39.668493  5685 net.cpp:131] Top shape: 1 512 100 (51200)
I0116 15:17:39.668503  5685 net.cpp:131] Top shape: 1 512 100 (51200)
I0116 15:17:39.668509  5685 net.cpp:139] Memory required for data: 173096960
I0116 15:17:39.668514  5685 layer_factory.hpp:77] Creating layer h_10_lstm1_unit_10_1_split
I0116 15:17:39.668520  5685 net.cpp:86] Creating Layer h_10_lstm1_unit_10_1_split
I0116 15:17:39.668526  5685 net.cpp:408] h_10_lstm1_unit_10_1_split <- h_10
I0116 15:17:39.668539  5685 net.cpp:382] h_10_lstm1_unit_10_1_split -> h_10_lstm1_unit_10_1_split_0
I0116 15:17:39.668550  5685 net.cpp:382] h_10_lstm1_unit_10_1_split -> h_10_lstm1_unit_10_1_split_1
I0116 15:17:39.668609  5685 net.cpp:124] Setting up h_10_lstm1_unit_10_1_split
I0116 15:17:39.668619  5685 net.cpp:131] Top shape: 1 512 100 (51200)
I0116 15:17:39.668627  5685 net.cpp:131] Top shape: 1 512 100 (51200)
I0116 15:17:39.668632  5685 net.cpp:139] Memory required for data: 173506560
I0116 15:17:39.668637  5685 layer_factory.hpp:77] Creating layer lstm1_h_conted_10
I0116 15:17:39.668645  5685 net.cpp:86] Creating Layer lstm1_h_conted_10
I0116 15:17:39.668653  5685 net.cpp:408] lstm1_h_conted_10 <- h_10_lstm1_unit_10_1_split_0
I0116 15:17:39.668659  5685 net.cpp:408] lstm1_h_conted_10 <- cont_11_lstm1_cont_slice_10_split_0
I0116 15:17:39.668671  5685 net.cpp:382] lstm1_h_conted_10 -> h_conted_10
I0116 15:17:39.668767  5685 net.cpp:124] Setting up lstm1_h_conted_10
I0116 15:17:39.668776  5685 net.cpp:131] Top shape: 1 512 100 (51200)
I0116 15:17:39.668781  5685 net.cpp:139] Memory required for data: 173711360
I0116 15:17:39.668784  5685 layer_factory.hpp:77] Creating layer lstm1_transform_11
I0116 15:17:39.668792  5685 net.cpp:86] Creating Layer lstm1_transform_11
I0116 15:17:39.668799  5685 net.cpp:408] lstm1_transform_11 <- h_conted_10
I0116 15:17:39.668810  5685 net.cpp:382] lstm1_transform_11 -> W_hc_h_10
I0116 15:17:39.669386  5685 net.cpp:124] Setting up lstm1_transform_11
I0116 15:17:39.669399  5685 net.cpp:131] Top shape: 1 512 400 (204800)
I0116 15:17:39.669405  5685 net.cpp:139] Memory required for data: 174530560
I0116 15:17:39.669410  5685 net.cpp:467] Sharing parameters 'W_hc' owned by layer 'lstm1_transform_1', param index 0
I0116 15:17:39.669415  5685 layer_factory.hpp:77] Creating layer lstm1_gate_input_11
I0116 15:17:39.669425  5685 net.cpp:86] Creating Layer lstm1_gate_input_11
I0116 15:17:39.669431  5685 net.cpp:408] lstm1_gate_input_11 <- W_hc_h_10
I0116 15:17:39.669438  5685 net.cpp:408] lstm1_gate_input_11 <- W_xc_x_11
I0116 15:17:39.669448  5685 net.cpp:382] lstm1_gate_input_11 -> gate_input_11
I0116 15:17:39.669486  5685 net.cpp:124] Setting up lstm1_gate_input_11
I0116 15:17:39.669493  5685 net.cpp:131] Top shape: 1 512 400 (204800)
I0116 15:17:39.669498  5685 net.cpp:139] Memory required for data: 175349760
I0116 15:17:39.669502  5685 layer_factory.hpp:77] Creating layer lstm1_unit_11
I0116 15:17:39.669510  5685 net.cpp:86] Creating Layer lstm1_unit_11
I0116 15:17:39.669517  5685 net.cpp:408] lstm1_unit_11 <- c_10
I0116 15:17:39.669523  5685 net.cpp:408] lstm1_unit_11 <- gate_input_11
I0116 15:17:39.669530  5685 net.cpp:408] lstm1_unit_11 <- cont_11_lstm1_cont_slice_10_split_1
I0116 15:17:39.669539  5685 net.cpp:382] lstm1_unit_11 -> c_11
I0116 15:17:39.669550  5685 net.cpp:382] lstm1_unit_11 -> h_11
I0116 15:17:39.669625  5685 net.cpp:124] Setting up lstm1_unit_11
I0116 15:17:39.669631  5685 net.cpp:131] Top shape: 1 512 100 (51200)
I0116 15:17:39.669637  5685 net.cpp:131] Top shape: 1 512 100 (51200)
I0116 15:17:39.669643  5685 net.cpp:139] Memory required for data: 175759360
I0116 15:17:39.669647  5685 layer_factory.hpp:77] Creating layer h_11_lstm1_unit_11_1_split
I0116 15:17:39.669656  5685 net.cpp:86] Creating Layer h_11_lstm1_unit_11_1_split
I0116 15:17:39.669661  5685 net.cpp:408] h_11_lstm1_unit_11_1_split <- h_11
I0116 15:17:39.669670  5685 net.cpp:382] h_11_lstm1_unit_11_1_split -> h_11_lstm1_unit_11_1_split_0
I0116 15:17:39.669694  5685 net.cpp:382] h_11_lstm1_unit_11_1_split -> h_11_lstm1_unit_11_1_split_1
I0116 15:17:39.669752  5685 net.cpp:124] Setting up h_11_lstm1_unit_11_1_split
I0116 15:17:39.669759  5685 net.cpp:131] Top shape: 1 512 100 (51200)
I0116 15:17:39.669767  5685 net.cpp:131] Top shape: 1 512 100 (51200)
I0116 15:17:39.669771  5685 net.cpp:139] Memory required for data: 176168960
I0116 15:17:39.669776  5685 layer_factory.hpp:77] Creating layer lstm1_h_conted_11
I0116 15:17:39.669785  5685 net.cpp:86] Creating Layer lstm1_h_conted_11
I0116 15:17:39.669792  5685 net.cpp:408] lstm1_h_conted_11 <- h_11_lstm1_unit_11_1_split_0
I0116 15:17:39.669802  5685 net.cpp:408] lstm1_h_conted_11 <- cont_12_lstm1_cont_slice_11_split_0
I0116 15:17:39.669811  5685 net.cpp:382] lstm1_h_conted_11 -> h_conted_11
I0116 15:17:39.669909  5685 net.cpp:124] Setting up lstm1_h_conted_11
I0116 15:17:39.669917  5685 net.cpp:131] Top shape: 1 512 100 (51200)
I0116 15:17:39.669921  5685 net.cpp:139] Memory required for data: 176373760
I0116 15:17:39.669925  5685 layer_factory.hpp:77] Creating layer lstm1_transform_12
I0116 15:17:39.669936  5685 net.cpp:86] Creating Layer lstm1_transform_12
I0116 15:17:39.669944  5685 net.cpp:408] lstm1_transform_12 <- h_conted_11
I0116 15:17:39.669951  5685 net.cpp:382] lstm1_transform_12 -> W_hc_h_11
I0116 15:17:39.671846  5685 net.cpp:124] Setting up lstm1_transform_12
I0116 15:17:39.671865  5685 net.cpp:131] Top shape: 1 512 400 (204800)
I0116 15:17:39.671871  5685 net.cpp:139] Memory required for data: 177192960
I0116 15:17:39.671877  5685 net.cpp:467] Sharing parameters 'W_hc' owned by layer 'lstm1_transform_1', param index 0
…
I0116 15:17:39.775247  5685 net.cpp:86] Creating Layer lstm1_h_conted_77
I0116 15:17:39.775250  5685 net.cpp:408] lstm1_h_conted_77 <- h_77_lstm1_unit_77_1_split_0
I0116 15:17:39.775254  5685 net.cpp:408] lstm1_h_conted_77 <- cont_78_lstm1_cont_slice_77_split_0
I0116 15:17:39.775259  5685 net.cpp:382] lstm1_h_conted_77 -> h_conted_77
I0116 15:17:39.775305  5685 net.cpp:124] Setting up lstm1_h_conted_77
I0116 15:17:39.775310  5685 net.cpp:131] Top shape: 1 512 100 (51200)
I0116 15:17:39.775311  5685 net.cpp:139] Memory required for data: 352092160
I0116 15:17:39.775313  5685 layer_factory.hpp:77] Creating layer lstm1_transform_78
I0116 15:17:39.775317  5685 net.cpp:86] Creating Layer lstm1_transform_78
I0116 15:17:39.775321  5685 net.cpp:408] lstm1_transform_78 <- h_conted_77
I0116 15:17:39.775326  5685 net.cpp:382] lstm1_transform_78 -> W_hc_h_77
I0116 15:17:39.775557  5685 net.cpp:124] Setting up lstm1_transform_78
I0116 15:17:39.775562  5685 net.cpp:131] Top shape: 1 512 400 (204800)
I0116 15:17:39.775563  5685 net.cpp:139] Memory required for data: 352911360
I0116 15:17:39.775566  5685 net.cpp:467] Sharing parameters 'W_hc' owned by layer 'lstm1_transform_1', param index 0
I0116 15:17:39.775568  5685 layer_factory.hpp:77] Creating layer lstm1_gate_input_78
I0116 15:17:39.775573  5685 net.cpp:86] Creating Layer lstm1_gate_input_78
I0116 15:17:39.775575  5685 net.cpp:408] lstm1_gate_input_78 <- W_hc_h_77
I0116 15:17:39.775578  5685 net.cpp:408] lstm1_gate_input_78 <- W_xc_x_78
I0116 15:17:39.775583  5685 net.cpp:382] lstm1_gate_input_78 -> gate_input_78
I0116 15:17:39.775601  5685 net.cpp:124] Setting up lstm1_gate_input_78
I0116 15:17:39.775605  5685 net.cpp:131] Top shape: 1 512 400 (204800)
I0116 15:17:39.775607  5685 net.cpp:139] Memory required for data: 353730560
I0116 15:17:39.775609  5685 layer_factory.hpp:77] Creating layer lstm1_unit_78
I0116 15:17:39.775612  5685 net.cpp:86] Creating Layer lstm1_unit_78
I0116 15:17:39.775615  5685 net.cpp:408] lstm1_unit_78 <- c_77
I0116 15:17:39.775619  5685 net.cpp:408] lstm1_unit_78 <- gate_input_78
I0116 15:17:39.776371  5685 net.cpp:408] lstm1_unit_78 <- cont_78_lstm1_cont_slice_77_split_1
I0116 15:17:39.776376  5685 net.cpp:382] lstm1_unit_78 -> c_78
I0116 15:17:39.776383  5685 net.cpp:382] lstm1_unit_78 -> h_78
I0116 15:17:39.776424  5685 net.cpp:124] Setting up lstm1_unit_78
I0116 15:17:39.776428  5685 net.cpp:131] Top shape: 1 512 100 (51200)
I0116 15:17:39.776432  5685 net.cpp:131] Top shape: 1 512 100 (51200)
I0116 15:17:39.776434  5685 net.cpp:139] Memory required for data: 354140160
I0116 15:17:39.776437  5685 layer_factory.hpp:77] Creating layer h_78_lstm1_unit_78_1_split
I0116 15:17:39.776440  5685 net.cpp:86] Creating Layer h_78_lstm1_unit_78_1_split
I0116 15:17:39.776443  5685 net.cpp:408] h_78_lstm1_unit_78_1_split <- h_78
I0116 15:17:39.776446  5685 net.cpp:382] h_78_lstm1_unit_78_1_split -> h_78_lstm1_unit_78_1_split_0
I0116 15:17:39.776451  5685 net.cpp:382] h_78_lstm1_unit_78_1_split -> h_78_lstm1_unit_78_1_split_1
I0116 15:17:39.776479  5685 net.cpp:124] Setting up h_78_lstm1_unit_78_1_split
I0116 15:17:39.776481  5685 net.cpp:131] Top shape: 1 512 100 (51200)
I0116 15:17:39.776485  5685 net.cpp:131] Top shape: 1 512 100 (51200)
I0116 15:17:39.776486  5685 net.cpp:139] Memory required for data: 354549760
I0116 15:17:39.776489  5685 layer_factory.hpp:77] Creating layer lstm1_h_conted_78
I0116 15:17:39.776499  5685 net.cpp:86] Creating Layer lstm1_h_conted_78
I0116 15:17:39.776504  5685 net.cpp:408] lstm1_h_conted_78 <- h_78_lstm1_unit_78_1_split_0
I0116 15:17:39.776506  5685 net.cpp:408] lstm1_h_conted_78 <- cont_79_lstm1_cont_slice_78_split_0
I0116 15:17:39.776511  5685 net.cpp:382] lstm1_h_conted_78 -> h_conted_78
I0116 15:17:39.776562  5685 net.cpp:124] Setting up lstm1_h_conted_78
I0116 15:17:39.776566  5685 net.cpp:131] Top shape: 1 512 100 (51200)
I0116 15:17:39.776568  5685 net.cpp:139] Memory required for data: 354754560
I0116 15:17:39.776571  5685 layer_factory.hpp:77] Creating layer lstm1_transform_79
I0116 15:17:39.776576  5685 net.cpp:86] Creating Layer lstm1_transform_79
I0116 15:17:39.776578  5685 net.cpp:408] lstm1_transform_79 <- h_conted_78
I0116 15:17:39.776582  5685 net.cpp:382] lstm1_transform_79 -> W_hc_h_78
I0116 15:17:39.776813  5685 net.cpp:124] Setting up lstm1_transform_79
I0116 15:17:39.776818  5685 net.cpp:131] Top shape: 1 512 400 (204800)
I0116 15:17:39.776820  5685 net.cpp:139] Memory required for data: 355573760
I0116 15:17:39.776823  5685 net.cpp:467] Sharing parameters 'W_hc' owned by layer 'lstm1_transform_1', param index 0
I0116 15:17:39.776824  5685 layer_factory.hpp:77] Creating layer lstm1_gate_input_79
I0116 15:17:39.776829  5685 net.cpp:86] Creating Layer lstm1_gate_input_79
I0116 15:17:39.776831  5685 net.cpp:408] lstm1_gate_input_79 <- W_hc_h_78
I0116 15:17:39.776834  5685 net.cpp:408] lstm1_gate_input_79 <- W_xc_x_79
I0116 15:17:39.776840  5685 net.cpp:382] lstm1_gate_input_79 -> gate_input_79
I0116 15:17:39.776857  5685 net.cpp:124] Setting up lstm1_gate_input_79
I0116 15:17:39.776861  5685 net.cpp:131] Top shape: 1 512 400 (204800)
I0116 15:17:39.776863  5685 net.cpp:139] Memory required for data: 356392960
I0116 15:17:39.776865  5685 layer_factory.hpp:77] Creating layer lstm1_unit_79
I0116 15:17:39.776870  5685 net.cpp:86] Creating Layer lstm1_unit_79
I0116 15:17:39.776872  5685 net.cpp:408] lstm1_unit_79 <- c_78
I0116 15:17:39.776875  5685 net.cpp:408] lstm1_unit_79 <- gate_input_79
I0116 15:17:39.776878  5685 net.cpp:408] lstm1_unit_79 <- cont_79_lstm1_cont_slice_78_split_1
I0116 15:17:39.776881  5685 net.cpp:382] lstm1_unit_79 -> c_79
I0116 15:17:39.776888  5685 net.cpp:382] lstm1_unit_79 -> h_79
I0116 15:17:39.776923  5685 net.cpp:124] Setting up lstm1_unit_79
I0116 15:17:39.776927  5685 net.cpp:131] Top shape: 1 512 100 (51200)
I0116 15:17:39.776929  5685 net.cpp:131] Top shape: 1 512 100 (51200)
I0116 15:17:39.776932  5685 net.cpp:139] Memory required for data: 356802560
I0116 15:17:39.776934  5685 layer_factory.hpp:77] Creating layer h_79_lstm1_unit_79_1_split
I0116 15:17:39.776937  5685 net.cpp:86] Creating Layer h_79_lstm1_unit_79_1_split
I0116 15:17:39.776940  5685 net.cpp:408] h_79_lstm1_unit_79_1_split <- h_79
I0116 15:17:39.776944  5685 net.cpp:382] h_79_lstm1_unit_79_1_split -> h_79_lstm1_unit_79_1_split_0
I0116 15:17:39.776949  5685 net.cpp:382] h_79_lstm1_unit_79_1_split -> h_79_lstm1_unit_79_1_split_1
I0116 15:17:39.776975  5685 net.cpp:124] Setting up h_79_lstm1_unit_79_1_split
I0116 15:17:39.776978  5685 net.cpp:131] Top shape: 1 512 100 (51200)
I0116 15:17:39.776981  5685 net.cpp:131] Top shape: 1 512 100 (51200)
I0116 15:17:39.776983  5685 net.cpp:139] Memory required for data: 357212160
I0116 15:17:39.776985  5685 layer_factory.hpp:77] Creating layer lstm1_h_conted_79
I0116 15:17:39.776990  5685 net.cpp:86] Creating Layer lstm1_h_conted_79
I0116 15:17:39.776993  5685 net.cpp:408] lstm1_h_conted_79 <- h_79_lstm1_unit_79_1_split_0
I0116 15:17:39.776996  5685 net.cpp:408] lstm1_h_conted_79 <- cont_80_lstm1_cont_slice_79_split_0
I0116 15:17:39.777001  5685 net.cpp:382] lstm1_h_conted_79 -> h_conted_79
I0116 15:17:39.777047  5685 net.cpp:124] Setting up lstm1_h_conted_79
I0116 15:17:39.777051  5685 net.cpp:131] Top shape: 1 512 100 (51200)
I0116 15:17:39.777052  5685 net.cpp:139] Memory required for data: 357416960
I0116 15:17:39.777055  5685 layer_factory.hpp:77] Creating layer lstm1_transform_80
I0116 15:17:39.777060  5685 net.cpp:86] Creating Layer lstm1_transform_80
I0116 15:17:39.777068  5685 net.cpp:408] lstm1_transform_80 <- h_conted_79
I0116 15:17:39.777072  5685 net.cpp:382] lstm1_transform_80 -> W_hc_h_79
I0116 15:17:39.777302  5685 net.cpp:124] Setting up lstm1_transform_80
I0116 15:17:39.777307  5685 net.cpp:131] Top shape: 1 512 400 (204800)
I0116 15:17:39.777309  5685 net.cpp:139] Memory required for data: 358236160
I0116 15:17:39.777312  5685 net.cpp:467] Sharing parameters 'W_hc' owned by layer 'lstm1_transform_1', param index 0
I0116 15:17:39.777313  5685 layer_factory.hpp:77] Creating layer lstm1_gate_input_80
I0116 15:17:39.777318  5685 net.cpp:86] Creating Layer lstm1_gate_input_80
I0116 15:17:39.777321  5685 net.cpp:408] lstm1_gate_input_80 <- W_hc_h_79
I0116 15:17:39.777324  5685 net.cpp:408] lstm1_gate_input_80 <- W_xc_x_80
I0116 15:17:39.777328  5685 net.cpp:382] lstm1_gate_input_80 -> gate_input_80
I0116 15:17:39.777345  5685 net.cpp:124] Setting up lstm1_gate_input_80
I0116 15:17:39.777349  5685 net.cpp:131] Top shape: 1 512 400 (204800)
I0116 15:17:39.777350  5685 net.cpp:139] Memory required for data: 359055360
I0116 15:17:39.777353  5685 layer_factory.hpp:77] Creating layer lstm1_unit_80
I0116 15:17:39.777356  5685 net.cpp:86] Creating Layer lstm1_unit_80
I0116 15:17:39.777359  5685 net.cpp:408] lstm1_unit_80 <- c_79
I0116 15:17:39.777361  5685 net.cpp:408] lstm1_unit_80 <- gate_input_80
I0116 15:17:39.777364  5685 net.cpp:408] lstm1_unit_80 <- cont_80_lstm1_cont_slice_79_split_1
I0116 15:17:39.777369  5685 net.cpp:382] lstm1_unit_80 -> c_80
I0116 15:17:39.777374  5685 net.cpp:382] lstm1_unit_80 -> h_80
I0116 15:17:39.777410  5685 net.cpp:124] Setting up lstm1_unit_80
I0116 15:17:39.777412  5685 net.cpp:131] Top shape: 1 512 100 (51200)
I0116 15:17:39.777415  5685 net.cpp:131] Top shape: 1 512 100 (51200)
I0116 15:17:39.777417  5685 net.cpp:139] Memory required for data: 359464960
I0116 15:17:39.777420  5685 layer_factory.hpp:77] Creating layer lstm1_
I0116 15:17:39.777422  5685 net.cpp:86] Creating Layer lstm1_
I0116 15:17:39.777424  5685 net.cpp:408] lstm1_ <- c_80
I0116 15:17:39.777428  5685 net.cpp:382] lstm1_ -> c_T
I0116 15:17:39.777444  5685 net.cpp:124] Setting up lstm1_
I0116 15:17:39.777448  5685 net.cpp:131] Top shape: 1 512 100 (51200)
I0116 15:17:39.777449  5685 net.cpp:139] Memory required for data: 359669760
I0116 15:17:39.777452  5685 layer_factory.hpp:77] Creating layer lstm1_h_concat
I0116 15:17:39.777464  5685 net.cpp:86] Creating Layer lstm1_h_concat
I0116 15:17:39.777467  5685 net.cpp:408] lstm1_h_concat <- h_1_lstm1_unit_1_1_split_1
I0116 15:17:39.777472  5685 net.cpp:408] lstm1_h_concat <- h_2_lstm1_unit_2_1_split_1
…
  top: "W_xc_x_53"
  top: "W_xc_x_54"
  top: "W_xc_x_55"
  top: "W_xc_x_56"
  top: "W_xc_x_57"
  top: "W_xc_x_58"
  top: "W_xc_x_59"
  top: "W_xc_x_60"
  top: "W_xc_x_61"
  top: "W_xc_x_62"
  top: "W_xc_x_63"
  top: "W_xc_x_64"
  top: "W_xc_x_65"
  top: "W_xc_x_66"
  top: "W_xc_x_67"
  top: "W_xc_x_68"
  top: "W_xc_x_69"
  top: "W_xc_x_70"
  top: "W_xc_x_71"
  top: "W_xc_x_72"
  top: "W_xc_x_73"
  top: "W_xc_x_74"
  top: "W_xc_x_75"
  top: "W_xc_x_76"
  top: "W_xc_x_77"
  top: "W_xc_x_78"
  top: "W_xc_x_79"
  top: "W_xc_x_80"
  slice_param {
    axis: 0
  }
}
layer {
  name: "lstm2_h_conted_0"
  type: "Scale"
  bottom: "h_0"
  bottom: "cont_1"
  top: "h_conted_0"
  scale_param {
    axis: 0
  }
}
layer {
  name: "lstm2_transform_1"
  type: "InnerProduct"
  bottom: "h_conted_0"
  top: "W_hc_h_0"
  param {
    name: "W_hc"
  }
  inner_product_param {
    num_output: 400
    bias_term: false
    weight_filler {
      type: "xavier"
    }
    axis: 2
  }
}
layer {
  name: "lstm2_gate_input_1"
  type: "Eltwise"
  bottom: "W_hc_h_0"
  bottom: "W_xc_x_1"
  top: "gate_input_1"
  eltwise_param {
    operation: SUM
  }
}
layer {
  name: "lstm2_unit_1"
  type: "LSTMUnit"
  bottom: "c_0"
  bottom: "gate_input_1"
  bottom: "cont_1"
  top: "c_1"
  top: "h_1"
}
layer {
  name: "lstm2_h_conted_1"
  type: "Scale"
  bottom: "h_1"
  bottom: "cont_2"
  top: "h_conted_1"
  scale_param {
    axis: 0
  }
}
layer {
  name: "lstm2_transform_2"
  type: "InnerProduct"
  bottom: "h_conted_1"
  top: "W_hc_h_1"
  param {
    name: "W_hc"
  }
  inner_product_param {
    num_output: 400
    bias_term: false
    weight_filler {
      type: "xavier"
    }
    axis: 2
  }
}
layer {
  name: "lstm2_gate_input_2"
  type: "Eltwise"
  bottom: "W_hc_h_1"
  bottom: "W_xc_x_2"
  top: "gate_input_2"
  eltwise_param {
    operation: SUM
  }
}
layer {
  name: "lstm2_unit_2"
  type: "LSTMUnit"
  bottom: "c_1"
  bottom: "gate_input_2"
  bottom: "cont_2"
  top: "c_2"
  top: "h_2"
}
layer {
  name: "lstm2_h_conted_2"
  type: "Scale"
  bottom: "h_2"
  bottom: "cont_3"
  top: "h_conted_2"
  scale_param {
    axis: 0
  }
}
layer {
  name: "lstm2_transform_3"
  type: "InnerProduct"
  bottom: "h_conted_2"
  top: "W_hc_h_2"
  param {
    name: "W_hc"
  }
  inner_product_param {
    num_output: 400
    bias_term: false
    weight_filler {
      type: "xavier"
    }
    axis: 2
  }
}
layer {
  name: "lstm2_gate_input_3"
  type: "Eltwise"
  bottom: "W_hc_h_2"
  bottom: "W_xc_x_3"
  top: "gate_input_3"
  eltwise_param {
    operation: SUM
  }
}
layer {
  name: "lstm2_unit_3"
  type: "LSTMUnit"
  bottom: "c_2"
  bottom: "gate_input_3"
  bottom: "cont_3"
  top: "c_3"
  top: "h_3"
}
layer {
  name: "lstm2_h_conted_3"
  type: "Scale"
  bottom: "h_3"
  bottom: "cont_4"
  top: "h_conted_3"
  scale_param {
    axis: 0
  }
}
layer {
  name: "lstm2_transform_4"
  type: "InnerProduct"
  bottom: "h_conted_3"
  top: "W_hc_h_3"
  param {
    name: "W_hc"
  }
  inner_product_param {
    num_output: 400
    bias_term: false
    weight_filler {
      type: "xavier"
    }
    axis: 2
  }
}
layer {
  name: "lstm2_gate_input_4"
  type: "Eltwise"
  bottom: "W_hc_h_3"
  bottom: "W_xc_x_4"
  top: "gate_input_4"
  eltwise_param {
    operation: SUM
  }
}
layer {
  name: "lstm2_unit_4"
  type: "LSTMUnit"
  bottom: "c_3"
  bottom: "gate_input_4"
  bottom: "cont_4"
  top: "c_4"
  top: "h_4"
}
layer {
  name: "lstm2_h_conted_4"
  type: "Scale"
  bottom: "h_4"
  bottom: "cont_5"
  top: "h_conted_4"
  scale_param {
    axis: 0
  }
}
layer {
  name: "lstm2_transform_5"
  type: "InnerProduct"
  bottom: "h_conted_4"
  top: "W_hc_h_4"
  param {
    name: "W_hc"
  }
  inner_product_param {
    num_output: 400
    bias_term: false
    weight_filler {
      type: "xavier"
    }
    axis: 2
  }
}
layer {
  name: "lstm2_gate_input_5"
  type: "Eltwise"
  bottom: "W_hc_h_4"
  bottom: "W_xc_x_5"
  top: "gate_input_5"
  eltwise_param {
    operation: SUM
  }
}
layer {
  name: "lstm2_unit_5"
  type: "LSTMUnit"
  bottom: "c_4"
  bottom: "gate_input_5"
  bottom: "cont_5"
  top: "c_5"
  top: "h_5"
}
layer {
  name: "lstm2_h_conted_5"
  type: "Scale"
  bottom: "h_5"
  bottom: "cont_6"
  top: "h_conted_5"
  scale_param {
    axis: 0
  }
}
layer {
  name: "lstm2_transform_6"
  type: "InnerProduct"
  bottom: "h_conted_5"
  top: "W_hc_h_5"
  param {
    name: "W_hc"
  }
  inner_product_param {
    num_output: 400
    bias_term: false
    weight_filler {
      type: "xavier"
    }
    axis: 2
  }
}
layer {
  name: "lstm2_gate_input_6"
  type: "Eltwise"
  bottom: "W_hc_h_5"
  bottom: "W_xc_x_6"
  top: "gate_input_6"
  eltwise_param {
    operation: SUM
  }
}
layer {
  name: "lstm2_unit_6"
  type: "LSTMUnit"
  bottom: "c_5"
  bottom: "gate_input_6"
  bottom: "cont_6"
  top: "c_6"
  top: "h_6"
}
layer {
  name: "lstm2_h_conted_6"
  type: "Scale"
  bottom: "h_6"
  bottom: "cont_7"
  top: "h_conted_6"
  scale_param {
    axis: 0
  }
}
layer {
  name: "lstm2_transform_7"
  type: "InnerProduct"
  bottom: "h_conted_6"
  top: "W_hc_h_6"
  param {
    name: "W_hc"
  }
  inner_product_param {
    num_output: 400
    bias_term: false
    weight_filler {
      type: "xavier"
    }
    axis: 2
  }
}
layer {
  name: "lstm2_gate_input_7"
  type: "Eltwise"
  bottom: "W_hc_h_6"
  bottom: "W_xc_x_7"
  top: "gate_input_7"
  eltwise_param {
    operation: SUM
  }
}
layer {
  name: "lstm2_unit_7"
  type: "LSTMUnit"
  bottom: "c_6"
  bottom: "gate_input_7"
  bottom: "cont_7"
  top: "c_7"
  top: "h_7"
}
layer {
  name: "lstm2_h_conted_7"
  type: "Scale"
  bottom: "h_7"
  bottom: "cont_8"
  top: "h_conted_7"
  scale_param {
    axis: 0
  }
}
layer {
  name: "lstm2_transform_8"
  type: "InnerProduct"
  bottom: "h_conted_7"
  top: "W_hc_h_7"
  param {
    name: "W_hc"
  }
  inner_product_param {
    num_output: 400
    bias_term: false
    weight_filler {
      type: "xavier"
    }
    axis: 2
  }
}
layer {
  name: "lstm2_gate_input_8"
  type: "Eltwise"
  bottom: "W_hc_h_7"
  bottom: "W_xc_x_8"
  top: "gate_input_8"
  eltwise_param {
    operation: SUM
  }
}
layer {
  name: "lstm2_unit_8"
  type: "LSTMUnit"
  bottom: "c_7"
  bottom: "gate_input_8"
  bottom: "cont_8"
  top: "c_8"
  top: "h_8"
}
layer {
  name: "lstm2_h_conted_8"
  type: "Scale"
  bottom: "h_8"
  bottom: "cont_9"
  top: "h_conted_8"
  scale_param {
    axis: 0
  }
}
layer {
  name: "lstm2_transform_9"
  type: "InnerProduct"
  bottom: "h_conted_8"
  top: "W_hc_h_8"
  param {
    name: "W_hc"
  }
  inner_product_param {
    num_output: 400
    bias_term: false
    weight_filler {
      type: "xavier"
    }
    axis: 2
  }
}
layer {
  name: "lstm2_gate_input_9"
  type: "Eltwise"
  bottom: "W_hc_h_8"
  bottom: "W_xc_x_9"
  top: "gate_input_9"
  eltwise_param {
    operation: SUM
  }
}
layer {
  name: "lstm2_unit_9"
  type: "LSTMUnit"
  bottom: "c_8"
  bottom: "gate_input_9"
  bottom: "cont_9"
  top: "c_9"
  top: "h_9"
}
layer {
  name: "lstm2_h_conted_9"
  type: "Scale"
  bottom: "h_9"
  bottom: "cont_10"
  top: "h_conted_9"
  scale_param {
    axis: 0
  }
}
layer {
  name: "lstm2_transform_10"
  type: "InnerProduct"
  bottom: "h_conted_9"
  top: "W_hc_h_9"
  param {
    name: "W_hc"
  }
  inner_product_param {
    num_output: 400
    bias_term: false
    weight_filler {
      type: "xavier"
    }
    axis: 2
  }
}
layer {
  name: "lstm2_gate_input_10"
  type: "Eltwise"
  bottom: "W_hc_h_9"
  bottom: "W_xc_x_10"
  top: "gate_input_10"
  eltwise_param {
    operation: SUM
  }
}
layer {
  name: "lstm2_unit_10"
  type: "LSTMUnit"
  bottom: "c_9"
  bottom: "gate_input_10"
  bottom: "cont_10"
  top: "c_10"
  top: "h_10"
}
layer {
  name: "lstm2_h_conted_10"
  type: "Scale"
  bottom: "h_10"
  bottom: "cont_11"
  top: "h_conted_10"
  scale_param {
    axis: 0
  }
}
layer {
  name: "lstm2_transform_11"
  type: "InnerProduct"
  bottom: "h_conted_10"
  top: "W_hc_h_10"
  param {
    name: "W_hc"
  }
  inner_product_param {
    num_output: 400
    bias_term: false
    weight_filler {
      type: "xavier"
    }
    axis: 2
  }
}
layer {
  name: "lstm2_gate_input_11"
  type: "Eltwise"
  bottom: "W_hc_h_10"
  bottom: "W_xc_x_11"
  top: "gate_input_11"
  eltwise_param {
    operation: SUM
  }
}
layer {
  name: "lstm2_unit_11"
  type: "LSTMUnit"
  bottom: "c_10"
  bottom: "gate_input_11"
  bottom: "cont_11"
  top: "c_11"
  top: "h_11"
}
layer {
  name: "lstm2_h_conted_11"
  type: "Scale"
  bottom: "h_11"
  bottom: "cont_12"
  top: "h_conted_11"
  scale_param {
    axis: 0
  }
}
layer {
  name: "lstm2_transform_12"
  type: "InnerProduct"
  bottom: "h_conted_11"
  top: "W_hc_h_11"
  param {
    name: "W_hc"
  }
  inner_product_param {
    num_output: 400
    bias_term: false
    weight_filler {
      type: "xavier"
    }
    axis: 2
  }
}
layer {
  name: "lstm2_gate_input_12"
  type: "Eltwise"
  bottom: "W_hc_h_11"
  bottom: "W_xc_x_12"
  top: "gate_input_12"
  eltwise_param {
    operation: SUM
  }
}
layer {
  name: "lstm2_unit_12"
  type: "LSTMUnit"
  bottom: "c_11"
  bottom: "gate_input_12"
  bottom: "cont_12"
  top: "c_12"
  top: "h_12"
}
layer {
  name: "lstm2_h_conted_12"
  type: "Scale"
  bottom: "h_12"
  bottom: "cont_13"
  top: "h_conted_12"
  scale_param {
    axis: 0
  }
}
layer {
  name: "lstm2_transform_13"
  type: "InnerProduct"
  bottom: "h_conted_12"
  top: "W_hc_h_12"
  param {
    name: "W_hc"
  }
  inner_product_param {
    num_output: 400
    bias_term: false
    weight_filler {
      type: "xavier"
    }
    axis: 2
  }
}
layer {
  name: "lstm2_gate_input_13"
  type: "Eltwise"
  bottom: "W_hc_h_12"
  bottom: "W_xc_x_13"
  top: "gate_input_13"
  eltwise_param {
    operation: SUM
  }
}
layer {
  name: "lstm2_unit_13"
  type: "LSTMUnit"
  bottom: "c_12"
  bottom: "gate_input_13"
  bottom: "cont_13"
  top: "c_13"
  top: "h_13"
}
layer {
  name: "lstm2_h_conted_13"
  type: "Scale"
  bottom: "h_13"
  bottom: "cont_14"
  top: "h_conted_13"
  scale_param {
    axis: 0
  }
}
layer {
  name: "lstm2_transform_14"
  type: "InnerProduct"
  bottom: "h_conted_13"
  top: "W_hc_h_13"
  param {
    name: "W_hc"
  }
  inner_product_param {
    num_output: 400
    bias_term: false
    weight_filler {
      type: "xavier"
    }
    axis: 2
  }
}
layer {
  name: "lstm2_gate_input_14"
  type: "Eltwise"
  bottom: "W_hc_h_13"
  bottom: "W_xc_x_14"
  top: "gate_input_14"
  eltwise_param {
    operation: SUM
  }
}
layer {
  name: "lstm2_unit_14"
  type: "LSTMUnit"
  bottom: "c_13"
  bottom: "gate_input_14"
  bottom: "cont_14"
  top: "c_14"
  top: "h_14"
}
layer {
  name: "lstm2_h_conted_14"
  type: "Scale"
  bottom: "h_14"
  bottom: "cont_15"
  top: "h_conted_14"
  scale_param {
    axis: 0
  }
}
layer {
  name: "lstm2_transform_15"
  type: "InnerProduct"
  bottom: "h_conted_14"
  top: "W_hc_h_14"
  param {
    name: "W_hc"
  }
  inner_product_param {
    num_output: 400
    bias_term: false
    weight_filler {
      type: "xavier"
    }
    axis: 2
  }
}
layer {
  name: "lstm2_gate_input_15"
  type: "Eltwise"
  bottom: "W_hc_h_14"
  bottom: "W_xc_x_15"
  top: "gate_input_15"
  eltwise_param {
    operation: SUM
  }
}
layer {
  name: "lstm2_unit_15"
  type: "LSTMUnit"
  bottom: "c_14"
  bottom: "gate_input_15"
  bottom: "cont_15"
  top: "c_15"
  top: "h_15"
}
layer {
  name: "lstm2_h_conted_15"
  type: "Scale"
  bottom: "h_15"
  bottom: "cont_16"
  top: "h_conted_15"
  scale_param {
    axis: 0
  }
}
layer {
  name: "lstm2_transform_16"
  type: "InnerProduct"
  bottom: "h_conted_15"
  top: "W_hc_h_15"
  param {
    name: "W_hc"
  }
  inner_product_param {
    num_output: 400
    bias_term: false
    weight_filler {
      type: "xavier"
    }
    axis: 2
  }
}
layer {
  name: "lstm2_gate_input_16"
  type: "Eltwise"
  bottom: "W_hc_h_15"
  bottom: "W_xc_x_16"
  top: "gate_input_16"
  eltwise_param {
    operation: SUM
  }
}
layer {
  name: "lstm2_unit_16"
  type: "LSTMUnit"
  bottom: "c_15"
  bottom: "gate_input_16"
  bottom: "cont_16"
  top: "c_16"
  top: "h_16"
}
layer {
  name: "lstm2_h_conted_16"
  type: "Scale"
  bottom: "h_16"
  bottom: "cont_17"
  top: "h_conted_16"
  scale_param {
    axis: 0
  }
}
layer {
  name: "lstm2_transform_17"
  type: "InnerProduct"
  bottom: "h_conted_16"
  top: "W_hc_h_16"
  param {
    name: "W_hc"
  }
  inner_product_param {
    num_output: 400
    bias_term: false
    weight_filler {
      type: "xavier"
    }
    axis: 2
  }
}
layer {
  name: "lstm2_gate_input_17"
  type: "Eltwise"
  bottom: "W_hc_h_16"
  bottom: "W_xc_x_17"
  top: "gate_input_17"
  eltwise_param {
    operation: SUM
  }
}
layer {
  name: "lstm2_unit_17"
  type: "LSTMUnit"
  bottom: "c_16"
  bottom: "gate_input_17"
  bottom: "cont_17"
  top: "c_17"
  top: "h_17"
}
layer {
  name: "lstm2_h_conted_17"
  type: "Scale"
  bottom: "h_17"
  bottom: "cont_18"
  top: "h_conted_17"
  scale_param {
    axis: 0
  }
}
layer {
  name: "lstm2_transform_18"
  type: "InnerProduct"
  bottom: "h_conted_17"
  top: "W_hc_h_17"
  param {
    name: "W_hc"
  }
  inner_product_param {
    num_output: 400
    bias_term: false
    weight_filler {
      type: "xavier"
    }
    axis: 2
  }
}
layer {
  name: "lstm2_gate_input_18"
  type: "Eltwise"
  bottom: "W_hc_h_17"
  bottom: "W_xc_x_18"
  top: "gate_input_18"
  eltwise_param {
    operation: SUM
  }
}
layer {
  name: "lstm2_unit_18"
  type: "LSTMUnit"
  bottom: "c_17"
  bottom: "gate_input_18"
  bottom: "cont_18"
  top: "c_18"
  top: "h_18"
}
layer {
  name: "lstm2_h_conted_18"
  type: "Scale"
  bottom: "h_18"
  bottom: "cont_19"
  top: "h_conted_18"
  scale_param {
    axis: 0
  }
}
layer {
  name: "lstm2_transform_19"
  type: "InnerProduct"
  bottom: "h_conted_18"
  top: "W_hc_h_18"
  param {
    name: "W_hc"
  }
  inner_product_param {
    num_output: 400
    bias_term: false
    weight_filler {
      type: "xavier"
    }
    axis: 2
  }
}
layer {
  name: "lstm2_gate_input_19"
  type: "Eltwise"
  bottom: "W_hc_h_18"
  bottom: "W_xc_x_19"
  top: "gate_input_19"
  eltwise_param {
    operation: SUM
  }
}
layer {
  name: "lstm2_unit_19"
  type: "LSTMUnit"
  bottom: "c_18"
  bottom: "gate_input_19"
  bottom: "cont_19"
  top: "c_19"
  top: "h_19"
}
layer {
  name: "lstm2_h_conted_19"
  type: "Scale"
  bottom: "h_19"
  bottom: "cont_20"
  top: "h_conted_19"
  scale_param {
    axis: 0
  }
}
layer {
  name: "lstm2_transform_20"
  type: "InnerProduct"
  bottom: "h_conted_19"
  top: "W_hc_h_19"
  param {
    name: "W_hc"
  }
  inner_product_param {
    num_output: 400
    bias_term: false
    weight_filler {
      type: "xavier"
    }
    axis: 2
  }
}
layer {
  name: "lstm2_gate_input_20"
  type: "Eltwise"
  bottom: "W_hc_h_19"
  bottom: "W_xc_x_20"
  top: "gate_input_20"
  eltwise_param {
    operation: SUM
  }
}
layer {
  name: "lstm2_unit_20"
  type: "LSTMUnit"
  bottom: "c_19"
  bottom: "gate_input_20"
  bottom: "cont_20"
  top: "c_20"
  top: "h_20"
}
layer {
  name: "lstm2_h_conted_20"
  type: "Scale"
  bottom: "h_20"
  bottom: "cont_21"
  top: "h_conted_20"
  scale_param {
    axis: 0
  }
}
layer {
  name: "lstm2_transform_21"
  type: "InnerProduct"
  bottom: "h_conted_20"
  top: "W_hc_h_20"
  param {
    name: "W_hc"
  }
  inner_product_param {
    num_output: 400
    bias_term: false
    weight_filler {
      type: "xavier"
    }
    axis: 2
  }
}
layer {
  name: "lstm2_gate_input_21"
  type: "Eltwise"
  bottom: "W_hc_h_20"
  bottom: "W_xc_x_21"
  top: "gate_input_21"
  eltwise_param {
    operation: SUM
  }
}
layer {
  name: "lstm2_unit_21"
  type: "LSTMUnit"
  bottom: "c_20"
  bottom: "gate_input_21"
  bottom: "cont_21"
  top: "c_21"
  top: "h_21"
}
layer {
  name: "lstm2_h_conted_21"
  type: "Scale"
  bottom: "h_21"
  bottom: "cont_22"
  top: "h_conted_21"
  scale_param {
    axis: 0
  }
}
layer {
  name: "lstm2_transform_22"
  type: "InnerProduct"
  bottom: "h_conted_21"
  top: "W_hc_h_21"
  param {
    name: "W_hc"
  }
  inner_product_param {
    num_output: 400
    bias_term: false
    weight_filler {
      type: "xavier"
    }
    axis: 2
  }
}
layer {
  name: "lstm2_gate_input_22"
  type: "Eltwise"
  bottom: "W_hc_h_21"
  bottom: "W_xc_x_22"
  top: "gate_input_22"
  eltwise_param {
    operation: SUM
  }
}
layer {
  name: "lstm2_unit_22"
  type: "LSTMUnit"
  bottom: "c_21"
  bottom: "gate_input_22"
  bottom: "cont_22"
  top: "c_22"
  top: "h_22"
}
layer {
  name: "lstm2_h_conted_22"
  type: "Scale"
  bottom: "h_22"
  bottom: "cont_23"
  top: "h_conted_22"
  scale_param {
    axis: 0
  }
}
layer {
  name: "lstm2_transform_23"
  type: "InnerProduct"
  bottom: "h_conted_22"
  top: "W_hc_h_22"
  param {
    name: "W_hc"
  }
  inner_product_param {
    num_output: 400
    bias_term: false
    weight_filler {
      type: "xavier"
    }
    axis: 2
  }
}
layer {
  name: "lstm2_gate_input_23"
  type: "Eltwise"
  bottom: "W_hc_h_22"
  bottom: "W_xc_x_23"
  top: "gate_input_23"
  eltwise_param {
    operation: SUM
  }
}
layer {
  name: "lstm2_unit_23"
  type: "LSTMUnit"
  bottom: "c_22"
  bottom: "gate_input_23"
  bottom: "cont_23"
  top: "c_23"
  top: "h_23"
}
layer {
  name: "lstm2_h_conted_23"
  type: "Scale"
  bottom: "h_23"
  bottom: "cont_24"
  top: "h_conted_23"
  scale_param {
    axis: 0
  }
}
layer {
  name: "lstm2_transform_24"
  type: "InnerProduct"
  bottom: "h_conted_23"
  top: "W_hc_h_23"
  param {
    name: "W_hc"
  }
  inner_product_param {
    num_output: 400
    bias_term: false
    weight_filler {
      type: "xavier"
    }
    axis: 2
  }
}
layer {
  name: "lstm2_gate_input_24"
  type: "Eltwise"
  bottom: "W_hc_h_23"
  bottom: "W_xc_x_24"
  top: "gate_input_24"
  eltwise_param {
    operation: SUM
  }
}
layer {
  name: "lstm2_unit_24"
  type: "LSTMUnit"
  bottom: "c_23"
  bottom: "gate_input_24"
  bottom: "cont_24"
  top: "c_24"
  top: "h_24"
}
layer {
  name: "lstm2_h_conted_24"
  type: "Scale"
  bottom: "h_24"
  bottom: "cont_25"
  top: "h_conted_24"
  scale_param {
    axis: 0
  }
}
layer {
  name: "lstm2_transform_25"
  type: "InnerProduct"
  bottom: "h_conted_24"
  top: "W_hc_h_24"
  param {
    name: "W_hc"
  }
  inner_product_param {
    num_output: 400
    bias_term: false
    weight_filler {
      type: "xavier"
    }
    axis: 2
  }
}
layer {
  name: "lstm2_gate_input_25"
  type: "Eltwise"
  bottom: "W_hc_h_24"
  bottom: "W_xc_x_25"
  top: "gate_input_25"
  eltwise_param {
    operation: SUM
  }
}
layer {
  name: "lstm2_unit_25"
  type: "LSTMUnit"
  bottom: "c_24"
  bottom: "gate_input_25"
  bottom: "cont_25"
  top: "c_25"
  top: "h_25"
}
layer {
  name: "lstm2_h_conted_25"
  type: "Scale"
  bottom: "h_25"
  bottom: "cont_26"
  top: "h_conted_25"
  scale_param {
    axis: 0
  }
}
layer {
  name: "lstm2_transform_26"
  type: "InnerProduct"
  bottom: "h_conted_25"
  top: "W_hc_h_25"
  param {
    name: "W_hc"
  }
  inner_product_param {
    num_output: 400
    bias_term: false
    weight_filler {
      type: "xavier"
    }
    axis: 2
  }
}
layer {
  name: "lstm2_gate_input_26"
  type: "Eltwise"
  bottom: "W_hc_h_25"
  bottom: "W_xc_x_26"
  top: "gate_input_26"
  eltwise_param {
    operation: SUM
  }
}
layer {
  name: "lstm2_unit_26"
  type: "LSTMUnit"
  bottom: "c_25"
  bottom: "gate_input_26"
  bottom: "cont_26"
  top: "c_26"
  top: "h_26"
}
layer {
  name: "lstm2_h_conted_26"
  type: "Scale"
  bottom: "h_26"
  bottom: "cont_27"
  top: "h_conted_26"
  scale_param {
    axis: 0
  }
}
layer {
  name: "lstm2_transform_27"
  type: "InnerProduct"
  bottom: "h_conted_26"
  top: "W_hc_h_26"
  param {
    name: "W_hc"
  }
  inner_product_param {
    num_output: 400
    bias_term: false
    weight_filler {
      type: "xavier"
    }
    axis: 2
  }
}
layer {
  name: "lstm2_gate_input_27"
  type: "Eltwise"
  bottom: "W_hc_h_26"
  bottom: "W_xc_x_27"
  top: "gate_input_27"
  eltwise_param {
    operation: SUM
  }
}
layer {
  name: "lstm2_unit_27"
  type: "LSTMUnit"
  bottom: "c_26"
  bottom: "gate_input_27"
  bottom: "cont_27"
  top: "c_27"
  top: "h_27"
}
layer {
  name: "lstm2_h_conted_27"
  type: "Scale"
  bottom: "h_27"
  bottom: "cont_28"
  top: "h_conted_27"
  scale_param {
    axis: 0
  }
}
layer {
  name: "lstm2_transform_28"
  type: "InnerProduct"
  bottom: "h_conted_27"
  top: "W_hc_h_27"
  param {
    name: "W_hc"
  }
  inner_product_param {
    num_output: 400
    bias_term: false
    weight_filler {
      type: "xavier"
    }
    axis: 2
  }
}
layer {
  name: "lstm2_gate_input_28"
  type: "Eltwise"
  bottom: "W_hc_h_27"
  bottom: "W_xc_x_28"
  top: "gate_input_28"
  eltwise_param {
    operation: SUM
  }
}
layer {
  name: "lstm2_unit_28"
  type: "LSTMUnit"
  bottom: "c_27"
  bottom: "gate_input_28"
  bottom: "cont_28"
  top: "c_28"
  top: "h_28"
}
layer {
  name: "lstm2_h_conted_28"
  type: "Scale"
  bottom: "h_28"
  bottom: "cont_29"
  top: "h_conted_28"
  scale_param {
    axis: 0
  }
}
layer {
  name: "lstm2_transform_29"
  type: "InnerProduct"
  bottom: "h_conted_28"
  top: "W_hc_h_28"
  param {
    name: "W_hc"
  }
  inner_product_param {
    num_output: 400
    bias_term: false
    weight_filler {
      type: "xavier"
    }
    axis: 2
  }
}
layer {
  name: "lstm2_gate_input_29"
  type: "Eltwise"
  bottom: "W_hc_h_28"
  bottom: "W_xc_x_29"
  top: "gate_input_29"
  eltwise_param {
    operation: SUM
  }
}
layer {
  name: "lstm2_unit_29"
  type: "LSTMUnit"
  bottom: "c_28"
  bottom: "gate_input_29"
  bottom: "cont_29"
  top: "c_29"
  top: "h_29"
}
layer {
  name: "lstm2_h_conted_29"
  type: "Scale"
  bottom: "h_29"
  bottom: "cont_30"
  top: "h_conted_29"
  scale_param {
    axis: 0
  }
}
layer {
  name: "lstm2_transform_30"
  type: "InnerProduct"
  bottom: "h_conted_29"
  top: "W_hc_h_29"
  param {
    name: "W_hc"
  }
  inner_product_param {
    num_output: 400
    bias_term: false
    weight_filler {
      type: "xavier"
    }
    axis: 2
  }
}
layer {
  name: "lstm2_gate_input_30"
  type: "Eltwise"
  bottom: "W_hc_h_29"
  bottom: "W_xc_x_30"
  top: "gate_input_30"
  eltwise_param {
    operation: SUM
  }
}
layer {
  name: "lstm2_unit_30"
  type: "LSTMUnit"
  bottom: "c_29"
  bottom: "gate_input_30"
  bottom: "cont_30"
  top: "c_30"
  top: "h_30"
}
layer {
  name: "lstm2_h_conted_30"
  type: "Scale"
  bottom: "h_30"
  bottom: "cont_31"
  top: "h_conted_30"
  scale_param {
    axis: 0
  }
}
layer {
  name: "lstm2_transform_31"
  type: "InnerProduct"
  bottom: "h_conted_30"
  top: "W_hc_h_30"
  param {
    name: "W_hc"
  }
  inner_product_param {
    num_output: 400
    bias_term: false
    weight_filler {
      type: "xavier"
    }
    axis: 2
  }
}
layer {
  name: "lstm2_gate_input_31"
  type: "Eltwise"
  bottom: "W_hc_h_30"
  bottom: "W_xc_x_31"
  top: "gate_input_31"
  eltwise_param {
    operation: SUM
  }
}
layer {
  name: "lstm2_unit_31"
  type: "LSTMUnit"
  bottom: "c_30"
  bottom: "gate_input_31"
  bottom: "cont_31"
  top: "c_31"
  top: "h_31"
}
layer {
  name: "lstm2_h_conted_31"
  type: "Scale"
  bottom: "h_31"
  bottom: "cont_32"
  top: "h_conted_31"
  scale_param {
    axis: 0
  }
}
layer {
  name: "lstm2_transform_32"
  type: "InnerProduct"
  bottom: "h_conted_31"
  top: "W_hc_h_31"
  param {
    name: "W_hc"
  }
  inner_product_param {
    num_output: 400
    bias_term: false
    weight_filler {
      type: "xavier"
    }
    axis: 2
  }
}
layer {
  name: "lstm2_gate_input_32"
  type: "Eltwise"
  bottom: "W_hc_h_31"
  bottom: "W_xc_x_32"
  top: "gate_input_32"
  eltwise_param {
    operation: SUM
  }
}
layer {
  name: "lstm2_unit_32"
  type: "LSTMUnit"
  bottom: "c_31"
  bottom: "gate_input_32"
  bottom: "cont_32"
  top: "c_32"
  top: "h_32"
}
layer {
  name: "lstm2_h_conted_32"
  type: "Scale"
  bottom: "h_32"
  bottom: "cont_33"
  top: "h_conted_32"
  scale_param {
    axis: 0
  }
}
layer {
  name: "lstm2_transform_33"
  type: "InnerProduct"
  bottom: "h_conted_32"
  top: "W_hc_h_32"
  param {
    name: "W_hc"
  }
  inner_product_param {
    num_output: 400
    bias_term: false
    weight_filler {
      type: "xavier"
    }
    axis: 2
  }
}
layer {
  name: "lstm2_gate_input_33"
  type: "Eltwise"
  bottom: "W_hc_h_32"
  bottom: "W_xc_x_33"
  top: "gate_input_33"
  eltwise_param {
    operation: SUM
  }
}
layer {
  name: "lstm2_unit_33"
  type: "LSTMUnit"
  bottom: "c_32"
  bottom: "gate_input_33"
  bottom: "cont_33"
  top: "c_33"
  top: "h_33"
}
layer {
  name: "lstm2_h_conted_33"
  type: "Scale"
  bottom: "h_33"
  bottom: "cont_34"
  top: "h_conted_33"
  scale_param {
    axis: 0
  }
}
layer {
  name: "lstm2_transform_34"
  type: "InnerProduct"
  bottom: "h_conted_33"
  top: "W_hc_h_33"
  param {
    name: "W_hc"
  }
  inner_product_param {
    num_output: 400
    bias_term: false
    weight_filler {
      type: "xavier"
    }
    axis: 2
  }
}
layer {
  name: "lstm2_gate_input_34"
  type: "Eltwise"
  bottom: "W_hc_h_33"
  bottom: "W_xc_x_34"
  top: "gate_input_34"
  eltwise_param {
    operation: SUM
  }
}
layer {
  name: "lstm2_unit_34"
  type: "LSTMUnit"
  bottom: "c_33"
  bottom: "gate_input_34"
  bottom: "cont_34"
  top: "c_34"
  top: "h_34"
}
layer {
  name: "lstm2_h_conted_34"
  type: "Scale"
  bottom: "h_34"
  bottom: "cont_35"
  top: "h_conted_34"
  scale_param {
    axis: 0
  }
}
layer {
  name: "lstm2_transform_35"
  type: "InnerProduct"
  bottom: "h_conted_34"
  top: "W_hc_h_34"
  param {
    name: "W_hc"
  }
  inner_product_param {
    num_output: 400
    bias_term: false
    weight_filler {
      type: "xavier"
    }
    axis: 2
  }
}
layer {
  name: "lstm2_gate_input_35"
  type: "Eltwise"
  bottom: "W_hc_h_34"
  bottom: "W_xc_x_35"
  top: "gate_input_35"
  eltwise_param {
    operation: SUM
  }
}
layer {
  name: "lstm2_unit_35"
  type: "LSTMUnit"
  bottom: "c_34"
  bottom: "gate_input_35"
  bottom: "cont_35"
  top: "c_35"
  top: "h_35"
}
layer {
  name: "lstm2_h_conted_35"
  type: "Scale"
  bottom: "h_35"
  bottom: "cont_36"
  top: "h_conted_35"
  scale_param {
    axis: 0
  }
}
layer {
  name: "lstm2_transform_36"
  type: "InnerProduct"
  bottom: "h_conted_35"
  top: "W_hc_h_35"
  param {
    name: "W_hc"
  }
  inner_product_param {
    num_output: 400
    bias_term: false
    weight_filler {
      type: "xavier"
    }
    axis: 2
  }
}
layer {
  name: "lstm2_gate_input_36"
  type: "Eltwise"
  bottom: "W_hc_h_35"
  bottom: "W_xc_x_36"
  top: "gate_input_36"
  eltwise_param {
    operation: SUM
  }
}
layer {
  name: "lstm2_unit_36"
  type: "LSTMUnit"
  bottom: "c_35"
  bottom: "gate_input_36"
  bottom: "cont_36"
  top: "c_36"
  top: "h_36"
}
layer {
  name: "lstm2_h_conted_36"
  type: "Scale"
  bottom: "h_36"
  bottom: "cont_37"
  top: "h_conted_36"
  scale_param {
    axis: 0
  }
}
layer {
  name: "lstm2_transform_37"
  type: "InnerProduct"
  bottom: "h_conted_36"
  top: "W_hc_h_36"
  param {
    name: "W_hc"
  }
  inner_product_param {
    num_output: 400
    bias_term: false
    weight_filler {
      type: "xavier"
    }
   
I0116 15:17:39.819201  5685 layer_factory.hpp:77] Creating layer lstm2_
I0116 15:17:39.819226  5685 net.cpp:86] Creating Layer lstm2_
I0116 15:17:39.819239  5685 net.cpp:382] lstm2_ -> x
I0116 15:17:39.819262  5685 net.cpp:382] lstm2_ -> cont
I0116 15:17:39.819365  5685 net.cpp:124] Setting up lstm2_
I0116 15:17:39.819375  5685 net.cpp:131] Top shape: 80 512 100 (4096000)
I0116 15:17:39.819381  5685 net.cpp:131] Top shape: 80 512 (40960)
I0116 15:17:39.819387  5685 net.cpp:139] Memory required for data: 16547840
I0116 15:17:39.819392  5685 layer_factory.hpp:77] Creating layer lstm2_
I0116 15:17:39.819401  5685 net.cpp:86] Creating Layer lstm2_
I0116 15:17:39.819408  5685 net.cpp:382] lstm2_ -> c_0
I0116 15:17:39.819420  5685 net.cpp:382] lstm2_ -> h_0
I0116 15:17:39.819486  5685 net.cpp:124] Setting up lstm2_
I0116 15:17:39.819494  5685 net.cpp:131] Top shape: 1 512 100 (51200)
I0116 15:17:39.819500  5685 net.cpp:131] Top shape: 1 512 100 (51200)
I0116 15:17:39.819506  5685 net.cpp:139] Memory required for data: 16957440
I0116 15:17:39.819510  5685 layer_factory.hpp:77] Creating layer lstm2_cont_slice
I0116 15:17:39.819527  5685 net.cpp:86] Creating Layer lstm2_cont_slice
I0116 15:17:39.819532  5685 net.cpp:408] lstm2_cont_slice <- cont
I0116 15:17:39.819548  5685 net.cpp:382] lstm2_cont_slice -> cont_1
I0116 15:17:39.819569  5685 net.cpp:382] lstm2_cont_slice -> cont_2
…
I0116 15:17:39.952150  5685 net.cpp:296] The NetState phase (1) differed from the phase (0) specified by a rule in layer data
I0116 15:17:39.952224  5685 net.cpp:53] Initializing net from parameters: 
name: "lstm_ctc_net"
state {
  phase: TEST
}
layer {
  name: "data"
  type: "HDF5Data"
  top: "data"
  top: "label"
  include {
    phase: TEST
  }
  hdf5_data_param {
    source: "./data/captcha/testing.list"
    batch_size: 512
  }
}
layer {
  name: "indicator"
  type: "ContinuationIndicator"
  top: "indicator"
  continuation_indicator_param {
    time_step: 80
    batch_size: 512
  }
}
layer {
  name: "permuted_data"
  type: "Permute"
  bottom: "data"
  top: "permuted_data"
  permute_param {
    order: 3
    order: 0
    order: 1
    order: 2
  }
}
layer {
  name: "lstm1"
  type: "LSTM"
  bottom: "permuted_data"
  bottom: "indicator"
  top: "lstm1"
  recurrent_param {
    num_output: 100
    weight_filler {
      type: "xavier"
    }
    bias_filler {
      type: "constant"
      value: 0
    }
  }
}
layer {
  name: "lstm2"
  type: "LSTM"
  bottom: "lstm1"
  bottom: "indicator"
  top: "lstm2"
  recurrent_param {
    num_output: 100
    weight_filler {
      type: "xavier"
    }
    bias_filler {
      type: "constant"
      value: 0
    }
  }
}
layer {
  name: "fc1"
  type: "InnerProduct"
  bottom: "lstm2"
  top: "fc1"
  param {
    lr_mult: 1
    decay_mult: 1
  }
  param {
    lr_mult: 2
    decay_mult: 0
  }
  inner_product_param {
    num_output: 11
    weight_filler {
      type: "xavier"
    }
    bias_filler {
      type: "constant"
      value: 0
    }
    axis: 2
  }
}
layer {
  name: "ctc_loss"
  type: "CtcLoss"
  bottom: "fc1"
  bottom: "label"
  top: "ctc_loss"
  loss_weight: 1
  ctc_loss_param {
    alphabet_size: 11
    time_step: 80
    blank_label: 10
  }
}
layer {
  name: "permute_fc"
  type: "Permute"
  bottom: "fc1"
  top: "premuted_fc"
  include {
    phase: TEST
  }
  permute_param {
    order: 1
    order: 0
    order: 2
  }
}
layer {
  name: "accuracy"
  type: "LabelsequenceAccuracy"
  bottom: "premuted_fc"
  bottom: "label"
  top: "accuracy"
  include {
    phase: TEST
  }
  labelsequence_accuracy_param {
    blank_label: 10
  }
}
I0116 15:17:39.952299  5685 layer_factory.hpp:77] Creating layer data
I0116 15:17:39.952306  5685 net.cpp:86] Creating Layer data
I0116 15:17:39.952309  5685 net.cpp:382] data -> data
I0116 15:17:39.952316  5685 net.cpp:382] data -> label
I0116 15:17:39.952322  5685 hdf5_data_layer.cpp:79] Loading list of HDF5 filenames from: ./data/captcha/testing.list
I0116 15:17:39.952343  5685 hdf5_data_layer.cpp:93] Number of HDF5 files: 1
I0116 15:17:40.266185  5685 net.cpp:124] Setting up data
I0116 15:17:40.266208  5685 net.cpp:131] Top shape: 512 3 30 80 (3686400)
I0116 15:17:40.266211  5685 net.cpp:131] Top shape: 512 5 (2560)
I0116 15:17:40.266213  5685 net.cpp:139] Memory required for data: 14755840
I0116 15:17:40.266219  5685 layer_factory.hpp:77] Creating layer label_data_1_split
I0116 15:17:40.266230  5685 net.cpp:86] Creating Layer label_data_1_split
I0116 15:17:40.266233  5685 net.cpp:408] label_data_1_split <- label
I0116 15:17:40.266239  5685 net.cpp:382] label_data_1_split -> label_data_1_split_0
I0116 15:17:40.266249  5685 net.cpp:382] label_data_1_split -> label_data_1_split_1
I0116 15:17:40.266280  5685 net.cpp:124] Setting up label_data_1_split
I0116 15:17:40.266294  5685 net.cpp:131] Top shape: 512 5 (2560)
I0116 15:17:40.266297  5685 net.cpp:131] Top shape: 512 5 (2560)
I0116 15:17:40.266299  5685 net.cpp:139] Memory required for data: 14776320
I0116 15:17:40.266301  5685 layer_factory.hpp:77] Creating layer indicator
I0116 15:17:40.266306  5685 net.cpp:86] Creating Layer indicator
I0116 15:17:40.266309  5685 net.cpp:382] indicator -> indicator
I0116 15:17:40.266329  5685 net.cpp:124] Setting up indicator
I0116 15:17:40.266332  5685 net.cpp:131] Top shape: 80 512 (40960)
I0116 15:17:40.266335  5685 net.cpp:139] Memory required for data: 14940160
I0116 15:17:40.266336  5685 layer_factory.hpp:77] Creating layer indicator_indicator_0_split
I0116 15:17:40.266340  5685 net.cpp:86] Creating Layer indicator_indicator_0_split
I0116 15:17:40.266342  5685 net.cpp:408] indicator_indicator_0_split <- indicator
I0116 15:17:40.266347  5685 net.cpp:382] indicator_indicator_0_split -> indicator_indicator_0_split_0
I0116 15:17:40.266351  5685 net.cpp:382] indicator_indicator_0_split -> indicator_indicator_0_split_1
I0116 15:17:40.266376  5685 net.cpp:124] Setting up indicator_indicator_0_split
I0116 15:17:40.266381  5685 net.cpp:131] Top shape: 80 512 (40960)
I0116 15:17:40.266383  5685 net.cpp:131] Top shape: 80 512 (40960)
I0116 15:17:40.266384  5685 net.cpp:139] Memory required for data: 15267840
I0116 15:17:40.266386  5685 layer_factory.hpp:77] Creating layer permuted_data
I0116 15:17:40.266392  5685 net.cpp:86] Creating Layer permuted_data
I0116 15:17:40.266394  5685 net.cpp:408] permuted_data <- data
I0116 15:17:40.266398  5685 net.cpp:382] permuted_data -> permuted_data
I0116 15:17:40.266472  5685 net.cpp:124] Setting up permuted_data
I0116 15:17:40.266477  5685 net.cpp:131] Top shape: 80 512 3 30 (3686400)
I0116 15:17:40.266479  5685 net.cpp:139] Memory required for data: 30013440
I0116 15:17:40.266481  5685 layer_factory.hpp:77] Creating layer lstm1
I0116 15:17:40.266489  5685 net.cpp:86] Creating Layer lstm1
I0116 15:17:40.266490  5685 net.cpp:408] lstm1 <- permuted_data
I0116 15:17:40.266492  5685 net.cpp:408] lstm1 <- indicator_indicator_0_split_0
I0116 15:17:40.266497  5685 net.cpp:382] lstm1 -> lstm1
I0116 15:17:40.266505  5685 recurrent_layer.cpp:20] Initializing recurrent layer: assuming input batch contains 80 timesteps of 512 independent streams.
I0116 15:17:40.268257  5685 net.cpp:53] Initializing net from parameters: 
layer {
  name: "lstm1_"
  type: "Input"
  top: "x"
  top: "cont"
  input_param {
    shape {
      dim: 80
      dim: 512
      dim: 3
      dim: 30
    }
    shape {
      dim: 80
      dim: 512
    }
  }
}
layer {
  name: "lstm1_"
  type: "Input"
  top: "c_0"
  top: "h_0"
  input_param {
    shape {
      dim: 1
      dim: 512
      dim: 100
    }
    shape {
      dim: 1
      dim: 512
      dim: 100
    }
  }
}
layer {
  name: "lstm1_cont_slice"
  type: "Slice"
  bottom: "cont"
  top: "cont_1"
  top: "cont_2"
  top: "cont_3"
  top: "cont_4"
  top: "cont_5"
  top: "cont_6"
  top: "cont_7"
  top: "cont_8"
  top: "cont_9"
  top: "cont_10"
  top: "cont_11"
  top: "cont_12"
  top: "cont_13"
  top: "cont_14"
  top: "cont_15"
  top: "cont_16"
  top: "cont_17"
  top: "cont_18"
  top: "cont_19"
  top: "cont_20"
  top: "cont_21"
  top: "cont_22"
  top: "cont_23"
  top: "cont_24"
  top: "cont_25"
  top: "cont_26"
  top: "cont_27"
  top: "cont_28"
  top: "cont_29"
  top: "cont_30"
  top: "cont_31"
  top: "cont_32"
  top: "cont_33"
  top: "cont_34"
  top: "cont_35"
  top: "cont_36"
  top: "cont_37"
  top: "cont_38"
  top: "cont_39"
  top: "cont_40"
  top: "cont_41"
  top: "cont_42"
  top: "cont_43"
  top: "cont_44"
  top: "cont_45"
  top: "cont_46"
  top: "cont_47"
  top: "cont_48"
  top: "cont_49"
  top: "cont_50"
  top: "cont_51"
  top: "cont_52"
  top: "cont_53"
  top: "cont_54"
  top: "cont_55"
  top: "cont_56"
  top: "cont_57"
  top: "cont_58"
  top: "cont_59"
  top: "cont_60"
  top: "cont_61"
  top: "cont_62"
  top: "cont_63"
  top: "cont_64"
  top: "cont_65"
  top: "cont_66"
  top: "cont_67"
  top: "cont_68"
  top: "cont_69"
  top: "cont_70"
  top: "cont_71"
  top: "cont_72"
  top: "cont_73"
  top: "cont_74"
  top: "cont_75"
  top: "cont_76"
  top: "cont_77"
  top: "cont_78"
  top: "cont_79"
  top: "cont_80"
  slice_param {
    axis: 0
  }
}
layer {
  name: "lstm1_x_transform"
  type: "InnerProduct"
  bottom: "x"
  top: "W_xc_x"
  param {
    name: "W_xc"
  }
  param {
    name: "b_c"
  }
  propagate_down: true
  inner_product_param {
    num_output: 400
    bias_term: true
    weight_filler {
      type: "xavier"
    }
    bias_filler {
      type: "constant"
      value: 0
    }
    axis: 2
  }
}
layer {
  name: "lstm1_W_xc_x_slice"
  type: "Slice"
  bottom: "W_xc_x"
  top: "W_xc_x_1"
  top: "W_xc_x_2"
  top: "W_xc_x_3"
  top: "W_xc_x_4"
  top: "W_xc_x_5"
  top: "W_xc_x_6"
  top: "W_xc_x_7"
  top: "W_xc_x_8"
  top: "W_xc_x_9"
  top: "W_xc_x_10"
  top: "W_xc_x_11"
  top: "W_xc_x_12"
  top: "W_xc_x_13"
  top: "W_xc_x_14"
  top: "W_xc_x_15"
  top: "W_xc_x_16"
  top: "W_xc_x_17"
  top: "W_xc_x_18"
  top: "W_xc_x_19"
  top: "W_xc_x_20"
  top: "W_xc_x_21"
  top: "W_xc_x_22"
…
I0116 15:17:40.542373  5685 net.cpp:202] lstm2_ does not need backward computation.
I0116 15:17:40.542374  5685 net.cpp:244] This network produces output c_T
I0116 15:17:40.542381  5685 net.cpp:244] This network produces output h_pseudoloss
I0116 15:17:40.545758  5685 net.cpp:257] Network initialization done.
I0116 15:17:40.547395  5685 recurrent_layer.cpp:150] Adding parameter 0: W_xc
I0116 15:17:40.547403  5685 recurrent_layer.cpp:150] Adding parameter 1: b_c
I0116 15:17:40.547405  5685 recurrent_layer.cpp:150] Adding parameter 2: W_hc
I0116 15:17:40.550566  5685 net.cpp:124] Setting up lstm2
I0116 15:17:40.550585  5685 net.cpp:131] Top shape: 80 512 100 (4096000)
I0116 15:17:40.550587  5685 net.cpp:139] Memory required for data: 62781440
I0116 15:17:40.550599  5685 layer_factory.hpp:77] Creating layer fc1
I0116 15:17:40.550609  5685 net.cpp:86] Creating Layer fc1
I0116 15:17:40.550613  5685 net.cpp:408] fc1 <- lstm2
I0116 15:17:40.550621  5685 net.cpp:382] fc1 -> fc1
I0116 15:17:40.550793  5685 net.cpp:124] Setting up fc1
I0116 15:17:40.550798  5685 net.cpp:131] Top shape: 80 512 11 (450560)
I0116 15:17:40.550801  5685 net.cpp:139] Memory required for data: 64583680
I0116 15:17:40.550804  5685 layer_factory.hpp:77] Creating layer fc1_fc1_0_split
I0116 15:17:40.550812  5685 net.cpp:86] Creating Layer fc1_fc1_0_split
I0116 15:17:40.550814  5685 net.cpp:408] fc1_fc1_0_split <- fc1
I0116 15:17:40.550818  5685 net.cpp:382] fc1_fc1_0_split -> fc1_fc1_0_split_0
I0116 15:17:40.550823  5685 net.cpp:382] fc1_fc1_0_split -> fc1_fc1_0_split_1
I0116 15:17:40.550855  5685 net.cpp:124] Setting up fc1_fc1_0_split
I0116 15:17:40.550858  5685 net.cpp:131] Top shape: 80 512 11 (450560)
I0116 15:17:40.550861  5685 net.cpp:131] Top shape: 80 512 11 (450560)
I0116 15:17:40.550863  5685 net.cpp:139] Memory required for data: 68188160
I0116 15:17:40.550865  5685 layer_factory.hpp:77] Creating layer ctc_loss
I0116 15:17:40.550870  5685 net.cpp:86] Creating Layer ctc_loss
I0116 15:17:40.550873  5685 net.cpp:408] ctc_loss <- fc1_fc1_0_split_0
I0116 15:17:40.550875  5685 net.cpp:408] ctc_loss <- label_data_1_split_0
I0116 15:17:40.550880  5685 net.cpp:382] ctc_loss -> ctc_loss
I0116 15:17:40.550899  5685 net.cpp:124] Setting up ctc_loss
I0116 15:17:40.550902  5685 net.cpp:131] Top shape: (1)
I0116 15:17:40.550904  5685 net.cpp:134]     with loss weight 1
I0116 15:17:40.550915  5685 net.cpp:139] Memory required for data: 68188164
I0116 15:17:40.550916  5685 layer_factory.hpp:77] Creating layer permute_fc
I0116 15:17:40.550923  5685 net.cpp:86] Creating Layer permute_fc
I0116 15:17:40.550925  5685 net.cpp:408] permute_fc <- fc1_fc1_0_split_1
I0116 15:17:40.550930  5685 net.cpp:382] permute_fc -> premuted_fc
I0116 15:17:40.551009  5685 net.cpp:124] Setting up permute_fc
I0116 15:17:40.551013  5685 net.cpp:131] Top shape: 512 80 11 (450560)
I0116 15:17:40.551015  5685 net.cpp:139] Memory required for data: 69990404
I0116 15:17:40.551017  5685 layer_factory.hpp:77] Creating layer accuracy
I0116 15:17:40.551023  5685 net.cpp:86] Creating Layer accuracy
I0116 15:17:40.551024  5685 net.cpp:408] accuracy <- premuted_fc
I0116 15:17:40.551026  5685 net.cpp:408] accuracy <- label_data_1_split_1
I0116 15:17:40.551030  5685 net.cpp:382] accuracy -> accuracy
…
