…
INFO - 18:34:45 - The NetState phase (0) differed from the phase (1) specified by a rule in layer permute_fc
INFO - 18:34:45 - The NetState phase (0) differed from the phase (1) specified by a rule in layer accuracy
INFO - 18:34:45 - Initializing net from parameters: 

INFO - 18:34:45 - Creating layer / name=data / type=HDF5Data
INFO - 18:34:45 - Creating Layer data
INFO - 18:34:45 - data -> data
INFO - 18:34:45 - data -> label
INFO - 18:34:45 - Loading list of HDF5 filenames from: ./data/captcha/trainning.list
INFO - 18:34:45 - Number of HDF5 files: 4
INFO - 18:34:46 - Setting up data
INFO - 18:34:46 - Top shape: 512 3 30 80 (3686400)
INFO - 18:34:46 - Top shape: 512 5 (2560)
INFO - 18:34:46 - Memory required for data: 14755840
INFO - 18:34:46 - Creating layer / name=indicator / type=ContinuationIndicator
INFO - 18:34:46 - Creating Layer indicator
INFO - 18:34:46 - indicator -> indicator
INFO - 18:34:46 - Setting up indicator
INFO - 18:34:46 - Top shape: 80 512 (40960)
INFO - 18:34:46 - Memory required for data: 14919680
INFO - 18:34:46 - Creating layer / name=indicator_indicator_0_split / type=Split
INFO - 18:34:46 - Creating Layer indicator_indicator_0_split
INFO - 18:34:46 - indicator_indicator_0_split <- indicator
INFO - 18:34:46 - indicator_indicator_0_split -> indicator_indicator_0_split_0
INFO - 18:34:46 - indicator_indicator_0_split -> indicator_indicator_0_split_1
INFO - 18:34:46 - Setting up indicator_indicator_0_split
INFO - 18:34:46 - Top shape: 80 512 (40960)
INFO - 18:34:46 - Top shape: 80 512 (40960)
INFO - 18:34:46 - Memory required for data: 15247360
INFO - 18:34:46 - Creating layer / name=permuted_data / type=Permute
INFO - 18:34:46 - Creating Layer permuted_data
INFO - 18:34:46 - permuted_data <- data
INFO - 18:34:46 - permuted_data -> permuted_data
INFO - 18:34:46 - Setting up permuted_data
INFO - 18:34:46 - Top shape: 80 512 3 30 (3686400)
INFO - 18:34:46 - Memory required for data: 29992960
INFO - 18:34:46 - Creating layer / name=lstm1 / type=LSTM
INFO - 18:34:46 - Creating Layer lstm1
INFO - 18:34:46 - lstm1 <- permuted_data
INFO - 18:34:46 - lstm1 <- indicator_indicator_0_split_0
INFO - 18:34:46 - lstm1 -> lstm1
INFO - 18:34:46 - Initializing recurrent layer: assuming input batch contains 80 timesteps of 512 independent streams.
INFO - 18:34:46 - Initializing net from parameters: 

INFO - 18:34:46 - Creating layer / name=lstm1_ / type=Input
INFO - 18:34:46 - Creating Layer lstm1_
INFO - 18:34:46 - lstm1_ -> x
INFO - 18:34:46 - lstm1_ -> cont
INFO - 18:34:46 - Setting up lstm1_
INFO - 18:34:46 - Top shape: 80 512 3 30 (3686400)
INFO - 18:34:46 - Top shape: 80 512 (40960)
INFO - 18:34:46 - Memory required for data: 14909440
INFO - 18:34:46 - Creating layer / name=lstm1_ / type=Input
INFO - 18:34:46 - Creating Layer lstm1_
INFO - 18:34:46 - lstm1_ -> c_0
INFO - 18:34:46 - lstm1_ -> h_0
INFO - 18:34:46 - Setting up lstm1_
INFO - 18:34:46 - Top shape: 1 512 100 (51200)
INFO - 18:34:46 - Top shape: 1 512 100 (51200)
INFO - 18:34:46 - Memory required for data: 15319040
INFO - 18:34:46 - Creating layer / name=lstm1_cont_slice / type=Slice
INFO - 18:34:46 - Creating Layer lstm1_cont_slice
INFO - 18:34:46 - lstm1_cont_slice <- cont
INFO - 18:34:46 - lstm1_cont_slice -> cont_1
INFO - 18:34:46 - lstm1_cont_slice -> cont_2
INFO - 18:34:46 - lstm1_cont_slice -> cont_3
INFO - 18:34:46 - lstm1_cont_slice -> cont_4
…
INFO - 18:34:46 - lstm1_cont_slice -> cont_69
INFO - 18:34:46 - lstm1_cont_slice -> cont_70
INFO - 18:34:46 - lstm1_cont_slice -> cont_71
INFO - 18:34:46 - lstm1_cont_slice -> cont_72
INFO - 18:34:46 - lstm1_cont_slice -> cont_73
INFO - 18:34:46 - lstm1_cont_slice -> cont_74
INFO - 18:34:46 - lstm1_cont_slice -> cont_75
INFO - 18:34:46 - lstm1_cont_slice -> cont_76
INFO - 18:34:46 - lstm1_cont_slice -> cont_77
INFO - 18:34:46 - lstm1_cont_slice -> cont_78
INFO - 18:34:46 - lstm1_cont_slice -> cont_79
INFO - 18:34:46 - lstm1_cont_slice -> cont_80
INFO - 18:34:46 - Setting up lstm1_cont_slice
INFO - 18:34:46 - Top shape: 1 512 (512)
INFO - 18:34:46 - Top shape: 1 512 (512)
INFO - 18:34:46 - Top shape: 1 512 (512)
INFO - 18:34:46 - Top shape: 1 512 (512)
INFO - 18:34:46 - Top shape: 1 512 (512)
INFO - 18:34:46 - Top shape: 1 512 (512)
INFO - 18:34:46 - Top shape: 1 512 (512)
INFO - 18:34:46 - Top shape: 1 512 (512)
INFO - 18:34:46 - Top shape: 1 512 (512)
INFO - 18:34:46 - Top shape: 1 512 (512)
INFO - 18:34:46 - Top shape: 1 512 (512)
INFO - 18:34:46 - Top shape: 1 512 (512)
INFO - 18:34:46 - Top shape: 1 512 (512)
INFO - 18:34:46 - Top shape: 1 512 (512)
INFO - 18:34:46 - Top shape: 1 512 (512)
INFO - 18:34:46 - Top shape: 1 512 (512)
INFO - 18:34:46 - Top shape: 1 512 (512)
INFO - 18:34:46 - Top shape: 1 512 (512)
INFO - 18:34:46 - Top shape: 1 512 (512)
INFO - 18:34:46 - Top shape: 1 512 (512)
INFO - 18:34:46 - Top shape: 1 512 (512)
INFO - 18:34:46 - Top shape: 1 512 (512)
INFO - 18:34:46 - Top shape: 1 512 (512)
INFO - 18:34:46 - Top shape: 1 512 (512)
INFO - 18:34:46 - Top shape: 1 512 (512)
INFO - 18:34:46 - Top shape: 1 512 (512)
INFO - 18:34:46 - Top shape: 1 512 (512)
INFO - 18:34:46 - Top shape: 1 512 (512)
INFO - 18:34:46 - Top shape: 1 512 (512)
INFO - 18:34:46 - Top shape: 1 512 (512)
INFO - 18:34:46 - Top shape: 1 512 (512)
INFO - 18:34:46 - Top shape: 1 512 (512)
INFO - 18:34:46 - Top shape: 1 512 (512)
INFO - 18:34:46 - Top shape: 1 512 (512)
INFO - 18:34:46 - Top shape: 1 512 (512)
INFO - 18:34:46 - Top shape: 1 512 (512)
INFO - 18:34:46 - Top shape: 1 512 (512)
INFO - 18:34:46 - Top shape: 1 512 (512)
INFO - 18:34:46 - Top shape: 1 512 (512)
INFO - 18:34:46 - Top shape: 1 512 (512)
INFO - 18:34:46 - Top shape: 1 512 (512)
INFO - 18:34:46 - Top shape: 1 512 (512)
INFO - 18:34:46 - Top shape: 1 512 (512)
INFO - 18:34:46 - Top shape: 1 512 (512)
INFO - 18:34:46 - Top shape: 1 512 (512)
INFO - 18:34:46 - Top shape: 1 512 (512)
INFO - 18:34:46 - Top shape: 1 512 (512)
INFO - 18:34:46 - Top shape: 1 512 (512)
INFO - 18:34:46 - Top shape: 1 512 (512)
INFO - 18:34:46 - Top shape: 1 512 (512)
INFO - 18:34:46 - Top shape: 1 512 (512)
INFO - 18:34:46 - Top shape: 1 512 (512)
INFO - 18:34:46 - Top shape: 1 512 (512)
INFO - 18:34:46 - Top shape: 1 512 (512)
INFO - 18:34:46 - Top shape: 1 512 (512)
INFO - 18:34:46 - Top shape: 1 512 (512)
INFO - 18:34:46 - Top shape: 1 512 (512)
INFO - 18:34:46 - Top shape: 1 512 (512)
INFO - 18:34:46 - Top shape: 1 512 (512)
INFO - 18:34:46 - Top shape: 1 512 (512)
INFO - 18:34:46 - Top shape: 1 512 (512)
INFO - 18:34:46 - Top shape: 1 512 (512)
INFO - 18:34:46 - Top shape: 1 512 (512)
INFO - 18:34:46 - Top shape: 1 512 (512)
INFO - 18:34:46 - Top shape: 1 512 (512)
INFO - 18:34:46 - Top shape: 1 512 (512)
INFO - 18:34:46 - Top shape: 1 512 (512)
INFO - 18:34:46 - Top shape: 1 512 (512)
INFO - 18:34:46 - Top shape: 1 512 (512)
INFO - 18:34:46 - Top shape: 1 512 (512)
INFO - 18:34:46 - Top shape: 1 512 (512)
INFO - 18:34:46 - Top shape: 1 512 (512)
INFO - 18:34:46 - Top shape: 1 512 (512)
INFO - 18:34:46 - Top shape: 1 512 (512)
INFO - 18:34:46 - Top shape: 1 512 (512)
INFO - 18:34:46 - Top shape: 1 512 (512)
INFO - 18:34:46 - Top shape: 1 512 (512)
INFO - 18:34:46 - Top shape: 1 512 (512)
INFO - 18:34:46 - Top shape: 1 512 (512)
INFO - 18:34:46 - Top shape: 1 512 (512)
INFO - 18:34:46 - Memory required for data: 15482880
INFO - 18:34:46 - Creating layer / name=cont_1_lstm1_cont_slice_0_split / type=Split
INFO - 18:34:46 - Creating Layer cont_1_lstm1_cont_slice_0_split
INFO - 18:34:46 - cont_1_lstm1_cont_slice_0_split <- cont_1
INFO - 18:34:46 - cont_1_lstm1_cont_slice_0_split -> cont_1_lstm1_cont_slice_0_split_0
INFO - 18:34:46 - cont_1_lstm1_cont_slice_0_split -> cont_1_lstm1_cont_slice_0_split_1
INFO - 18:34:46 - Setting up cont_1_lstm1_cont_slice_0_split
INFO - 18:34:46 - Top shape: 1 512 (512)
INFO - 18:34:46 - Top shape: 1 512 (512)
INFO - 18:34:46 - Memory required for data: 15486976
INFO - 18:34:46 - Creating layer / name=cont_2_lstm1_cont_slice_1_split / type=Split
INFO - 18:34:46 - Creating Layer cont_2_lstm1_cont_slice_1_split
INFO - 18:34:46 - cont_2_lstm1_cont_slice_1_split <- cont_2
INFO - 18:34:46 - cont_2_lstm1_cont_slice_1_split -> cont_2_lstm1_cont_slice_1_split_0
INFO - 18:34:46 - cont_2_lstm1_cont_slice_1_split -> cont_2_lstm1_cont_slice_1_split_1
INFO - 18:34:46 - Setting up cont_2_lstm1_cont_slice_1_split
INFO - 18:34:46 - Top shape: 1 512 (512)
INFO - 18:34:46 - Top shape: 1 512 (512)
INFO - 18:34:46 - Memory required for data: 15491072
INFO - 18:34:46 - Creating layer / name=cont_3_lstm1_cont_slice_2_split / type=Split
INFO - 18:34:46 - Creating Layer cont_3_lstm1_cont_slice_2_split
INFO - 18:34:46 - cont_3_lstm1_cont_slice_2_split <- cont_3
INFO - 18:34:46 - cont_3_lstm1_cont_slice_2_split -> cont_3_lstm1_cont_slice_2_split_0
INFO - 18:34:46 - cont_3_lstm1_cont_slice_2_split -> cont_3_lstm1_cont_slice_2_split_1
INFO - 18:34:46 - Setting up cont_3_lstm1_cont_slice_2_split
INFO - 18:34:46 - Top shape: 1 512 (512)
INFO - 18:34:46 - Top shape: 1 512 (512)
INFO - 18:34:46 - Memory required for data: 15495168
INFO - 18:34:46 - Creating layer / name=cont_4_lstm1_cont_slice_3_split / type=Split
INFO - 18:34:46 - Creating Layer cont_4_lstm1_cont_slice_3_split
INFO - 18:34:46 - cont_4_lstm1_cont_slice_3_split <- cont_4
INFO - 18:34:46 - cont_4_lstm1_cont_slice_3_split -> cont_4_lstm1_cont_slice_3_split_0
INFO - 18:34:46 - cont_4_lstm1_cont_slice_3_split -> cont_4_lstm1_cont_slice_3_split_1
INFO - 18:34:46 - Setting up cont_4_lstm1_cont_slice_3_split
INFO - 18:34:46 - Top shape: 1 512 (512)
INFO - 18:34:46 - Top shape: 1 512 (512)
INFO - 18:34:46 - Memory required for data: 15499264
INFO - 18:34:46 - Creating layer / name=cont_5_lstm1_cont_slice_4_split / type=Split
INFO - 18:34:46 - Creating Layer cont_5_lstm1_cont_slice_4_split
INFO - 18:34:46 - cont_5_lstm1_cont_slice_4_split <- cont_5
INFO - 18:34:46 - cont_5_lstm1_cont_slice_4_split -> cont_5_lstm1_cont_slice_4_split_0
INFO - 18:34:46 - cont_5_lstm1_cont_slice_4_split -> cont_5_lstm1_cont_slice_4_split_1
INFO - 18:34:46 - Setting up cont_5_lstm1_cont_slice_4_split
INFO - 18:34:46 - Top shape: 1 512 (512)
INFO - 18:34:46 - Top shape: 1 512 (512)
INFO - 18:34:46 - Memory required for data: 15503360
INFO - 18:34:46 - Creating layer / name=cont_6_lstm1_cont_slice_5_split / type=Split
INFO - 18:34:46 - Creating Layer cont_6_lstm1_cont_slice_5_split
INFO - 18:34:46 - cont_6_lstm1_cont_slice_5_split <- cont_6
INFO - 18:34:46 - cont_6_lstm1_cont_slice_5_split -> cont_6_lstm1_cont_slice_5_split_0
INFO - 18:34:46 - cont_6_lstm1_cont_slice_5_split -> cont_6_lstm1_cont_slice_5_split_1
INFO - 18:34:46 - Setting up cont_6_lstm1_cont_slice_5_split
INFO - 18:34:46 - Top shape: 1 512 (512)
INFO - 18:34:46 - Top shape: 1 512 (512)
INFO - 18:34:46 - Memory required for data: 15507456
INFO - 18:34:46 - Creating layer / name=cont_7_lstm1_cont_slice_6_split / type=Split
INFO - 18:34:46 - Creating Layer cont_7_lstm1_cont_slice_6_split
INFO - 18:34:46 - cont_7_lstm1_cont_slice_6_split <- cont_7
INFO - 18:34:46 - cont_7_lstm1_cont_slice_6_split -> cont_7_lstm1_cont_slice_6_split_0
INFO - 18:34:46 - cont_7_lstm1_cont_slice_6_split -> cont_7_lstm1_cont_slice_6_split_1
INFO - 18:34:46 - Setting up cont_7_lstm1_cont_slice_6_split
INFO - 18:34:46 - Top shape: 1 512 (512)
INFO - 18:34:46 - Top shape: 1 512 (512)
INFO - 18:34:46 - Memory required for data: 15511552
INFO - 18:34:46 - Creating layer / name=cont_8_lstm1_cont_slice_7_split / type=Split
INFO - 18:34:46 - Creating Layer cont_8_lstm1_cont_slice_7_split
INFO - 18:34:46 - cont_8_lstm1_cont_slice_7_split <- cont_8
INFO - 18:34:46 - cont_8_lstm1_cont_slice_7_split -> cont_8_lstm1_cont_slice_7_split_0
INFO - 18:34:46 - cont_8_lstm1_cont_slice_7_split -> cont_8_lstm1_cont_slice_7_split_1
INFO - 18:34:46 - Setting up cont_8_lstm1_cont_slice_7_split
INFO - 18:34:46 - Top shape: 1 512 (512)
INFO - 18:34:46 - Top shape: 1 512 (512)
INFO - 18:34:46 - Memory required for data: 15515648
INFO - 18:34:46 - Creating layer / name=cont_9_lstm1_cont_slice_8_split / type=Split
INFO - 18:34:46 - Creating Layer cont_9_lstm1_cont_slice_8_split
INFO - 18:34:46 - cont_9_lstm1_cont_slice_8_split <- cont_9
INFO - 18:34:46 - cont_9_lstm1_cont_slice_8_split -> cont_9_lstm1_cont_slice_8_split_0
INFO - 18:34:46 - cont_9_lstm1_cont_slice_8_split -> cont_9_lstm1_cont_slice_8_split_1
INFO - 18:34:46 - Setting up cont_9_lstm1_cont_slice_8_split
INFO - 18:34:46 - Top shape: 1 512 (512)
INFO - 18:34:46 - Top shape: 1 512 (512)
INFO - 18:34:46 - Memory required for data: 15519744
INFO - 18:34:46 - Creating layer / name=cont_10_lstm1_cont_slice_9_split / type=Split
INFO - 18:34:46 - Creating Layer cont_10_lstm1_cont_slice_9_split
INFO - 18:34:46 - cont_10_lstm1_cont_slice_9_split <- cont_10
INFO - 18:34:46 - cont_10_lstm1_cont_slice_9_split -> cont_10_lstm1_cont_slice_9_split_0
INFO - 18:34:46 - cont_10_lstm1_cont_slice_9_split -> cont_10_lstm1_cont_slice_9_split_1
INFO - 18:34:46 - Setting up cont_10_lstm1_cont_slice_9_split
INFO - 18:34:46 - Top shape: 1 512 (512)
INFO - 18:34:46 - Top shape: 1 512 (512)
INFO - 18:34:46 - Memory required for data: 15523840
INFO - 18:34:46 - Creating layer / name=cont_11_lstm1_cont_slice_10_split / type=Split
INFO - 18:34:46 - Creating Layer cont_11_lstm1_cont_slice_10_split
INFO - 18:34:46 - cont_11_lstm1_cont_slice_10_split <- cont_11
INFO - 18:34:46 - cont_11_lstm1_cont_slice_10_split -> cont_11_lstm1_cont_slice_10_split_0
INFO - 18:34:46 - cont_11_lstm1_cont_slice_10_split -> cont_11_lstm1_cont_slice_10_split_1
INFO - 18:34:46 - Setting up cont_11_lstm1_cont_slice_10_split
INFO - 18:34:46 - Top shape: 1 512 (512)
INFO - 18:34:46 - Top shape: 1 512 (512)
INFO - 18:34:46 - Memory required for data: 15527936
INFO - 18:34:46 - Creating layer / name=cont_12_lstm1_cont_slice_11_split / type=Split
INFO - 18:34:46 - Creating Layer cont_12_lstm1_cont_slice_11_split
INFO - 18:34:46 - cont_12_lstm1_cont_slice_11_split <- cont_12
INFO - 18:34:46 - cont_12_lstm1_cont_slice_11_split -> cont_12_lstm1_cont_slice_11_split_0
INFO - 18:34:46 - cont_12_lstm1_cont_slice_11_split -> cont_12_lstm1_cont_slice_11_split_1
INFO - 18:34:46 - Setting up cont_12_lstm1_cont_slice_11_split
INFO - 18:34:46 - Top shape: 1 512 (512)
INFO - 18:34:46 - Top shape: 1 512 (512)
INFO - 18:34:46 - Memory required for data: 15532032
INFO - 18:34:46 - Creating layer / name=cont_13_lstm1_cont_slice_12_split / type=Split
INFO - 18:34:46 - Creating Layer cont_13_lstm1_cont_slice_12_split
INFO - 18:34:46 - cont_13_lstm1_cont_slice_12_split <- cont_13
INFO - 18:34:46 - cont_13_lstm1_cont_slice_12_split -> cont_13_lstm1_cont_slice_12_split_0
INFO - 18:34:46 - cont_13_lstm1_cont_slice_12_split -> cont_13_lstm1_cont_slice_12_split_1
INFO - 18:34:46 - Setting up cont_13_lstm1_cont_slice_12_split
INFO - 18:34:46 - Top shape: 1 512 (512)
INFO - 18:34:46 - Top shape: 1 512 (512)
INFO - 18:34:46 - Memory required for data: 15536128
INFO - 18:34:46 - Creating layer / name=cont_14_lstm1_cont_slice_13_split / type=Split
INFO - 18:34:46 - Creating Layer cont_14_lstm1_cont_slice_13_split
INFO - 18:34:46 - cont_14_lstm1_cont_slice_13_split <- cont_14
INFO - 18:34:46 - cont_14_lstm1_cont_slice_13_split -> cont_14_lstm1_cont_slice_13_split_0
INFO - 18:34:46 - cont_14_lstm1_cont_slice_13_split -> cont_14_lstm1_cont_slice_13_split_1
INFO - 18:34:46 - Setting up cont_14_lstm1_cont_slice_13_split
INFO - 18:34:46 - Top shape: 1 512 (512)
INFO - 18:34:46 - Top shape: 1 512 (512)
INFO - 18:34:46 - Memory required for data: 15540224
INFO - 18:34:46 - Creating layer / name=cont_15_lstm1_cont_slice_14_split / type=Split
INFO - 18:34:46 - Creating Layer cont_15_lstm1_cont_slice_14_split
INFO - 18:34:46 - cont_15_lstm1_cont_slice_14_split <- cont_15
INFO - 18:34:46 - cont_15_lstm1_cont_slice_14_split -> cont_15_lstm1_cont_slice_14_split_0
INFO - 18:34:46 - cont_15_lstm1_cont_slice_14_split -> cont_15_lstm1_cont_slice_14_split_1
INFO - 18:34:46 - Setting up cont_15_lstm1_cont_slice_14_split
INFO - 18:34:46 - Top shape: 1 512 (512)
INFO - 18:34:46 - Top shape: 1 512 (512)
INFO - 18:34:46 - Memory required for data: 15544320
INFO - 18:34:46 - Creating layer / name=cont_16_lstm1_cont_slice_15_split / type=Split
INFO - 18:34:46 - Creating Layer cont_16_lstm1_cont_slice_15_split
INFO - 18:34:46 - cont_16_lstm1_cont_slice_15_split <- cont_16
INFO - 18:34:46 - cont_16_lstm1_cont_slice_15_split -> cont_16_lstm1_cont_slice_15_split_0
INFO - 18:34:46 - cont_16_lstm1_cont_slice_15_split -> cont_16_lstm1_cont_slice_15_split_1
INFO - 18:34:46 - Setting up cont_16_lstm1_cont_slice_15_split
INFO - 18:34:46 - Top shape: 1 512 (512)
INFO - 18:34:46 - Top shape: 1 512 (512)
INFO - 18:34:46 - Memory required for data: 15548416
INFO - 18:34:46 - Creating layer / name=cont_17_lstm1_cont_slice_16_split / type=Split
INFO - 18:34:46 - Creating Layer cont_17_lstm1_cont_slice_16_split
INFO - 18:34:46 - cont_17_lstm1_cont_slice_16_split <- cont_17
INFO - 18:34:46 - cont_17_lstm1_cont_slice_16_split -> cont_17_lstm1_cont_slice_16_split_0
INFO - 18:34:46 - cont_17_lstm1_cont_slice_16_split -> cont_17_lstm1_cont_slice_16_split_1
INFO - 18:34:46 - Setting up cont_17_lstm1_cont_slice_16_split
INFO - 18:34:46 - Top shape: 1 512 (512)
INFO - 18:34:46 - Top shape: 1 512 (512)
INFO - 18:34:46 - Memory required for data: 15552512
INFO - 18:34:46 - Creating layer / name=cont_18_lstm1_cont_slice_17_split / type=Split
INFO - 18:34:46 - Creating Layer cont_18_lstm1_cont_slice_17_split
INFO - 18:34:46 - cont_18_lstm1_cont_slice_17_split <- cont_18
INFO - 18:34:46 - cont_18_lstm1_cont_slice_17_split -> cont_18_lstm1_cont_slice_17_split_0
INFO - 18:34:46 - cont_18_lstm1_cont_slice_17_split -> cont_18_lstm1_cont_slice_17_split_1
INFO - 18:34:46 - Setting up cont_18_lstm1_cont_slice_17_split
INFO - 18:34:46 - Top shape: 1 512 (512)
INFO - 18:34:46 - Top shape: 1 512 (512)
INFO - 18:34:46 - Memory required for data: 15556608
INFO - 18:34:46 - Creating layer / name=cont_19_lstm1_cont_slice_18_split / type=Split
INFO - 18:34:46 - Creating Layer cont_19_lstm1_cont_slice_18_split
INFO - 18:34:46 - cont_19_lstm1_cont_slice_18_split <- cont_19
INFO - 18:34:46 - cont_19_lstm1_cont_slice_18_split -> cont_19_lstm1_cont_slice_18_split_0
INFO - 18:34:46 - cont_19_lstm1_cont_slice_18_split -> cont_19_lstm1_cont_slice_18_split_1
INFO - 18:34:46 - Setting up cont_19_lstm1_cont_slice_18_split
INFO - 18:34:46 - Top shape: 1 512 (512)
INFO - 18:34:46 - Top shape: 1 512 (512)
INFO - 18:34:46 - Memory required for data: 15560704
INFO - 18:34:46 - Creating layer / name=cont_20_lstm1_cont_slice_19_split / type=Split
INFO - 18:34:46 - Creating Layer cont_20_lstm1_cont_slice_19_split
INFO - 18:34:46 - cont_20_lstm1_cont_slice_19_split <- cont_20
INFO - 18:34:46 - cont_20_lstm1_cont_slice_19_split -> cont_20_lstm1_cont_slice_19_split_0
INFO - 18:34:46 - cont_20_lstm1_cont_slice_19_split -> cont_20_lstm1_cont_slice_19_split_1
INFO - 18:34:46 - Setting up cont_20_lstm1_cont_slice_19_split
INFO - 18:34:46 - Top shape: 1 512 (512)
INFO - 18:34:46 - Top shape: 1 512 (512)
INFO - 18:34:46 - Memory required for data: 15564800
INFO - 18:34:46 - Creating layer / name=cont_21_lstm1_cont_slice_20_split / type=Split
INFO - 18:34:46 - Creating Layer cont_21_lstm1_cont_slice_20_split
INFO - 18:34:46 - cont_21_lstm1_cont_slice_20_split <- cont_21
INFO - 18:34:46 - cont_21_lstm1_cont_slice_20_split -> cont_21_lstm1_cont_slice_20_split_0
INFO - 18:34:46 - cont_21_lstm1_cont_slice_20_split -> cont_21_lstm1_cont_slice_20_split_1
INFO - 18:34:46 - Setting up cont_21_lstm1_cont_slice_20_split
INFO - 18:34:46 - Top shape: 1 512 (512)
INFO - 18:34:46 - Top shape: 1 512 (512)
INFO - 18:34:46 - Memory required for data: 15568896
INFO - 18:34:46 - Creating layer / name=cont_22_lstm1_cont_slice_21_split / type=Split
INFO - 18:34:46 - Creating Layer cont_22_lstm1_cont_slice_21_split
INFO - 18:34:46 - cont_22_lstm1_cont_slice_21_split <- cont_22
INFO - 18:34:46 - cont_22_lstm1_cont_slice_21_split -> cont_22_lstm1_cont_slice_21_split_0
INFO - 18:34:46 - cont_22_lstm1_cont_slice_21_split -> cont_22_lstm1_cont_slice_21_split_1
INFO - 18:34:46 - Setting up cont_22_lstm1_cont_slice_21_split
INFO - 18:34:46 - Top shape: 1 512 (512)
INFO - 18:34:46 - Top shape: 1 512 (512)
INFO - 18:34:46 - Memory required for data: 15572992
INFO - 18:34:46 - Creating layer / name=cont_23_lstm1_cont_slice_22_split / type=Split
INFO - 18:34:46 - Creating Layer cont_23_lstm1_cont_slice_22_split
INFO - 18:34:46 - cont_23_lstm1_cont_slice_22_split <- cont_23
INFO - 18:34:46 - cont_23_lstm1_cont_slice_22_split -> cont_23_lstm1_cont_slice_22_split_0
INFO - 18:34:46 - cont_23_lstm1_cont_slice_22_split -> cont_23_lstm1_cont_slice_22_split_1
INFO - 18:34:46 - Setting up cont_23_lstm1_cont_slice_22_split
INFO - 18:34:46 - Top shape: 1 512 (512)
INFO - 18:34:46 - Top shape: 1 512 (512)
INFO - 18:34:46 - Memory required for data: 15577088
INFO - 18:34:46 - Creating layer / name=cont_24_lstm1_cont_slice_23_split / type=Split
INFO - 18:34:46 - Creating Layer cont_24_lstm1_cont_slice_23_split
INFO - 18:34:46 - cont_24_lstm1_cont_slice_23_split <- cont_24
INFO - 18:34:46 - cont_24_lstm1_cont_slice_23_split -> cont_24_lstm1_cont_slice_23_split_0
INFO - 18:34:46 - cont_24_lstm1_cont_slice_23_split -> cont_24_lstm1_cont_slice_23_split_1
INFO - 18:34:46 - Setting up cont_24_lstm1_cont_slice_23_split
INFO - 18:34:46 - Top shape: 1 512 (512)
INFO - 18:34:46 - Top shape: 1 512 (512)
INFO - 18:34:46 - Memory required for data: 15581184
INFO - 18:34:46 - Creating layer / name=cont_25_lstm1_cont_slice_24_split / type=Split
INFO - 18:34:46 - Creating Layer cont_25_lstm1_cont_slice_24_split
INFO - 18:34:46 - cont_25_lstm1_cont_slice_24_split <- cont_25
INFO - 18:34:46 - cont_25_lstm1_cont_slice_24_split -> cont_25_lstm1_cont_slice_24_split_0
INFO - 18:34:46 - cont_25_lstm1_cont_slice_24_split -> cont_25_lstm1_cont_slice_24_split_1
INFO - 18:34:46 - Setting up cont_25_lstm1_cont_slice_24_split
INFO - 18:34:46 - Top shape: 1 512 (512)
INFO - 18:34:46 - Top shape: 1 512 (512)
INFO - 18:34:46 - Memory required for data: 15585280
INFO - 18:34:46 - Creating layer / name=cont_26_lstm1_cont_slice_25_split / type=Split
INFO - 18:34:46 - Creating Layer cont_26_lstm1_cont_slice_25_split
INFO - 18:34:46 - cont_26_lstm1_cont_slice_25_split <- cont_26
INFO - 18:34:46 - cont_26_lstm1_cont_slice_25_split -> cont_26_lstm1_cont_slice_25_split_0
INFO - 18:34:46 - cont_26_lstm1_cont_slice_25_split -> cont_26_lstm1_cont_slice_25_split_1
INFO - 18:34:46 - Setting up cont_26_lstm1_cont_slice_25_split
INFO - 18:34:46 - Top shape: 1 512 (512)
INFO - 18:34:46 - Top shape: 1 512 (512)
INFO - 18:34:46 - Memory required for data: 15589376
INFO - 18:34:46 - Creating layer / name=cont_27_lstm1_cont_slice_26_split / type=Split
INFO - 18:34:46 - Creating Layer cont_27_lstm1_cont_slice_26_split
INFO - 18:34:46 - cont_27_lstm1_cont_slice_26_split <- cont_27
INFO - 18:34:46 - cont_27_lstm1_cont_slice_26_split -> cont_27_lstm1_cont_slice_26_split_0
INFO - 18:34:46 - cont_27_lstm1_cont_slice_26_split -> cont_27_lstm1_cont_slice_26_split_1
INFO - 18:34:46 - Setting up cont_27_lstm1_cont_slice_26_split
INFO - 18:34:46 - Top shape: 1 512 (512)
INFO - 18:34:46 - Top shape: 1 512 (512)
INFO - 18:34:46 - Memory required for data: 15593472
INFO - 18:34:46 - Creating layer / name=cont_28_lstm1_cont_slice_27_split / type=Split
INFO - 18:34:46 - Creating Layer cont_28_lstm1_cont_slice_27_split
INFO - 18:34:46 - cont_28_lstm1_cont_slice_27_split <- cont_28
INFO - 18:34:46 - cont_28_lstm1_cont_slice_27_split -> cont_28_lstm1_cont_slice_27_split_0
INFO - 18:34:46 - cont_28_lstm1_cont_slice_27_split -> cont_28_lstm1_cont_slice_27_split_1
INFO - 18:34:46 - Setting up cont_28_lstm1_cont_slice_27_split
INFO - 18:34:46 - Top shape: 1 512 (512)
INFO - 18:34:46 - Top shape: 1 512 (512)
INFO - 18:34:46 - Memory required for data: 15597568
INFO - 18:34:46 - Creating layer / name=cont_29_lstm1_cont_slice_28_split / type=Split
INFO - 18:34:46 - Creating Layer cont_29_lstm1_cont_slice_28_split
INFO - 18:34:46 - cont_29_lstm1_cont_slice_28_split <- cont_29
INFO - 18:34:46 - cont_29_lstm1_cont_slice_28_split -> cont_29_lstm1_cont_slice_28_split_0
INFO - 18:34:46 - cont_29_lstm1_cont_slice_28_split -> cont_29_lstm1_cont_slice_28_split_1
INFO - 18:34:46 - Setting up cont_29_lstm1_cont_slice_28_split
INFO - 18:34:46 - Top shape: 1 512 (512)
INFO - 18:34:46 - Top shape: 1 512 (512)
INFO - 18:34:46 - Memory required for data: 15601664
INFO - 18:34:46 - Creating layer / name=cont_30_lstm1_cont_slice_29_split / type=Split
INFO - 18:34:46 - Creating Layer cont_30_lstm1_cont_slice_29_split
INFO - 18:34:46 - cont_30_lstm1_cont_slice_29_split <- cont_30
INFO - 18:34:46 - cont_30_lstm1_cont_slice_29_split -> cont_30_lstm1_cont_slice_29_split_0
INFO - 18:34:46 - cont_30_lstm1_cont_slice_29_split -> cont_30_lstm1_cont_slice_29_split_1
INFO - 18:34:46 - Setting up cont_30_lstm1_cont_slice_29_split
INFO - 18:34:46 - Top shape: 1 512 (512)
INFO - 18:34:46 - Top shape: 1 512 (512)
INFO - 18:34:46 - Memory required for data: 15605760
INFO - 18:34:46 - Creating layer / name=cont_31_lstm1_cont_slice_30_split / type=Split
INFO - 18:34:46 - Creating Layer cont_31_lstm1_cont_slice_30_split
INFO - 18:34:46 - cont_31_lstm1_cont_slice_30_split <- cont_31
INFO - 18:34:46 - cont_31_lstm1_cont_slice_30_split -> cont_31_lstm1_cont_slice_30_split_0
INFO - 18:34:46 - cont_31_lstm1_cont_slice_30_split -> cont_31_lstm1_cont_slice_30_split_1
INFO - 18:34:46 - Setting up cont_31_lstm1_cont_slice_30_split
INFO - 18:34:46 - Top shape: 1 512 (512)
INFO - 18:34:46 - Top shape: 1 512 (512)
INFO - 18:34:46 - Memory required for data: 15609856
INFO - 18:34:46 - Creating layer / name=cont_32_lstm1_cont_slice_31_split / type=Split
INFO - 18:34:46 - Creating Layer cont_32_lstm1_cont_slice_31_split
INFO - 18:34:46 - cont_32_lstm1_cont_slice_31_split <- cont_32
INFO - 18:34:46 - cont_32_lstm1_cont_slice_31_split -> cont_32_lstm1_cont_slice_31_split_0
INFO - 18:34:46 - cont_32_lstm1_cont_slice_31_split -> cont_32_lstm1_cont_slice_31_split_1
INFO - 18:34:46 - Setting up cont_32_lstm1_cont_slice_31_split
INFO - 18:34:46 - Top shape: 1 512 (512)
INFO - 18:34:46 - Top shape: 1 512 (512)
INFO - 18:34:46 - Memory required for data: 15613952
INFO - 18:34:46 - Creating layer / name=cont_33_lstm1_cont_slice_32_split / type=Split
INFO - 18:34:46 - Creating Layer cont_33_lstm1_cont_slice_32_split
INFO - 18:34:46 - cont_33_lstm1_cont_slice_32_split <- cont_33
INFO - 18:34:46 - cont_33_lstm1_cont_slice_32_split -> cont_33_lstm1_cont_slice_32_split_0
INFO - 18:34:46 - cont_33_lstm1_cont_slice_32_split -> cont_33_lstm1_cont_slice_32_split_1
INFO - 18:34:46 - Setting up cont_33_lstm1_cont_slice_32_split
INFO - 18:34:46 - Top shape: 1 512 (512)
INFO - 18:34:46 - Top shape: 1 512 (512)
INFO - 18:34:46 - Memory required for data: 15618048
INFO - 18:34:46 - Creating layer / name=cont_34_lstm1_cont_slice_33_split / type=Split
INFO - 18:34:46 - Creating Layer cont_34_lstm1_cont_slice_33_split
INFO - 18:34:46 - cont_34_lstm1_cont_slice_33_split <- cont_34
INFO - 18:34:46 - cont_34_lstm1_cont_slice_33_split -> cont_34_lstm1_cont_slice_33_split_0
INFO - 18:34:46 - cont_34_lstm1_cont_slice_33_split -> cont_34_lstm1_cont_slice_33_split_1
INFO - 18:34:46 - Setting up cont_34_lstm1_cont_slice_33_split
INFO - 18:34:46 - Top shape: 1 512 (512)
INFO - 18:34:46 - Top shape: 1 512 (512)
INFO - 18:34:46 - Memory required for data: 15622144
INFO - 18:34:46 - Creating layer / name=cont_35_lstm1_cont_slice_34_split / type=Split
INFO - 18:34:46 - Creating Layer cont_35_lstm1_cont_slice_34_split
INFO - 18:34:46 - cont_35_lstm1_cont_slice_34_split <- cont_35
INFO - 18:34:46 - cont_35_lstm1_cont_slice_34_split -> cont_35_lstm1_cont_slice_34_split_0
INFO - 18:34:46 - cont_35_lstm1_cont_slice_34_split -> cont_35_lstm1_cont_slice_34_split_1
INFO - 18:34:46 - Setting up cont_35_lstm1_cont_slice_34_split
INFO - 18:34:46 - Top shape: 1 512 (512)
INFO - 18:34:46 - Top shape: 1 512 (512)
INFO - 18:34:46 - Memory required for data: 15626240
INFO - 18:34:46 - Creating layer / name=cont_36_lstm1_cont_slice_35_split / type=Split
INFO - 18:34:46 - Creating Layer cont_36_lstm1_cont_slice_35_split
INFO - 18:34:46 - cont_36_lstm1_cont_slice_35_split <- cont_36
INFO - 18:34:46 - cont_36_lstm1_cont_slice_35_split -> cont_36_lstm1_cont_slice_35_split_0
INFO - 18:34:46 - cont_36_lstm1_cont_slice_35_split -> cont_36_lstm1_cont_slice_35_split_1
INFO - 18:34:46 - Setting up cont_36_lstm1_cont_slice_35_split
INFO - 18:34:46 - Top shape: 1 512 (512)
INFO - 18:34:46 - Top shape: 1 512 (512)
INFO - 18:34:46 - Memory required for data: 15630336
INFO - 18:34:46 - Creating layer / name=cont_37_lstm1_cont_slice_36_split / type=Split
INFO - 18:34:46 - Creating Layer cont_37_lstm1_cont_slice_36_split
INFO - 18:34:46 - cont_37_lstm1_cont_slice_36_split <- cont_37
INFO - 18:34:46 - cont_37_lstm1_cont_slice_36_split -> cont_37_lstm1_cont_slice_36_split_0
INFO - 18:34:46 - cont_37_lstm1_cont_slice_36_split -> cont_37_lstm1_cont_slice_36_split_1
INFO - 18:34:46 - Setting up cont_37_lstm1_cont_slice_36_split
INFO - 18:34:46 - Top shape: 1 512 (512)
INFO - 18:34:46 - Top shape: 1 512 (512)
INFO - 18:34:46 - Memory required for data: 15634432
INFO - 18:34:46 - Creating layer / name=cont_38_lstm1_cont_slice_37_split / type=Split
INFO - 18:34:46 - Creating Layer cont_38_lstm1_cont_slice_37_split
INFO - 18:34:46 - cont_38_lstm1_cont_slice_37_split <- cont_38
INFO - 18:34:46 - cont_38_lstm1_cont_slice_37_split -> cont_38_lstm1_cont_slice_37_split_0
INFO - 18:34:46 - cont_38_lstm1_cont_slice_37_split -> cont_38_lstm1_cont_slice_37_split_1
INFO - 18:34:46 - Setting up cont_38_lstm1_cont_slice_37_split
INFO - 18:34:46 - Top shape: 1 512 (512)
INFO - 18:34:46 - Top shape: 1 512 (512)
INFO - 18:34:46 - Memory required for data: 15638528
INFO - 18:34:46 - Creating layer / name=cont_39_lstm1_cont_slice_38_split / type=Split
INFO - 18:34:46 - Creating Layer cont_39_lstm1_cont_slice_38_split
INFO - 18:34:46 - cont_39_lstm1_cont_slice_38_split <- cont_39
INFO - 18:34:46 - cont_39_lstm1_cont_slice_38_split -> cont_39_lstm1_cont_slice_38_split_0
INFO - 18:34:46 - cont_39_lstm1_cont_slice_38_split -> cont_39_lstm1_cont_slice_38_split_1
INFO - 18:34:46 - Setting up cont_39_lstm1_cont_slice_38_split
INFO - 18:34:46 - Top shape: 1 512 (512)
INFO - 18:34:46 - Top shape: 1 512 (512)
INFO - 18:34:46 - Memory required for data: 15642624
INFO - 18:34:46 - Creating layer / name=cont_40_lstm1_cont_slice_39_split / type=Split
INFO - 18:34:46 - Creating Layer cont_40_lstm1_cont_slice_39_split
INFO - 18:34:46 - cont_40_lstm1_cont_slice_39_split <- cont_40
INFO - 18:34:46 - cont_40_lstm1_cont_slice_39_split -> cont_40_lstm1_cont_slice_39_split_0
INFO - 18:34:46 - cont_40_lstm1_cont_slice_39_split -> cont_40_lstm1_cont_slice_39_split_1
INFO - 18:34:46 - Setting up cont_40_lstm1_cont_slice_39_split
INFO - 18:34:46 - Top shape: 1 512 (512)
INFO - 18:34:46 - Top shape: 1 512 (512)
INFO - 18:34:46 - Memory required for data: 15646720
INFO - 18:34:46 - Creating layer / name=cont_41_lstm1_cont_slice_40_split / type=Split
INFO - 18:34:46 - Creating Layer cont_41_lstm1_cont_slice_40_split
INFO - 18:34:46 - cont_41_lstm1_cont_slice_40_split <- cont_41
INFO - 18:34:46 - cont_41_lstm1_cont_slice_40_split -> cont_41_lstm1_cont_slice_40_split_0
INFO - 18:34:46 - cont_41_lstm1_cont_slice_40_split -> cont_41_lstm1_cont_slice_40_split_1
INFO - 18:34:46 - Setting up cont_41_lstm1_cont_slice_40_split
INFO - 18:34:46 - Top shape: 1 512 (512)
INFO - 18:34:46 - Top shape: 1 512 (512)
INFO - 18:34:46 - Memory required for data: 15650816
INFO - 18:34:46 - Creating layer / name=cont_42_lstm1_cont_slice_41_split / type=Split
INFO - 18:34:46 - Creating Layer cont_42_lstm1_cont_slice_41_split
INFO - 18:34:46 - cont_42_lstm1_cont_slice_41_split <- cont_42
INFO - 18:34:46 - cont_42_lstm1_cont_slice_41_split -> cont_42_lstm1_cont_slice_41_split_0
INFO - 18:34:46 - cont_42_lstm1_cont_slice_41_split -> cont_42_lstm1_cont_slice_41_split_1
INFO - 18:34:46 - Setting up cont_42_lstm1_cont_slice_41_split
INFO - 18:34:46 - Top shape: 1 512 (512)
INFO - 18:34:46 - Top shape: 1 512 (512)
INFO - 18:34:46 - Memory required for data: 15654912
INFO - 18:34:46 - Creating layer / name=cont_43_lstm1_cont_slice_42_split / type=Split
INFO - 18:34:46 - Creating Layer cont_43_lstm1_cont_slice_42_split
INFO - 18:34:46 - cont_43_lstm1_cont_slice_42_split <- cont_43
INFO - 18:34:46 - cont_43_lstm1_cont_slice_42_split -> cont_43_lstm1_cont_slice_42_split_0
INFO - 18:34:46 - cont_43_lstm1_cont_slice_42_split -> cont_43_lstm1_cont_slice_42_split_1
INFO - 18:34:46 - Setting up cont_43_lstm1_cont_slice_42_split
INFO - 18:34:46 - Top shape: 1 512 (512)
INFO - 18:34:46 - Top shape: 1 512 (512)
INFO - 18:34:46 - Memory required for data: 15659008
INFO - 18:34:46 - Creating layer / name=cont_44_lstm1_cont_slice_43_split / type=Split
INFO - 18:34:46 - Creating Layer cont_44_lstm1_cont_slice_43_split
INFO - 18:34:46 - cont_44_lstm1_cont_slice_43_split <- cont_44
INFO - 18:34:46 - cont_44_lstm1_cont_slice_43_split -> cont_44_lstm1_cont_slice_43_split_0
INFO - 18:34:46 - cont_44_lstm1_cont_slice_43_split -> cont_44_lstm1_cont_slice_43_split_1
INFO - 18:34:46 - Setting up cont_44_lstm1_cont_slice_43_split
INFO - 18:34:46 - Top shape: 1 512 (512)
INFO - 18:34:46 - Top shape: 1 512 (512)
INFO - 18:34:46 - Memory required for data: 15663104
INFO - 18:34:46 - Creating layer / name=cont_45_lstm1_cont_slice_44_split / type=Split
INFO - 18:34:46 - Creating Layer cont_45_lstm1_cont_slice_44_split
INFO - 18:34:46 - cont_45_lstm1_cont_slice_44_split <- cont_45
INFO - 18:34:46 - cont_45_lstm1_cont_slice_44_split -> cont_45_lstm1_cont_slice_44_split_0
INFO - 18:34:46 - cont_45_lstm1_cont_slice_44_split -> cont_45_lstm1_cont_slice_44_split_1
INFO - 18:34:46 - Setting up cont_45_lstm1_cont_slice_44_split
INFO - 18:34:46 - Top shape: 1 512 (512)
INFO - 18:34:46 - Top shape: 1 512 (512)
INFO - 18:34:46 - Memory required for data: 15667200
INFO - 18:34:46 - Creating layer / name=cont_46_lstm1_cont_slice_45_split / type=Split
INFO - 18:34:46 - Creating Layer cont_46_lstm1_cont_slice_45_split
INFO - 18:34:46 - cont_46_lstm1_cont_slice_45_split <- cont_46
INFO - 18:34:46 - cont_46_lstm1_cont_slice_45_split -> cont_46_lstm1_cont_slice_45_split_0
INFO - 18:34:46 - cont_46_lstm1_cont_slice_45_split -> cont_46_lstm1_cont_slice_45_split_1
INFO - 18:34:46 - Setting up cont_46_lstm1_cont_slice_45_split
INFO - 18:34:46 - Top shape: 1 512 (512)
INFO - 18:34:46 - Top shape: 1 512 (512)
INFO - 18:34:46 - Memory required for data: 15671296
INFO - 18:34:46 - Creating layer / name=cont_47_lstm1_cont_slice_46_split / type=Split
INFO - 18:34:46 - Creating Layer cont_47_lstm1_cont_slice_46_split
INFO - 18:34:46 - cont_47_lstm1_cont_slice_46_split <- cont_47
INFO - 18:34:46 - cont_47_lstm1_cont_slice_46_split -> cont_47_lstm1_cont_slice_46_split_0
INFO - 18:34:46 - cont_47_lstm1_cont_slice_46_split -> cont_47_lstm1_cont_slice_46_split_1
INFO - 18:34:46 - Setting up cont_47_lstm1_cont_slice_46_split
INFO - 18:34:46 - Top shape: 1 512 (512)
INFO - 18:34:46 - Top shape: 1 512 (512)
INFO - 18:34:46 - Memory required for data: 15675392
INFO - 18:34:46 - Creating layer / name=cont_48_lstm1_cont_slice_47_split / type=Split
INFO - 18:34:46 - Creating Layer cont_48_lstm1_cont_slice_47_split
INFO - 18:34:46 - cont_48_lstm1_cont_slice_47_split <- cont_48
INFO - 18:34:46 - cont_48_lstm1_cont_slice_47_split -> cont_48_lstm1_cont_slice_47_split_0
INFO - 18:34:46 - cont_48_lstm1_cont_slice_47_split -> cont_48_lstm1_cont_slice_47_split_1
INFO - 18:34:46 - Setting up cont_48_lstm1_cont_slice_47_split
INFO - 18:34:46 - Top shape: 1 512 (512)
INFO - 18:34:46 - Top shape: 1 512 (512)
INFO - 18:34:46 - Memory required for data: 15679488
INFO - 18:34:46 - Creating layer / name=cont_49_lstm1_cont_slice_48_split / type=Split
INFO - 18:34:46 - Creating Layer cont_49_lstm1_cont_slice_48_split
INFO - 18:34:46 - cont_49_lstm1_cont_slice_48_split <- cont_49
INFO - 18:34:46 - cont_49_lstm1_cont_slice_48_split -> cont_49_lstm1_cont_slice_48_split_0
INFO - 18:34:46 - cont_49_lstm1_cont_slice_48_split -> cont_49_lstm1_cont_slice_48_split_1
INFO - 18:34:46 - Setting up cont_49_lstm1_cont_slice_48_split
INFO - 18:34:46 - Top shape: 1 512 (512)
INFO - 18:34:46 - Top shape: 1 512 (512)
INFO - 18:34:46 - Memory required for data: 15683584
INFO - 18:34:46 - Creating layer / name=cont_50_lstm1_cont_slice_49_split / type=Split
INFO - 18:34:46 - Creating Layer cont_50_lstm1_cont_slice_49_split
INFO - 18:34:46 - cont_50_lstm1_cont_slice_49_split <- cont_50
INFO - 18:34:46 - cont_50_lstm1_cont_slice_49_split -> cont_50_lstm1_cont_slice_49_split_0
INFO - 18:34:46 - cont_50_lstm1_cont_slice_49_split -> cont_50_lstm1_cont_slice_49_split_1
INFO - 18:34:46 - Setting up cont_50_lstm1_cont_slice_49_split
INFO - 18:34:46 - Top shape: 1 512 (512)
INFO - 18:34:46 - Top shape: 1 512 (512)
INFO - 18:34:46 - Memory required for data: 15687680
INFO - 18:34:46 - Creating layer / name=cont_51_lstm1_cont_slice_50_split / type=Split
INFO - 18:34:46 - Creating Layer cont_51_lstm1_cont_slice_50_split
INFO - 18:34:46 - cont_51_lstm1_cont_slice_50_split <- cont_51
INFO - 18:34:46 - cont_51_lstm1_cont_slice_50_split -> cont_51_lstm1_cont_slice_50_split_0
INFO - 18:34:46 - cont_51_lstm1_cont_slice_50_split -> cont_51_lstm1_cont_slice_50_split_1
INFO - 18:34:46 - Setting up cont_51_lstm1_cont_slice_50_split
INFO - 18:34:46 - Top shape: 1 512 (512)
INFO - 18:34:46 - Top shape: 1 512 (512)
INFO - 18:34:46 - Memory required for data: 15691776
INFO - 18:34:46 - Creating layer / name=cont_52_lstm1_cont_slice_51_split / type=Split
INFO - 18:34:46 - Creating Layer cont_52_lstm1_cont_slice_51_split
INFO - 18:34:46 - cont_52_lstm1_cont_slice_51_split <- cont_52
INFO - 18:34:46 - cont_52_lstm1_cont_slice_51_split -> cont_52_lstm1_cont_slice_51_split_0
INFO - 18:34:46 - cont_52_lstm1_cont_slice_51_split -> cont_52_lstm1_cont_slice_51_split_1
INFO - 18:34:46 - Setting up cont_52_lstm1_cont_slice_51_split
INFO - 18:34:46 - Top shape: 1 512 (512)
INFO - 18:34:46 - Top shape: 1 512 (512)
INFO - 18:34:46 - Memory required for data: 15695872
INFO - 18:34:46 - Creating layer / name=cont_53_lstm1_cont_slice_52_split / type=Split
INFO - 18:34:46 - Creating Layer cont_53_lstm1_cont_slice_52_split
INFO - 18:34:46 - cont_53_lstm1_cont_slice_52_split <- cont_53
INFO - 18:34:46 - cont_53_lstm1_cont_slice_52_split -> cont_53_lstm1_cont_slice_52_split_0
INFO - 18:34:46 - cont_53_lstm1_cont_slice_52_split -> cont_53_lstm1_cont_slice_52_split_1
INFO - 18:34:46 - Setting up cont_53_lstm1_cont_slice_52_split
INFO - 18:34:46 - Top shape: 1 512 (512)
INFO - 18:34:46 - Top shape: 1 512 (512)
INFO - 18:34:46 - Memory required for data: 15699968
INFO - 18:34:46 - Creating layer / name=cont_54_lstm1_cont_slice_53_split / type=Split
INFO - 18:34:46 - Creating Layer cont_54_lstm1_cont_slice_53_split
INFO - 18:34:46 - cont_54_lstm1_cont_slice_53_split <- cont_54
INFO - 18:34:46 - cont_54_lstm1_cont_slice_53_split -> cont_54_lstm1_cont_slice_53_split_0
INFO - 18:34:46 - cont_54_lstm1_cont_slice_53_split -> cont_54_lstm1_cont_slice_53_split_1
INFO - 18:34:46 - Setting up cont_54_lstm1_cont_slice_53_split
INFO - 18:34:46 - Top shape: 1 512 (512)
INFO - 18:34:46 - Top shape: 1 512 (512)
INFO - 18:34:46 - Memory required for data: 15704064
INFO - 18:34:46 - Creating layer / name=cont_55_lstm1_cont_slice_54_split / type=Split
INFO - 18:34:46 - Creating Layer cont_55_lstm1_cont_slice_54_split
INFO - 18:34:46 - cont_55_lstm1_cont_slice_54_split <- cont_55
INFO - 18:34:46 - cont_55_lstm1_cont_slice_54_split -> cont_55_lstm1_cont_slice_54_split_0
INFO - 18:34:46 - cont_55_lstm1_cont_slice_54_split -> cont_55_lstm1_cont_slice_54_split_1
INFO - 18:34:46 - Setting up cont_55_lstm1_cont_slice_54_split
INFO - 18:34:46 - Top shape: 1 512 (512)
INFO - 18:34:46 - Top shape: 1 512 (512)
INFO - 18:34:46 - Memory required for data: 15708160
INFO - 18:34:46 - Creating layer / name=cont_56_lstm1_cont_slice_55_split / type=Split
INFO - 18:34:46 - Creating Layer cont_56_lstm1_cont_slice_55_split
INFO - 18:34:46 - cont_56_lstm1_cont_slice_55_split <- cont_56
INFO - 18:34:46 - cont_56_lstm1_cont_slice_55_split -> cont_56_lstm1_cont_slice_55_split_0
INFO - 18:34:46 - cont_56_lstm1_cont_slice_55_split -> cont_56_lstm1_cont_slice_55_split_1
INFO - 18:34:46 - Setting up cont_56_lstm1_cont_slice_55_split
INFO - 18:34:46 - Top shape: 1 512 (512)
INFO - 18:34:46 - Top shape: 1 512 (512)
INFO - 18:34:46 - Memory required for data: 15712256
INFO - 18:34:46 - Creating layer / name=cont_57_lstm1_cont_slice_56_split / type=Split
INFO - 18:34:46 - Creating Layer cont_57_lstm1_cont_slice_56_split
INFO - 18:34:46 - cont_57_lstm1_cont_slice_56_split <- cont_57
INFO - 18:34:46 - cont_57_lstm1_cont_slice_56_split -> cont_57_lstm1_cont_slice_56_split_0
INFO - 18:34:46 - cont_57_lstm1_cont_slice_56_split -> cont_57_lstm1_cont_slice_56_split_1
INFO - 18:34:46 - Setting up cont_57_lstm1_cont_slice_56_split
INFO - 18:34:46 - Top shape: 1 512 (512)
INFO - 18:34:46 - Top shape: 1 512 (512)
INFO - 18:34:46 - Memory required for data: 15716352
INFO - 18:34:46 - Creating layer / name=cont_58_lstm1_cont_slice_57_split / type=Split
INFO - 18:34:46 - Creating Layer cont_58_lstm1_cont_slice_57_split
INFO - 18:34:46 - cont_58_lstm1_cont_slice_57_split <- cont_58
INFO - 18:34:46 - cont_58_lstm1_cont_slice_57_split -> cont_58_lstm1_cont_slice_57_split_0
INFO - 18:34:46 - cont_58_lstm1_cont_slice_57_split -> cont_58_lstm1_cont_slice_57_split_1
INFO - 18:34:46 - Setting up cont_58_lstm1_cont_slice_57_split
INFO - 18:34:46 - Top shape: 1 512 (512)
INFO - 18:34:46 - Top shape: 1 512 (512)
INFO - 18:34:46 - Memory required for data: 15720448
INFO - 18:34:46 - Creating layer / name=cont_59_lstm1_cont_slice_58_split / type=Split
INFO - 18:34:46 - Creating Layer cont_59_lstm1_cont_slice_58_split
INFO - 18:34:46 - cont_59_lstm1_cont_slice_58_split <- cont_59
INFO - 18:34:46 - cont_59_lstm1_cont_slice_58_split -> cont_59_lstm1_cont_slice_58_split_0
INFO - 18:34:46 - cont_59_lstm1_cont_slice_58_split -> cont_59_lstm1_cont_slice_58_split_1
INFO - 18:34:46 - Setting up cont_59_lstm1_cont_slice_58_split
INFO - 18:34:46 - Top shape: 1 512 (512)
INFO - 18:34:46 - Top shape: 1 512 (512)
INFO - 18:34:46 - Memory required for data: 15724544
INFO - 18:34:46 - Creating layer / name=cont_60_lstm1_cont_slice_59_split / type=Split
INFO - 18:34:46 - Creating Layer cont_60_lstm1_cont_slice_59_split
INFO - 18:34:46 - cont_60_lstm1_cont_slice_59_split <- cont_60
INFO - 18:34:46 - cont_60_lstm1_cont_slice_59_split -> cont_60_lstm1_cont_slice_59_split_0
INFO - 18:34:46 - cont_60_lstm1_cont_slice_59_split -> cont_60_lstm1_cont_slice_59_split_1
INFO - 18:34:46 - Setting up cont_60_lstm1_cont_slice_59_split
INFO - 18:34:46 - Top shape: 1 512 (512)
INFO - 18:34:46 - Top shape: 1 512 (512)
INFO - 18:34:46 - Memory required for data: 15728640
INFO - 18:34:46 - Creating layer / name=cont_61_lstm1_cont_slice_60_split / type=Split
INFO - 18:34:46 - Creating Layer cont_61_lstm1_cont_slice_60_split
INFO - 18:34:46 - cont_61_lstm1_cont_slice_60_split <- cont_61
INFO - 18:34:46 - cont_61_lstm1_cont_slice_60_split -> cont_61_lstm1_cont_slice_60_split_0
INFO - 18:34:46 - cont_61_lstm1_cont_slice_60_split -> cont_61_lstm1_cont_slice_60_split_1
INFO - 18:34:46 - Setting up cont_61_lstm1_cont_slice_60_split
INFO - 18:34:46 - Top shape: 1 512 (512)
INFO - 18:34:46 - Top shape: 1 512 (512)
INFO - 18:34:46 - Memory required for data: 15732736
INFO - 18:34:46 - Creating layer / name=cont_62_lstm1_cont_slice_61_split / type=Split
INFO - 18:34:46 - Creating Layer cont_62_lstm1_cont_slice_61_split
INFO - 18:34:46 - cont_62_lstm1_cont_slice_61_split <- cont_62
INFO - 18:34:46 - cont_62_lstm1_cont_slice_61_split -> cont_62_lstm1_cont_slice_61_split_0
INFO - 18:34:46 - cont_62_lstm1_cont_slice_61_split -> cont_62_lstm1_cont_slice_61_split_1
INFO - 18:34:46 - Setting up cont_62_lstm1_cont_slice_61_split
INFO - 18:34:46 - Top shape: 1 512 (512)
INFO - 18:34:46 - Top shape: 1 512 (512)
INFO - 18:34:46 - Memory required for data: 15736832
INFO - 18:34:46 - Creating layer / name=cont_63_lstm1_cont_slice_62_split / type=Split
INFO - 18:34:46 - Creating Layer cont_63_lstm1_cont_slice_62_split
INFO - 18:34:46 - cont_63_lstm1_cont_slice_62_split <- cont_63
INFO - 18:34:46 - cont_63_lstm1_cont_slice_62_split -> cont_63_lstm1_cont_slice_62_split_0
INFO - 18:34:46 - cont_63_lstm1_cont_slice_62_split -> cont_63_lstm1_cont_slice_62_split_1
INFO - 18:34:46 - Setting up cont_63_lstm1_cont_slice_62_split
INFO - 18:34:46 - Top shape: 1 512 (512)
INFO - 18:34:46 - Top shape: 1 512 (512)
INFO - 18:34:46 - Memory required for data: 15740928
INFO - 18:34:46 - Creating layer / name=cont_64_lstm1_cont_slice_63_split / type=Split
INFO - 18:34:46 - Creating Layer cont_64_lstm1_cont_slice_63_split
INFO - 18:34:46 - cont_64_lstm1_cont_slice_63_split <- cont_64
INFO - 18:34:46 - cont_64_lstm1_cont_slice_63_split -> cont_64_lstm1_cont_slice_63_split_0
INFO - 18:34:46 - cont_64_lstm1_cont_slice_63_split -> cont_64_lstm1_cont_slice_63_split_1
INFO - 18:34:46 - Setting up cont_64_lstm1_cont_slice_63_split
INFO - 18:34:46 - Top shape: 1 512 (512)
INFO - 18:34:46 - Top shape: 1 512 (512)
INFO - 18:34:46 - Memory required for data: 15745024
INFO - 18:34:46 - Creating layer / name=cont_65_lstm1_cont_slice_64_split / type=Split
INFO - 18:34:46 - Creating Layer cont_65_lstm1_cont_slice_64_split
INFO - 18:34:46 - cont_65_lstm1_cont_slice_64_split <- cont_65
INFO - 18:34:46 - cont_65_lstm1_cont_slice_64_split -> cont_65_lstm1_cont_slice_64_split_0
INFO - 18:34:46 - cont_65_lstm1_cont_slice_64_split -> cont_65_lstm1_cont_slice_64_split_1
INFO - 18:34:46 - Setting up cont_65_lstm1_cont_slice_64_split
INFO - 18:34:46 - Top shape: 1 512 (512)
INFO - 18:34:46 - Top shape: 1 512 (512)
INFO - 18:34:46 - Memory required for data: 15749120
INFO - 18:34:46 - Creating layer / name=cont_66_lstm1_cont_slice_65_split / type=Split
INFO - 18:34:46 - Creating Layer cont_66_lstm1_cont_slice_65_split
INFO - 18:34:46 - cont_66_lstm1_cont_slice_65_split <- cont_66
INFO - 18:34:46 - cont_66_lstm1_cont_slice_65_split -> cont_66_lstm1_cont_slice_65_split_0
INFO - 18:34:46 - cont_66_lstm1_cont_slice_65_split -> cont_66_lstm1_cont_slice_65_split_1
INFO - 18:34:46 - Setting up cont_66_lstm1_cont_slice_65_split
INFO - 18:34:46 - Top shape: 1 512 (512)
INFO - 18:34:46 - Top shape: 1 512 (512)
INFO - 18:34:46 - Memory required for data: 15753216
INFO - 18:34:46 - Creating layer / name=cont_67_lstm1_cont_slice_66_split / type=Split
INFO - 18:34:46 - Creating Layer cont_67_lstm1_cont_slice_66_split
INFO - 18:34:46 - cont_67_lstm1_cont_slice_66_split <- cont_67
INFO - 18:34:46 - cont_67_lstm1_cont_slice_66_split -> cont_67_lstm1_cont_slice_66_split_0
INFO - 18:34:46 - cont_67_lstm1_cont_slice_66_split -> cont_67_lstm1_cont_slice_66_split_1
INFO - 18:34:46 - Setting up cont_67_lstm1_cont_slice_66_split
INFO - 18:34:46 - Top shape: 1 512 (512)
INFO - 18:34:46 - Top shape: 1 512 (512)
INFO - 18:34:46 - Memory required for data: 15757312
INFO - 18:34:46 - Creating layer / name=cont_68_lstm1_cont_slice_67_split / type=Split
INFO - 18:34:46 - Creating Layer cont_68_lstm1_cont_slice_67_split
INFO - 18:34:46 - cont_68_lstm1_cont_slice_67_split <- cont_68
INFO - 18:34:46 - cont_68_lstm1_cont_slice_67_split -> cont_68_lstm1_cont_slice_67_split_0
INFO - 18:34:46 - cont_68_lstm1_cont_slice_67_split -> cont_68_lstm1_cont_slice_67_split_1
INFO - 18:34:46 - Setting up cont_68_lstm1_cont_slice_67_split
INFO - 18:34:46 - Top shape: 1 512 (512)
INFO - 18:34:46 - Top shape: 1 512 (512)
INFO - 18:34:46 - Memory required for data: 15761408
INFO - 18:34:46 - Creating layer / name=cont_69_lstm1_cont_slice_68_split / type=Split
INFO - 18:34:46 - Creating Layer cont_69_lstm1_cont_slice_68_split
INFO - 18:34:46 - cont_69_lstm1_cont_slice_68_split <- cont_69
INFO - 18:34:46 - cont_69_lstm1_cont_slice_68_split -> cont_69_lstm1_cont_slice_68_split_0
INFO - 18:34:46 - cont_69_lstm1_cont_slice_68_split -> cont_69_lstm1_cont_slice_68_split_1
INFO - 18:34:46 - Setting up cont_69_lstm1_cont_slice_68_split
INFO - 18:34:46 - Top shape: 1 512 (512)
INFO - 18:34:46 - Top shape: 1 512 (512)
INFO - 18:34:46 - Memory required for data: 15765504
INFO - 18:34:46 - Creating layer / name=cont_70_lstm1_cont_slice_69_split / type=Split
INFO - 18:34:46 - Creating Layer cont_70_lstm1_cont_slice_69_split
INFO - 18:34:46 - cont_70_lstm1_cont_slice_69_split <- cont_70
INFO - 18:34:46 - cont_70_lstm1_cont_slice_69_split -> cont_70_lstm1_cont_slice_69_split_0
INFO - 18:34:46 - cont_70_lstm1_cont_slice_69_split -> cont_70_lstm1_cont_slice_69_split_1
INFO - 18:34:46 - Setting up cont_70_lstm1_cont_slice_69_split
INFO - 18:34:46 - Top shape: 1 512 (512)
INFO - 18:34:46 - Top shape: 1 512 (512)
INFO - 18:34:46 - Memory required for data: 15769600
INFO - 18:34:46 - Creating layer / name=cont_71_lstm1_cont_slice_70_split / type=Split
INFO - 18:34:46 - Creating Layer cont_71_lstm1_cont_slice_70_split
INFO - 18:34:46 - cont_71_lstm1_cont_slice_70_split <- cont_71
INFO - 18:34:46 - cont_71_lstm1_cont_slice_70_split -> cont_71_lstm1_cont_slice_70_split_0
INFO - 18:34:46 - cont_71_lstm1_cont_slice_70_split -> cont_71_lstm1_cont_slice_70_split_1
INFO - 18:34:46 - Setting up cont_71_lstm1_cont_slice_70_split
INFO - 18:34:46 - Top shape: 1 512 (512)
INFO - 18:34:46 - Top shape: 1 512 (512)
INFO - 18:34:46 - Memory required for data: 15773696
INFO - 18:34:46 - Creating layer / name=cont_72_lstm1_cont_slice_71_split / type=Split
INFO - 18:34:46 - Creating Layer cont_72_lstm1_cont_slice_71_split
INFO - 18:34:46 - cont_72_lstm1_cont_slice_71_split <- cont_72
INFO - 18:34:46 - cont_72_lstm1_cont_slice_71_split -> cont_72_lstm1_cont_slice_71_split_0
INFO - 18:34:46 - cont_72_lstm1_cont_slice_71_split -> cont_72_lstm1_cont_slice_71_split_1
INFO - 18:34:46 - Setting up cont_72_lstm1_cont_slice_71_split
INFO - 18:34:46 - Top shape: 1 512 (512)
INFO - 18:34:46 - Top shape: 1 512 (512)
INFO - 18:34:46 - Memory required for data: 15777792
INFO - 18:34:46 - Creating layer / name=cont_73_lstm1_cont_slice_72_split / type=Split
INFO - 18:34:46 - Creating Layer cont_73_lstm1_cont_slice_72_split
INFO - 18:34:46 - cont_73_lstm1_cont_slice_72_split <- cont_73
INFO - 18:34:46 - cont_73_lstm1_cont_slice_72_split -> cont_73_lstm1_cont_slice_72_split_0
INFO - 18:34:46 - cont_73_lstm1_cont_slice_72_split -> cont_73_lstm1_cont_slice_72_split_1
INFO - 18:34:46 - Setting up cont_73_lstm1_cont_slice_72_split
INFO - 18:34:46 - Top shape: 1 512 (512)
INFO - 18:34:46 - Top shape: 1 512 (512)
INFO - 18:34:46 - Memory required for data: 15781888
INFO - 18:34:46 - Creating layer / name=cont_74_lstm1_cont_slice_73_split / type=Split
INFO - 18:34:46 - Creating Layer cont_74_lstm1_cont_slice_73_split
INFO - 18:34:46 - cont_74_lstm1_cont_slice_73_split <- cont_74
INFO - 18:34:46 - cont_74_lstm1_cont_slice_73_split -> cont_74_lstm1_cont_slice_73_split_0
INFO - 18:34:46 - cont_74_lstm1_cont_slice_73_split -> cont_74_lstm1_cont_slice_73_split_1
INFO - 18:34:46 - Setting up cont_74_lstm1_cont_slice_73_split
INFO - 18:34:46 - Top shape: 1 512 (512)
INFO - 18:34:46 - Top shape: 1 512 (512)
INFO - 18:34:46 - Memory required for data: 15785984
INFO - 18:34:46 - Creating layer / name=cont_75_lstm1_cont_slice_74_split / type=Split
INFO - 18:34:46 - Creating Layer cont_75_lstm1_cont_slice_74_split
INFO - 18:34:46 - cont_75_lstm1_cont_slice_74_split <- cont_75
INFO - 18:34:46 - cont_75_lstm1_cont_slice_74_split -> cont_75_lstm1_cont_slice_74_split_0
INFO - 18:34:46 - cont_75_lstm1_cont_slice_74_split -> cont_75_lstm1_cont_slice_74_split_1
INFO - 18:34:46 - Setting up cont_75_lstm1_cont_slice_74_split
INFO - 18:34:46 - Top shape: 1 512 (512)
INFO - 18:34:46 - Top shape: 1 512 (512)
INFO - 18:34:46 - Memory required for data: 15790080
INFO - 18:34:46 - Creating layer / name=cont_76_lstm1_cont_slice_75_split / type=Split
INFO - 18:34:46 - Creating Layer cont_76_lstm1_cont_slice_75_split
INFO - 18:34:46 - cont_76_lstm1_cont_slice_75_split <- cont_76
INFO - 18:34:46 - cont_76_lstm1_cont_slice_75_split -> cont_76_lstm1_cont_slice_75_split_0
INFO - 18:34:46 - cont_76_lstm1_cont_slice_75_split -> cont_76_lstm1_cont_slice_75_split_1
INFO - 18:34:46 - Setting up cont_76_lstm1_cont_slice_75_split
INFO - 18:34:46 - Top shape: 1 512 (512)
INFO - 18:34:46 - Top shape: 1 512 (512)
INFO - 18:34:46 - Memory required for data: 15794176
INFO - 18:34:46 - Creating layer / name=cont_77_lstm1_cont_slice_76_split / type=Split
INFO - 18:34:46 - Creating Layer cont_77_lstm1_cont_slice_76_split
INFO - 18:34:46 - cont_77_lstm1_cont_slice_76_split <- cont_77
INFO - 18:34:46 - cont_77_lstm1_cont_slice_76_split -> cont_77_lstm1_cont_slice_76_split_0
INFO - 18:34:46 - cont_77_lstm1_cont_slice_76_split -> cont_77_lstm1_cont_slice_76_split_1
INFO - 18:34:46 - Setting up cont_77_lstm1_cont_slice_76_split
INFO - 18:34:46 - Top shape: 1 512 (512)
INFO - 18:34:46 - Top shape: 1 512 (512)
INFO - 18:34:46 - Memory required for data: 15798272
INFO - 18:34:46 - Creating layer / name=cont_78_lstm1_cont_slice_77_split / type=Split
INFO - 18:34:46 - Creating Layer cont_78_lstm1_cont_slice_77_split
INFO - 18:34:46 - cont_78_lstm1_cont_slice_77_split <- cont_78
INFO - 18:34:46 - cont_78_lstm1_cont_slice_77_split -> cont_78_lstm1_cont_slice_77_split_0
INFO - 18:34:46 - cont_78_lstm1_cont_slice_77_split -> cont_78_lstm1_cont_slice_77_split_1
INFO - 18:34:46 - Setting up cont_78_lstm1_cont_slice_77_split
INFO - 18:34:46 - Top shape: 1 512 (512)
INFO - 18:34:46 - Top shape: 1 512 (512)
INFO - 18:34:46 - Memory required for data: 15802368
INFO - 18:34:46 - Creating layer / name=cont_79_lstm1_cont_slice_78_split / type=Split
INFO - 18:34:46 - Creating Layer cont_79_lstm1_cont_slice_78_split
INFO - 18:34:46 - cont_79_lstm1_cont_slice_78_split <- cont_79
INFO - 18:34:46 - cont_79_lstm1_cont_slice_78_split -> cont_79_lstm1_cont_slice_78_split_0
INFO - 18:34:46 - cont_79_lstm1_cont_slice_78_split -> cont_79_lstm1_cont_slice_78_split_1
INFO - 18:34:46 - Setting up cont_79_lstm1_cont_slice_78_split
INFO - 18:34:46 - Top shape: 1 512 (512)
INFO - 18:34:46 - Top shape: 1 512 (512)
INFO - 18:34:46 - Memory required for data: 15806464
INFO - 18:34:46 - Creating layer / name=cont_80_lstm1_cont_slice_79_split / type=Split
INFO - 18:34:46 - Creating Layer cont_80_lstm1_cont_slice_79_split
INFO - 18:34:46 - cont_80_lstm1_cont_slice_79_split <- cont_80
INFO - 18:34:46 - cont_80_lstm1_cont_slice_79_split -> cont_80_lstm1_cont_slice_79_split_0
INFO - 18:34:46 - cont_80_lstm1_cont_slice_79_split -> cont_80_lstm1_cont_slice_79_split_1
INFO - 18:34:46 - Setting up cont_80_lstm1_cont_slice_79_split
INFO - 18:34:46 - Top shape: 1 512 (512)
INFO - 18:34:46 - Top shape: 1 512 (512)
INFO - 18:34:46 - Memory required for data: 15810560
INFO - 18:34:46 - Creating layer / name=lstm1_x_transform / type=InnerProduct
INFO - 18:34:46 - Creating Layer lstm1_x_transform
INFO - 18:34:46 - lstm1_x_transform <- x
INFO - 18:34:46 - lstm1_x_transform -> W_xc_x
INFO - 18:34:46 - Setting up lstm1_x_transform
INFO - 18:34:46 - Top shape: 80 512 400 (16384000)
INFO - 18:34:46 - Memory required for data: 81346560
INFO - 18:34:46 - Creating layer / name=lstm1_W_xc_x_slice / type=Slice
INFO - 18:34:46 - Creating Layer lstm1_W_xc_x_slice
INFO - 18:34:46 - lstm1_W_xc_x_slice <- W_xc_x
INFO - 18:34:46 - lstm1_W_xc_x_slice -> W_xc_x_1
INFO - 18:34:46 - lstm1_W_xc_x_slice -> W_xc_x_2
INFO - 18:34:46 - lstm1_W_xc_x_slice -> W_xc_x_3
INFO - 18:34:46 - lstm1_W_xc_x_slice -> W_xc_x_4
…
INFO - 18:34:46 - lstm1_W_xc_x_slice -> W_xc_x_70
INFO - 18:34:46 - lstm1_W_xc_x_slice -> W_xc_x_71
INFO - 18:34:46 - lstm1_W_xc_x_slice -> W_xc_x_72
INFO - 18:34:46 - lstm1_W_xc_x_slice -> W_xc_x_73
INFO - 18:34:46 - lstm1_W_xc_x_slice -> W_xc_x_74
INFO - 18:34:46 - lstm1_W_xc_x_slice -> W_xc_x_75
INFO - 18:34:46 - lstm1_W_xc_x_slice -> W_xc_x_76
INFO - 18:34:46 - lstm1_W_xc_x_slice -> W_xc_x_77
INFO - 18:34:46 - lstm1_W_xc_x_slice -> W_xc_x_78
INFO - 18:34:46 - lstm1_W_xc_x_slice -> W_xc_x_79
INFO - 18:34:46 - lstm1_W_xc_x_slice -> W_xc_x_80
INFO - 18:34:46 - Setting up lstm1_W_xc_x_slice
INFO - 18:34:46 - Top shape: 1 512 400 (204800)
INFO - 18:34:46 - Top shape: 1 512 400 (204800)
INFO - 18:34:46 - Top shape: 1 512 400 (204800)
INFO - 18:34:46 - Top shape: 1 512 400 (204800)
INFO - 18:34:46 - Top shape: 1 512 400 (204800)
INFO - 18:34:46 - Top shape: 1 512 400 (204800)
INFO - 18:34:46 - Top shape: 1 512 400 (204800)
INFO - 18:34:46 - Top shape: 1 512 400 (204800)
INFO - 18:34:46 - Top shape: 1 512 400 (204800)
INFO - 18:34:46 - Top shape: 1 512 400 (204800)
INFO - 18:34:46 - Top shape: 1 512 400 (204800)
INFO - 18:34:46 - Top shape: 1 512 400 (204800)
INFO - 18:34:46 - Top shape: 1 512 400 (204800)
INFO - 18:34:46 - Top shape: 1 512 400 (204800)
INFO - 18:34:46 - Top shape: 1 512 400 (204800)
INFO - 18:34:46 - Top shape: 1 512 400 (204800)
INFO - 18:34:46 - Top shape: 1 512 400 (204800)
INFO - 18:34:46 - Top shape: 1 512 400 (204800)
INFO - 18:34:46 - Top shape: 1 512 400 (204800)
INFO - 18:34:46 - Top shape: 1 512 400 (204800)
INFO - 18:34:46 - Top shape: 1 512 400 (204800)
INFO - 18:34:46 - Top shape: 1 512 400 (204800)
INFO - 18:34:46 - Top shape: 1 512 400 (204800)
INFO - 18:34:46 - Top shape: 1 512 400 (204800)
INFO - 18:34:46 - Top shape: 1 512 400 (204800)
INFO - 18:34:46 - Top shape: 1 512 400 (204800)
INFO - 18:34:46 - Top shape: 1 512 400 (204800)
INFO - 18:34:46 - Top shape: 1 512 400 (204800)
INFO - 18:34:46 - Top shape: 1 512 400 (204800)
INFO - 18:34:46 - Top shape: 1 512 400 (204800)
INFO - 18:34:46 - Top shape: 1 512 400 (204800)
INFO - 18:34:46 - Top shape: 1 512 400 (204800)
INFO - 18:34:46 - Top shape: 1 512 400 (204800)
INFO - 18:34:46 - Top shape: 1 512 400 (204800)
INFO - 18:34:46 - Top shape: 1 512 400 (204800)
INFO - 18:34:46 - Top shape: 1 512 400 (204800)
INFO - 18:34:46 - Top shape: 1 512 400 (204800)
INFO - 18:34:46 - Top shape: 1 512 400 (204800)
INFO - 18:34:46 - Top shape: 1 512 400 (204800)
INFO - 18:34:46 - Top shape: 1 512 400 (204800)
INFO - 18:34:46 - Top shape: 1 512 400 (204800)
INFO - 18:34:46 - Top shape: 1 512 400 (204800)
INFO - 18:34:46 - Top shape: 1 512 400 (204800)
INFO - 18:34:46 - Top shape: 1 512 400 (204800)
INFO - 18:34:46 - Top shape: 1 512 400 (204800)
INFO - 18:34:46 - Top shape: 1 512 400 (204800)
INFO - 18:34:46 - Top shape: 1 512 400 (204800)
INFO - 18:34:46 - Top shape: 1 512 400 (204800)
INFO - 18:34:46 - Top shape: 1 512 400 (204800)
INFO - 18:34:46 - Top shape: 1 512 400 (204800)
INFO - 18:34:46 - Top shape: 1 512 400 (204800)
INFO - 18:34:46 - Top shape: 1 512 400 (204800)
INFO - 18:34:46 - Top shape: 1 512 400 (204800)
INFO - 18:34:46 - Top shape: 1 512 400 (204800)
INFO - 18:34:46 - Top shape: 1 512 400 (204800)
INFO - 18:34:46 - Top shape: 1 512 400 (204800)
INFO - 18:34:46 - Top shape: 1 512 400 (204800)
INFO - 18:34:46 - Top shape: 1 512 400 (204800)
INFO - 18:34:46 - Top shape: 1 512 400 (204800)
INFO - 18:34:46 - Top shape: 1 512 400 (204800)
INFO - 18:34:46 - Top shape: 1 512 400 (204800)
INFO - 18:34:46 - Top shape: 1 512 400 (204800)
INFO - 18:34:46 - Top shape: 1 512 400 (204800)
INFO - 18:34:46 - Top shape: 1 512 400 (204800)
INFO - 18:34:46 - Top shape: 1 512 400 (204800)
INFO - 18:34:46 - Top shape: 1 512 400 (204800)
INFO - 18:34:46 - Top shape: 1 512 400 (204800)
INFO - 18:34:46 - Top shape: 1 512 400 (204800)
INFO - 18:34:46 - Top shape: 1 512 400 (204800)
INFO - 18:34:46 - Top shape: 1 512 400 (204800)
INFO - 18:34:46 - Top shape: 1 512 400 (204800)
INFO - 18:34:46 - Top shape: 1 512 400 (204800)
INFO - 18:34:46 - Top shape: 1 512 400 (204800)
INFO - 18:34:46 - Top shape: 1 512 400 (204800)
INFO - 18:34:46 - Top shape: 1 512 400 (204800)
INFO - 18:34:46 - Top shape: 1 512 400 (204800)
INFO - 18:34:46 - Top shape: 1 512 400 (204800)
INFO - 18:34:46 - Top shape: 1 512 400 (204800)
INFO - 18:34:46 - Top shape: 1 512 400 (204800)
INFO - 18:34:46 - Top shape: 1 512 400 (204800)
INFO - 18:34:46 - Memory required for data: 146882560
INFO - 18:34:46 - Creating layer / name=lstm1_h_conted_0 / type=Scale
INFO - 18:34:46 - Creating Layer lstm1_h_conted_0
INFO - 18:34:46 - lstm1_h_conted_0 <- h_0
INFO - 18:34:46 - lstm1_h_conted_0 <- cont_1_lstm1_cont_slice_0_split_0
INFO - 18:34:46 - lstm1_h_conted_0 -> h_conted_0
INFO - 18:34:46 - Setting up lstm1_h_conted_0
INFO - 18:34:46 - Top shape: 1 512 100 (51200)
INFO - 18:34:46 - Memory required for data: 147087360
INFO - 18:34:46 - Creating layer / name=lstm1_transform_1 / type=InnerProduct
INFO - 18:34:46 - Creating Layer lstm1_transform_1
INFO - 18:34:46 - lstm1_transform_1 <- h_conted_0
INFO - 18:34:46 - lstm1_transform_1 -> W_hc_h_0
INFO - 18:34:46 - Setting up lstm1_transform_1
INFO - 18:34:46 - Top shape: 1 512 400 (204800)
INFO - 18:34:46 - Memory required for data: 147906560
INFO - 18:34:46 - Creating layer / name=lstm1_gate_input_1 / type=Eltwise
INFO - 18:34:46 - Creating Layer lstm1_gate_input_1
INFO - 18:34:46 - lstm1_gate_input_1 <- W_hc_h_0
INFO - 18:34:46 - lstm1_gate_input_1 <- W_xc_x_1
INFO - 18:34:46 - lstm1_gate_input_1 -> gate_input_1
INFO - 18:34:46 - Setting up lstm1_gate_input_1
INFO - 18:34:46 - Top shape: 1 512 400 (204800)
INFO - 18:34:46 - Memory required for data: 148725760
INFO - 18:34:46 - Creating layer / name=lstm1_unit_1 / type=LSTMUnit
INFO - 18:34:46 - Creating Layer lstm1_unit_1
INFO - 18:34:46 - lstm1_unit_1 <- c_0
INFO - 18:34:46 - lstm1_unit_1 <- gate_input_1
INFO - 18:34:46 - lstm1_unit_1 <- cont_1_lstm1_cont_slice_0_split_1
INFO - 18:34:46 - lstm1_unit_1 -> c_1
INFO - 18:34:46 - lstm1_unit_1 -> h_1
INFO - 18:34:46 - Setting up lstm1_unit_1
INFO - 18:34:46 - Top shape: 1 512 100 (51200)
INFO - 18:34:46 - Top shape: 1 512 100 (51200)
INFO - 18:34:46 - Memory required for data: 149135360
INFO - 18:34:46 - Creating layer / name=h_1_lstm1_unit_1_1_split / type=Split
INFO - 18:34:46 - Creating Layer h_1_lstm1_unit_1_1_split
INFO - 18:34:46 - h_1_lstm1_unit_1_1_split <- h_1
INFO - 18:34:46 - h_1_lstm1_unit_1_1_split -> h_1_lstm1_unit_1_1_split_0
INFO - 18:34:46 - h_1_lstm1_unit_1_1_split -> h_1_lstm1_unit_1_1_split_1
INFO - 18:34:46 - Setting up h_1_lstm1_unit_1_1_split
INFO - 18:34:46 - Top shape: 1 512 100 (51200)
INFO - 18:34:46 - Top shape: 1 512 100 (51200)
INFO - 18:34:46 - Memory required for data: 149544960
INFO - 18:34:46 - Creating layer / name=lstm1_h_conted_1 / type=Scale
INFO - 18:34:46 - Creating Layer lstm1_h_conted_1
INFO - 18:34:46 - lstm1_h_conted_1 <- h_1_lstm1_unit_1_1_split_0
INFO - 18:34:46 - lstm1_h_conted_1 <- cont_2_lstm1_cont_slice_1_split_0
INFO - 18:34:46 - lstm1_h_conted_1 -> h_conted_1
INFO - 18:34:46 - Setting up lstm1_h_conted_1
INFO - 18:34:46 - Top shape: 1 512 100 (51200)
INFO - 18:34:46 - Memory required for data: 149749760
INFO - 18:34:46 - Creating layer / name=lstm1_transform_2 / type=InnerProduct
INFO - 18:34:46 - Creating Layer lstm1_transform_2
INFO - 18:34:46 - lstm1_transform_2 <- h_conted_1
INFO - 18:34:46 - lstm1_transform_2 -> W_hc_h_1
INFO - 18:34:46 - Setting up lstm1_transform_2
INFO - 18:34:46 - Top shape: 1 512 400 (204800)
INFO - 18:34:46 - Memory required for data: 150568960
INFO - 18:34:46 - Sharing parameters 'W_hc' owned by layer 'lstm1_transform_1', param index 0
INFO - 18:34:46 - Creating layer / name=lstm1_gate_input_2 / type=Eltwise
INFO - 18:34:46 - Creating Layer lstm1_gate_input_2
INFO - 18:34:46 - lstm1_gate_input_2 <- W_hc_h_1
INFO - 18:34:46 - lstm1_gate_input_2 <- W_xc_x_2
INFO - 18:34:46 - lstm1_gate_input_2 -> gate_input_2
INFO - 18:34:46 - Setting up lstm1_gate_input_2
INFO - 18:34:46 - Top shape: 1 512 400 (204800)
INFO - 18:34:46 - Memory required for data: 151388160
INFO - 18:34:46 - Creating layer / name=lstm1_unit_2 / type=LSTMUnit
INFO - 18:34:46 - Creating Layer lstm1_unit_2
INFO - 18:34:46 - lstm1_unit_2 <- c_1
INFO - 18:34:46 - lstm1_unit_2 <- gate_input_2
INFO - 18:34:46 - lstm1_unit_2 <- cont_2_lstm1_cont_slice_1_split_1
INFO - 18:34:46 - lstm1_unit_2 -> c_2
INFO - 18:34:46 - lstm1_unit_2 -> h_2
INFO - 18:34:46 - Setting up lstm1_unit_2
INFO - 18:34:46 - Top shape: 1 512 100 (51200)
INFO - 18:34:46 - Top shape: 1 512 100 (51200)
INFO - 18:34:46 - Memory required for data: 151797760
INFO - 18:34:46 - Creating layer / name=h_2_lstm1_unit_2_1_split / type=Split
INFO - 18:34:46 - Creating Layer h_2_lstm1_unit_2_1_split
INFO - 18:34:46 - h_2_lstm1_unit_2_1_split <- h_2
INFO - 18:34:46 - h_2_lstm1_unit_2_1_split -> h_2_lstm1_unit_2_1_split_0
INFO - 18:34:46 - h_2_lstm1_unit_2_1_split -> h_2_lstm1_unit_2_1_split_1
INFO - 18:34:46 - Setting up h_2_lstm1_unit_2_1_split
INFO - 18:34:46 - Top shape: 1 512 100 (51200)
INFO - 18:34:46 - Top shape: 1 512 100 (51200)
INFO - 18:34:46 - Memory required for data: 152207360
INFO - 18:34:46 - Creating layer / name=lstm1_h_conted_2 / type=Scale
INFO - 18:34:46 - Creating Layer lstm1_h_conted_2
INFO - 18:34:46 - lstm1_h_conted_2 <- h_2_lstm1_unit_2_1_split_0
INFO - 18:34:46 - lstm1_h_conted_2 <- cont_3_lstm1_cont_slice_2_split_0
INFO - 18:34:46 - lstm1_h_conted_2 -> h_conted_2
INFO - 18:34:46 - Setting up lstm1_h_conted_2
INFO - 18:34:46 - Top shape: 1 512 100 (51200)
INFO - 18:34:46 - Memory required for data: 152412160
INFO - 18:34:46 - Creating layer / name=lstm1_transform_3 / type=InnerProduct
INFO - 18:34:46 - Creating Layer lstm1_transform_3
INFO - 18:34:46 - lstm1_transform_3 <- h_conted_2
INFO - 18:34:46 - lstm1_transform_3 -> W_hc_h_2
INFO - 18:34:46 - Setting up lstm1_transform_3
INFO - 18:34:46 - Top shape: 1 512 400 (204800)
INFO - 18:34:46 - Memory required for data: 153231360
INFO - 18:34:46 - Sharing parameters 'W_hc' owned by layer 'lstm1_transform_1', param index 0
INFO - 18:34:46 - Creating layer / name=lstm1_gate_input_3 / type=Eltwise
INFO - 18:34:46 - Creating Layer lstm1_gate_input_3
INFO - 18:34:46 - lstm1_gate_input_3 <- W_hc_h_2
INFO - 18:34:46 - lstm1_gate_input_3 <- W_xc_x_3
INFO - 18:34:46 - lstm1_gate_input_3 -> gate_input_3
INFO - 18:34:46 - Setting up lstm1_gate_input_3
INFO - 18:34:46 - Top shape: 1 512 400 (204800)
INFO - 18:34:46 - Memory required for data: 154050560
INFO - 18:34:46 - Creating layer / name=lstm1_unit_3 / type=LSTMUnit
INFO - 18:34:46 - Creating Layer lstm1_unit_3
INFO - 18:34:46 - lstm1_unit_3 <- c_2
INFO - 18:34:46 - lstm1_unit_3 <- gate_input_3
INFO - 18:34:46 - lstm1_unit_3 <- cont_3_lstm1_cont_slice_2_split_1
INFO - 18:34:46 - lstm1_unit_3 -> c_3
INFO - 18:34:46 - lstm1_unit_3 -> h_3
INFO - 18:34:46 - Setting up lstm1_unit_3
INFO - 18:34:46 - Top shape: 1 512 100 (51200)
INFO - 18:34:46 - Top shape: 1 512 100 (51200)
INFO - 18:34:46 - Memory required for data: 154460160
INFO - 18:34:46 - Creating layer / name=h_3_lstm1_unit_3_1_split / type=Split
INFO - 18:34:46 - Creating Layer h_3_lstm1_unit_3_1_split
INFO - 18:34:46 - h_3_lstm1_unit_3_1_split <- h_3
INFO - 18:34:46 - h_3_lstm1_unit_3_1_split -> h_3_lstm1_unit_3_1_split_0
INFO - 18:34:46 - h_3_lstm1_unit_3_1_split -> h_3_lstm1_unit_3_1_split_1
INFO - 18:34:46 - Setting up h_3_lstm1_unit_3_1_split
INFO - 18:34:46 - Top shape: 1 512 100 (51200)
INFO - 18:34:46 - Top shape: 1 512 100 (51200)
INFO - 18:34:46 - Memory required for data: 154869760
INFO - 18:34:46 - Creating layer / name=lstm1_h_conted_3 / type=Scale
INFO - 18:34:46 - Creating Layer lstm1_h_conted_3
INFO - 18:34:46 - lstm1_h_conted_3 <- h_3_lstm1_unit_3_1_split_0
INFO - 18:34:46 - lstm1_h_conted_3 <- cont_4_lstm1_cont_slice_3_split_0
INFO - 18:34:46 - lstm1_h_conted_3 -> h_conted_3
INFO - 18:34:46 - Setting up lstm1_h_conted_3
INFO - 18:34:46 - Top shape: 1 512 100 (51200)
INFO - 18:34:46 - Memory required for data: 155074560
INFO - 18:34:46 - Creating layer / name=lstm1_transform_4 / type=InnerProduct
INFO - 18:34:46 - Creating Layer lstm1_transform_4
INFO - 18:34:46 - lstm1_transform_4 <- h_conted_3
INFO - 18:34:46 - lstm1_transform_4 -> W_hc_h_3
INFO - 18:34:46 - Setting up lstm1_transform_4
INFO - 18:34:46 - Top shape: 1 512 400 (204800)
INFO - 18:34:46 - Memory required for data: 155893760
INFO - 18:34:46 - Sharing parameters 'W_hc' owned by layer 'lstm1_transform_1', param index 0
INFO - 18:34:46 - Creating layer / name=lstm1_gate_input_4 / type=Eltwise
INFO - 18:34:46 - Creating Layer lstm1_gate_input_4
INFO - 18:34:46 - lstm1_gate_input_4 <- W_hc_h_3
INFO - 18:34:46 - lstm1_gate_input_4 <- W_xc_x_4
INFO - 18:34:46 - lstm1_gate_input_4 -> gate_input_4
INFO - 18:34:46 - Setting up lstm1_gate_input_4
INFO - 18:34:46 - Top shape: 1 512 400 (204800)
INFO - 18:34:46 - Memory required for data: 156712960
INFO - 18:34:46 - Creating layer / name=lstm1_unit_4 / type=LSTMUnit
INFO - 18:34:46 - Creating Layer lstm1_unit_4
INFO - 18:34:46 - lstm1_unit_4 <- c_3
INFO - 18:34:46 - lstm1_unit_4 <- gate_input_4
INFO - 18:34:46 - lstm1_unit_4 <- cont_4_lstm1_cont_slice_3_split_1
INFO - 18:34:46 - lstm1_unit_4 -> c_4
INFO - 18:34:46 - lstm1_unit_4 -> h_4
INFO - 18:34:46 - Setting up lstm1_unit_4
INFO - 18:34:46 - Top shape: 1 512 100 (51200)
INFO - 18:34:46 - Top shape: 1 512 100 (51200)
INFO - 18:34:46 - Memory required for data: 157122560
INFO - 18:34:46 - Creating layer / name=h_4_lstm1_unit_4_1_split / type=Split
INFO - 18:34:46 - Creating Layer h_4_lstm1_unit_4_1_split
INFO - 18:34:46 - h_4_lstm1_unit_4_1_split <- h_4
INFO - 18:34:46 - h_4_lstm1_unit_4_1_split -> h_4_lstm1_unit_4_1_split_0
INFO - 18:34:46 - h_4_lstm1_unit_4_1_split -> h_4_lstm1_unit_4_1_split_1
INFO - 18:34:46 - Setting up h_4_lstm1_unit_4_1_split
INFO - 18:34:46 - Top shape: 1 512 100 (51200)
INFO - 18:34:46 - Top shape: 1 512 100 (51200)
INFO - 18:34:46 - Memory required for data: 157532160
INFO - 18:34:46 - Creating layer / name=lstm1_h_conted_4 / type=Scale
INFO - 18:34:46 - Creating Layer lstm1_h_conted_4
INFO - 18:34:46 - lstm1_h_conted_4 <- h_4_lstm1_unit_4_1_split_0
INFO - 18:34:46 - lstm1_h_conted_4 <- cont_5_lstm1_cont_slice_4_split_0
INFO - 18:34:46 - lstm1_h_conted_4 -> h_conted_4
INFO - 18:34:46 - Setting up lstm1_h_conted_4
INFO - 18:34:46 - Top shape: 1 512 100 (51200)
INFO - 18:34:46 - Memory required for data: 157736960
INFO - 18:34:46 - Creating layer / name=lstm1_transform_5 / type=InnerProduct
INFO - 18:34:46 - Creating Layer lstm1_transform_5
INFO - 18:34:46 - lstm1_transform_5 <- h_conted_4
INFO - 18:34:46 - lstm1_transform_5 -> W_hc_h_4
INFO - 18:34:46 - Setting up lstm1_transform_5
INFO - 18:34:46 - Top shape: 1 512 400 (204800)
INFO - 18:34:46 - Memory required for data: 158556160
INFO - 18:34:46 - Sharing parameters 'W_hc' owned by layer 'lstm1_transform_1', param index 0
INFO - 18:34:46 - Creating layer / name=lstm1_gate_input_5 / type=Eltwise
INFO - 18:34:46 - Creating Layer lstm1_gate_input_5
INFO - 18:34:46 - lstm1_gate_input_5 <- W_hc_h_4
INFO - 18:34:46 - lstm1_gate_input_5 <- W_xc_x_5
INFO - 18:34:46 - lstm1_gate_input_5 -> gate_input_5
INFO - 18:34:46 - Setting up lstm1_gate_input_5
INFO - 18:34:46 - Top shape: 1 512 400 (204800)
INFO - 18:34:46 - Memory required for data: 159375360
INFO - 18:34:46 - Creating layer / name=lstm1_unit_5 / type=LSTMUnit
INFO - 18:34:46 - Creating Layer lstm1_unit_5
INFO - 18:34:46 - lstm1_unit_5 <- c_4
INFO - 18:34:46 - lstm1_unit_5 <- gate_input_5
INFO - 18:34:46 - lstm1_unit_5 <- cont_5_lstm1_cont_slice_4_split_1
INFO - 18:34:46 - lstm1_unit_5 -> c_5
INFO - 18:34:46 - lstm1_unit_5 -> h_5
INFO - 18:34:46 - Setting up lstm1_unit_5
INFO - 18:34:46 - Top shape: 1 512 100 (51200)
INFO - 18:34:46 - Top shape: 1 512 100 (51200)
INFO - 18:34:46 - Memory required for data: 159784960
INFO - 18:34:46 - Creating layer / name=h_5_lstm1_unit_5_1_split / type=Split
INFO - 18:34:46 - Creating Layer h_5_lstm1_unit_5_1_split
INFO - 18:34:46 - h_5_lstm1_unit_5_1_split <- h_5
INFO - 18:34:46 - h_5_lstm1_unit_5_1_split -> h_5_lstm1_unit_5_1_split_0
INFO - 18:34:46 - h_5_lstm1_unit_5_1_split -> h_5_lstm1_unit_5_1_split_1
INFO - 18:34:46 - Setting up h_5_lstm1_unit_5_1_split
INFO - 18:34:46 - Top shape: 1 512 100 (51200)
INFO - 18:34:46 - Top shape: 1 512 100 (51200)
INFO - 18:34:46 - Memory required for data: 160194560
INFO - 18:34:46 - Creating layer / name=lstm1_h_conted_5 / type=Scale
INFO - 18:34:46 - Creating Layer lstm1_h_conted_5
INFO - 18:34:46 - lstm1_h_conted_5 <- h_5_lstm1_unit_5_1_split_0
INFO - 18:34:46 - lstm1_h_conted_5 <- cont_6_lstm1_cont_slice_5_split_0
INFO - 18:34:46 - lstm1_h_conted_5 -> h_conted_5
INFO - 18:34:46 - Setting up lstm1_h_conted_5
INFO - 18:34:46 - Top shape: 1 512 100 (51200)
INFO - 18:34:46 - Memory required for data: 160399360
INFO - 18:34:46 - Creating layer / name=lstm1_transform_6 / type=InnerProduct
INFO - 18:34:46 - Creating Layer lstm1_transform_6
INFO - 18:34:46 - lstm1_transform_6 <- h_conted_5
INFO - 18:34:46 - lstm1_transform_6 -> W_hc_h_5
INFO - 18:34:46 - Setting up lstm1_transform_6
INFO - 18:34:46 - Top shape: 1 512 400 (204800)
INFO - 18:34:46 - Memory required for data: 161218560
INFO - 18:34:46 - Sharing parameters 'W_hc' owned by layer 'lstm1_transform_1', param index 0
INFO - 18:34:46 - Creating layer / name=lstm1_gate_input_6 / type=Eltwise
INFO - 18:34:46 - Creating Layer lstm1_gate_input_6
INFO - 18:34:46 - lstm1_gate_input_6 <- W_hc_h_5
INFO - 18:34:46 - lstm1_gate_input_6 <- W_xc_x_6
INFO - 18:34:46 - lstm1_gate_input_6 -> gate_input_6
INFO - 18:34:46 - Setting up lstm1_gate_input_6
INFO - 18:34:46 - Top shape: 1 512 400 (204800)
INFO - 18:34:46 - Memory required for data: 162037760
INFO - 18:34:46 - Creating layer / name=lstm1_unit_6 / type=LSTMUnit
INFO - 18:34:46 - Creating Layer lstm1_unit_6
INFO - 18:34:46 - lstm1_unit_6 <- c_5
INFO - 18:34:46 - lstm1_unit_6 <- gate_input_6
INFO - 18:34:46 - lstm1_unit_6 <- cont_6_lstm1_cont_slice_5_split_1
INFO - 18:34:46 - lstm1_unit_6 -> c_6
INFO - 18:34:46 - lstm1_unit_6 -> h_6
INFO - 18:34:46 - Setting up lstm1_unit_6
INFO - 18:34:46 - Top shape: 1 512 100 (51200)
INFO - 18:34:46 - Top shape: 1 512 100 (51200)
INFO - 18:34:46 - Memory required for data: 162447360
INFO - 18:34:46 - Creating layer / name=h_6_lstm1_unit_6_1_split / type=Split
INFO - 18:34:46 - Creating Layer h_6_lstm1_unit_6_1_split
INFO - 18:34:46 - h_6_lstm1_unit_6_1_split <- h_6
INFO - 18:34:46 - h_6_lstm1_unit_6_1_split -> h_6_lstm1_unit_6_1_split_0
INFO - 18:34:46 - h_6_lstm1_unit_6_1_split -> h_6_lstm1_unit_6_1_split_1
INFO - 18:34:46 - Setting up h_6_lstm1_unit_6_1_split
INFO - 18:34:46 - Top shape: 1 512 100 (51200)
INFO - 18:34:46 - Top shape: 1 512 100 (51200)
INFO - 18:34:46 - Memory required for data: 162856960
INFO - 18:34:46 - Creating layer / name=lstm1_h_conted_6 / type=Scale
INFO - 18:34:46 - Creating Layer lstm1_h_conted_6
INFO - 18:34:46 - lstm1_h_conted_6 <- h_6_lstm1_unit_6_1_split_0
INFO - 18:34:46 - lstm1_h_conted_6 <- cont_7_lstm1_cont_slice_6_split_0
INFO - 18:34:46 - lstm1_h_conted_6 -> h_conted_6
INFO - 18:34:46 - Setting up lstm1_h_conted_6
INFO - 18:34:46 - Top shape: 1 512 100 (51200)
INFO - 18:34:46 - Memory required for data: 163061760
INFO - 18:34:46 - Creating layer / name=lstm1_transform_7 / type=InnerProduct
INFO - 18:34:46 - Creating Layer lstm1_transform_7
INFO - 18:34:46 - lstm1_transform_7 <- h_conted_6
INFO - 18:34:46 - lstm1_transform_7 -> W_hc_h_6
INFO - 18:34:46 - Setting up lstm1_transform_7
INFO - 18:34:46 - Top shape: 1 512 400 (204800)
INFO - 18:34:46 - Memory required for data: 163880960
INFO - 18:34:46 - Sharing parameters 'W_hc' owned by layer 'lstm1_transform_1', param index 0
INFO - 18:34:46 - Creating layer / name=lstm1_gate_input_7 / type=Eltwise
INFO - 18:34:46 - Creating Layer lstm1_gate_input_7
INFO - 18:34:46 - lstm1_gate_input_7 <- W_hc_h_6
INFO - 18:34:46 - lstm1_gate_input_7 <- W_xc_x_7
INFO - 18:34:46 - lstm1_gate_input_7 -> gate_input_7
INFO - 18:34:46 - Setting up lstm1_gate_input_7
INFO - 18:34:46 - Top shape: 1 512 400 (204800)
INFO - 18:34:46 - Memory required for data: 164700160
INFO - 18:34:46 - Creating layer / name=lstm1_unit_7 / type=LSTMUnit
INFO - 18:34:46 - Creating Layer lstm1_unit_7
INFO - 18:34:46 - lstm1_unit_7 <- c_6
INFO - 18:34:46 - lstm1_unit_7 <- gate_input_7
INFO - 18:34:46 - lstm1_unit_7 <- cont_7_lstm1_cont_slice_6_split_1
INFO - 18:34:46 - lstm1_unit_7 -> c_7
INFO - 18:34:46 - lstm1_unit_7 -> h_7
INFO - 18:34:46 - Setting up lstm1_unit_7
INFO - 18:34:46 - Top shape: 1 512 100 (51200)
INFO - 18:34:46 - Top shape: 1 512 100 (51200)
INFO - 18:34:46 - Memory required for data: 165109760
INFO - 18:34:46 - Creating layer / name=h_7_lstm1_unit_7_1_split / type=Split
INFO - 18:34:46 - Creating Layer h_7_lstm1_unit_7_1_split
INFO - 18:34:46 - h_7_lstm1_unit_7_1_split <- h_7
INFO - 18:34:46 - h_7_lstm1_unit_7_1_split -> h_7_lstm1_unit_7_1_split_0
INFO - 18:34:46 - h_7_lstm1_unit_7_1_split -> h_7_lstm1_unit_7_1_split_1
INFO - 18:34:46 - Setting up h_7_lstm1_unit_7_1_split
INFO - 18:34:46 - Top shape: 1 512 100 (51200)
INFO - 18:34:46 - Top shape: 1 512 100 (51200)
INFO - 18:34:46 - Memory required for data: 165519360
INFO - 18:34:46 - Creating layer / name=lstm1_h_conted_7 / type=Scale
INFO - 18:34:46 - Creating Layer lstm1_h_conted_7
INFO - 18:34:46 - lstm1_h_conted_7 <- h_7_lstm1_unit_7_1_split_0
INFO - 18:34:46 - lstm1_h_conted_7 <- cont_8_lstm1_cont_slice_7_split_0
INFO - 18:34:46 - lstm1_h_conted_7 -> h_conted_7
INFO - 18:34:46 - Setting up lstm1_h_conted_7
INFO - 18:34:46 - Top shape: 1 512 100 (51200)
INFO - 18:34:46 - Memory required for data: 165724160
INFO - 18:34:46 - Creating layer / name=lstm1_transform_8 / type=InnerProduct
INFO - 18:34:46 - Creating Layer lstm1_transform_8
INFO - 18:34:46 - lstm1_transform_8 <- h_conted_7
INFO - 18:34:46 - lstm1_transform_8 -> W_hc_h_7
INFO - 18:34:46 - Setting up lstm1_transform_8
INFO - 18:34:46 - Top shape: 1 512 400 (204800)
INFO - 18:34:46 - Memory required for data: 166543360
INFO - 18:34:46 - Sharing parameters 'W_hc' owned by layer 'lstm1_transform_1', param index 0
INFO - 18:34:46 - Creating layer / name=lstm1_gate_input_8 / type=Eltwise
INFO - 18:34:46 - Creating Layer lstm1_gate_input_8
INFO - 18:34:46 - lstm1_gate_input_8 <- W_hc_h_7
INFO - 18:34:46 - lstm1_gate_input_8 <- W_xc_x_8
INFO - 18:34:46 - lstm1_gate_input_8 -> gate_input_8
INFO - 18:34:46 - Setting up lstm1_gate_input_8
INFO - 18:34:46 - Top shape: 1 512 400 (204800)
INFO - 18:34:46 - Memory required for data: 167362560
INFO - 18:34:46 - Creating layer / name=lstm1_unit_8 / type=LSTMUnit
INFO - 18:34:46 - Creating Layer lstm1_unit_8
INFO - 18:34:46 - lstm1_unit_8 <- c_7
INFO - 18:34:46 - lstm1_unit_8 <- gate_input_8
INFO - 18:34:46 - lstm1_unit_8 <- cont_8_lstm1_cont_slice_7_split_1
INFO - 18:34:46 - lstm1_unit_8 -> c_8
INFO - 18:34:46 - lstm1_unit_8 -> h_8
INFO - 18:34:46 - Setting up lstm1_unit_8
INFO - 18:34:46 - Top shape: 1 512 100 (51200)
INFO - 18:34:46 - Top shape: 1 512 100 (51200)
INFO - 18:34:46 - Memory required for data: 167772160
INFO - 18:34:46 - Creating layer / name=h_8_lstm1_unit_8_1_split / type=Split
INFO - 18:34:46 - Creating Layer h_8_lstm1_unit_8_1_split
INFO - 18:34:46 - h_8_lstm1_unit_8_1_split <- h_8
INFO - 18:34:46 - h_8_lstm1_unit_8_1_split -> h_8_lstm1_unit_8_1_split_0
INFO - 18:34:46 - h_8_lstm1_unit_8_1_split -> h_8_lstm1_unit_8_1_split_1
INFO - 18:34:46 - Setting up h_8_lstm1_unit_8_1_split
INFO - 18:34:46 - Top shape: 1 512 100 (51200)
INFO - 18:34:46 - Top shape: 1 512 100 (51200)
INFO - 18:34:46 - Memory required for data: 168181760
INFO - 18:34:46 - Creating layer / name=lstm1_h_conted_8 / type=Scale
INFO - 18:34:46 - Creating Layer lstm1_h_conted_8
INFO - 18:34:46 - lstm1_h_conted_8 <- h_8_lstm1_unit_8_1_split_0
INFO - 18:34:46 - lstm1_h_conted_8 <- cont_9_lstm1_cont_slice_8_split_0
INFO - 18:34:46 - lstm1_h_conted_8 -> h_conted_8
INFO - 18:34:46 - Setting up lstm1_h_conted_8
INFO - 18:34:46 - Top shape: 1 512 100 (51200)
INFO - 18:34:46 - Memory required for data: 168386560
INFO - 18:34:46 - Creating layer / name=lstm1_transform_9 / type=InnerProduct
INFO - 18:34:46 - Creating Layer lstm1_transform_9
INFO - 18:34:46 - lstm1_transform_9 <- h_conted_8
INFO - 18:34:46 - lstm1_transform_9 -> W_hc_h_8
INFO - 18:34:46 - Setting up lstm1_transform_9
INFO - 18:34:46 - Top shape: 1 512 400 (204800)
INFO - 18:34:46 - Memory required for data: 169205760
INFO - 18:34:46 - Sharing parameters 'W_hc' owned by layer 'lstm1_transform_1', param index 0
INFO - 18:34:46 - Creating layer / name=lstm1_gate_input_9 / type=Eltwise
INFO - 18:34:46 - Creating Layer lstm1_gate_input_9
INFO - 18:34:46 - lstm1_gate_input_9 <- W_hc_h_8
INFO - 18:34:46 - lstm1_gate_input_9 <- W_xc_x_9
INFO - 18:34:46 - lstm1_gate_input_9 -> gate_input_9
INFO - 18:34:46 - Setting up lstm1_gate_input_9
INFO - 18:34:46 - Top shape: 1 512 400 (204800)
INFO - 18:34:46 - Memory required for data: 170024960
INFO - 18:34:46 - Creating layer / name=lstm1_unit_9 / type=LSTMUnit
INFO - 18:34:46 - Creating Layer lstm1_unit_9
INFO - 18:34:46 - lstm1_unit_9 <- c_8
INFO - 18:34:46 - lstm1_unit_9 <- gate_input_9
INFO - 18:34:46 - lstm1_unit_9 <- cont_9_lstm1_cont_slice_8_split_1
INFO - 18:34:46 - lstm1_unit_9 -> c_9
INFO - 18:34:46 - lstm1_unit_9 -> h_9
INFO - 18:34:46 - Setting up lstm1_unit_9
INFO - 18:34:46 - Top shape: 1 512 100 (51200)
INFO - 18:34:46 - Top shape: 1 512 100 (51200)
INFO - 18:34:46 - Memory required for data: 170434560
INFO - 18:34:46 - Creating layer / name=h_9_lstm1_unit_9_1_split / type=Split
INFO - 18:34:46 - Creating Layer h_9_lstm1_unit_9_1_split
INFO - 18:34:46 - h_9_lstm1_unit_9_1_split <- h_9
INFO - 18:34:46 - h_9_lstm1_unit_9_1_split -> h_9_lstm1_unit_9_1_split_0
INFO - 18:34:46 - h_9_lstm1_unit_9_1_split -> h_9_lstm1_unit_9_1_split_1
INFO - 18:34:46 - Setting up h_9_lstm1_unit_9_1_split
INFO - 18:34:46 - Top shape: 1 512 100 (51200)
INFO - 18:34:46 - Top shape: 1 512 100 (51200)
INFO - 18:34:46 - Memory required for data: 170844160
INFO - 18:34:46 - Creating layer / name=lstm1_h_conted_9 / type=Scale
INFO - 18:34:46 - Creating Layer lstm1_h_conted_9
INFO - 18:34:46 - lstm1_h_conted_9 <- h_9_lstm1_unit_9_1_split_0
INFO - 18:34:46 - lstm1_h_conted_9 <- cont_10_lstm1_cont_slice_9_split_0
INFO - 18:34:46 - lstm1_h_conted_9 -> h_conted_9
INFO - 18:34:46 - Setting up lstm1_h_conted_9
INFO - 18:34:46 - Top shape: 1 512 100 (51200)
INFO - 18:34:46 - Memory required for data: 171048960
INFO - 18:34:46 - Creating layer / name=lstm1_transform_10 / type=InnerProduct
INFO - 18:34:46 - Creating Layer lstm1_transform_10
INFO - 18:34:46 - lstm1_transform_10 <- h_conted_9
INFO - 18:34:46 - lstm1_transform_10 -> W_hc_h_9
INFO - 18:34:46 - Setting up lstm1_transform_10
INFO - 18:34:46 - Top shape: 1 512 400 (204800)
INFO - 18:34:46 - Memory required for data: 171868160
INFO - 18:34:46 - Sharing parameters 'W_hc' owned by layer 'lstm1_transform_1', param index 0
INFO - 18:34:46 - Creating layer / name=lstm1_gate_input_10 / type=Eltwise
INFO - 18:34:46 - Creating Layer lstm1_gate_input_10
INFO - 18:34:46 - lstm1_gate_input_10 <- W_hc_h_9
INFO - 18:34:46 - lstm1_gate_input_10 <- W_xc_x_10
INFO - 18:34:46 - lstm1_gate_input_10 -> gate_input_10
INFO - 18:34:46 - Setting up lstm1_gate_input_10
INFO - 18:34:46 - Top shape: 1 512 400 (204800)
INFO - 18:34:46 - Memory required for data: 172687360
INFO - 18:34:46 - Creating layer / name=lstm1_unit_10 / type=LSTMUnit
INFO - 18:34:46 - Creating Layer lstm1_unit_10
INFO - 18:34:46 - lstm1_unit_10 <- c_9
INFO - 18:34:46 - lstm1_unit_10 <- gate_input_10
INFO - 18:34:46 - lstm1_unit_10 <- cont_10_lstm1_cont_slice_9_split_1
INFO - 18:34:46 - lstm1_unit_10 -> c_10
INFO - 18:34:46 - lstm1_unit_10 -> h_10
INFO - 18:34:46 - Setting up lstm1_unit_10
INFO - 18:34:46 - Top shape: 1 512 100 (51200)
INFO - 18:34:46 - Top shape: 1 512 100 (51200)
INFO - 18:34:46 - Memory required for data: 173096960
INFO - 18:34:46 - Creating layer / name=h_10_lstm1_unit_10_1_split / type=Split
INFO - 18:34:46 - Creating Layer h_10_lstm1_unit_10_1_split
INFO - 18:34:46 - h_10_lstm1_unit_10_1_split <- h_10
INFO - 18:34:46 - h_10_lstm1_unit_10_1_split -> h_10_lstm1_unit_10_1_split_0
INFO - 18:34:46 - h_10_lstm1_unit_10_1_split -> h_10_lstm1_unit_10_1_split_1
INFO - 18:34:46 - Setting up h_10_lstm1_unit_10_1_split
INFO - 18:34:46 - Top shape: 1 512 100 (51200)
INFO - 18:34:46 - Top shape: 1 512 100 (51200)
INFO - 18:34:46 - Memory required for data: 173506560
INFO - 18:34:46 - Creating layer / name=lstm1_h_conted_10 / type=Scale
INFO - 18:34:46 - Creating Layer lstm1_h_conted_10
INFO - 18:34:46 - lstm1_h_conted_10 <- h_10_lstm1_unit_10_1_split_0
INFO - 18:34:46 - lstm1_h_conted_10 <- cont_11_lstm1_cont_slice_10_split_0
INFO - 18:34:46 - lstm1_h_conted_10 -> h_conted_10
INFO - 18:34:46 - Setting up lstm1_h_conted_10
INFO - 18:34:46 - Top shape: 1 512 100 (51200)
INFO - 18:34:46 - Memory required for data: 173711360
INFO - 18:34:46 - Creating layer / name=lstm1_transform_11 / type=InnerProduct
INFO - 18:34:46 - Creating Layer lstm1_transform_11
INFO - 18:34:46 - lstm1_transform_11 <- h_conted_10
INFO - 18:34:46 - lstm1_transform_11 -> W_hc_h_10
INFO - 18:34:46 - Setting up lstm1_transform_11
INFO - 18:34:46 - Top shape: 1 512 400 (204800)
INFO - 18:34:46 - Memory required for data: 174530560
INFO - 18:34:46 - Sharing parameters 'W_hc' owned by layer 'lstm1_transform_1', param index 0
INFO - 18:34:46 - Creating layer / name=lstm1_gate_input_11 / type=Eltwise
INFO - 18:34:46 - Creating Layer lstm1_gate_input_11
INFO - 18:34:46 - lstm1_gate_input_11 <- W_hc_h_10
INFO - 18:34:46 - lstm1_gate_input_11 <- W_xc_x_11
INFO - 18:34:46 - lstm1_gate_input_11 -> gate_input_11
INFO - 18:34:46 - Setting up lstm1_gate_input_11
INFO - 18:34:46 - Top shape: 1 512 400 (204800)
INFO - 18:34:46 - Memory required for data: 175349760
INFO - 18:34:46 - Creating layer / name=lstm1_unit_11 / type=LSTMUnit
INFO - 18:34:46 - Creating Layer lstm1_unit_11
INFO - 18:34:46 - lstm1_unit_11 <- c_10
INFO - 18:34:46 - lstm1_unit_11 <- gate_input_11
INFO - 18:34:46 - lstm1_unit_11 <- cont_11_lstm1_cont_slice_10_split_1
INFO - 18:34:46 - lstm1_unit_11 -> c_11
INFO - 18:34:46 - lstm1_unit_11 -> h_11
INFO - 18:34:46 - Setting up lstm1_unit_11
INFO - 18:34:46 - Top shape: 1 512 100 (51200)
INFO - 18:34:46 - Top shape: 1 512 100 (51200)
INFO - 18:34:46 - Memory required for data: 175759360
INFO - 18:34:46 - Creating layer / name=h_11_lstm1_unit_11_1_split / type=Split
INFO - 18:34:46 - Creating Layer h_11_lstm1_unit_11_1_split
INFO - 18:34:46 - h_11_lstm1_unit_11_1_split <- h_11
INFO - 18:34:46 - h_11_lstm1_unit_11_1_split -> h_11_lstm1_unit_11_1_split_0
INFO - 18:34:46 - h_11_lstm1_unit_11_1_split -> h_11_lstm1_unit_11_1_split_1
INFO - 18:34:46 - Setting up h_11_lstm1_unit_11_1_split
INFO - 18:34:46 - Top shape: 1 512 100 (51200)
INFO - 18:34:46 - Top shape: 1 512 100 (51200)
INFO - 18:34:46 - Memory required for data: 176168960
INFO - 18:34:46 - Creating layer / name=lstm1_h_conted_11 / type=Scale
INFO - 18:34:46 - Creating Layer lstm1_h_conted_11
INFO - 18:34:46 - lstm1_h_conted_11 <- h_11_lstm1_unit_11_1_split_0
INFO - 18:34:46 - lstm1_h_conted_11 <- cont_12_lstm1_cont_slice_11_split_0
INFO - 18:34:46 - lstm1_h_conted_11 -> h_conted_11
INFO - 18:34:46 - Setting up lstm1_h_conted_11
INFO - 18:34:46 - Top shape: 1 512 100 (51200)
INFO - 18:34:46 - Memory required for data: 176373760
INFO - 18:34:46 - Creating layer / name=lstm1_transform_12 / type=InnerProduct
INFO - 18:34:46 - Creating Layer lstm1_transform_12
INFO - 18:34:46 - lstm1_transform_12 <- h_conted_11
INFO - 18:34:46 - lstm1_transform_12 -> W_hc_h_11
INFO - 18:34:46 - Setting up lstm1_transform_12
INFO - 18:34:46 - Top shape: 1 512 400 (204800)
INFO - 18:34:46 - Memory required for data: 177192960
INFO - 18:34:46 - Sharing parameters 'W_hc' owned by layer 'lstm1_transform_1', param index 0
INFO - 18:34:46 - Creating layer / name=lstm1_gate_input_12 / type=Eltwise
INFO - 18:34:46 - Creating Layer lstm1_gate_input_12
INFO - 18:34:46 - lstm1_gate_input_12 <- W_hc_h_11
INFO - 18:34:46 - lstm1_gate_input_12 <- W_xc_x_12
INFO - 18:34:46 - lstm1_gate_input_12 -> gate_input_12
INFO - 18:34:46 - Setting up lstm1_gate_input_12
INFO - 18:34:46 - Top shape: 1 512 400 (204800)
INFO - 18:34:46 - Memory required for data: 178012160
INFO - 18:34:46 - Creating layer / name=lstm1_unit_12 / type=LSTMUnit
INFO - 18:34:46 - Creating Layer lstm1_unit_12
INFO - 18:34:46 - lstm1_unit_12 <- c_11
INFO - 18:34:46 - lstm1_unit_12 <- gate_input_12
INFO - 18:34:46 - lstm1_unit_12 <- cont_12_lstm1_cont_slice_11_split_1
INFO - 18:34:46 - lstm1_unit_12 -> c_12
INFO - 18:34:46 - lstm1_unit_12 -> h_12
INFO - 18:34:46 - Setting up lstm1_unit_12
INFO - 18:34:46 - Top shape: 1 512 100 (51200)
INFO - 18:34:46 - Top shape: 1 512 100 (51200)
INFO - 18:34:46 - Memory required for data: 178421760
INFO - 18:34:46 - Creating layer / name=h_12_lstm1_unit_12_1_split / type=Split
INFO - 18:34:46 - Creating Layer h_12_lstm1_unit_12_1_split
INFO - 18:34:46 - h_12_lstm1_unit_12_1_split <- h_12
INFO - 18:34:46 - h_12_lstm1_unit_12_1_split -> h_12_lstm1_unit_12_1_split_0
INFO - 18:34:46 - h_12_lstm1_unit_12_1_split -> h_12_lstm1_unit_12_1_split_1
INFO - 18:34:46 - Setting up h_12_lstm1_unit_12_1_split
INFO - 18:34:46 - Top shape: 1 512 100 (51200)
INFO - 18:34:46 - Top shape: 1 512 100 (51200)
INFO - 18:34:46 - Memory required for data: 178831360
INFO - 18:34:46 - Creating layer / name=lstm1_h_conted_12 / type=Scale
INFO - 18:34:46 - Creating Layer lstm1_h_conted_12
INFO - 18:34:46 - lstm1_h_conted_12 <- h_12_lstm1_unit_12_1_split_0
INFO - 18:34:46 - lstm1_h_conted_12 <- cont_13_lstm1_cont_slice_12_split_0
INFO - 18:34:46 - lstm1_h_conted_12 -> h_conted_12
INFO - 18:34:46 - Setting up lstm1_h_conted_12
INFO - 18:34:46 - Top shape: 1 512 100 (51200)
INFO - 18:34:46 - Memory required for data: 179036160
INFO - 18:34:46 - Creating layer / name=lstm1_transform_13 / type=InnerProduct
INFO - 18:34:46 - Creating Layer lstm1_transform_13
INFO - 18:34:46 - lstm1_transform_13 <- h_conted_12
INFO - 18:34:46 - lstm1_transform_13 -> W_hc_h_12
INFO - 18:34:46 - Setting up lstm1_transform_13
INFO - 18:34:46 - Top shape: 1 512 400 (204800)
INFO - 18:34:46 - Memory required for data: 179855360
INFO - 18:34:46 - Sharing parameters 'W_hc' owned by layer 'lstm1_transform_1', param index 0
INFO - 18:34:46 - Creating layer / name=lstm1_gate_input_13 / type=Eltwise
INFO - 18:34:46 - Creating Layer lstm1_gate_input_13
INFO - 18:34:46 - lstm1_gate_input_13 <- W_hc_h_12
INFO - 18:34:46 - lstm1_gate_input_13 <- W_xc_x_13
INFO - 18:34:46 - lstm1_gate_input_13 -> gate_input_13
INFO - 18:34:46 - Setting up lstm1_gate_input_13
INFO - 18:34:46 - Top shape: 1 512 400 (204800)
INFO - 18:34:46 - Memory required for data: 180674560
INFO - 18:34:46 - Creating layer / name=lstm1_unit_13 / type=LSTMUnit
INFO - 18:34:46 - Creating Layer lstm1_unit_13
INFO - 18:34:46 - lstm1_unit_13 <- c_12
INFO - 18:34:46 - lstm1_unit_13 <- gate_input_13
INFO - 18:34:46 - lstm1_unit_13 <- cont_13_lstm1_cont_slice_12_split_1
INFO - 18:34:46 - lstm1_unit_13 -> c_13
INFO - 18:34:46 - lstm1_unit_13 -> h_13
INFO - 18:34:46 - Setting up lstm1_unit_13
INFO - 18:34:46 - Top shape: 1 512 100 (51200)
INFO - 18:34:46 - Top shape: 1 512 100 (51200)
INFO - 18:34:46 - Memory required for data: 181084160
INFO - 18:34:46 - Creating layer / name=h_13_lstm1_unit_13_1_split / type=Split
INFO - 18:34:46 - Creating Layer h_13_lstm1_unit_13_1_split
INFO - 18:34:46 - h_13_lstm1_unit_13_1_split <- h_13
INFO - 18:34:46 - h_13_lstm1_unit_13_1_split -> h_13_lstm1_unit_13_1_split_0
INFO - 18:34:46 - h_13_lstm1_unit_13_1_split -> h_13_lstm1_unit_13_1_split_1
INFO - 18:34:46 - Setting up h_13_lstm1_unit_13_1_split
INFO - 18:34:46 - Top shape: 1 512 100 (51200)
INFO - 18:34:46 - Top shape: 1 512 100 (51200)
INFO - 18:34:46 - Memory required for data: 181493760
INFO - 18:34:46 - Creating layer / name=lstm1_h_conted_13 / type=Scale
INFO - 18:34:46 - Creating Layer lstm1_h_conted_13
INFO - 18:34:46 - lstm1_h_conted_13 <- h_13_lstm1_unit_13_1_split_0
INFO - 18:34:46 - lstm1_h_conted_13 <- cont_14_lstm1_cont_slice_13_split_0
INFO - 18:34:46 - lstm1_h_conted_13 -> h_conted_13
INFO - 18:34:46 - Setting up lstm1_h_conted_13
INFO - 18:34:46 - Top shape: 1 512 100 (51200)
INFO - 18:34:46 - Memory required for data: 181698560
INFO - 18:34:46 - Creating layer / name=lstm1_transform_14 / type=InnerProduct
INFO - 18:34:46 - Creating Layer lstm1_transform_14
INFO - 18:34:46 - lstm1_transform_14 <- h_conted_13
INFO - 18:34:46 - lstm1_transform_14 -> W_hc_h_13
INFO - 18:34:46 - Setting up lstm1_transform_14
INFO - 18:34:46 - Top shape: 1 512 400 (204800)
INFO - 18:34:46 - Memory required for data: 182517760
INFO - 18:34:46 - Sharing parameters 'W_hc' owned by layer 'lstm1_transform_1', param index 0
INFO - 18:34:46 - Creating layer / name=lstm1_gate_input_14 / type=Eltwise
INFO - 18:34:46 - Creating Layer lstm1_gate_input_14
INFO - 18:34:46 - lstm1_gate_input_14 <- W_hc_h_13
INFO - 18:34:46 - lstm1_gate_input_14 <- W_xc_x_14
INFO - 18:34:46 - lstm1_gate_input_14 -> gate_input_14
INFO - 18:34:46 - Setting up lstm1_gate_input_14
INFO - 18:34:46 - Top shape: 1 512 400 (204800)
INFO - 18:34:46 - Memory required for data: 183336960
INFO - 18:34:46 - Creating layer / name=lstm1_unit_14 / type=LSTMUnit
INFO - 18:34:46 - Creating Layer lstm1_unit_14
INFO - 18:34:46 - lstm1_unit_14 <- c_13
INFO - 18:34:46 - lstm1_unit_14 <- gate_input_14
INFO - 18:34:46 - lstm1_unit_14 <- cont_14_lstm1_cont_slice_13_split_1
INFO - 18:34:46 - lstm1_unit_14 -> c_14
INFO - 18:34:46 - lstm1_unit_14 -> h_14
INFO - 18:34:46 - Setting up lstm1_unit_14
INFO - 18:34:46 - Top shape: 1 512 100 (51200)
INFO - 18:34:46 - Top shape: 1 512 100 (51200)
INFO - 18:34:46 - Memory required for data: 183746560
INFO - 18:34:46 - Creating layer / name=h_14_lstm1_unit_14_1_split / type=Split
INFO - 18:34:46 - Creating Layer h_14_lstm1_unit_14_1_split
INFO - 18:34:46 - h_14_lstm1_unit_14_1_split <- h_14
INFO - 18:34:46 - h_14_lstm1_unit_14_1_split -> h_14_lstm1_unit_14_1_split_0
INFO - 18:34:46 - h_14_lstm1_unit_14_1_split -> h_14_lstm1_unit_14_1_split_1
INFO - 18:34:46 - Setting up h_14_lstm1_unit_14_1_split
INFO - 18:34:46 - Top shape: 1 512 100 (51200)
INFO - 18:34:46 - Top shape: 1 512 100 (51200)
INFO - 18:34:46 - Memory required for data: 184156160
INFO - 18:34:46 - Creating layer / name=lstm1_h_conted_14 / type=Scale
INFO - 18:34:46 - Creating Layer lstm1_h_conted_14
INFO - 18:34:46 - lstm1_h_conted_14 <- h_14_lstm1_unit_14_1_split_0
INFO - 18:34:46 - lstm1_h_conted_14 <- cont_15_lstm1_cont_slice_14_split_0
INFO - 18:34:46 - lstm1_h_conted_14 -> h_conted_14
INFO - 18:34:46 - Setting up lstm1_h_conted_14
INFO - 18:34:46 - Top shape: 1 512 100 (51200)
INFO - 18:34:46 - Memory required for data: 184360960
INFO - 18:34:46 - Creating layer / name=lstm1_transform_15 / type=InnerProduct
INFO - 18:34:46 - Creating Layer lstm1_transform_15
INFO - 18:34:46 - lstm1_transform_15 <- h_conted_14
INFO - 18:34:46 - lstm1_transform_15 -> W_hc_h_14
INFO - 18:34:46 - Setting up lstm1_transform_15
INFO - 18:34:46 - Top shape: 1 512 400 (204800)
INFO - 18:34:46 - Memory required for data: 185180160
INFO - 18:34:46 - Sharing parameters 'W_hc' owned by layer 'lstm1_transform_1', param index 0
INFO - 18:34:46 - Creating layer / name=lstm1_gate_input_15 / type=Eltwise
INFO - 18:34:46 - Creating Layer lstm1_gate_input_15
INFO - 18:34:46 - lstm1_gate_input_15 <- W_hc_h_14
INFO - 18:34:46 - lstm1_gate_input_15 <- W_xc_x_15
INFO - 18:34:46 - lstm1_gate_input_15 -> gate_input_15
INFO - 18:34:46 - Setting up lstm1_gate_input_15
INFO - 18:34:46 - Top shape: 1 512 400 (204800)
INFO - 18:34:46 - Memory required for data: 185999360
INFO - 18:34:46 - Creating layer / name=lstm1_unit_15 / type=LSTMUnit
INFO - 18:34:46 - Creating Layer lstm1_unit_15
INFO - 18:34:46 - lstm1_unit_15 <- c_14
INFO - 18:34:46 - lstm1_unit_15 <- gate_input_15
INFO - 18:34:46 - lstm1_unit_15 <- cont_15_lstm1_cont_slice_14_split_1
INFO - 18:34:46 - lstm1_unit_15 -> c_15
INFO - 18:34:46 - lstm1_unit_15 -> h_15
INFO - 18:34:46 - Setting up lstm1_unit_15
INFO - 18:34:46 - Top shape: 1 512 100 (51200)
INFO - 18:34:46 - Top shape: 1 512 100 (51200)
INFO - 18:34:46 - Memory required for data: 186408960
INFO - 18:34:46 - Creating layer / name=h_15_lstm1_unit_15_1_split / type=Split
INFO - 18:34:46 - Creating Layer h_15_lstm1_unit_15_1_split
INFO - 18:34:46 - h_15_lstm1_unit_15_1_split <- h_15
INFO - 18:34:46 - h_15_lstm1_unit_15_1_split -> h_15_lstm1_unit_15_1_split_0
INFO - 18:34:46 - h_15_lstm1_unit_15_1_split -> h_15_lstm1_unit_15_1_split_1
INFO - 18:34:46 - Setting up h_15_lstm1_unit_15_1_split
INFO - 18:34:46 - Top shape: 1 512 100 (51200)
INFO - 18:34:46 - Top shape: 1 512 100 (51200)
INFO - 18:34:46 - Memory required for data: 186818560
INFO - 18:34:46 - Creating layer / name=lstm1_h_conted_15 / type=Scale
INFO - 18:34:46 - Creating Layer lstm1_h_conted_15
INFO - 18:34:46 - lstm1_h_conted_15 <- h_15_lstm1_unit_15_1_split_0
INFO - 18:34:46 - lstm1_h_conted_15 <- cont_16_lstm1_cont_slice_15_split_0
INFO - 18:34:46 - lstm1_h_conted_15 -> h_conted_15
INFO - 18:34:46 - Setting up lstm1_h_conted_15
INFO - 18:34:46 - Top shape: 1 512 100 (51200)
INFO - 18:34:46 - Memory required for data: 187023360
INFO - 18:34:46 - Creating layer / name=lstm1_transform_16 / type=InnerProduct
INFO - 18:34:46 - Creating Layer lstm1_transform_16
INFO - 18:34:46 - lstm1_transform_16 <- h_conted_15
INFO - 18:34:46 - lstm1_transform_16 -> W_hc_h_15
INFO - 18:34:46 - Setting up lstm1_transform_16
INFO - 18:34:46 - Top shape: 1 512 400 (204800)
INFO - 18:34:46 - Memory required for data: 187842560
INFO - 18:34:46 - Sharing parameters 'W_hc' owned by layer 'lstm1_transform_1', param index 0
INFO - 18:34:46 - Creating layer / name=lstm1_gate_input_16 / type=Eltwise
INFO - 18:34:46 - Creating Layer lstm1_gate_input_16
INFO - 18:34:46 - lstm1_gate_input_16 <- W_hc_h_15
INFO - 18:34:46 - lstm1_gate_input_16 <- W_xc_x_16
INFO - 18:34:46 - lstm1_gate_input_16 -> gate_input_16
INFO - 18:34:46 - Setting up lstm1_gate_input_16
INFO - 18:34:46 - Top shape: 1 512 400 (204800)
INFO - 18:34:46 - Memory required for data: 188661760
INFO - 18:34:46 - Creating layer / name=lstm1_unit_16 / type=LSTMUnit
INFO - 18:34:46 - Creating Layer lstm1_unit_16
INFO - 18:34:46 - lstm1_unit_16 <- c_15
INFO - 18:34:46 - lstm1_unit_16 <- gate_input_16
INFO - 18:34:46 - lstm1_unit_16 <- cont_16_lstm1_cont_slice_15_split_1
INFO - 18:34:46 - lstm1_unit_16 -> c_16
INFO - 18:34:46 - lstm1_unit_16 -> h_16
INFO - 18:34:46 - Setting up lstm1_unit_16
INFO - 18:34:46 - Top shape: 1 512 100 (51200)
INFO - 18:34:46 - Top shape: 1 512 100 (51200)
INFO - 18:34:46 - Memory required for data: 189071360
INFO - 18:34:46 - Creating layer / name=h_16_lstm1_unit_16_1_split / type=Split
INFO - 18:34:46 - Creating Layer h_16_lstm1_unit_16_1_split
INFO - 18:34:46 - h_16_lstm1_unit_16_1_split <- h_16
INFO - 18:34:46 - h_16_lstm1_unit_16_1_split -> h_16_lstm1_unit_16_1_split_0
INFO - 18:34:46 - h_16_lstm1_unit_16_1_split -> h_16_lstm1_unit_16_1_split_1
INFO - 18:34:46 - Setting up h_16_lstm1_unit_16_1_split
INFO - 18:34:46 - Top shape: 1 512 100 (51200)
INFO - 18:34:46 - Top shape: 1 512 100 (51200)
INFO - 18:34:46 - Memory required for data: 189480960
INFO - 18:34:46 - Creating layer / name=lstm1_h_conted_16 / type=Scale
INFO - 18:34:46 - Creating Layer lstm1_h_conted_16
INFO - 18:34:46 - lstm1_h_conted_16 <- h_16_lstm1_unit_16_1_split_0
INFO - 18:34:46 - lstm1_h_conted_16 <- cont_17_lstm1_cont_slice_16_split_0
INFO - 18:34:46 - lstm1_h_conted_16 -> h_conted_16
INFO - 18:34:46 - Setting up lstm1_h_conted_16
INFO - 18:34:46 - Top shape: 1 512 100 (51200)
INFO - 18:34:46 - Memory required for data: 189685760
INFO - 18:34:46 - Creating layer / name=lstm1_transform_17 / type=InnerProduct
INFO - 18:34:46 - Creating Layer lstm1_transform_17
INFO - 18:34:46 - lstm1_transform_17 <- h_conted_16
INFO - 18:34:46 - lstm1_transform_17 -> W_hc_h_16
INFO - 18:34:46 - Setting up lstm1_transform_17
INFO - 18:34:46 - Top shape: 1 512 400 (204800)
INFO - 18:34:46 - Memory required for data: 190504960
INFO - 18:34:46 - Sharing parameters 'W_hc' owned by layer 'lstm1_transform_1', param index 0
INFO - 18:34:46 - Creating layer / name=lstm1_gate_input_17 / type=Eltwise
INFO - 18:34:46 - Creating Layer lstm1_gate_input_17
INFO - 18:34:46 - lstm1_gate_input_17 <- W_hc_h_16
INFO - 18:34:46 - lstm1_gate_input_17 <- W_xc_x_17
INFO - 18:34:46 - lstm1_gate_input_17 -> gate_input_17
INFO - 18:34:46 - Setting up lstm1_gate_input_17
INFO - 18:34:46 - Top shape: 1 512 400 (204800)
INFO - 18:34:46 - Memory required for data: 191324160
INFO - 18:34:46 - Creating layer / name=lstm1_unit_17 / type=LSTMUnit
INFO - 18:34:46 - Creating Layer lstm1_unit_17
INFO - 18:34:46 - lstm1_unit_17 <- c_16
INFO - 18:34:46 - lstm1_unit_17 <- gate_input_17
INFO - 18:34:46 - lstm1_unit_17 <- cont_17_lstm1_cont_slice_16_split_1
INFO - 18:34:46 - lstm1_unit_17 -> c_17
INFO - 18:34:46 - lstm1_unit_17 -> h_17
INFO - 18:34:46 - Setting up lstm1_unit_17
INFO - 18:34:46 - Top shape: 1 512 100 (51200)
INFO - 18:34:46 - Top shape: 1 512 100 (51200)
INFO - 18:34:46 - Memory required for data: 191733760
INFO - 18:34:46 - Creating layer / name=h_17_lstm1_unit_17_1_split / type=Split
INFO - 18:34:46 - Creating Layer h_17_lstm1_unit_17_1_split
INFO - 18:34:46 - h_17_lstm1_unit_17_1_split <- h_17
INFO - 18:34:46 - h_17_lstm1_unit_17_1_split -> h_17_lstm1_unit_17_1_split_0
INFO - 18:34:46 - h_17_lstm1_unit_17_1_split -> h_17_lstm1_unit_17_1_split_1
INFO - 18:34:46 - Setting up h_17_lstm1_unit_17_1_split
INFO - 18:34:46 - Top shape: 1 512 100 (51200)
INFO - 18:34:46 - Top shape: 1 512 100 (51200)
INFO - 18:34:46 - Memory required for data: 192143360
INFO - 18:34:46 - Creating layer / name=lstm1_h_conted_17 / type=Scale
INFO - 18:34:46 - Creating Layer lstm1_h_conted_17
INFO - 18:34:46 - lstm1_h_conted_17 <- h_17_lstm1_unit_17_1_split_0
INFO - 18:34:46 - lstm1_h_conted_17 <- cont_18_lstm1_cont_slice_17_split_0
INFO - 18:34:46 - lstm1_h_conted_17 -> h_conted_17
INFO - 18:34:46 - Setting up lstm1_h_conted_17
INFO - 18:34:46 - Top shape: 1 512 100 (51200)
INFO - 18:34:46 - Memory required for data: 192348160
INFO - 18:34:46 - Creating layer / name=lstm1_transform_18 / type=InnerProduct
INFO - 18:34:46 - Creating Layer lstm1_transform_18
INFO - 18:34:46 - lstm1_transform_18 <- h_conted_17
INFO - 18:34:46 - lstm1_transform_18 -> W_hc_h_17
INFO - 18:34:46 - Setting up lstm1_transform_18
INFO - 18:34:46 - Top shape: 1 512 400 (204800)
INFO - 18:34:46 - Memory required for data: 193167360
INFO - 18:34:46 - Sharing parameters 'W_hc' owned by layer 'lstm1_transform_1', param index 0
INFO - 18:34:46 - Creating layer / name=lstm1_gate_input_18 / type=Eltwise
INFO - 18:34:46 - Creating Layer lstm1_gate_input_18
INFO - 18:34:46 - lstm1_gate_input_18 <- W_hc_h_17
INFO - 18:34:46 - lstm1_gate_input_18 <- W_xc_x_18
INFO - 18:34:46 - lstm1_gate_input_18 -> gate_input_18
INFO - 18:34:46 - Setting up lstm1_gate_input_18
INFO - 18:34:46 - Top shape: 1 512 400 (204800)
INFO - 18:34:46 - Memory required for data: 193986560
INFO - 18:34:46 - Creating layer / name=lstm1_unit_18 / type=LSTMUnit
INFO - 18:34:46 - Creating Layer lstm1_unit_18
INFO - 18:34:46 - lstm1_unit_18 <- c_17
INFO - 18:34:46 - lstm1_unit_18 <- gate_input_18
INFO - 18:34:46 - lstm1_unit_18 <- cont_18_lstm1_cont_slice_17_split_1
INFO - 18:34:46 - lstm1_unit_18 -> c_18
INFO - 18:34:46 - lstm1_unit_18 -> h_18
INFO - 18:34:46 - Setting up lstm1_unit_18
INFO - 18:34:46 - Top shape: 1 512 100 (51200)
INFO - 18:34:46 - Top shape: 1 512 100 (51200)
INFO - 18:34:46 - Memory required for data: 194396160
INFO - 18:34:46 - Creating layer / name=h_18_lstm1_unit_18_1_split / type=Split
INFO - 18:34:46 - Creating Layer h_18_lstm1_unit_18_1_split
INFO - 18:34:46 - h_18_lstm1_unit_18_1_split <- h_18
INFO - 18:34:46 - h_18_lstm1_unit_18_1_split -> h_18_lstm1_unit_18_1_split_0
INFO - 18:34:46 - h_18_lstm1_unit_18_1_split -> h_18_lstm1_unit_18_1_split_1
INFO - 18:34:46 - Setting up h_18_lstm1_unit_18_1_split
INFO - 18:34:46 - Top shape: 1 512 100 (51200)
INFO - 18:34:46 - Top shape: 1 512 100 (51200)
INFO - 18:34:46 - Memory required for data: 194805760
INFO - 18:34:46 - Creating layer / name=lstm1_h_conted_18 / type=Scale
INFO - 18:34:46 - Creating Layer lstm1_h_conted_18
INFO - 18:34:46 - lstm1_h_conted_18 <- h_18_lstm1_unit_18_1_split_0
INFO - 18:34:46 - lstm1_h_conted_18 <- cont_19_lstm1_cont_slice_18_split_0
INFO - 18:34:46 - lstm1_h_conted_18 -> h_conted_18
INFO - 18:34:46 - Setting up lstm1_h_conted_18
INFO - 18:34:46 - Top shape: 1 512 100 (51200)
INFO - 18:34:46 - Memory required for data: 195010560
INFO - 18:34:46 - Creating layer / name=lstm1_transform_19 / type=InnerProduct
INFO - 18:34:46 - Creating Layer lstm1_transform_19
INFO - 18:34:46 - lstm1_transform_19 <- h_conted_18
INFO - 18:34:46 - lstm1_transform_19 -> W_hc_h_18
INFO - 18:34:46 - Setting up lstm1_transform_19
INFO - 18:34:46 - Top shape: 1 512 400 (204800)
INFO - 18:34:46 - Memory required for data: 195829760
INFO - 18:34:46 - Sharing parameters 'W_hc' owned by layer 'lstm1_transform_1', param index 0
INFO - 18:34:46 - Creating layer / name=lstm1_gate_input_19 / type=Eltwise
INFO - 18:34:46 - Creating Layer lstm1_gate_input_19
INFO - 18:34:46 - lstm1_gate_input_19 <- W_hc_h_18
INFO - 18:34:46 - lstm1_gate_input_19 <- W_xc_x_19
INFO - 18:34:46 - lstm1_gate_input_19 -> gate_input_19
INFO - 18:34:46 - Setting up lstm1_gate_input_19
INFO - 18:34:46 - Top shape: 1 512 400 (204800)
INFO - 18:34:46 - Memory required for data: 196648960
INFO - 18:34:46 - Creating layer / name=lstm1_unit_19 / type=LSTMUnit
INFO - 18:34:46 - Creating Layer lstm1_unit_19
INFO - 18:34:46 - lstm1_unit_19 <- c_18
INFO - 18:34:46 - lstm1_unit_19 <- gate_input_19
INFO - 18:34:46 - lstm1_unit_19 <- cont_19_lstm1_cont_slice_18_split_1
INFO - 18:34:46 - lstm1_unit_19 -> c_19
INFO - 18:34:46 - lstm1_unit_19 -> h_19
INFO - 18:34:46 - Setting up lstm1_unit_19
INFO - 18:34:46 - Top shape: 1 512 100 (51200)
INFO - 18:34:46 - Top shape: 1 512 100 (51200)
INFO - 18:34:46 - Memory required for data: 197058560
INFO - 18:34:46 - Creating layer / name=h_19_lstm1_unit_19_1_split / type=Split
INFO - 18:34:46 - Creating Layer h_19_lstm1_unit_19_1_split
INFO - 18:34:46 - h_19_lstm1_unit_19_1_split <- h_19
INFO - 18:34:46 - h_19_lstm1_unit_19_1_split -> h_19_lstm1_unit_19_1_split_0
INFO - 18:34:46 - h_19_lstm1_unit_19_1_split -> h_19_lstm1_unit_19_1_split_1
INFO - 18:34:46 - Setting up h_19_lstm1_unit_19_1_split
INFO - 18:34:46 - Top shape: 1 512 100 (51200)
INFO - 18:34:46 - Top shape: 1 512 100 (51200)
INFO - 18:34:46 - Memory required for data: 197468160
INFO - 18:34:46 - Creating layer / name=lstm1_h_conted_19 / type=Scale
INFO - 18:34:46 - Creating Layer lstm1_h_conted_19
INFO - 18:34:46 - lstm1_h_conted_19 <- h_19_lstm1_unit_19_1_split_0
INFO - 18:34:46 - lstm1_h_conted_19 <- cont_20_lstm1_cont_slice_19_split_0
INFO - 18:34:46 - lstm1_h_conted_19 -> h_conted_19
INFO - 18:34:46 - Setting up lstm1_h_conted_19
INFO - 18:34:46 - Top shape: 1 512 100 (51200)
INFO - 18:34:46 - Memory required for data: 197672960
INFO - 18:34:46 - Creating layer / name=lstm1_transform_20 / type=InnerProduct
INFO - 18:34:46 - Creating Layer lstm1_transform_20
INFO - 18:34:46 - lstm1_transform_20 <- h_conted_19
INFO - 18:34:46 - lstm1_transform_20 -> W_hc_h_19
INFO - 18:34:46 - Setting up lstm1_transform_20
INFO - 18:34:46 - Top shape: 1 512 400 (204800)
INFO - 18:34:46 - Memory required for data: 198492160
INFO - 18:34:46 - Sharing parameters 'W_hc' owned by layer 'lstm1_transform_1', param index 0
INFO - 18:34:46 - Creating layer / name=lstm1_gate_input_20 / type=Eltwise
INFO - 18:34:46 - Creating Layer lstm1_gate_input_20
INFO - 18:34:46 - lstm1_gate_input_20 <- W_hc_h_19
INFO - 18:34:46 - lstm1_gate_input_20 <- W_xc_x_20
INFO - 18:34:46 - lstm1_gate_input_20 -> gate_input_20
INFO - 18:34:46 - Setting up lstm1_gate_input_20
INFO - 18:34:46 - Top shape: 1 512 400 (204800)
INFO - 18:34:46 - Memory required for data: 199311360
INFO - 18:34:46 - Creating layer / name=lstm1_unit_20 / type=LSTMUnit
INFO - 18:34:46 - Creating Layer lstm1_unit_20
INFO - 18:34:46 - lstm1_unit_20 <- c_19
INFO - 18:34:46 - lstm1_unit_20 <- gate_input_20
INFO - 18:34:46 - lstm1_unit_20 <- cont_20_lstm1_cont_slice_19_split_1
INFO - 18:34:46 - lstm1_unit_20 -> c_20
INFO - 18:34:46 - lstm1_unit_20 -> h_20
INFO - 18:34:46 - Setting up lstm1_unit_20
INFO - 18:34:46 - Top shape: 1 512 100 (51200)
INFO - 18:34:46 - Top shape: 1 512 100 (51200)
INFO - 18:34:46 - Memory required for data: 199720960
INFO - 18:34:46 - Creating layer / name=h_20_lstm1_unit_20_1_split / type=Split
INFO - 18:34:46 - Creating Layer h_20_lstm1_unit_20_1_split
INFO - 18:34:46 - h_20_lstm1_unit_20_1_split <- h_20
INFO - 18:34:46 - h_20_lstm1_unit_20_1_split -> h_20_lstm1_unit_20_1_split_0
INFO - 18:34:46 - h_20_lstm1_unit_20_1_split -> h_20_lstm1_unit_20_1_split_1
INFO - 18:34:46 - Setting up h_20_lstm1_unit_20_1_split
INFO - 18:34:46 - Top shape: 1 512 100 (51200)
INFO - 18:34:46 - Top shape: 1 512 100 (51200)
INFO - 18:34:46 - Memory required for data: 200130560
INFO - 18:34:46 - Creating layer / name=lstm1_h_conted_20 / type=Scale
INFO - 18:34:46 - Creating Layer lstm1_h_conted_20
INFO - 18:34:46 - lstm1_h_conted_20 <- h_20_lstm1_unit_20_1_split_0
INFO - 18:34:46 - lstm1_h_conted_20 <- cont_21_lstm1_cont_slice_20_split_0
INFO - 18:34:46 - lstm1_h_conted_20 -> h_conted_20
INFO - 18:34:46 - Setting up lstm1_h_conted_20
INFO - 18:34:46 - Top shape: 1 512 100 (51200)
INFO - 18:34:46 - Memory required for data: 200335360
INFO - 18:34:46 - Creating layer / name=lstm1_transform_21 / type=InnerProduct
INFO - 18:34:46 - Creating Layer lstm1_transform_21
INFO - 18:34:46 - lstm1_transform_21 <- h_conted_20
INFO - 18:34:46 - lstm1_transform_21 -> W_hc_h_20
INFO - 18:34:46 - Setting up lstm1_transform_21
INFO - 18:34:46 - Top shape: 1 512 400 (204800)
INFO - 18:34:46 - Memory required for data: 201154560
INFO - 18:34:46 - Sharing parameters 'W_hc' owned by layer 'lstm1_transform_1', param index 0
INFO - 18:34:46 - Creating layer / name=lstm1_gate_input_21 / type=Eltwise
INFO - 18:34:46 - Creating Layer lstm1_gate_input_21
INFO - 18:34:46 - lstm1_gate_input_21 <- W_hc_h_20
INFO - 18:34:46 - lstm1_gate_input_21 <- W_xc_x_21
INFO - 18:34:46 - lstm1_gate_input_21 -> gate_input_21
INFO - 18:34:46 - Setting up lstm1_gate_input_21
INFO - 18:34:46 - Top shape: 1 512 400 (204800)
INFO - 18:34:46 - Memory required for data: 201973760
INFO - 18:34:46 - Creating layer / name=lstm1_unit_21 / type=LSTMUnit
INFO - 18:34:46 - Creating Layer lstm1_unit_21
INFO - 18:34:46 - lstm1_unit_21 <- c_20
INFO - 18:34:46 - lstm1_unit_21 <- gate_input_21
INFO - 18:34:46 - lstm1_unit_21 <- cont_21_lstm1_cont_slice_20_split_1
INFO - 18:34:46 - lstm1_unit_21 -> c_21
INFO - 18:34:46 - lstm1_unit_21 -> h_21
INFO - 18:34:46 - Setting up lstm1_unit_21
INFO - 18:34:46 - Top shape: 1 512 100 (51200)
INFO - 18:34:46 - Top shape: 1 512 100 (51200)
INFO - 18:34:46 - Memory required for data: 202383360
INFO - 18:34:46 - Creating layer / name=h_21_lstm1_unit_21_1_split / type=Split
INFO - 18:34:46 - Creating Layer h_21_lstm1_unit_21_1_split
INFO - 18:34:46 - h_21_lstm1_unit_21_1_split <- h_21
INFO - 18:34:46 - h_21_lstm1_unit_21_1_split -> h_21_lstm1_unit_21_1_split_0
INFO - 18:34:46 - h_21_lstm1_unit_21_1_split -> h_21_lstm1_unit_21_1_split_1
INFO - 18:34:46 - Setting up h_21_lstm1_unit_21_1_split
INFO - 18:34:46 - Top shape: 1 512 100 (51200)
INFO - 18:34:46 - Top shape: 1 512 100 (51200)
INFO - 18:34:46 - Memory required for data: 202792960
INFO - 18:34:46 - Creating layer / name=lstm1_h_conted_21 / type=Scale
INFO - 18:34:46 - Creating Layer lstm1_h_conted_21
INFO - 18:34:46 - lstm1_h_conted_21 <- h_21_lstm1_unit_21_1_split_0
INFO - 18:34:46 - lstm1_h_conted_21 <- cont_22_lstm1_cont_slice_21_split_0
INFO - 18:34:46 - lstm1_h_conted_21 -> h_conted_21
INFO - 18:34:46 - Setting up lstm1_h_conted_21
INFO - 18:34:46 - Top shape: 1 512 100 (51200)
INFO - 18:34:46 - Memory required for data: 202997760
INFO - 18:34:46 - Creating layer / name=lstm1_transform_22 / type=InnerProduct
INFO - 18:34:46 - Creating Layer lstm1_transform_22
INFO - 18:34:46 - lstm1_transform_22 <- h_conted_21
INFO - 18:34:46 - lstm1_transform_22 -> W_hc_h_21
INFO - 18:34:46 - Setting up lstm1_transform_22
INFO - 18:34:46 - Top shape: 1 512 400 (204800)
INFO - 18:34:46 - Memory required for data: 203816960
INFO - 18:34:46 - Sharing parameters 'W_hc' owned by layer 'lstm1_transform_1', param index 0
INFO - 18:34:46 - Creating layer / name=lstm1_gate_input_22 / type=Eltwise
INFO - 18:34:46 - Creating Layer lstm1_gate_input_22
INFO - 18:34:46 - lstm1_gate_input_22 <- W_hc_h_21
INFO - 18:34:46 - lstm1_gate_input_22 <- W_xc_x_22
INFO - 18:34:46 - lstm1_gate_input_22 -> gate_input_22
INFO - 18:34:46 - Setting up lstm1_gate_input_22
INFO - 18:34:46 - Top shape: 1 512 400 (204800)
INFO - 18:34:46 - Memory required for data: 204636160
INFO - 18:34:46 - Creating layer / name=lstm1_unit_22 / type=LSTMUnit
INFO - 18:34:46 - Creating Layer lstm1_unit_22
INFO - 18:34:46 - lstm1_unit_22 <- c_21
INFO - 18:34:46 - lstm1_unit_22 <- gate_input_22
INFO - 18:34:46 - lstm1_unit_22 <- cont_22_lstm1_cont_slice_21_split_1
INFO - 18:34:46 - lstm1_unit_22 -> c_22
INFO - 18:34:46 - lstm1_unit_22 -> h_22
INFO - 18:34:46 - Setting up lstm1_unit_22
INFO - 18:34:46 - Top shape: 1 512 100 (51200)
INFO - 18:34:46 - Top shape: 1 512 100 (51200)
INFO - 18:34:46 - Memory required for data: 205045760
INFO - 18:34:46 - Creating layer / name=h_22_lstm1_unit_22_1_split / type=Split
INFO - 18:34:46 - Creating Layer h_22_lstm1_unit_22_1_split
INFO - 18:34:46 - h_22_lstm1_unit_22_1_split <- h_22
INFO - 18:34:46 - h_22_lstm1_unit_22_1_split -> h_22_lstm1_unit_22_1_split_0
INFO - 18:34:46 - h_22_lstm1_unit_22_1_split -> h_22_lstm1_unit_22_1_split_1
INFO - 18:34:46 - Setting up h_22_lstm1_unit_22_1_split
INFO - 18:34:46 - Top shape: 1 512 100 (51200)
INFO - 18:34:46 - Top shape: 1 512 100 (51200)
INFO - 18:34:46 - Memory required for data: 205455360
INFO - 18:34:46 - Creating layer / name=lstm1_h_conted_22 / type=Scale
INFO - 18:34:46 - Creating Layer lstm1_h_conted_22
INFO - 18:34:46 - lstm1_h_conted_22 <- h_22_lstm1_unit_22_1_split_0
INFO - 18:34:46 - lstm1_h_conted_22 <- cont_23_lstm1_cont_slice_22_split_0
INFO - 18:34:46 - lstm1_h_conted_22 -> h_conted_22
INFO - 18:34:46 - Setting up lstm1_h_conted_22
INFO - 18:34:46 - Top shape: 1 512 100 (51200)
INFO - 18:34:46 - Memory required for data: 205660160
INFO - 18:34:46 - Creating layer / name=lstm1_transform_23 / type=InnerProduct
INFO - 18:34:46 - Creating Layer lstm1_transform_23
INFO - 18:34:46 - lstm1_transform_23 <- h_conted_22
INFO - 18:34:46 - lstm1_transform_23 -> W_hc_h_22
INFO - 18:34:46 - Setting up lstm1_transform_23
INFO - 18:34:46 - Top shape: 1 512 400 (204800)
INFO - 18:34:46 - Memory required for data: 206479360
INFO - 18:34:46 - Sharing parameters 'W_hc' owned by layer 'lstm1_transform_1', param index 0
INFO - 18:34:46 - Creating layer / name=lstm1_gate_input_23 / type=Eltwise
INFO - 18:34:46 - Creating Layer lstm1_gate_input_23
INFO - 18:34:46 - lstm1_gate_input_23 <- W_hc_h_22
INFO - 18:34:46 - lstm1_gate_input_23 <- W_xc_x_23
INFO - 18:34:46 - lstm1_gate_input_23 -> gate_input_23
INFO - 18:34:46 - Setting up lstm1_gate_input_23
INFO - 18:34:46 - Top shape: 1 512 400 (204800)
INFO - 18:34:46 - Memory required for data: 207298560
INFO - 18:34:46 - Creating layer / name=lstm1_unit_23 / type=LSTMUnit
INFO - 18:34:46 - Creating Layer lstm1_unit_23
INFO - 18:34:46 - lstm1_unit_23 <- c_22
INFO - 18:34:46 - lstm1_unit_23 <- gate_input_23
INFO - 18:34:46 - lstm1_unit_23 <- cont_23_lstm1_cont_slice_22_split_1
INFO - 18:34:46 - lstm1_unit_23 -> c_23
INFO - 18:34:46 - lstm1_unit_23 -> h_23
INFO - 18:34:46 - Setting up lstm1_unit_23
INFO - 18:34:46 - Top shape: 1 512 100 (51200)
INFO - 18:34:46 - Top shape: 1 512 100 (51200)
INFO - 18:34:46 - Memory required for data: 207708160
INFO - 18:34:46 - Creating layer / name=h_23_lstm1_unit_23_1_split / type=Split
INFO - 18:34:46 - Creating Layer h_23_lstm1_unit_23_1_split
INFO - 18:34:46 - h_23_lstm1_unit_23_1_split <- h_23
INFO - 18:34:46 - h_23_lstm1_unit_23_1_split -> h_23_lstm1_unit_23_1_split_0
INFO - 18:34:46 - h_23_lstm1_unit_23_1_split -> h_23_lstm1_unit_23_1_split_1
INFO - 18:34:46 - Setting up h_23_lstm1_unit_23_1_split
INFO - 18:34:46 - Top shape: 1 512 100 (51200)
INFO - 18:34:46 - Top shape: 1 512 100 (51200)
INFO - 18:34:46 - Memory required for data: 208117760
INFO - 18:34:46 - Creating layer / name=lstm1_h_conted_23 / type=Scale
INFO - 18:34:46 - Creating Layer lstm1_h_conted_23
INFO - 18:34:46 - lstm1_h_conted_23 <- h_23_lstm1_unit_23_1_split_0
INFO - 18:34:46 - lstm1_h_conted_23 <- cont_24_lstm1_cont_slice_23_split_0
INFO - 18:34:46 - lstm1_h_conted_23 -> h_conted_23
INFO - 18:34:46 - Setting up lstm1_h_conted_23
INFO - 18:34:46 - Top shape: 1 512 100 (51200)
INFO - 18:34:46 - Memory required for data: 208322560
INFO - 18:34:46 - Creating layer / name=lstm1_transform_24 / type=InnerProduct
INFO - 18:34:46 - Creating Layer lstm1_transform_24
INFO - 18:34:46 - lstm1_transform_24 <- h_conted_23
INFO - 18:34:46 - lstm1_transform_24 -> W_hc_h_23
INFO - 18:34:46 - Setting up lstm1_transform_24
INFO - 18:34:46 - Top shape: 1 512 400 (204800)
INFO - 18:34:46 - Memory required for data: 209141760
INFO - 18:34:46 - Sharing parameters 'W_hc' owned by layer 'lstm1_transform_1', param index 0
INFO - 18:34:46 - Creating layer / name=lstm1_gate_input_24 / type=Eltwise
INFO - 18:34:46 - Creating Layer lstm1_gate_input_24
INFO - 18:34:46 - lstm1_gate_input_24 <- W_hc_h_23
INFO - 18:34:46 - lstm1_gate_input_24 <- W_xc_x_24
INFO - 18:34:46 - lstm1_gate_input_24 -> gate_input_24
INFO - 18:34:46 - Setting up lstm1_gate_input_24
INFO - 18:34:46 - Top shape: 1 512 400 (204800)
INFO - 18:34:46 - Memory required for data: 209960960
INFO - 18:34:46 - Creating layer / name=lstm1_unit_24 / type=LSTMUnit
INFO - 18:34:46 - Creating Layer lstm1_unit_24
INFO - 18:34:46 - lstm1_unit_24 <- c_23
INFO - 18:34:46 - lstm1_unit_24 <- gate_input_24
INFO - 18:34:46 - lstm1_unit_24 <- cont_24_lstm1_cont_slice_23_split_1
INFO - 18:34:46 - lstm1_unit_24 -> c_24
INFO - 18:34:46 - lstm1_unit_24 -> h_24
INFO - 18:34:46 - Setting up lstm1_unit_24
INFO - 18:34:46 - Top shape: 1 512 100 (51200)
INFO - 18:34:46 - Top shape: 1 512 100 (51200)
INFO - 18:34:46 - Memory required for data: 210370560
INFO - 18:34:46 - Creating layer / name=h_24_lstm1_unit_24_1_split / type=Split
INFO - 18:34:46 - Creating Layer h_24_lstm1_unit_24_1_split
INFO - 18:34:46 - h_24_lstm1_unit_24_1_split <- h_24
INFO - 18:34:46 - h_24_lstm1_unit_24_1_split -> h_24_lstm1_unit_24_1_split_0
INFO - 18:34:46 - h_24_lstm1_unit_24_1_split -> h_24_lstm1_unit_24_1_split_1
INFO - 18:34:46 - Setting up h_24_lstm1_unit_24_1_split
INFO - 18:34:46 - Top shape: 1 512 100 (51200)
INFO - 18:34:46 - Top shape: 1 512 100 (51200)
INFO - 18:34:46 - Memory required for data: 210780160
INFO - 18:34:46 - Creating layer / name=lstm1_h_conted_24 / type=Scale
INFO - 18:34:46 - Creating Layer lstm1_h_conted_24
INFO - 18:34:46 - lstm1_h_conted_24 <- h_24_lstm1_unit_24_1_split_0
INFO - 18:34:46 - lstm1_h_conted_24 <- cont_25_lstm1_cont_slice_24_split_0
INFO - 18:34:46 - lstm1_h_conted_24 -> h_conted_24
INFO - 18:34:46 - Setting up lstm1_h_conted_24
INFO - 18:34:46 - Top shape: 1 512 100 (51200)
INFO - 18:34:46 - Memory required for data: 210984960
INFO - 18:34:46 - Creating layer / name=lstm1_transform_25 / type=InnerProduct
INFO - 18:34:46 - Creating Layer lstm1_transform_25
INFO - 18:34:46 - lstm1_transform_25 <- h_conted_24
INFO - 18:34:46 - lstm1_transform_25 -> W_hc_h_24
INFO - 18:34:46 - Setting up lstm1_transform_25
INFO - 18:34:46 - Top shape: 1 512 400 (204800)
INFO - 18:34:46 - Memory required for data: 211804160
INFO - 18:34:46 - Sharing parameters 'W_hc' owned by layer 'lstm1_transform_1', param index 0
INFO - 18:34:46 - Creating layer / name=lstm1_gate_input_25 / type=Eltwise
INFO - 18:34:46 - Creating Layer lstm1_gate_input_25
INFO - 18:34:46 - lstm1_gate_input_25 <- W_hc_h_24
INFO - 18:34:46 - lstm1_gate_input_25 <- W_xc_x_25
INFO - 18:34:46 - lstm1_gate_input_25 -> gate_input_25
INFO - 18:34:46 - Setting up lstm1_gate_input_25
INFO - 18:34:46 - Top shape: 1 512 400 (204800)
INFO - 18:34:46 - Memory required for data: 212623360
INFO - 18:34:46 - Creating layer / name=lstm1_unit_25 / type=LSTMUnit
INFO - 18:34:46 - Creating Layer lstm1_unit_25
INFO - 18:34:46 - lstm1_unit_25 <- c_24
INFO - 18:34:46 - lstm1_unit_25 <- gate_input_25
INFO - 18:34:46 - lstm1_unit_25 <- cont_25_lstm1_cont_slice_24_split_1
INFO - 18:34:46 - lstm1_unit_25 -> c_25
INFO - 18:34:46 - lstm1_unit_25 -> h_25
INFO - 18:34:46 - Setting up lstm1_unit_25
INFO - 18:34:46 - Top shape: 1 512 100 (51200)
INFO - 18:34:46 - Top shape: 1 512 100 (51200)
INFO - 18:34:46 - Memory required for data: 213032960
INFO - 18:34:46 - Creating layer / name=h_25_lstm1_unit_25_1_split / type=Split
INFO - 18:34:46 - Creating Layer h_25_lstm1_unit_25_1_split
INFO - 18:34:46 - h_25_lstm1_unit_25_1_split <- h_25
INFO - 18:34:46 - h_25_lstm1_unit_25_1_split -> h_25_lstm1_unit_25_1_split_0
INFO - 18:34:46 - h_25_lstm1_unit_25_1_split -> h_25_lstm1_unit_25_1_split_1
INFO - 18:34:46 - Setting up h_25_lstm1_unit_25_1_split
INFO - 18:34:46 - Top shape: 1 512 100 (51200)
INFO - 18:34:46 - Top shape: 1 512 100 (51200)
INFO - 18:34:46 - Memory required for data: 213442560
INFO - 18:34:46 - Creating layer / name=lstm1_h_conted_25 / type=Scale
INFO - 18:34:46 - Creating Layer lstm1_h_conted_25
INFO - 18:34:46 - lstm1_h_conted_25 <- h_25_lstm1_unit_25_1_split_0
INFO - 18:34:46 - lstm1_h_conted_25 <- cont_26_lstm1_cont_slice_25_split_0
INFO - 18:34:46 - lstm1_h_conted_25 -> h_conted_25
INFO - 18:34:46 - Setting up lstm1_h_conted_25
INFO - 18:34:46 - Top shape: 1 512 100 (51200)
INFO - 18:34:46 - Memory required for data: 213647360
INFO - 18:34:46 - Creating layer / name=lstm1_transform_26 / type=InnerProduct
INFO - 18:34:46 - Creating Layer lstm1_transform_26
INFO - 18:34:46 - lstm1_transform_26 <- h_conted_25
INFO - 18:34:46 - lstm1_transform_26 -> W_hc_h_25
INFO - 18:34:46 - Setting up lstm1_transform_26
INFO - 18:34:46 - Top shape: 1 512 400 (204800)
INFO - 18:34:46 - Memory required for data: 214466560
INFO - 18:34:46 - Sharing parameters 'W_hc' owned by layer 'lstm1_transform_1', param index 0
INFO - 18:34:46 - Creating layer / name=lstm1_gate_input_26 / type=Eltwise
INFO - 18:34:46 - Creating Layer lstm1_gate_input_26
INFO - 18:34:46 - lstm1_gate_input_26 <- W_hc_h_25
INFO - 18:34:46 - lstm1_gate_input_26 <- W_xc_x_26
INFO - 18:34:46 - lstm1_gate_input_26 -> gate_input_26
INFO - 18:34:46 - Setting up lstm1_gate_input_26
INFO - 18:34:46 - Top shape: 1 512 400 (204800)
INFO - 18:34:46 - Memory required for data: 215285760
INFO - 18:34:46 - Creating layer / name=lstm1_unit_26 / type=LSTMUnit
INFO - 18:34:46 - Creating Layer lstm1_unit_26
INFO - 18:34:46 - lstm1_unit_26 <- c_25
INFO - 18:34:46 - lstm1_unit_26 <- gate_input_26
INFO - 18:34:46 - lstm1_unit_26 <- cont_26_lstm1_cont_slice_25_split_1
INFO - 18:34:46 - lstm1_unit_26 -> c_26
INFO - 18:34:46 - lstm1_unit_26 -> h_26
INFO - 18:34:46 - Setting up lstm1_unit_26
INFO - 18:34:46 - Top shape: 1 512 100 (51200)
INFO - 18:34:46 - Top shape: 1 512 100 (51200)
INFO - 18:34:46 - Memory required for data: 215695360
INFO - 18:34:46 - Creating layer / name=h_26_lstm1_unit_26_1_split / type=Split
INFO - 18:34:46 - Creating Layer h_26_lstm1_unit_26_1_split
INFO - 18:34:46 - h_26_lstm1_unit_26_1_split <- h_26
INFO - 18:34:46 - h_26_lstm1_unit_26_1_split -> h_26_lstm1_unit_26_1_split_0
INFO - 18:34:46 - h_26_lstm1_unit_26_1_split -> h_26_lstm1_unit_26_1_split_1
INFO - 18:34:46 - Setting up h_26_lstm1_unit_26_1_split
INFO - 18:34:46 - Top shape: 1 512 100 (51200)
INFO - 18:34:46 - Top shape: 1 512 100 (51200)
INFO - 18:34:46 - Memory required for data: 216104960
INFO - 18:34:46 - Creating layer / name=lstm1_h_conted_26 / type=Scale
INFO - 18:34:46 - Creating Layer lstm1_h_conted_26
INFO - 18:34:46 - lstm1_h_conted_26 <- h_26_lstm1_unit_26_1_split_0
INFO - 18:34:46 - lstm1_h_conted_26 <- cont_27_lstm1_cont_slice_26_split_0
INFO - 18:34:46 - lstm1_h_conted_26 -> h_conted_26
INFO - 18:34:46 - Setting up lstm1_h_conted_26
INFO - 18:34:46 - Top shape: 1 512 100 (51200)
INFO - 18:34:46 - Memory required for data: 216309760
INFO - 18:34:46 - Creating layer / name=lstm1_transform_27 / type=InnerProduct
INFO - 18:34:46 - Creating Layer lstm1_transform_27
INFO - 18:34:46 - lstm1_transform_27 <- h_conted_26
INFO - 18:34:46 - lstm1_transform_27 -> W_hc_h_26
INFO - 18:34:46 - Setting up lstm1_transform_27
INFO - 18:34:46 - Top shape: 1 512 400 (204800)
INFO - 18:34:46 - Memory required for data: 217128960
INFO - 18:34:46 - Sharing parameters 'W_hc' owned by layer 'lstm1_transform_1', param index 0
INFO - 18:34:46 - Creating layer / name=lstm1_gate_input_27 / type=Eltwise
INFO - 18:34:46 - Creating Layer lstm1_gate_input_27
INFO - 18:34:46 - lstm1_gate_input_27 <- W_hc_h_26
INFO - 18:34:46 - lstm1_gate_input_27 <- W_xc_x_27
INFO - 18:34:46 - lstm1_gate_input_27 -> gate_input_27
INFO - 18:34:46 - Setting up lstm1_gate_input_27
INFO - 18:34:46 - Top shape: 1 512 400 (204800)
INFO - 18:34:46 - Memory required for data: 217948160
INFO - 18:34:46 - Creating layer / name=lstm1_unit_27 / type=LSTMUnit
INFO - 18:34:46 - Creating Layer lstm1_unit_27
INFO - 18:34:46 - lstm1_unit_27 <- c_26
INFO - 18:34:46 - lstm1_unit_27 <- gate_input_27
INFO - 18:34:46 - lstm1_unit_27 <- cont_27_lstm1_cont_slice_26_split_1
INFO - 18:34:46 - lstm1_unit_27 -> c_27
INFO - 18:34:46 - lstm1_unit_27 -> h_27
INFO - 18:34:46 - Setting up lstm1_unit_27
INFO - 18:34:46 - Top shape: 1 512 100 (51200)
INFO - 18:34:46 - Top shape: 1 512 100 (51200)
INFO - 18:34:46 - Memory required for data: 218357760
INFO - 18:34:46 - Creating layer / name=h_27_lstm1_unit_27_1_split / type=Split
INFO - 18:34:46 - Creating Layer h_27_lstm1_unit_27_1_split
INFO - 18:34:46 - h_27_lstm1_unit_27_1_split <- h_27
INFO - 18:34:46 - h_27_lstm1_unit_27_1_split -> h_27_lstm1_unit_27_1_split_0
INFO - 18:34:46 - h_27_lstm1_unit_27_1_split -> h_27_lstm1_unit_27_1_split_1
INFO - 18:34:46 - Setting up h_27_lstm1_unit_27_1_split
INFO - 18:34:46 - Top shape: 1 512 100 (51200)
INFO - 18:34:46 - Top shape: 1 512 100 (51200)
INFO - 18:34:46 - Memory required for data: 218767360
INFO - 18:34:46 - Creating layer / name=lstm1_h_conted_27 / type=Scale
INFO - 18:34:46 - Creating Layer lstm1_h_conted_27
INFO - 18:34:46 - lstm1_h_conted_27 <- h_27_lstm1_unit_27_1_split_0
INFO - 18:34:46 - lstm1_h_conted_27 <- cont_28_lstm1_cont_slice_27_split_0
INFO - 18:34:46 - lstm1_h_conted_27 -> h_conted_27
INFO - 18:34:46 - Setting up lstm1_h_conted_27
INFO - 18:34:46 - Top shape: 1 512 100 (51200)
INFO - 18:34:46 - Memory required for data: 218972160
INFO - 18:34:46 - Creating layer / name=lstm1_transform_28 / type=InnerProduct
INFO - 18:34:46 - Creating Layer lstm1_transform_28
INFO - 18:34:46 - lstm1_transform_28 <- h_conted_27
INFO - 18:34:46 - lstm1_transform_28 -> W_hc_h_27
INFO - 18:34:46 - Setting up lstm1_transform_28
INFO - 18:34:46 - Top shape: 1 512 400 (204800)
INFO - 18:34:46 - Memory required for data: 219791360
INFO - 18:34:46 - Sharing parameters 'W_hc' owned by layer 'lstm1_transform_1', param index 0
INFO - 18:34:46 - Creating layer / name=lstm1_gate_input_28 / type=Eltwise
INFO - 18:34:46 - Creating Layer lstm1_gate_input_28
INFO - 18:34:46 - lstm1_gate_input_28 <- W_hc_h_27
INFO - 18:34:46 - lstm1_gate_input_28 <- W_xc_x_28
INFO - 18:34:46 - lstm1_gate_input_28 -> gate_input_28
INFO - 18:34:46 - Setting up lstm1_gate_input_28
INFO - 18:34:46 - Top shape: 1 512 400 (204800)
INFO - 18:34:46 - Memory required for data: 220610560
INFO - 18:34:46 - Creating layer / name=lstm1_unit_28 / type=LSTMUnit
INFO - 18:34:46 - Creating Layer lstm1_unit_28
INFO - 18:34:46 - lstm1_unit_28 <- c_27
INFO - 18:34:46 - lstm1_unit_28 <- gate_input_28
INFO - 18:34:46 - lstm1_unit_28 <- cont_28_lstm1_cont_slice_27_split_1
INFO - 18:34:46 - lstm1_unit_28 -> c_28
INFO - 18:34:46 - lstm1_unit_28 -> h_28
INFO - 18:34:46 - Setting up lstm1_unit_28
INFO - 18:34:46 - Top shape: 1 512 100 (51200)
INFO - 18:34:46 - Top shape: 1 512 100 (51200)
INFO - 18:34:46 - Memory required for data: 221020160
INFO - 18:34:46 - Creating layer / name=h_28_lstm1_unit_28_1_split / type=Split
INFO - 18:34:46 - Creating Layer h_28_lstm1_unit_28_1_split
INFO - 18:34:46 - h_28_lstm1_unit_28_1_split <- h_28
INFO - 18:34:46 - h_28_lstm1_unit_28_1_split -> h_28_lstm1_unit_28_1_split_0
INFO - 18:34:46 - h_28_lstm1_unit_28_1_split -> h_28_lstm1_unit_28_1_split_1
INFO - 18:34:46 - Setting up h_28_lstm1_unit_28_1_split
INFO - 18:34:46 - Top shape: 1 512 100 (51200)
INFO - 18:34:46 - Top shape: 1 512 100 (51200)
INFO - 18:34:46 - Memory required for data: 221429760
INFO - 18:34:46 - Creating layer / name=lstm1_h_conted_28 / type=Scale
INFO - 18:34:46 - Creating Layer lstm1_h_conted_28
INFO - 18:34:46 - lstm1_h_conted_28 <- h_28_lstm1_unit_28_1_split_0
INFO - 18:34:46 - lstm1_h_conted_28 <- cont_29_lstm1_cont_slice_28_split_0
INFO - 18:34:46 - lstm1_h_conted_28 -> h_conted_28
INFO - 18:34:46 - Setting up lstm1_h_conted_28
INFO - 18:34:46 - Top shape: 1 512 100 (51200)
INFO - 18:34:46 - Memory required for data: 221634560
INFO - 18:34:46 - Creating layer / name=lstm1_transform_29 / type=InnerProduct
INFO - 18:34:46 - Creating Layer lstm1_transform_29
INFO - 18:34:46 - lstm1_transform_29 <- h_conted_28
INFO - 18:34:46 - lstm1_transform_29 -> W_hc_h_28
INFO - 18:34:46 - Setting up lstm1_transform_29
INFO - 18:34:46 - Top shape: 1 512 400 (204800)
INFO - 18:34:46 - Memory required for data: 222453760
INFO - 18:34:46 - Sharing parameters 'W_hc' owned by layer 'lstm1_transform_1', param index 0
INFO - 18:34:46 - Creating layer / name=lstm1_gate_input_29 / type=Eltwise
INFO - 18:34:46 - Creating Layer lstm1_gate_input_29
INFO - 18:34:46 - lstm1_gate_input_29 <- W_hc_h_28
INFO - 18:34:46 - lstm1_gate_input_29 <- W_xc_x_29
INFO - 18:34:46 - lstm1_gate_input_29 -> gate_input_29
INFO - 18:34:46 - Setting up lstm1_gate_input_29
INFO - 18:34:46 - Top shape: 1 512 400 (204800)
INFO - 18:34:46 - Memory required for data: 223272960
INFO - 18:34:46 - Creating layer / name=lstm1_unit_29 / type=LSTMUnit
INFO - 18:34:46 - Creating Layer lstm1_unit_29
INFO - 18:34:46 - lstm1_unit_29 <- c_28
INFO - 18:34:46 - lstm1_unit_29 <- gate_input_29
INFO - 18:34:46 - lstm1_unit_29 <- cont_29_lstm1_cont_slice_28_split_1
INFO - 18:34:46 - lstm1_unit_29 -> c_29
INFO - 18:34:46 - lstm1_unit_29 -> h_29
INFO - 18:34:46 - Setting up lstm1_unit_29
INFO - 18:34:46 - Top shape: 1 512 100 (51200)
INFO - 18:34:46 - Top shape: 1 512 100 (51200)
INFO - 18:34:46 - Memory required for data: 223682560
INFO - 18:34:46 - Creating layer / name=h_29_lstm1_unit_29_1_split / type=Split
INFO - 18:34:46 - Creating Layer h_29_lstm1_unit_29_1_split
INFO - 18:34:46 - h_29_lstm1_unit_29_1_split <- h_29
INFO - 18:34:46 - h_29_lstm1_unit_29_1_split -> h_29_lstm1_unit_29_1_split_0
INFO - 18:34:46 - h_29_lstm1_unit_29_1_split -> h_29_lstm1_unit_29_1_split_1
INFO - 18:34:46 - Setting up h_29_lstm1_unit_29_1_split
INFO - 18:34:46 - Top shape: 1 512 100 (51200)
INFO - 18:34:46 - Top shape: 1 512 100 (51200)
INFO - 18:34:46 - Memory required for data: 224092160
INFO - 18:34:46 - Creating layer / name=lstm1_h_conted_29 / type=Scale
INFO - 18:34:46 - Creating Layer lstm1_h_conted_29
INFO - 18:34:46 - lstm1_h_conted_29 <- h_29_lstm1_unit_29_1_split_0
INFO - 18:34:46 - lstm1_h_conted_29 <- cont_30_lstm1_cont_slice_29_split_0
INFO - 18:34:46 - lstm1_h_conted_29 -> h_conted_29
INFO - 18:34:46 - Setting up lstm1_h_conted_29
INFO - 18:34:46 - Top shape: 1 512 100 (51200)
INFO - 18:34:46 - Memory required for data: 224296960
INFO - 18:34:46 - Creating layer / name=lstm1_transform_30 / type=InnerProduct
INFO - 18:34:46 - Creating Layer lstm1_transform_30
INFO - 18:34:46 - lstm1_transform_30 <- h_conted_29
INFO - 18:34:46 - lstm1_transform_30 -> W_hc_h_29
INFO - 18:34:46 - Setting up lstm1_transform_30
INFO - 18:34:46 - Top shape: 1 512 400 (204800)
INFO - 18:34:46 - Memory required for data: 225116160
INFO - 18:34:46 - Sharing parameters 'W_hc' owned by layer 'lstm1_transform_1', param index 0
INFO - 18:34:46 - Creating layer / name=lstm1_gate_input_30 / type=Eltwise
INFO - 18:34:46 - Creating Layer lstm1_gate_input_30
INFO - 18:34:46 - lstm1_gate_input_30 <- W_hc_h_29
INFO - 18:34:46 - lstm1_gate_input_30 <- W_xc_x_30
INFO - 18:34:46 - lstm1_gate_input_30 -> gate_input_30
INFO - 18:34:46 - Setting up lstm1_gate_input_30
INFO - 18:34:46 - Top shape: 1 512 400 (204800)
INFO - 18:34:46 - Memory required for data: 225935360
INFO - 18:34:46 - Creating layer / name=lstm1_unit_30 / type=LSTMUnit
INFO - 18:34:46 - Creating Layer lstm1_unit_30
INFO - 18:34:46 - lstm1_unit_30 <- c_29
INFO - 18:34:46 - lstm1_unit_30 <- gate_input_30
INFO - 18:34:46 - lstm1_unit_30 <- cont_30_lstm1_cont_slice_29_split_1
INFO - 18:34:46 - lstm1_unit_30 -> c_30
INFO - 18:34:46 - lstm1_unit_30 -> h_30
INFO - 18:34:46 - Setting up lstm1_unit_30
INFO - 18:34:46 - Top shape: 1 512 100 (51200)
INFO - 18:34:46 - Top shape: 1 512 100 (51200)
INFO - 18:34:46 - Memory required for data: 226344960
INFO - 18:34:46 - Creating layer / name=h_30_lstm1_unit_30_1_split / type=Split
INFO - 18:34:46 - Creating Layer h_30_lstm1_unit_30_1_split
INFO - 18:34:46 - h_30_lstm1_unit_30_1_split <- h_30
INFO - 18:34:46 - h_30_lstm1_unit_30_1_split -> h_30_lstm1_unit_30_1_split_0
INFO - 18:34:46 - h_30_lstm1_unit_30_1_split -> h_30_lstm1_unit_30_1_split_1
INFO - 18:34:46 - Setting up h_30_lstm1_unit_30_1_split
INFO - 18:34:46 - Top shape: 1 512 100 (51200)
INFO - 18:34:46 - Top shape: 1 512 100 (51200)
INFO - 18:34:46 - Memory required for data: 226754560
INFO - 18:34:46 - Creating layer / name=lstm1_h_conted_30 / type=Scale
INFO - 18:34:46 - Creating Layer lstm1_h_conted_30
INFO - 18:34:46 - lstm1_h_conted_30 <- h_30_lstm1_unit_30_1_split_0
INFO - 18:34:46 - lstm1_h_conted_30 <- cont_31_lstm1_cont_slice_30_split_0
INFO - 18:34:46 - lstm1_h_conted_30 -> h_conted_30
INFO - 18:34:46 - Setting up lstm1_h_conted_30
INFO - 18:34:46 - Top shape: 1 512 100 (51200)
INFO - 18:34:46 - Memory required for data: 226959360
INFO - 18:34:46 - Creating layer / name=lstm1_transform_31 / type=InnerProduct
INFO - 18:34:46 - Creating Layer lstm1_transform_31
INFO - 18:34:46 - lstm1_transform_31 <- h_conted_30
INFO - 18:34:46 - lstm1_transform_31 -> W_hc_h_30
INFO - 18:34:46 - Setting up lstm1_transform_31
INFO - 18:34:46 - Top shape: 1 512 400 (204800)
INFO - 18:34:46 - Memory required for data: 227778560
INFO - 18:34:46 - Sharing parameters 'W_hc' owned by layer 'lstm1_transform_1', param index 0
INFO - 18:34:46 - Creating layer / name=lstm1_gate_input_31 / type=Eltwise
INFO - 18:34:46 - Creating Layer lstm1_gate_input_31
INFO - 18:34:46 - lstm1_gate_input_31 <- W_hc_h_30
INFO - 18:34:46 - lstm1_gate_input_31 <- W_xc_x_31
INFO - 18:34:46 - lstm1_gate_input_31 -> gate_input_31
INFO - 18:34:46 - Setting up lstm1_gate_input_31
INFO - 18:34:46 - Top shape: 1 512 400 (204800)
INFO - 18:34:46 - Memory required for data: 228597760
INFO - 18:34:46 - Creating layer / name=lstm1_unit_31 / type=LSTMUnit
INFO - 18:34:46 - Creating Layer lstm1_unit_31
INFO - 18:34:46 - lstm1_unit_31 <- c_30
INFO - 18:34:46 - lstm1_unit_31 <- gate_input_31
INFO - 18:34:46 - lstm1_unit_31 <- cont_31_lstm1_cont_slice_30_split_1
INFO - 18:34:46 - lstm1_unit_31 -> c_31
INFO - 18:34:46 - lstm1_unit_31 -> h_31
INFO - 18:34:46 - Setting up lstm1_unit_31
INFO - 18:34:46 - Top shape: 1 512 100 (51200)
INFO - 18:34:46 - Top shape: 1 512 100 (51200)
INFO - 18:34:46 - Memory required for data: 229007360
INFO - 18:34:46 - Creating layer / name=h_31_lstm1_unit_31_1_split / type=Split
INFO - 18:34:46 - Creating Layer h_31_lstm1_unit_31_1_split
INFO - 18:34:46 - h_31_lstm1_unit_31_1_split <- h_31
INFO - 18:34:46 - h_31_lstm1_unit_31_1_split -> h_31_lstm1_unit_31_1_split_0
INFO - 18:34:46 - h_31_lstm1_unit_31_1_split -> h_31_lstm1_unit_31_1_split_1
INFO - 18:34:46 - Setting up h_31_lstm1_unit_31_1_split
INFO - 18:34:46 - Top shape: 1 512 100 (51200)
INFO - 18:34:46 - Top shape: 1 512 100 (51200)
INFO - 18:34:46 - Memory required for data: 229416960
INFO - 18:34:46 - Creating layer / name=lstm1_h_conted_31 / type=Scale
INFO - 18:34:46 - Creating Layer lstm1_h_conted_31
INFO - 18:34:46 - lstm1_h_conted_31 <- h_31_lstm1_unit_31_1_split_0
INFO - 18:34:46 - lstm1_h_conted_31 <- cont_32_lstm1_cont_slice_31_split_0
INFO - 18:34:46 - lstm1_h_conted_31 -> h_conted_31
INFO - 18:34:46 - Setting up lstm1_h_conted_31
INFO - 18:34:46 - Top shape: 1 512 100 (51200)
INFO - 18:34:46 - Memory required for data: 229621760
INFO - 18:34:46 - Creating layer / name=lstm1_transform_32 / type=InnerProduct
INFO - 18:34:46 - Creating Layer lstm1_transform_32
INFO - 18:34:46 - lstm1_transform_32 <- h_conted_31
INFO - 18:34:46 - lstm1_transform_32 -> W_hc_h_31
INFO - 18:34:46 - Setting up lstm1_transform_32
INFO - 18:34:46 - Top shape: 1 512 400 (204800)
INFO - 18:34:46 - Memory required for data: 230440960
INFO - 18:34:46 - Sharing parameters 'W_hc' owned by layer 'lstm1_transform_1', param index 0
INFO - 18:34:46 - Creating layer / name=lstm1_gate_input_32 / type=Eltwise
INFO - 18:34:46 - Creating Layer lstm1_gate_input_32
INFO - 18:34:46 - lstm1_gate_input_32 <- W_hc_h_31
INFO - 18:34:46 - lstm1_gate_input_32 <- W_xc_x_32
INFO - 18:34:46 - lstm1_gate_input_32 -> gate_input_32
INFO - 18:34:46 - Setting up lstm1_gate_input_32
INFO - 18:34:46 - Top shape: 1 512 400 (204800)
INFO - 18:34:46 - Memory required for data: 231260160
INFO - 18:34:46 - Creating layer / name=lstm1_unit_32 / type=LSTMUnit
INFO - 18:34:46 - Creating Layer lstm1_unit_32
INFO - 18:34:46 - lstm1_unit_32 <- c_31
INFO - 18:34:46 - lstm1_unit_32 <- gate_input_32
INFO - 18:34:46 - lstm1_unit_32 <- cont_32_lstm1_cont_slice_31_split_1
INFO - 18:34:46 - lstm1_unit_32 -> c_32
INFO - 18:34:46 - lstm1_unit_32 -> h_32
INFO - 18:34:46 - Setting up lstm1_unit_32
INFO - 18:34:46 - Top shape: 1 512 100 (51200)
INFO - 18:34:46 - Top shape: 1 512 100 (51200)
INFO - 18:34:46 - Memory required for data: 231669760
INFO - 18:34:46 - Creating layer / name=h_32_lstm1_unit_32_1_split / type=Split
INFO - 18:34:46 - Creating Layer h_32_lstm1_unit_32_1_split
INFO - 18:34:46 - h_32_lstm1_unit_32_1_split <- h_32
INFO - 18:34:46 - h_32_lstm1_unit_32_1_split -> h_32_lstm1_unit_32_1_split_0
INFO - 18:34:46 - h_32_lstm1_unit_32_1_split -> h_32_lstm1_unit_32_1_split_1
INFO - 18:34:46 - Setting up h_32_lstm1_unit_32_1_split
INFO - 18:34:46 - Top shape: 1 512 100 (51200)
INFO - 18:34:46 - Top shape: 1 512 100 (51200)
INFO - 18:34:46 - Memory required for data: 232079360
INFO - 18:34:46 - Creating layer / name=lstm1_h_conted_32 / type=Scale
INFO - 18:34:46 - Creating Layer lstm1_h_conted_32
INFO - 18:34:46 - lstm1_h_conted_32 <- h_32_lstm1_unit_32_1_split_0
INFO - 18:34:46 - lstm1_h_conted_32 <- cont_33_lstm1_cont_slice_32_split_0
INFO - 18:34:46 - lstm1_h_conted_32 -> h_conted_32
INFO - 18:34:46 - Setting up lstm1_h_conted_32
INFO - 18:34:46 - Top shape: 1 512 100 (51200)
INFO - 18:34:46 - Memory required for data: 232284160
INFO - 18:34:46 - Creating layer / name=lstm1_transform_33 / type=InnerProduct
INFO - 18:34:46 - Creating Layer lstm1_transform_33
INFO - 18:34:46 - lstm1_transform_33 <- h_conted_32
INFO - 18:34:46 - lstm1_transform_33 -> W_hc_h_32
INFO - 18:34:46 - Setting up lstm1_transform_33
INFO - 18:34:46 - Top shape: 1 512 400 (204800)
INFO - 18:34:46 - Memory required for data: 233103360
INFO - 18:34:46 - Sharing parameters 'W_hc' owned by layer 'lstm1_transform_1', param index 0
INFO - 18:34:46 - Creating layer / name=lstm1_gate_input_33 / type=Eltwise
INFO - 18:34:46 - Creating Layer lstm1_gate_input_33
INFO - 18:34:46 - lstm1_gate_input_33 <- W_hc_h_32
INFO - 18:34:46 - lstm1_gate_input_33 <- W_xc_x_33
INFO - 18:34:46 - lstm1_gate_input_33 -> gate_input_33
INFO - 18:34:46 - Setting up lstm1_gate_input_33
INFO - 18:34:46 - Top shape: 1 512 400 (204800)
INFO - 18:34:46 - Memory required for data: 233922560
INFO - 18:34:46 - Creating layer / name=lstm1_unit_33 / type=LSTMUnit
INFO - 18:34:46 - Creating Layer lstm1_unit_33
INFO - 18:34:46 - lstm1_unit_33 <- c_32
INFO - 18:34:46 - lstm1_unit_33 <- gate_input_33
INFO - 18:34:46 - lstm1_unit_33 <- cont_33_lstm1_cont_slice_32_split_1
INFO - 18:34:46 - lstm1_unit_33 -> c_33
INFO - 18:34:46 - lstm1_unit_33 -> h_33
INFO - 18:34:46 - Setting up lstm1_unit_33
INFO - 18:34:46 - Top shape: 1 512 100 (51200)
INFO - 18:34:46 - Top shape: 1 512 100 (51200)
INFO - 18:34:46 - Memory required for data: 234332160
INFO - 18:34:46 - Creating layer / name=h_33_lstm1_unit_33_1_split / type=Split
INFO - 18:34:46 - Creating Layer h_33_lstm1_unit_33_1_split
INFO - 18:34:46 - h_33_lstm1_unit_33_1_split <- h_33
INFO - 18:34:46 - h_33_lstm1_unit_33_1_split -> h_33_lstm1_unit_33_1_split_0
INFO - 18:34:46 - h_33_lstm1_unit_33_1_split -> h_33_lstm1_unit_33_1_split_1
INFO - 18:34:46 - Setting up h_33_lstm1_unit_33_1_split
INFO - 18:34:46 - Top shape: 1 512 100 (51200)
INFO - 18:34:46 - Top shape: 1 512 100 (51200)
INFO - 18:34:46 - Memory required for data: 234741760
INFO - 18:34:46 - Creating layer / name=lstm1_h_conted_33 / type=Scale
INFO - 18:34:46 - Creating Layer lstm1_h_conted_33
INFO - 18:34:46 - lstm1_h_conted_33 <- h_33_lstm1_unit_33_1_split_0
INFO - 18:34:46 - lstm1_h_conted_33 <- cont_34_lstm1_cont_slice_33_split_0
INFO - 18:34:46 - lstm1_h_conted_33 -> h_conted_33
INFO - 18:34:46 - Setting up lstm1_h_conted_33
INFO - 18:34:46 - Top shape: 1 512 100 (51200)
INFO - 18:34:46 - Memory required for data: 234946560
INFO - 18:34:46 - Creating layer / name=lstm1_transform_34 / type=InnerProduct
INFO - 18:34:46 - Creating Layer lstm1_transform_34
INFO - 18:34:46 - lstm1_transform_34 <- h_conted_33
INFO - 18:34:46 - lstm1_transform_34 -> W_hc_h_33
INFO - 18:34:46 - Setting up lstm1_transform_34
INFO - 18:34:46 - Top shape: 1 512 400 (204800)
INFO - 18:34:46 - Memory required for data: 235765760
INFO - 18:34:46 - Sharing parameters 'W_hc' owned by layer 'lstm1_transform_1', param index 0
INFO - 18:34:46 - Creating layer / name=lstm1_gate_input_34 / type=Eltwise
INFO - 18:34:46 - Creating Layer lstm1_gate_input_34
INFO - 18:34:46 - lstm1_gate_input_34 <- W_hc_h_33
INFO - 18:34:46 - lstm1_gate_input_34 <- W_xc_x_34
INFO - 18:34:46 - lstm1_gate_input_34 -> gate_input_34
INFO - 18:34:46 - Setting up lstm1_gate_input_34
INFO - 18:34:46 - Top shape: 1 512 400 (204800)
INFO - 18:34:46 - Memory required for data: 236584960
INFO - 18:34:46 - Creating layer / name=lstm1_unit_34 / type=LSTMUnit
INFO - 18:34:46 - Creating Layer lstm1_unit_34
INFO - 18:34:46 - lstm1_unit_34 <- c_33
INFO - 18:34:46 - lstm1_unit_34 <- gate_input_34
INFO - 18:34:46 - lstm1_unit_34 <- cont_34_lstm1_cont_slice_33_split_1
INFO - 18:34:46 - lstm1_unit_34 -> c_34
INFO - 18:34:46 - lstm1_unit_34 -> h_34
INFO - 18:34:46 - Setting up lstm1_unit_34
INFO - 18:34:46 - Top shape: 1 512 100 (51200)
INFO - 18:34:46 - Top shape: 1 512 100 (51200)
INFO - 18:34:46 - Memory required for data: 236994560
INFO - 18:34:46 - Creating layer / name=h_34_lstm1_unit_34_1_split / type=Split
INFO - 18:34:46 - Creating Layer h_34_lstm1_unit_34_1_split
INFO - 18:34:46 - h_34_lstm1_unit_34_1_split <- h_34
INFO - 18:34:46 - h_34_lstm1_unit_34_1_split -> h_34_lstm1_unit_34_1_split_0
INFO - 18:34:46 - h_34_lstm1_unit_34_1_split -> h_34_lstm1_unit_34_1_split_1
INFO - 18:34:46 - Setting up h_34_lstm1_unit_34_1_split
INFO - 18:34:46 - Top shape: 1 512 100 (51200)
INFO - 18:34:46 - Top shape: 1 512 100 (51200)
INFO - 18:34:46 - Memory required for data: 237404160
INFO - 18:34:46 - Creating layer / name=lstm1_h_conted_34 / type=Scale
INFO - 18:34:46 - Creating Layer lstm1_h_conted_34
INFO - 18:34:46 - lstm1_h_conted_34 <- h_34_lstm1_unit_34_1_split_0
INFO - 18:34:46 - lstm1_h_conted_34 <- cont_35_lstm1_cont_slice_34_split_0
INFO - 18:34:46 - lstm1_h_conted_34 -> h_conted_34
INFO - 18:34:46 - Setting up lstm1_h_conted_34
INFO - 18:34:46 - Top shape: 1 512 100 (51200)
INFO - 18:34:46 - Memory required for data: 237608960
INFO - 18:34:46 - Creating layer / name=lstm1_transform_35 / type=InnerProduct
INFO - 18:34:46 - Creating Layer lstm1_transform_35
INFO - 18:34:46 - lstm1_transform_35 <- h_conted_34
INFO - 18:34:46 - lstm1_transform_35 -> W_hc_h_34
INFO - 18:34:46 - Setting up lstm1_transform_35
INFO - 18:34:46 - Top shape: 1 512 400 (204800)
INFO - 18:34:46 - Memory required for data: 238428160
INFO - 18:34:46 - Sharing parameters 'W_hc' owned by layer 'lstm1_transform_1', param index 0
INFO - 18:34:46 - Creating layer / name=lstm1_gate_input_35 / type=Eltwise
INFO - 18:34:46 - Creating Layer lstm1_gate_input_35
INFO - 18:34:46 - lstm1_gate_input_35 <- W_hc_h_34
INFO - 18:34:46 - lstm1_gate_input_35 <- W_xc_x_35
INFO - 18:34:46 - lstm1_gate_input_35 -> gate_input_35
INFO - 18:34:46 - Setting up lstm1_gate_input_35
INFO - 18:34:46 - Top shape: 1 512 400 (204800)
INFO - 18:34:46 - Memory required for data: 239247360
INFO - 18:34:46 - Creating layer / name=lstm1_unit_35 / type=LSTMUnit
INFO - 18:34:46 - Creating Layer lstm1_unit_35
INFO - 18:34:46 - lstm1_unit_35 <- c_34
INFO - 18:34:46 - lstm1_unit_35 <- gate_input_35
INFO - 18:34:46 - lstm1_unit_35 <- cont_35_lstm1_cont_slice_34_split_1
INFO - 18:34:46 - lstm1_unit_35 -> c_35
INFO - 18:34:46 - lstm1_unit_35 -> h_35
INFO - 18:34:46 - Setting up lstm1_unit_35
INFO - 18:34:46 - Top shape: 1 512 100 (51200)
INFO - 18:34:46 - Top shape: 1 512 100 (51200)
INFO - 18:34:46 - Memory required for data: 239656960
INFO - 18:34:46 - Creating layer / name=h_35_lstm1_unit_35_1_split / type=Split
INFO - 18:34:46 - Creating Layer h_35_lstm1_unit_35_1_split
INFO - 18:34:46 - h_35_lstm1_unit_35_1_split <- h_35
INFO - 18:34:46 - h_35_lstm1_unit_35_1_split -> h_35_lstm1_unit_35_1_split_0
INFO - 18:34:46 - h_35_lstm1_unit_35_1_split -> h_35_lstm1_unit_35_1_split_1
INFO - 18:34:46 - Setting up h_35_lstm1_unit_35_1_split
INFO - 18:34:46 - Top shape: 1 512 100 (51200)
INFO - 18:34:46 - Top shape: 1 512 100 (51200)
INFO - 18:34:46 - Memory required for data: 240066560
INFO - 18:34:46 - Creating layer / name=lstm1_h_conted_35 / type=Scale
INFO - 18:34:46 - Creating Layer lstm1_h_conted_35
INFO - 18:34:46 - lstm1_h_conted_35 <- h_35_lstm1_unit_35_1_split_0
INFO - 18:34:46 - lstm1_h_conted_35 <- cont_36_lstm1_cont_slice_35_split_0
INFO - 18:34:46 - lstm1_h_conted_35 -> h_conted_35
INFO - 18:34:46 - Setting up lstm1_h_conted_35
INFO - 18:34:46 - Top shape: 1 512 100 (51200)
INFO - 18:34:46 - Memory required for data: 240271360
INFO - 18:34:46 - Creating layer / name=lstm1_transform_36 / type=InnerProduct
INFO - 18:34:46 - Creating Layer lstm1_transform_36
INFO - 18:34:46 - lstm1_transform_36 <- h_conted_35
INFO - 18:34:46 - lstm1_transform_36 -> W_hc_h_35
INFO - 18:34:46 - Setting up lstm1_transform_36
INFO - 18:34:46 - Top shape: 1 512 400 (204800)
INFO - 18:34:46 - Memory required for data: 241090560
INFO - 18:34:46 - Sharing parameters 'W_hc' owned by layer 'lstm1_transform_1', param index 0
INFO - 18:34:46 - Creating layer / name=lstm1_gate_input_36 / type=Eltwise
INFO - 18:34:46 - Creating Layer lstm1_gate_input_36
INFO - 18:34:46 - lstm1_gate_input_36 <- W_hc_h_35
INFO - 18:34:46 - lstm1_gate_input_36 <- W_xc_x_36
INFO - 18:34:46 - lstm1_gate_input_36 -> gate_input_36
INFO - 18:34:46 - Setting up lstm1_gate_input_36
INFO - 18:34:46 - Top shape: 1 512 400 (204800)
INFO - 18:34:46 - Memory required for data: 241909760
INFO - 18:34:46 - Creating layer / name=lstm1_unit_36 / type=LSTMUnit
INFO - 18:34:46 - Creating Layer lstm1_unit_36
INFO - 18:34:46 - lstm1_unit_36 <- c_35
INFO - 18:34:46 - lstm1_unit_36 <- gate_input_36
INFO - 18:34:46 - lstm1_unit_36 <- cont_36_lstm1_cont_slice_35_split_1
INFO - 18:34:46 - lstm1_unit_36 -> c_36
INFO - 18:34:46 - lstm1_unit_36 -> h_36
INFO - 18:34:46 - Setting up lstm1_unit_36
INFO - 18:34:46 - Top shape: 1 512 100 (51200)
INFO - 18:34:46 - Top shape: 1 512 100 (51200)
INFO - 18:34:46 - Memory required for data: 242319360
INFO - 18:34:46 - Creating layer / name=h_36_lstm1_unit_36_1_split / type=Split
INFO - 18:34:46 - Creating Layer h_36_lstm1_unit_36_1_split
INFO - 18:34:46 - h_36_lstm1_unit_36_1_split <- h_36
INFO - 18:34:46 - h_36_lstm1_unit_36_1_split -> h_36_lstm1_unit_36_1_split_0
INFO - 18:34:46 - h_36_lstm1_unit_36_1_split -> h_36_lstm1_unit_36_1_split_1
INFO - 18:34:46 - Setting up h_36_lstm1_unit_36_1_split
INFO - 18:34:46 - Top shape: 1 512 100 (51200)
INFO - 18:34:46 - Top shape: 1 512 100 (51200)
INFO - 18:34:46 - Memory required for data: 242728960
INFO - 18:34:46 - Creating layer / name=lstm1_h_conted_36 / type=Scale
INFO - 18:34:46 - Creating Layer lstm1_h_conted_36
INFO - 18:34:46 - lstm1_h_conted_36 <- h_36_lstm1_unit_36_1_split_0
INFO - 18:34:46 - lstm1_h_conted_36 <- cont_37_lstm1_cont_slice_36_split_0
INFO - 18:34:46 - lstm1_h_conted_36 -> h_conted_36
INFO - 18:34:46 - Setting up lstm1_h_conted_36
INFO - 18:34:46 - Top shape: 1 512 100 (51200)
INFO - 18:34:46 - Memory required for data: 242933760
INFO - 18:34:46 - Creating layer / name=lstm1_transform_37 / type=InnerProduct
INFO - 18:34:46 - Creating Layer lstm1_transform_37
INFO - 18:34:46 - lstm1_transform_37 <- h_conted_36
INFO - 18:34:46 - lstm1_transform_37 -> W_hc_h_36
INFO - 18:34:46 - Setting up lstm1_transform_37
INFO - 18:34:46 - Top shape: 1 512 400 (204800)
INFO - 18:34:46 - Memory required for data: 243752960
INFO - 18:34:46 - Sharing parameters 'W_hc' owned by layer 'lstm1_transform_1', param index 0
INFO - 18:34:46 - Creating layer / name=lstm1_gate_input_37 / type=Eltwise
INFO - 18:34:46 - Creating Layer lstm1_gate_input_37
INFO - 18:34:46 - lstm1_gate_input_37 <- W_hc_h_36
INFO - 18:34:46 - lstm1_gate_input_37 <- W_xc_x_37
INFO - 18:34:46 - lstm1_gate_input_37 -> gate_input_37
INFO - 18:34:46 - Setting up lstm1_gate_input_37
INFO - 18:34:46 - Top shape: 1 512 400 (204800)
…
INFO - 18:34:46 - Memory required for data: 315637760
INFO - 18:34:46 - Sharing parameters 'W_hc' owned by layer 'lstm1_transform_1', param index 0
INFO - 18:34:46 - Creating layer / name=lstm1_gate_input_64 / type=Eltwise
INFO - 18:34:46 - Creating Layer lstm1_gate_input_64
INFO - 18:34:46 - lstm1_gate_input_64 <- W_hc_h_63
INFO - 18:34:46 - lstm1_gate_input_64 <- W_xc_x_64
INFO - 18:34:46 - lstm1_gate_input_64 -> gate_input_64
INFO - 18:34:46 - Setting up lstm1_gate_input_64
INFO - 18:34:46 - Top shape: 1 512 400 (204800)
INFO - 18:34:46 - Memory required for data: 316456960
INFO - 18:34:46 - Creating layer / name=lstm1_unit_64 / type=LSTMUnit
INFO - 18:34:46 - Creating Layer lstm1_unit_64
INFO - 18:34:46 - lstm1_unit_64 <- c_63
INFO - 18:34:46 - lstm1_unit_64 <- gate_input_64
INFO - 18:34:46 - lstm1_unit_64 <- cont_64_lstm1_cont_slice_63_split_1
INFO - 18:34:46 - lstm1_unit_64 -> c_64
INFO - 18:34:46 - lstm1_unit_64 -> h_64
INFO - 18:34:46 - Setting up lstm1_unit_64
INFO - 18:34:46 - Top shape: 1 512 100 (51200)
INFO - 18:34:46 - Top shape: 1 512 100 (51200)
INFO - 18:34:46 - Memory required for data: 316866560
INFO - 18:34:46 - Creating layer / name=h_64_lstm1_unit_64_1_split / type=Split
INFO - 18:34:46 - Creating Layer h_64_lstm1_unit_64_1_split
INFO - 18:34:46 - h_64_lstm1_unit_64_1_split <- h_64
INFO - 18:34:46 - h_64_lstm1_unit_64_1_split -> h_64_lstm1_unit_64_1_split_0
INFO - 18:34:46 - h_64_lstm1_unit_64_1_split -> h_64_lstm1_unit_64_1_split_1
INFO - 18:34:46 - Setting up h_64_lstm1_unit_64_1_split
INFO - 18:34:46 - Top shape: 1 512 100 (51200)
INFO - 18:34:46 - Top shape: 1 512 100 (51200)
INFO - 18:34:46 - Memory required for data: 317276160
INFO - 18:34:46 - Creating layer / name=lstm1_h_conted_64 / type=Scale
INFO - 18:34:46 - Creating Layer lstm1_h_conted_64
INFO - 18:34:46 - lstm1_h_conted_64 <- h_64_lstm1_unit_64_1_split_0
INFO - 18:34:46 - lstm1_h_conted_64 <- cont_65_lstm1_cont_slice_64_split_0
INFO - 18:34:46 - lstm1_h_conted_64 -> h_conted_64
INFO - 18:34:46 - Setting up lstm1_h_conted_64
INFO - 18:34:46 - Top shape: 1 512 100 (51200)
INFO - 18:34:46 - Memory required for data: 317480960
INFO - 18:34:46 - Creating layer / name=lstm1_transform_65 / type=InnerProduct
INFO - 18:34:46 - Creating Layer lstm1_transform_65
INFO - 18:34:46 - lstm1_transform_65 <- h_conted_64
INFO - 18:34:46 - lstm1_transform_65 -> W_hc_h_64
INFO - 18:34:46 - Setting up lstm1_transform_65
INFO - 18:34:46 - Top shape: 1 512 400 (204800)
INFO - 18:34:46 - Memory required for data: 318300160
INFO - 18:34:46 - Sharing parameters 'W_hc' owned by layer 'lstm1_transform_1', param index 0
INFO - 18:34:46 - Creating layer / name=lstm1_gate_input_65 / type=Eltwise
INFO - 18:34:46 - Creating Layer lstm1_gate_input_65
INFO - 18:34:46 - lstm1_gate_input_65 <- W_hc_h_64
INFO - 18:34:46 - lstm1_gate_input_65 <- W_xc_x_65
INFO - 18:34:46 - lstm1_gate_input_65 -> gate_input_65
INFO - 18:34:46 - Setting up lstm1_gate_input_65
INFO - 18:34:46 - Top shape: 1 512 400 (204800)
INFO - 18:34:46 - Memory required for data: 319119360
INFO - 18:34:46 - Creating layer / name=lstm1_unit_65 / type=LSTMUnit
INFO - 18:34:46 - Creating Layer lstm1_unit_65
INFO - 18:34:46 - lstm1_unit_65 <- c_64
INFO - 18:34:46 - lstm1_unit_65 <- gate_input_65
INFO - 18:34:46 - lstm1_unit_65 <- cont_65_lstm1_cont_slice_64_split_1
INFO - 18:34:46 - lstm1_unit_65 -> c_65
INFO - 18:34:46 - lstm1_unit_65 -> h_65
INFO - 18:34:46 - Setting up lstm1_unit_65
INFO - 18:34:46 - Top shape: 1 512 100 (51200)
INFO - 18:34:46 - Top shape: 1 512 100 (51200)
INFO - 18:34:46 - Memory required for data: 319528960
INFO - 18:34:46 - Creating layer / name=h_65_lstm1_unit_65_1_split / type=Split
INFO - 18:34:46 - Creating Layer h_65_lstm1_unit_65_1_split
INFO - 18:34:46 - h_65_lstm1_unit_65_1_split <- h_65
INFO - 18:34:46 - h_65_lstm1_unit_65_1_split -> h_65_lstm1_unit_65_1_split_0
INFO - 18:34:46 - h_65_lstm1_unit_65_1_split -> h_65_lstm1_unit_65_1_split_1
INFO - 18:34:46 - Setting up h_65_lstm1_unit_65_1_split
INFO - 18:34:46 - Top shape: 1 512 100 (51200)
INFO - 18:34:46 - Top shape: 1 512 100 (51200)
INFO - 18:34:46 - Memory required for data: 319938560
INFO - 18:34:46 - Creating layer / name=lstm1_h_conted_65 / type=Scale
INFO - 18:34:46 - Creating Layer lstm1_h_conted_65
INFO - 18:34:46 - lstm1_h_conted_65 <- h_65_lstm1_unit_65_1_split_0
INFO - 18:34:46 - lstm1_h_conted_65 <- cont_66_lstm1_cont_slice_65_split_0
INFO - 18:34:46 - lstm1_h_conted_65 -> h_conted_65
INFO - 18:34:46 - Setting up lstm1_h_conted_65
INFO - 18:34:46 - Top shape: 1 512 100 (51200)
INFO - 18:34:46 - Memory required for data: 320143360
INFO - 18:34:46 - Creating layer / name=lstm1_transform_66 / type=InnerProduct
INFO - 18:34:46 - Creating Layer lstm1_transform_66
INFO - 18:34:46 - lstm1_transform_66 <- h_conted_65
INFO - 18:34:46 - lstm1_transform_66 -> W_hc_h_65
INFO - 18:34:46 - Setting up lstm1_transform_66
INFO - 18:34:46 - Top shape: 1 512 400 (204800)
INFO - 18:34:46 - Memory required for data: 320962560
INFO - 18:34:46 - Sharing parameters 'W_hc' owned by layer 'lstm1_transform_1', param index 0
INFO - 18:34:46 - Creating layer / name=lstm1_gate_input_66 / type=Eltwise
INFO - 18:34:46 - Creating Layer lstm1_gate_input_66
INFO - 18:34:46 - lstm1_gate_input_66 <- W_hc_h_65
INFO - 18:34:46 - lstm1_gate_input_66 <- W_xc_x_66
INFO - 18:34:46 - lstm1_gate_input_66 -> gate_input_66
INFO - 18:34:46 - Setting up lstm1_gate_input_66
INFO - 18:34:46 - Top shape: 1 512 400 (204800)
INFO - 18:34:46 - Memory required for data: 321781760
INFO - 18:34:46 - Creating layer / name=lstm1_unit_66 / type=LSTMUnit
INFO - 18:34:46 - Creating Layer lstm1_unit_66
INFO - 18:34:46 - lstm1_unit_66 <- c_65
INFO - 18:34:46 - lstm1_unit_66 <- gate_input_66
INFO - 18:34:46 - lstm1_unit_66 <- cont_66_lstm1_cont_slice_65_split_1
INFO - 18:34:46 - lstm1_unit_66 -> c_66
INFO - 18:34:46 - lstm1_unit_66 -> h_66
INFO - 18:34:46 - Setting up lstm1_unit_66
INFO - 18:34:46 - Top shape: 1 512 100 (51200)
INFO - 18:34:46 - Top shape: 1 512 100 (51200)
INFO - 18:34:46 - Memory required for data: 322191360
INFO - 18:34:46 - Creating layer / name=h_66_lstm1_unit_66_1_split / type=Split
INFO - 18:34:46 - Creating Layer h_66_lstm1_unit_66_1_split
INFO - 18:34:46 - h_66_lstm1_unit_66_1_split <- h_66
INFO - 18:34:46 - h_66_lstm1_unit_66_1_split -> h_66_lstm1_unit_66_1_split_0
INFO - 18:34:46 - h_66_lstm1_unit_66_1_split -> h_66_lstm1_unit_66_1_split_1
INFO - 18:34:46 - Setting up h_66_lstm1_unit_66_1_split
INFO - 18:34:46 - Top shape: 1 512 100 (51200)
INFO - 18:34:46 - Top shape: 1 512 100 (51200)
INFO - 18:34:46 - Memory required for data: 322600960
INFO - 18:34:46 - Creating layer / name=lstm1_h_conted_66 / type=Scale
INFO - 18:34:46 - Creating Layer lstm1_h_conted_66
INFO - 18:34:46 - lstm1_h_conted_66 <- h_66_lstm1_unit_66_1_split_0
INFO - 18:34:46 - lstm1_h_conted_66 <- cont_67_lstm1_cont_slice_66_split_0
INFO - 18:34:46 - lstm1_h_conted_66 -> h_conted_66
INFO - 18:34:46 - Setting up lstm1_h_conted_66
INFO - 18:34:46 - Top shape: 1 512 100 (51200)
INFO - 18:34:46 - Memory required for data: 322805760
INFO - 18:34:46 - Creating layer / name=lstm1_transform_67 / type=InnerProduct
INFO - 18:34:46 - Creating Layer lstm1_transform_67
INFO - 18:34:46 - lstm1_transform_67 <- h_conted_66
INFO - 18:34:46 - lstm1_transform_67 -> W_hc_h_66
INFO - 18:34:46 - Setting up lstm1_transform_67
INFO - 18:34:46 - Top shape: 1 512 400 (204800)
INFO - 18:34:46 - Memory required for data: 323624960
INFO - 18:34:46 - Sharing parameters 'W_hc' owned by layer 'lstm1_transform_1', param index 0
INFO - 18:34:46 - Creating layer / name=lstm1_gate_input_67 / type=Eltwise
INFO - 18:34:46 - Creating Layer lstm1_gate_input_67
INFO - 18:34:46 - lstm1_gate_input_67 <- W_hc_h_66
INFO - 18:34:46 - lstm1_gate_input_67 <- W_xc_x_67
INFO - 18:34:46 - lstm1_gate_input_67 -> gate_input_67
INFO - 18:34:46 - Setting up lstm1_gate_input_67
INFO - 18:34:46 - Top shape: 1 512 400 (204800)
INFO - 18:34:46 - Memory required for data: 324444160
INFO - 18:34:46 - Creating layer / name=lstm1_unit_67 / type=LSTMUnit
INFO - 18:34:46 - Creating Layer lstm1_unit_67
INFO - 18:34:46 - lstm1_unit_67 <- c_66
INFO - 18:34:46 - lstm1_unit_67 <- gate_input_67
INFO - 18:34:46 - lstm1_unit_67 <- cont_67_lstm1_cont_slice_66_split_1
INFO - 18:34:46 - lstm1_unit_67 -> c_67
INFO - 18:34:46 - lstm1_unit_67 -> h_67
INFO - 18:34:46 - Setting up lstm1_unit_67
INFO - 18:34:46 - Top shape: 1 512 100 (51200)
INFO - 18:34:46 - Top shape: 1 512 100 (51200)
INFO - 18:34:46 - Memory required for data: 324853760
INFO - 18:34:46 - Creating layer / name=h_67_lstm1_unit_67_1_split / type=Split
INFO - 18:34:46 - Creating Layer h_67_lstm1_unit_67_1_split
INFO - 18:34:46 - h_67_lstm1_unit_67_1_split <- h_67
INFO - 18:34:46 - h_67_lstm1_unit_67_1_split -> h_67_lstm1_unit_67_1_split_0
INFO - 18:34:46 - h_67_lstm1_unit_67_1_split -> h_67_lstm1_unit_67_1_split_1
INFO - 18:34:46 - Setting up h_67_lstm1_unit_67_1_split
INFO - 18:34:46 - Top shape: 1 512 100 (51200)
INFO - 18:34:46 - Top shape: 1 512 100 (51200)
INFO - 18:34:46 - Memory required for data: 325263360
INFO - 18:34:46 - Creating layer / name=lstm1_h_conted_67 / type=Scale
INFO - 18:34:46 - Creating Layer lstm1_h_conted_67
INFO - 18:34:46 - lstm1_h_conted_67 <- h_67_lstm1_unit_67_1_split_0
INFO - 18:34:46 - lstm1_h_conted_67 <- cont_68_lstm1_cont_slice_67_split_0
INFO - 18:34:46 - lstm1_h_conted_67 -> h_conted_67
INFO - 18:34:46 - Setting up lstm1_h_conted_67
INFO - 18:34:46 - Top shape: 1 512 100 (51200)
INFO - 18:34:46 - Memory required for data: 325468160
INFO - 18:34:46 - Creating layer / name=lstm1_transform_68 / type=InnerProduct
INFO - 18:34:46 - Creating Layer lstm1_transform_68
INFO - 18:34:46 - lstm1_transform_68 <- h_conted_67
INFO - 18:34:46 - lstm1_transform_68 -> W_hc_h_67
INFO - 18:34:46 - Setting up lstm1_transform_68
INFO - 18:34:46 - Top shape: 1 512 400 (204800)
INFO - 18:34:46 - Memory required for data: 326287360
INFO - 18:34:46 - Sharing parameters 'W_hc' owned by layer 'lstm1_transform_1', param index 0
INFO - 18:34:46 - Creating layer / name=lstm1_gate_input_68 / type=Eltwise
INFO - 18:34:46 - Creating Layer lstm1_gate_input_68
INFO - 18:34:46 - lstm1_gate_input_68 <- W_hc_h_67
INFO - 18:34:46 - lstm1_gate_input_68 <- W_xc_x_68
INFO - 18:34:46 - lstm1_gate_input_68 -> gate_input_68
INFO - 18:34:46 - Setting up lstm1_gate_input_68
INFO - 18:34:46 - Top shape: 1 512 400 (204800)
INFO - 18:34:46 - Memory required for data: 327106560
INFO - 18:34:46 - Creating layer / name=lstm1_unit_68 / type=LSTMUnit
INFO - 18:34:46 - Creating Layer lstm1_unit_68
INFO - 18:34:46 - lstm1_unit_68 <- c_67
INFO - 18:34:46 - lstm1_unit_68 <- gate_input_68
INFO - 18:34:46 - lstm1_unit_68 <- cont_68_lstm1_cont_slice_67_split_1
INFO - 18:34:46 - lstm1_unit_68 -> c_68
INFO - 18:34:46 - lstm1_unit_68 -> h_68
INFO - 18:34:46 - Setting up lstm1_unit_68
INFO - 18:34:46 - Top shape: 1 512 100 (51200)
INFO - 18:34:46 - Top shape: 1 512 100 (51200)
INFO - 18:34:46 - Memory required for data: 327516160
INFO - 18:34:46 - Creating layer / name=h_68_lstm1_unit_68_1_split / type=Split
INFO - 18:34:46 - Creating Layer h_68_lstm1_unit_68_1_split
INFO - 18:34:46 - h_68_lstm1_unit_68_1_split <- h_68
INFO - 18:34:46 - h_68_lstm1_unit_68_1_split -> h_68_lstm1_unit_68_1_split_0
INFO - 18:34:46 - h_68_lstm1_unit_68_1_split -> h_68_lstm1_unit_68_1_split_1
INFO - 18:34:46 - Setting up h_68_lstm1_unit_68_1_split
INFO - 18:34:46 - Top shape: 1 512 100 (51200)
INFO - 18:34:46 - Top shape: 1 512 100 (51200)
INFO - 18:34:46 - Memory required for data: 327925760
INFO - 18:34:46 - Creating layer / name=lstm1_h_conted_68 / type=Scale
INFO - 18:34:46 - Creating Layer lstm1_h_conted_68
INFO - 18:34:46 - lstm1_h_conted_68 <- h_68_lstm1_unit_68_1_split_0
INFO - 18:34:46 - lstm1_h_conted_68 <- cont_69_lstm1_cont_slice_68_split_0
INFO - 18:34:46 - lstm1_h_conted_68 -> h_conted_68
INFO - 18:34:46 - Setting up lstm1_h_conted_68
INFO - 18:34:46 - Top shape: 1 512 100 (51200)
INFO - 18:34:46 - Memory required for data: 328130560
INFO - 18:34:46 - Creating layer / name=lstm1_transform_69 / type=InnerProduct
INFO - 18:34:46 - Creating Layer lstm1_transform_69
INFO - 18:34:46 - lstm1_transform_69 <- h_conted_68
INFO - 18:34:46 - lstm1_transform_69 -> W_hc_h_68
INFO - 18:34:46 - Setting up lstm1_transform_69
INFO - 18:34:46 - Top shape: 1 512 400 (204800)
INFO - 18:34:46 - Memory required for data: 328949760
INFO - 18:34:46 - Sharing parameters 'W_hc' owned by layer 'lstm1_transform_1', param index 0
INFO - 18:34:46 - Creating layer / name=lstm1_gate_input_69 / type=Eltwise
INFO - 18:34:46 - Creating Layer lstm1_gate_input_69
INFO - 18:34:46 - lstm1_gate_input_69 <- W_hc_h_68
INFO - 18:34:46 - lstm1_gate_input_69 <- W_xc_x_69
INFO - 18:34:46 - lstm1_gate_input_69 -> gate_input_69
INFO - 18:34:46 - Setting up lstm1_gate_input_69
INFO - 18:34:46 - Top shape: 1 512 400 (204800)
INFO - 18:34:46 - Memory required for data: 329768960
INFO - 18:34:46 - Creating layer / name=lstm1_unit_69 / type=LSTMUnit
INFO - 18:34:46 - Creating Layer lstm1_unit_69
INFO - 18:34:46 - lstm1_unit_69 <- c_68
INFO - 18:34:46 - lstm1_unit_69 <- gate_input_69
INFO - 18:34:46 - lstm1_unit_69 <- cont_69_lstm1_cont_slice_68_split_1
INFO - 18:34:46 - lstm1_unit_69 -> c_69
INFO - 18:34:46 - lstm1_unit_69 -> h_69
INFO - 18:34:46 - Setting up lstm1_unit_69
INFO - 18:34:46 - Top shape: 1 512 100 (51200)
INFO - 18:34:46 - Top shape: 1 512 100 (51200)
INFO - 18:34:46 - Memory required for data: 330178560
INFO - 18:34:46 - Creating layer / name=h_69_lstm1_unit_69_1_split / type=Split
INFO - 18:34:46 - Creating Layer h_69_lstm1_unit_69_1_split
INFO - 18:34:46 - h_69_lstm1_unit_69_1_split <- h_69
INFO - 18:34:46 - h_69_lstm1_unit_69_1_split -> h_69_lstm1_unit_69_1_split_0
INFO - 18:34:46 - h_69_lstm1_unit_69_1_split -> h_69_lstm1_unit_69_1_split_1
INFO - 18:34:46 - Setting up h_69_lstm1_unit_69_1_split
INFO - 18:34:46 - Top shape: 1 512 100 (51200)
INFO - 18:34:46 - Top shape: 1 512 100 (51200)
INFO - 18:34:46 - Memory required for data: 330588160
INFO - 18:34:46 - Creating layer / name=lstm1_h_conted_69 / type=Scale
INFO - 18:34:46 - Creating Layer lstm1_h_conted_69
INFO - 18:34:46 - lstm1_h_conted_69 <- h_69_lstm1_unit_69_1_split_0
INFO - 18:34:46 - lstm1_h_conted_69 <- cont_70_lstm1_cont_slice_69_split_0
INFO - 18:34:46 - lstm1_h_conted_69 -> h_conted_69
INFO - 18:34:46 - Setting up lstm1_h_conted_69
INFO - 18:34:46 - Top shape: 1 512 100 (51200)
INFO - 18:34:46 - Memory required for data: 330792960
INFO - 18:34:46 - Creating layer / name=lstm1_transform_70 / type=InnerProduct
INFO - 18:34:46 - Creating Layer lstm1_transform_70
INFO - 18:34:46 - lstm1_transform_70 <- h_conted_69
INFO - 18:34:46 - lstm1_transform_70 -> W_hc_h_69
INFO - 18:34:46 - Setting up lstm1_transform_70
INFO - 18:34:46 - Top shape: 1 512 400 (204800)
INFO - 18:34:46 - Memory required for data: 331612160
INFO - 18:34:46 - Sharing parameters 'W_hc' owned by layer 'lstm1_transform_1', param index 0
INFO - 18:34:46 - Creating layer / name=lstm1_gate_input_70 / type=Eltwise
INFO - 18:34:46 - Creating Layer lstm1_gate_input_70
INFO - 18:34:46 - lstm1_gate_input_70 <- W_hc_h_69
INFO - 18:34:46 - lstm1_gate_input_70 <- W_xc_x_70
INFO - 18:34:46 - lstm1_gate_input_70 -> gate_input_70
INFO - 18:34:46 - Setting up lstm1_gate_input_70
INFO - 18:34:46 - Top shape: 1 512 400 (204800)
INFO - 18:34:46 - Memory required for data: 332431360
INFO - 18:34:46 - Creating layer / name=lstm1_unit_70 / type=LSTMUnit
INFO - 18:34:46 - Creating Layer lstm1_unit_70
INFO - 18:34:46 - lstm1_unit_70 <- c_69
INFO - 18:34:46 - lstm1_unit_70 <- gate_input_70
INFO - 18:34:46 - lstm1_unit_70 <- cont_70_lstm1_cont_slice_69_split_1
INFO - 18:34:46 - lstm1_unit_70 -> c_70
INFO - 18:34:46 - lstm1_unit_70 -> h_70
INFO - 18:34:46 - Setting up lstm1_unit_70
INFO - 18:34:46 - Top shape: 1 512 100 (51200)
INFO - 18:34:46 - Top shape: 1 512 100 (51200)
INFO - 18:34:46 - Memory required for data: 332840960
INFO - 18:34:46 - Creating layer / name=h_70_lstm1_unit_70_1_split / type=Split
INFO - 18:34:46 - Creating Layer h_70_lstm1_unit_70_1_split
INFO - 18:34:46 - h_70_lstm1_unit_70_1_split <- h_70
INFO - 18:34:46 - h_70_lstm1_unit_70_1_split -> h_70_lstm1_unit_70_1_split_0
INFO - 18:34:46 - h_70_lstm1_unit_70_1_split -> h_70_lstm1_unit_70_1_split_1
INFO - 18:34:46 - Setting up h_70_lstm1_unit_70_1_split
INFO - 18:34:46 - Top shape: 1 512 100 (51200)
INFO - 18:34:46 - Top shape: 1 512 100 (51200)
INFO - 18:34:46 - Memory required for data: 333250560
INFO - 18:34:46 - Creating layer / name=lstm1_h_conted_70 / type=Scale
INFO - 18:34:46 - Creating Layer lstm1_h_conted_70
INFO - 18:34:46 - lstm1_h_conted_70 <- h_70_lstm1_unit_70_1_split_0
INFO - 18:34:46 - lstm1_h_conted_70 <- cont_71_lstm1_cont_slice_70_split_0
INFO - 18:34:46 - lstm1_h_conted_70 -> h_conted_70
INFO - 18:34:46 - Setting up lstm1_h_conted_70
INFO - 18:34:46 - Top shape: 1 512 100 (51200)
INFO - 18:34:46 - Memory required for data: 333455360
INFO - 18:34:46 - Creating layer / name=lstm1_transform_71 / type=InnerProduct
INFO - 18:34:46 - Creating Layer lstm1_transform_71
INFO - 18:34:46 - lstm1_transform_71 <- h_conted_70
INFO - 18:34:46 - lstm1_transform_71 -> W_hc_h_70
INFO - 18:34:46 - Setting up lstm1_transform_71
INFO - 18:34:46 - Top shape: 1 512 400 (204800)
INFO - 18:34:46 - Memory required for data: 334274560
INFO - 18:34:46 - Sharing parameters 'W_hc' owned by layer 'lstm1_transform_1', param index 0
INFO - 18:34:46 - Creating layer / name=lstm1_gate_input_71 / type=Eltwise
INFO - 18:34:46 - Creating Layer lstm1_gate_input_71
INFO - 18:34:46 - lstm1_gate_input_71 <- W_hc_h_70
INFO - 18:34:46 - lstm1_gate_input_71 <- W_xc_x_71
INFO - 18:34:46 - lstm1_gate_input_71 -> gate_input_71
INFO - 18:34:46 - Setting up lstm1_gate_input_71
INFO - 18:34:46 - Top shape: 1 512 400 (204800)
INFO - 18:34:46 - Memory required for data: 335093760
INFO - 18:34:46 - Creating layer / name=lstm1_unit_71 / type=LSTMUnit
INFO - 18:34:46 - Creating Layer lstm1_unit_71
INFO - 18:34:46 - lstm1_unit_71 <- c_70
INFO - 18:34:46 - lstm1_unit_71 <- gate_input_71
INFO - 18:34:46 - lstm1_unit_71 <- cont_71_lstm1_cont_slice_70_split_1
INFO - 18:34:46 - lstm1_unit_71 -> c_71
INFO - 18:34:46 - lstm1_unit_71 -> h_71
INFO - 18:34:46 - Setting up lstm1_unit_71
INFO - 18:34:46 - Top shape: 1 512 100 (51200)
INFO - 18:34:46 - Top shape: 1 512 100 (51200)
INFO - 18:34:46 - Memory required for data: 335503360
INFO - 18:34:46 - Creating layer / name=h_71_lstm1_unit_71_1_split / type=Split
INFO - 18:34:46 - Creating Layer h_71_lstm1_unit_71_1_split
INFO - 18:34:46 - h_71_lstm1_unit_71_1_split <- h_71
INFO - 18:34:46 - h_71_lstm1_unit_71_1_split -> h_71_lstm1_unit_71_1_split_0
INFO - 18:34:46 - h_71_lstm1_unit_71_1_split -> h_71_lstm1_unit_71_1_split_1
INFO - 18:34:46 - Setting up h_71_lstm1_unit_71_1_split
INFO - 18:34:46 - Top shape: 1 512 100 (51200)
INFO - 18:34:46 - Top shape: 1 512 100 (51200)
INFO - 18:34:46 - Memory required for data: 335912960
INFO - 18:34:46 - Creating layer / name=lstm1_h_conted_71 / type=Scale
INFO - 18:34:46 - Creating Layer lstm1_h_conted_71
INFO - 18:34:46 - lstm1_h_conted_71 <- h_71_lstm1_unit_71_1_split_0
INFO - 18:34:46 - lstm1_h_conted_71 <- cont_72_lstm1_cont_slice_71_split_0
INFO - 18:34:46 - lstm1_h_conted_71 -> h_conted_71
INFO - 18:34:46 - Setting up lstm1_h_conted_71
INFO - 18:34:46 - Top shape: 1 512 100 (51200)
INFO - 18:34:46 - Memory required for data: 336117760
INFO - 18:34:46 - Creating layer / name=lstm1_transform_72 / type=InnerProduct
INFO - 18:34:46 - Creating Layer lstm1_transform_72
INFO - 18:34:46 - lstm1_transform_72 <- h_conted_71
INFO - 18:34:46 - lstm1_transform_72 -> W_hc_h_71
INFO - 18:34:46 - Setting up lstm1_transform_72
INFO - 18:34:46 - Top shape: 1 512 400 (204800)
INFO - 18:34:46 - Memory required for data: 336936960
INFO - 18:34:46 - Sharing parameters 'W_hc' owned by layer 'lstm1_transform_1', param index 0
INFO - 18:34:46 - Creating layer / name=lstm1_gate_input_72 / type=Eltwise
INFO - 18:34:46 - Creating Layer lstm1_gate_input_72
INFO - 18:34:46 - lstm1_gate_input_72 <- W_hc_h_71
INFO - 18:34:46 - lstm1_gate_input_72 <- W_xc_x_72
INFO - 18:34:46 - lstm1_gate_input_72 -> gate_input_72
INFO - 18:34:46 - Setting up lstm1_gate_input_72
INFO - 18:34:46 - Top shape: 1 512 400 (204800)
INFO - 18:34:46 - Memory required for data: 337756160
INFO - 18:34:46 - Creating layer / name=lstm1_unit_72 / type=LSTMUnit
INFO - 18:34:46 - Creating Layer lstm1_unit_72
INFO - 18:34:46 - lstm1_unit_72 <- c_71
INFO - 18:34:46 - lstm1_unit_72 <- gate_input_72
INFO - 18:34:46 - lstm1_unit_72 <- cont_72_lstm1_cont_slice_71_split_1
INFO - 18:34:46 - lstm1_unit_72 -> c_72
INFO - 18:34:46 - lstm1_unit_72 -> h_72
INFO - 18:34:46 - Setting up lstm1_unit_72
INFO - 18:34:46 - Top shape: 1 512 100 (51200)
INFO - 18:34:46 - Top shape: 1 512 100 (51200)
INFO - 18:34:46 - Memory required for data: 338165760
INFO - 18:34:46 - Creating layer / name=h_72_lstm1_unit_72_1_split / type=Split
INFO - 18:34:46 - Creating Layer h_72_lstm1_unit_72_1_split
INFO - 18:34:46 - h_72_lstm1_unit_72_1_split <- h_72
INFO - 18:34:46 - h_72_lstm1_unit_72_1_split -> h_72_lstm1_unit_72_1_split_0
INFO - 18:34:46 - h_72_lstm1_unit_72_1_split -> h_72_lstm1_unit_72_1_split_1
INFO - 18:34:46 - Setting up h_72_lstm1_unit_72_1_split
INFO - 18:34:46 - Top shape: 1 512 100 (51200)
INFO - 18:34:46 - Top shape: 1 512 100 (51200)
INFO - 18:34:46 - Memory required for data: 338575360
INFO - 18:34:46 - Creating layer / name=lstm1_h_conted_72 / type=Scale
INFO - 18:34:46 - Creating Layer lstm1_h_conted_72
INFO - 18:34:46 - lstm1_h_conted_72 <- h_72_lstm1_unit_72_1_split_0
INFO - 18:34:46 - lstm1_h_conted_72 <- cont_73_lstm1_cont_slice_72_split_0
INFO - 18:34:46 - lstm1_h_conted_72 -> h_conted_72
INFO - 18:34:46 - Setting up lstm1_h_conted_72
INFO - 18:34:46 - Top shape: 1 512 100 (51200)
INFO - 18:34:46 - Memory required for data: 338780160
INFO - 18:34:46 - Creating layer / name=lstm1_transform_73 / type=InnerProduct
INFO - 18:34:46 - Creating Layer lstm1_transform_73
INFO - 18:34:46 - lstm1_transform_73 <- h_conted_72
INFO - 18:34:46 - lstm1_transform_73 -> W_hc_h_72
INFO - 18:34:46 - Setting up lstm1_transform_73
INFO - 18:34:46 - Top shape: 1 512 400 (204800)
INFO - 18:34:46 - Memory required for data: 339599360
INFO - 18:34:46 - Sharing parameters 'W_hc' owned by layer 'lstm1_transform_1', param index 0
INFO - 18:34:46 - Creating layer / name=lstm1_gate_input_73 / type=Eltwise
INFO - 18:34:46 - Creating Layer lstm1_gate_input_73
INFO - 18:34:46 - lstm1_gate_input_73 <- W_hc_h_72
INFO - 18:34:46 - lstm1_gate_input_73 <- W_xc_x_73
INFO - 18:34:46 - lstm1_gate_input_73 -> gate_input_73
INFO - 18:34:46 - Setting up lstm1_gate_input_73
INFO - 18:34:46 - Top shape: 1 512 400 (204800)
INFO - 18:34:46 - Memory required for data: 340418560
INFO - 18:34:46 - Creating layer / name=lstm1_unit_73 / type=LSTMUnit
INFO - 18:34:46 - Creating Layer lstm1_unit_73
INFO - 18:34:46 - lstm1_unit_73 <- c_72
INFO - 18:34:46 - lstm1_unit_73 <- gate_input_73
INFO - 18:34:46 - lstm1_unit_73 <- cont_73_lstm1_cont_slice_72_split_1
INFO - 18:34:46 - lstm1_unit_73 -> c_73
INFO - 18:34:46 - lstm1_unit_73 -> h_73
INFO - 18:34:46 - Setting up lstm1_unit_73
INFO - 18:34:46 - Top shape: 1 512 100 (51200)
INFO - 18:34:46 - Top shape: 1 512 100 (51200)
INFO - 18:34:46 - Memory required for data: 340828160
INFO - 18:34:46 - Creating layer / name=h_73_lstm1_unit_73_1_split / type=Split
INFO - 18:34:46 - Creating Layer h_73_lstm1_unit_73_1_split
INFO - 18:34:46 - h_73_lstm1_unit_73_1_split <- h_73
INFO - 18:34:46 - h_73_lstm1_unit_73_1_split -> h_73_lstm1_unit_73_1_split_0
INFO - 18:34:46 - h_73_lstm1_unit_73_1_split -> h_73_lstm1_unit_73_1_split_1
INFO - 18:34:46 - Setting up h_73_lstm1_unit_73_1_split
INFO - 18:34:46 - Top shape: 1 512 100 (51200)
INFO - 18:34:46 - Top shape: 1 512 100 (51200)
INFO - 18:34:46 - Memory required for data: 341237760
INFO - 18:34:46 - Creating layer / name=lstm1_h_conted_73 / type=Scale
INFO - 18:34:46 - Creating Layer lstm1_h_conted_73
INFO - 18:34:46 - lstm1_h_conted_73 <- h_73_lstm1_unit_73_1_split_0
INFO - 18:34:46 - lstm1_h_conted_73 <- cont_74_lstm1_cont_slice_73_split_0
INFO - 18:34:46 - lstm1_h_conted_73 -> h_conted_73
INFO - 18:34:46 - Setting up lstm1_h_conted_73
INFO - 18:34:46 - Top shape: 1 512 100 (51200)
INFO - 18:34:46 - Memory required for data: 341442560
INFO - 18:34:46 - Creating layer / name=lstm1_transform_74 / type=InnerProduct
INFO - 18:34:46 - Creating Layer lstm1_transform_74
INFO - 18:34:46 - lstm1_transform_74 <- h_conted_73
INFO - 18:34:46 - lstm1_transform_74 -> W_hc_h_73
INFO - 18:34:46 - Setting up lstm1_transform_74
INFO - 18:34:46 - Top shape: 1 512 400 (204800)
INFO - 18:34:46 - Memory required for data: 342261760
INFO - 18:34:46 - Sharing parameters 'W_hc' owned by layer 'lstm1_transform_1', param index 0
INFO - 18:34:46 - Creating layer / name=lstm1_gate_input_74 / type=Eltwise
INFO - 18:34:46 - Creating Layer lstm1_gate_input_74
INFO - 18:34:46 - lstm1_gate_input_74 <- W_hc_h_73
INFO - 18:34:46 - lstm1_gate_input_74 <- W_xc_x_74
INFO - 18:34:46 - lstm1_gate_input_74 -> gate_input_74
INFO - 18:34:46 - Setting up lstm1_gate_input_74
INFO - 18:34:46 - Top shape: 1 512 400 (204800)
INFO - 18:34:46 - Memory required for data: 343080960
INFO - 18:34:46 - Creating layer / name=lstm1_unit_74 / type=LSTMUnit
INFO - 18:34:46 - Creating Layer lstm1_unit_74
INFO - 18:34:46 - lstm1_unit_74 <- c_73
INFO - 18:34:46 - lstm1_unit_74 <- gate_input_74
INFO - 18:34:46 - lstm1_unit_74 <- cont_74_lstm1_cont_slice_73_split_1
INFO - 18:34:46 - lstm1_unit_74 -> c_74
INFO - 18:34:46 - lstm1_unit_74 -> h_74
INFO - 18:34:46 - Setting up lstm1_unit_74
INFO - 18:34:46 - Top shape: 1 512 100 (51200)
INFO - 18:34:46 - Top shape: 1 512 100 (51200)
INFO - 18:34:46 - Memory required for data: 343490560
INFO - 18:34:46 - Creating layer / name=h_74_lstm1_unit_74_1_split / type=Split
INFO - 18:34:46 - Creating Layer h_74_lstm1_unit_74_1_split
INFO - 18:34:46 - h_74_lstm1_unit_74_1_split <- h_74
INFO - 18:34:46 - h_74_lstm1_unit_74_1_split -> h_74_lstm1_unit_74_1_split_0
INFO - 18:34:46 - h_74_lstm1_unit_74_1_split -> h_74_lstm1_unit_74_1_split_1
INFO - 18:34:46 - Setting up h_74_lstm1_unit_74_1_split
INFO - 18:34:46 - Top shape: 1 512 100 (51200)
INFO - 18:34:46 - Top shape: 1 512 100 (51200)
INFO - 18:34:46 - Memory required for data: 343900160
INFO - 18:34:46 - Creating layer / name=lstm1_h_conted_74 / type=Scale
INFO - 18:34:46 - Creating Layer lstm1_h_conted_74
INFO - 18:34:46 - lstm1_h_conted_74 <- h_74_lstm1_unit_74_1_split_0
INFO - 18:34:46 - lstm1_h_conted_74 <- cont_75_lstm1_cont_slice_74_split_0
INFO - 18:34:46 - lstm1_h_conted_74 -> h_conted_74
INFO - 18:34:46 - Setting up lstm1_h_conted_74
INFO - 18:34:46 - Top shape: 1 512 100 (51200)
INFO - 18:34:46 - Memory required for data: 344104960
INFO - 18:34:46 - Creating layer / name=lstm1_transform_75 / type=InnerProduct
INFO - 18:34:46 - Creating Layer lstm1_transform_75
INFO - 18:34:46 - lstm1_transform_75 <- h_conted_74
INFO - 18:34:46 - lstm1_transform_75 -> W_hc_h_74
INFO - 18:34:46 - Setting up lstm1_transform_75
INFO - 18:34:46 - Top shape: 1 512 400 (204800)
INFO - 18:34:46 - Memory required for data: 344924160
INFO - 18:34:46 - Sharing parameters 'W_hc' owned by layer 'lstm1_transform_1', param index 0
INFO - 18:34:46 - Creating layer / name=lstm1_gate_input_75 / type=Eltwise
INFO - 18:34:46 - Creating Layer lstm1_gate_input_75
INFO - 18:34:46 - lstm1_gate_input_75 <- W_hc_h_74
INFO - 18:34:46 - lstm1_gate_input_75 <- W_xc_x_75
INFO - 18:34:46 - lstm1_gate_input_75 -> gate_input_75
INFO - 18:34:46 - Setting up lstm1_gate_input_75
INFO - 18:34:46 - Top shape: 1 512 400 (204800)
INFO - 18:34:46 - Memory required for data: 345743360
INFO - 18:34:46 - Creating layer / name=lstm1_unit_75 / type=LSTMUnit
INFO - 18:34:46 - Creating Layer lstm1_unit_75
INFO - 18:34:46 - lstm1_unit_75 <- c_74
INFO - 18:34:46 - lstm1_unit_75 <- gate_input_75
INFO - 18:34:46 - lstm1_unit_75 <- cont_75_lstm1_cont_slice_74_split_1
INFO - 18:34:46 - lstm1_unit_75 -> c_75
INFO - 18:34:46 - lstm1_unit_75 -> h_75
INFO - 18:34:46 - Setting up lstm1_unit_75
INFO - 18:34:46 - Top shape: 1 512 100 (51200)
INFO - 18:34:46 - Top shape: 1 512 100 (51200)
INFO - 18:34:46 - Memory required for data: 346152960
INFO - 18:34:46 - Creating layer / name=h_75_lstm1_unit_75_1_split / type=Split
INFO - 18:34:46 - Creating Layer h_75_lstm1_unit_75_1_split
INFO - 18:34:46 - h_75_lstm1_unit_75_1_split <- h_75
INFO - 18:34:46 - h_75_lstm1_unit_75_1_split -> h_75_lstm1_unit_75_1_split_0
INFO - 18:34:46 - h_75_lstm1_unit_75_1_split -> h_75_lstm1_unit_75_1_split_1
INFO - 18:34:46 - Setting up h_75_lstm1_unit_75_1_split
INFO - 18:34:46 - Top shape: 1 512 100 (51200)
INFO - 18:34:46 - Top shape: 1 512 100 (51200)
INFO - 18:34:46 - Memory required for data: 346562560
INFO - 18:34:46 - Creating layer / name=lstm1_h_conted_75 / type=Scale
INFO - 18:34:46 - Creating Layer lstm1_h_conted_75
INFO - 18:34:46 - lstm1_h_conted_75 <- h_75_lstm1_unit_75_1_split_0
INFO - 18:34:46 - lstm1_h_conted_75 <- cont_76_lstm1_cont_slice_75_split_0
INFO - 18:34:46 - lstm1_h_conted_75 -> h_conted_75
INFO - 18:34:46 - Setting up lstm1_h_conted_75
INFO - 18:34:46 - Top shape: 1 512 100 (51200)
INFO - 18:34:46 - Memory required for data: 346767360
INFO - 18:34:46 - Creating layer / name=lstm1_transform_76 / type=InnerProduct
INFO - 18:34:46 - Creating Layer lstm1_transform_76
INFO - 18:34:46 - lstm1_transform_76 <- h_conted_75
INFO - 18:34:46 - lstm1_transform_76 -> W_hc_h_75
INFO - 18:34:46 - Setting up lstm1_transform_76
INFO - 18:34:46 - Top shape: 1 512 400 (204800)
INFO - 18:34:46 - Memory required for data: 347586560
INFO - 18:34:46 - Sharing parameters 'W_hc' owned by layer 'lstm1_transform_1', param index 0
INFO - 18:34:46 - Creating layer / name=lstm1_gate_input_76 / type=Eltwise
INFO - 18:34:46 - Creating Layer lstm1_gate_input_76
INFO - 18:34:46 - lstm1_gate_input_76 <- W_hc_h_75
INFO - 18:34:46 - lstm1_gate_input_76 <- W_xc_x_76
INFO - 18:34:46 - lstm1_gate_input_76 -> gate_input_76
INFO - 18:34:46 - Setting up lstm1_gate_input_76
INFO - 18:34:46 - Top shape: 1 512 400 (204800)
INFO - 18:34:46 - Memory required for data: 348405760
INFO - 18:34:46 - Creating layer / name=lstm1_unit_76 / type=LSTMUnit
INFO - 18:34:46 - Creating Layer lstm1_unit_76
INFO - 18:34:46 - lstm1_unit_76 <- c_75
INFO - 18:34:46 - lstm1_unit_76 <- gate_input_76
INFO - 18:34:46 - lstm1_unit_76 <- cont_76_lstm1_cont_slice_75_split_1
INFO - 18:34:46 - lstm1_unit_76 -> c_76
INFO - 18:34:46 - lstm1_unit_76 -> h_76
INFO - 18:34:46 - Setting up lstm1_unit_76
INFO - 18:34:46 - Top shape: 1 512 100 (51200)
INFO - 18:34:46 - Top shape: 1 512 100 (51200)
INFO - 18:34:46 - Memory required for data: 348815360
INFO - 18:34:46 - Creating layer / name=h_76_lstm1_unit_76_1_split / type=Split
INFO - 18:34:46 - Creating Layer h_76_lstm1_unit_76_1_split
INFO - 18:34:46 - h_76_lstm1_unit_76_1_split <- h_76
INFO - 18:34:46 - h_76_lstm1_unit_76_1_split -> h_76_lstm1_unit_76_1_split_0
INFO - 18:34:46 - h_76_lstm1_unit_76_1_split -> h_76_lstm1_unit_76_1_split_1
INFO - 18:34:46 - Setting up h_76_lstm1_unit_76_1_split
INFO - 18:34:46 - Top shape: 1 512 100 (51200)
INFO - 18:34:46 - Top shape: 1 512 100 (51200)
INFO - 18:34:46 - Memory required for data: 349224960
INFO - 18:34:46 - Creating layer / name=lstm1_h_conted_76 / type=Scale
INFO - 18:34:46 - Creating Layer lstm1_h_conted_76
INFO - 18:34:46 - lstm1_h_conted_76 <- h_76_lstm1_unit_76_1_split_0
INFO - 18:34:46 - lstm1_h_conted_76 <- cont_77_lstm1_cont_slice_76_split_0
INFO - 18:34:46 - lstm1_h_conted_76 -> h_conted_76
INFO - 18:34:46 - Setting up lstm1_h_conted_76
INFO - 18:34:46 - Top shape: 1 512 100 (51200)
INFO - 18:34:46 - Memory required for data: 349429760
INFO - 18:34:46 - Creating layer / name=lstm1_transform_77 / type=InnerProduct
INFO - 18:34:46 - Creating Layer lstm1_transform_77
INFO - 18:34:46 - lstm1_transform_77 <- h_conted_76
INFO - 18:34:46 - lstm1_transform_77 -> W_hc_h_76
INFO - 18:34:46 - Setting up lstm1_transform_77
INFO - 18:34:46 - Top shape: 1 512 400 (204800)
INFO - 18:34:46 - Memory required for data: 350248960
INFO - 18:34:46 - Sharing parameters 'W_hc' owned by layer 'lstm1_transform_1', param index 0
INFO - 18:34:46 - Creating layer / name=lstm1_gate_input_77 / type=Eltwise
INFO - 18:34:46 - Creating Layer lstm1_gate_input_77
INFO - 18:34:46 - lstm1_gate_input_77 <- W_hc_h_76
INFO - 18:34:46 - lstm1_gate_input_77 <- W_xc_x_77
INFO - 18:34:46 - lstm1_gate_input_77 -> gate_input_77
INFO - 18:34:46 - Setting up lstm1_gate_input_77
INFO - 18:34:46 - Top shape: 1 512 400 (204800)
INFO - 18:34:46 - Memory required for data: 351068160
INFO - 18:34:46 - Creating layer / name=lstm1_unit_77 / type=LSTMUnit
INFO - 18:34:46 - Creating Layer lstm1_unit_77
INFO - 18:34:46 - lstm1_unit_77 <- c_76
INFO - 18:34:46 - lstm1_unit_77 <- gate_input_77
INFO - 18:34:46 - lstm1_unit_77 <- cont_77_lstm1_cont_slice_76_split_1
INFO - 18:34:46 - lstm1_unit_77 -> c_77
INFO - 18:34:46 - lstm1_unit_77 -> h_77
INFO - 18:34:46 - Setting up lstm1_unit_77
INFO - 18:34:46 - Top shape: 1 512 100 (51200)
INFO - 18:34:46 - Top shape: 1 512 100 (51200)
INFO - 18:34:46 - Memory required for data: 351477760
INFO - 18:34:46 - Creating layer / name=h_77_lstm1_unit_77_1_split / type=Split
INFO - 18:34:46 - Creating Layer h_77_lstm1_unit_77_1_split
INFO - 18:34:46 - h_77_lstm1_unit_77_1_split <- h_77
INFO - 18:34:46 - h_77_lstm1_unit_77_1_split -> h_77_lstm1_unit_77_1_split_0
INFO - 18:34:46 - h_77_lstm1_unit_77_1_split -> h_77_lstm1_unit_77_1_split_1
INFO - 18:34:46 - Setting up h_77_lstm1_unit_77_1_split
INFO - 18:34:46 - Top shape: 1 512 100 (51200)
INFO - 18:34:46 - Top shape: 1 512 100 (51200)
INFO - 18:34:46 - Memory required for data: 351887360
INFO - 18:34:46 - Creating layer / name=lstm1_h_conted_77 / type=Scale
INFO - 18:34:46 - Creating Layer lstm1_h_conted_77
INFO - 18:34:46 - lstm1_h_conted_77 <- h_77_lstm1_unit_77_1_split_0
INFO - 18:34:46 - lstm1_h_conted_77 <- cont_78_lstm1_cont_slice_77_split_0
INFO - 18:34:46 - lstm1_h_conted_77 -> h_conted_77
INFO - 18:34:46 - Setting up lstm1_h_conted_77
INFO - 18:34:46 - Top shape: 1 512 100 (51200)
INFO - 18:34:46 - Memory required for data: 352092160
INFO - 18:34:46 - Creating layer / name=lstm1_transform_78 / type=InnerProduct
INFO - 18:34:46 - Creating Layer lstm1_transform_78
INFO - 18:34:46 - lstm1_transform_78 <- h_conted_77
INFO - 18:34:46 - lstm1_transform_78 -> W_hc_h_77
INFO - 18:34:46 - Setting up lstm1_transform_78
INFO - 18:34:46 - Top shape: 1 512 400 (204800)
INFO - 18:34:46 - Memory required for data: 352911360
INFO - 18:34:46 - Sharing parameters 'W_hc' owned by layer 'lstm1_transform_1', param index 0
INFO - 18:34:46 - Creating layer / name=lstm1_gate_input_78 / type=Eltwise
INFO - 18:34:46 - Creating Layer lstm1_gate_input_78
INFO - 18:34:46 - lstm1_gate_input_78 <- W_hc_h_77
INFO - 18:34:46 - lstm1_gate_input_78 <- W_xc_x_78
INFO - 18:34:46 - lstm1_gate_input_78 -> gate_input_78
INFO - 18:34:46 - Setting up lstm1_gate_input_78
INFO - 18:34:46 - Top shape: 1 512 400 (204800)
INFO - 18:34:46 - Memory required for data: 353730560
INFO - 18:34:46 - Creating layer / name=lstm1_unit_78 / type=LSTMUnit
INFO - 18:34:46 - Creating Layer lstm1_unit_78
INFO - 18:34:46 - lstm1_unit_78 <- c_77
INFO - 18:34:46 - lstm1_unit_78 <- gate_input_78
INFO - 18:34:46 - lstm1_unit_78 <- cont_78_lstm1_cont_slice_77_split_1
INFO - 18:34:46 - lstm1_unit_78 -> c_78
INFO - 18:34:46 - lstm1_unit_78 -> h_78
INFO - 18:34:46 - Setting up lstm1_unit_78
INFO - 18:34:46 - Top shape: 1 512 100 (51200)
INFO - 18:34:46 - Top shape: 1 512 100 (51200)
INFO - 18:34:46 - Memory required for data: 354140160
INFO - 18:34:46 - Creating layer / name=h_78_lstm1_unit_78_1_split / type=Split
INFO - 18:34:46 - Creating Layer h_78_lstm1_unit_78_1_split
INFO - 18:34:46 - h_78_lstm1_unit_78_1_split <- h_78
INFO - 18:34:46 - h_78_lstm1_unit_78_1_split -> h_78_lstm1_unit_78_1_split_0
INFO - 18:34:46 - h_78_lstm1_unit_78_1_split -> h_78_lstm1_unit_78_1_split_1
INFO - 18:34:46 - Setting up h_78_lstm1_unit_78_1_split
INFO - 18:34:46 - Top shape: 1 512 100 (51200)
INFO - 18:34:46 - Top shape: 1 512 100 (51200)
INFO - 18:34:46 - Memory required for data: 354549760
INFO - 18:34:46 - Creating layer / name=lstm1_h_conted_78 / type=Scale
INFO - 18:34:46 - Creating Layer lstm1_h_conted_78
INFO - 18:34:46 - lstm1_h_conted_78 <- h_78_lstm1_unit_78_1_split_0
INFO - 18:34:46 - lstm1_h_conted_78 <- cont_79_lstm1_cont_slice_78_split_0
INFO - 18:34:46 - lstm1_h_conted_78 -> h_conted_78
INFO - 18:34:46 - Setting up lstm1_h_conted_78
INFO - 18:34:46 - Top shape: 1 512 100 (51200)
INFO - 18:34:46 - Memory required for data: 354754560
INFO - 18:34:46 - Creating layer / name=lstm1_transform_79 / type=InnerProduct
INFO - 18:34:46 - Creating Layer lstm1_transform_79
INFO - 18:34:46 - lstm1_transform_79 <- h_conted_78
INFO - 18:34:46 - lstm1_transform_79 -> W_hc_h_78
INFO - 18:34:46 - Setting up lstm1_transform_79
INFO - 18:34:46 - Top shape: 1 512 400 (204800)
INFO - 18:34:46 - Memory required for data: 355573760
INFO - 18:34:46 - Sharing parameters 'W_hc' owned by layer 'lstm1_transform_1', param index 0
INFO - 18:34:46 - Creating layer / name=lstm1_gate_input_79 / type=Eltwise
INFO - 18:34:46 - Creating Layer lstm1_gate_input_79
INFO - 18:34:46 - lstm1_gate_input_79 <- W_hc_h_78
INFO - 18:34:46 - lstm1_gate_input_79 <- W_xc_x_79
INFO - 18:34:46 - lstm1_gate_input_79 -> gate_input_79
INFO - 18:34:46 - Setting up lstm1_gate_input_79
INFO - 18:34:46 - Top shape: 1 512 400 (204800)
INFO - 18:34:46 - Memory required for data: 356392960
INFO - 18:34:46 - Creating layer / name=lstm1_unit_79 / type=LSTMUnit
INFO - 18:34:46 - Creating Layer lstm1_unit_79
INFO - 18:34:46 - lstm1_unit_79 <- c_78
INFO - 18:34:46 - lstm1_unit_79 <- gate_input_79
INFO - 18:34:46 - lstm1_unit_79 <- cont_79_lstm1_cont_slice_78_split_1
INFO - 18:34:46 - lstm1_unit_79 -> c_79
INFO - 18:34:46 - lstm1_unit_79 -> h_79
INFO - 18:34:46 - Setting up lstm1_unit_79
INFO - 18:34:46 - Top shape: 1 512 100 (51200)
INFO - 18:34:46 - Top shape: 1 512 100 (51200)
INFO - 18:34:46 - Memory required for data: 356802560
INFO - 18:34:46 - Creating layer / name=h_79_lstm1_unit_79_1_split / type=Split
INFO - 18:34:46 - Creating Layer h_79_lstm1_unit_79_1_split
INFO - 18:34:46 - h_79_lstm1_unit_79_1_split <- h_79
INFO - 18:34:46 - h_79_lstm1_unit_79_1_split -> h_79_lstm1_unit_79_1_split_0
INFO - 18:34:46 - h_79_lstm1_unit_79_1_split -> h_79_lstm1_unit_79_1_split_1
INFO - 18:34:46 - Setting up h_79_lstm1_unit_79_1_split
INFO - 18:34:46 - Top shape: 1 512 100 (51200)
INFO - 18:34:46 - Top shape: 1 512 100 (51200)
INFO - 18:34:46 - Memory required for data: 357212160
INFO - 18:34:46 - Creating layer / name=lstm1_h_conted_79 / type=Scale
INFO - 18:34:46 - Creating Layer lstm1_h_conted_79
INFO - 18:34:46 - lstm1_h_conted_79 <- h_79_lstm1_unit_79_1_split_0
INFO - 18:34:46 - lstm1_h_conted_79 <- cont_80_lstm1_cont_slice_79_split_0
INFO - 18:34:46 - lstm1_h_conted_79 -> h_conted_79
INFO - 18:34:46 - Setting up lstm1_h_conted_79
INFO - 18:34:46 - Top shape: 1 512 100 (51200)
INFO - 18:34:46 - Memory required for data: 357416960
INFO - 18:34:46 - Creating layer / name=lstm1_transform_80 / type=InnerProduct
INFO - 18:34:46 - Creating Layer lstm1_transform_80
INFO - 18:34:46 - lstm1_transform_80 <- h_conted_79
INFO - 18:34:46 - lstm1_transform_80 -> W_hc_h_79
INFO - 18:34:46 - Setting up lstm1_transform_80
INFO - 18:34:46 - Top shape: 1 512 400 (204800)
INFO - 18:34:46 - Memory required for data: 358236160
INFO - 18:34:46 - Sharing parameters 'W_hc' owned by layer 'lstm1_transform_1', param index 0
INFO - 18:34:46 - Creating layer / name=lstm1_gate_input_80 / type=Eltwise
INFO - 18:34:46 - Creating Layer lstm1_gate_input_80
INFO - 18:34:46 - lstm1_gate_input_80 <- W_hc_h_79
INFO - 18:34:46 - lstm1_gate_input_80 <- W_xc_x_80
INFO - 18:34:46 - lstm1_gate_input_80 -> gate_input_80
INFO - 18:34:46 - Setting up lstm1_gate_input_80
INFO - 18:34:46 - Top shape: 1 512 400 (204800)
INFO - 18:34:46 - Memory required for data: 359055360
INFO - 18:34:46 - Creating layer / name=lstm1_unit_80 / type=LSTMUnit
INFO - 18:34:46 - Creating Layer lstm1_unit_80
INFO - 18:34:46 - lstm1_unit_80 <- c_79
INFO - 18:34:46 - lstm1_unit_80 <- gate_input_80
INFO - 18:34:46 - lstm1_unit_80 <- cont_80_lstm1_cont_slice_79_split_1
INFO - 18:34:46 - lstm1_unit_80 -> c_80
INFO - 18:34:46 - lstm1_unit_80 -> h_80
INFO - 18:34:46 - Setting up lstm1_unit_80
INFO - 18:34:46 - Top shape: 1 512 100 (51200)
INFO - 18:34:46 - Top shape: 1 512 100 (51200)
INFO - 18:34:46 - Memory required for data: 359464960
INFO - 18:34:46 - Creating layer / name=lstm1_ / type=Split
INFO - 18:34:46 - Creating Layer lstm1_
INFO - 18:34:46 - lstm1_ <- c_80
INFO - 18:34:46 - lstm1_ -> c_T
INFO - 18:34:46 - Setting up lstm1_
INFO - 18:34:46 - Top shape: 1 512 100 (51200)
INFO - 18:34:46 - Memory required for data: 359669760
INFO - 18:34:46 - Creating layer / name=lstm1_h_concat / type=Concat
INFO - 18:34:46 - Creating Layer lstm1_h_concat
INFO - 18:34:46 - lstm1_h_concat <- h_1_lstm1_unit_1_1_split_1
INFO - 18:34:46 - lstm1_h_concat <- h_2_lstm1_unit_2_1_split_1
INFO - 18:34:46 - lstm1_h_concat <- h_3_lstm1_unit_3_1_split_1
INFO - 18:34:46 - lstm1_h_concat <- h_4_lstm1_unit_4_1_split_1
…
INFO - 18:34:46 - cont_1_lstm1_cont_slice_0_split does not need backward computation.
INFO - 18:34:46 - lstm1_cont_slice does not need backward computation.
INFO - 18:34:46 - lstm1_ does not need backward computation.
INFO - 18:34:46 - lstm1_ does not need backward computation.
INFO - 18:34:46 - This network produces output c_T
INFO - 18:34:46 - This network produces output h_pseudoloss
INFO - 18:34:46 - Network initialization done.
INFO - 18:34:46 - Adding parameter 0: W_xc
INFO - 18:34:46 - Adding parameter 1: b_c
INFO - 18:34:46 - Adding parameter 2: W_hc
INFO - 18:34:46 - Setting up lstm1
INFO - 18:34:46 - Top shape: 80 512 100 (4096000)
INFO - 18:34:46 - Memory required for data: 46376960
INFO - 18:34:46 - Creating layer / name=lstm2 / type=LSTM
INFO - 18:34:46 - Creating Layer lstm2
INFO - 18:34:46 - lstm2 <- lstm1
INFO - 18:34:46 - lstm2 <- indicator_indicator_0_split_1
INFO - 18:34:46 - lstm2 -> lstm2
INFO - 18:34:46 - Initializing recurrent layer: assuming input batch contains 80 timesteps of 512 independent streams.
INFO - 18:34:46 - Initializing net from parameters: 

INFO - 18:34:46 - Creating layer / name=lstm2_ / type=Input
INFO - 18:34:46 - Creating Layer lstm2_
INFO - 18:34:46 - lstm2_ -> x
INFO - 18:34:46 - lstm2_ -> cont
INFO - 18:34:46 - Setting up lstm2_
INFO - 18:34:46 - Top shape: 80 512 100 (4096000)
INFO - 18:34:46 - Top shape: 80 512 (40960)
INFO - 18:34:46 - Memory required for data: 16547840
INFO - 18:34:46 - Creating layer / name=lstm2_ / type=Input
INFO - 18:34:46 - Creating Layer lstm2_
INFO - 18:34:46 - lstm2_ -> c_0
INFO - 18:34:46 - lstm2_ -> h_0
INFO - 18:34:46 - Setting up lstm2_
INFO - 18:34:46 - Top shape: 1 512 100 (51200)
INFO - 18:34:46 - Top shape: 1 512 100 (51200)
INFO - 18:34:46 - Memory required for data: 16957440
INFO - 18:34:46 - Creating layer / name=lstm2_cont_slice / type=Slice
INFO - 18:34:46 - Creating Layer lstm2_cont_slice
INFO - 18:34:46 - lstm2_cont_slice <- cont
INFO - 18:34:46 - lstm2_cont_slice -> cont_1
INFO - 18:34:46 - lstm2_cont_slice -> cont_2
INFO - 18:34:46 - lstm2_cont_slice -> cont_3
INFO - 18:34:46 - lstm2_cont_slice -> cont_4
…
INFO - 18:34:46 - Creating test net (#0) specified by net file: ./examples/warpctc_captcha/lstm_ctc.prototxt
INFO - 18:34:46 - The NetState phase (1) differed from the phase (0) specified by a rule in layer data
INFO - 18:34:46 - Initializing net from parameters: 

INFO - 18:34:46 - Creating layer / name=data / type=HDF5Data
INFO - 18:34:46 - Creating Layer data
INFO - 18:34:46 - data -> data
INFO - 18:34:46 - data -> label
INFO - 18:34:46 - Loading list of HDF5 filenames from: ./data/captcha/testing.list
INFO - 18:34:46 - Number of HDF5 files: 1
INFO - 18:34:48 - Setting up data
INFO - 18:34:48 - Top shape: 512 3 30 80 (3686400)
INFO - 18:34:48 - Top shape: 512 5 (2560)
INFO - 18:34:48 - Memory required for data: 14755840
INFO - 18:34:48 - Creating layer / name=label_data_1_split / type=Split
INFO - 18:34:48 - Creating Layer label_data_1_split
INFO - 18:34:48 - label_data_1_split <- label
INFO - 18:34:48 - label_data_1_split -> label_data_1_split_0
INFO - 18:34:48 - label_data_1_split -> label_data_1_split_1
INFO - 18:34:48 - Setting up label_data_1_split
INFO - 18:34:48 - Top shape: 512 5 (2560)
INFO - 18:34:48 - Top shape: 512 5 (2560)
INFO - 18:34:48 - Memory required for data: 14776320
INFO - 18:34:48 - Creating layer / name=indicator / type=ContinuationIndicator
INFO - 18:34:48 - Creating Layer indicator
INFO - 18:34:48 - indicator -> indicator
INFO - 18:34:48 - Setting up indicator
INFO - 18:34:48 - Top shape: 80 512 (40960)
INFO - 18:34:48 - Memory required for data: 14940160
INFO - 18:34:48 - Creating layer / name=indicator_indicator_0_split / type=Split
INFO - 18:34:48 - Creating Layer indicator_indicator_0_split
INFO - 18:34:48 - indicator_indicator_0_split <- indicator
INFO - 18:34:48 - indicator_indicator_0_split -> indicator_indicator_0_split_0
INFO - 18:34:48 - indicator_indicator_0_split -> indicator_indicator_0_split_1
INFO - 18:34:48 - Setting up indicator_indicator_0_split
INFO - 18:34:48 - Top shape: 80 512 (40960)
INFO - 18:34:48 - Top shape: 80 512 (40960)
INFO - 18:34:48 - Memory required for data: 15267840
INFO - 18:34:48 - Creating layer / name=permuted_data / type=Permute
INFO - 18:34:48 - Creating Layer permuted_data
INFO - 18:34:48 - permuted_data <- data
INFO - 18:34:48 - permuted_data -> permuted_data
INFO - 18:34:48 - Setting up permuted_data
INFO - 18:34:48 - Top shape: 80 512 3 30 (3686400)
INFO - 18:34:48 - Memory required for data: 30013440
INFO - 18:34:48 - Creating layer / name=lstm1 / type=LSTM
INFO - 18:34:48 - Creating Layer lstm1
INFO - 18:34:48 - lstm1 <- permuted_data
INFO - 18:34:48 - lstm1 <- indicator_indicator_0_split_0
INFO - 18:34:48 - lstm1 -> lstm1
INFO - 18:34:48 - Initializing recurrent layer: assuming input batch contains 80 timesteps of 512 independent streams.
INFO - 18:34:48 - Initializing net from parameters: 

INFO - 18:34:48 - Creating layer / name=lstm1_ / type=Input
INFO - 18:34:48 - Creating Layer lstm1_
INFO - 18:34:48 - lstm1_ -> x
INFO - 18:34:48 - lstm1_ -> cont
INFO - 18:34:48 - Setting up lstm1_
INFO - 18:34:48 - Top shape: 80 512 3 30 (3686400)
INFO - 18:34:48 - Top shape: 80 512 (40960)
INFO - 18:34:48 - Memory required for data: 14909440
INFO - 18:34:48 - Creating layer / name=lstm1_ / type=Input
INFO - 18:34:48 - Creating Layer lstm1_
INFO - 18:34:48 - lstm1_ -> c_0
INFO - 18:34:48 - lstm1_ -> h_0
INFO - 18:34:48 - Setting up lstm1_
INFO - 18:34:48 - Top shape: 1 512 100 (51200)
INFO - 18:34:48 - Top shape: 1 512 100 (51200)
INFO - 18:34:48 - Memory required for data: 15319040
INFO - 18:34:48 - Creating layer / name=lstm1_cont_slice / type=Slice
INFO - 18:34:48 - Creating Layer lstm1_cont_slice
INFO - 18:34:48 - lstm1_cont_slice <- cont
INFO - 18:34:48 - lstm1_cont_slice -> cont_1
INFO - 18:34:48 - lstm1_cont_slice -> cont_2
INFO - 18:34:48 - lstm1_cont_slice -> cont_3
INFO - 18:34:48 - lstm1_cont_slice -> cont_4
…
INFO - 18:34:48 - cont_1_lstm2_cont_slice_0_split does not need backward computation.
INFO - 18:34:48 - lstm2_cont_slice does not need backward computation.
INFO - 18:34:48 - lstm2_ does not need backward computation.
INFO - 18:34:48 - lstm2_ does not need backward computation.
INFO - 18:34:48 - This network produces output c_T
INFO - 18:34:48 - This network produces output h_pseudoloss
INFO - 18:34:48 - Network initialization done.
INFO - 18:34:48 - Adding parameter 0: W_xc
INFO - 18:34:48 - Adding parameter 1: b_c
INFO - 18:34:48 - Adding parameter 2: W_hc
INFO - 18:34:48 - Setting up lstm2
INFO - 18:34:48 - Top shape: 80 512 100 (4096000)
INFO - 18:34:48 - Memory required for data: 62781440
INFO - 18:34:48 - Creating layer / name=fc1 / type=InnerProduct
INFO - 18:34:48 - Creating Layer fc1
INFO - 18:34:48 - fc1 <- lstm2
INFO - 18:34:48 - fc1 -> fc1
INFO - 18:34:48 - Setting up fc1
INFO - 18:34:48 - Top shape: 80 512 11 (450560)
INFO - 18:34:48 - Memory required for data: 64583680
INFO - 18:34:48 - Creating layer / name=fc1_fc1_0_split / type=Split
INFO - 18:34:48 - Creating Layer fc1_fc1_0_split
INFO - 18:34:48 - fc1_fc1_0_split <- fc1
INFO - 18:34:48 - fc1_fc1_0_split -> fc1_fc1_0_split_0
INFO - 18:34:48 - fc1_fc1_0_split -> fc1_fc1_0_split_1
INFO - 18:34:48 - Setting up fc1_fc1_0_split
INFO - 18:34:48 - Top shape: 80 512 11 (450560)
INFO - 18:34:48 - Top shape: 80 512 11 (450560)
INFO - 18:34:48 - Memory required for data: 68188160
INFO - 18:34:48 - Creating layer / name=ctc_loss / type=CtcLoss
INFO - 18:34:48 - Creating Layer ctc_loss
INFO - 18:34:48 - ctc_loss <- fc1_fc1_0_split_0
INFO - 18:34:48 - ctc_loss <- label_data_1_split_0
INFO - 18:34:48 - ctc_loss -> ctc_loss
INFO - 18:34:48 - Setting up ctc_loss
INFO - 18:34:48 - Top shape: (1)
INFO - 18:34:48 -     with loss weight 1
INFO - 18:34:48 - Memory required for data: 68188164
INFO - 18:34:48 - Creating layer / name=permute_fc / type=Permute
INFO - 18:34:48 - Creating Layer permute_fc
INFO - 18:34:48 - permute_fc <- fc1_fc1_0_split_1
INFO - 18:34:48 - permute_fc -> premuted_fc
INFO - 18:34:48 - Setting up permute_fc
INFO - 18:34:48 - Top shape: 512 80 11 (450560)
INFO - 18:34:48 - Memory required for data: 69990404
INFO - 18:34:48 - Creating layer / name=accuracy / type=LabelsequenceAccuracy
INFO - 18:34:48 - Creating Layer accuracy
INFO - 18:34:48 - accuracy <- premuted_fc
INFO - 18:34:48 - accuracy <- label_data_1_split_1
INFO - 18:34:48 - accuracy -> accuracy
INFO - 18:34:48 - Setting up accuracy
INFO - 18:34:48 - Top shape: (1)
INFO - 18:34:48 - Memory required for data: 69990408
…
