name: "LeNet"
layers {
  name: "mnist"
  type: DATA
  top: "data"
  top: "label"
  data_param {
    source: "examples/mnist/mnist_train_lmdb"
    backend: LMDB
    batch_size: 64
  }
  transform_param {
    scale: 0.00390625
  }
  include: { phase: TRAIN }
}
layers {
  name: "mnist"
  type: DATA
  top: "data"
  top: "label"
  data_param {
    source: "examples/mnist/mnist_test_lmdb"
    backend: LMDB
    batch_size: 100
  }
  transform_param {
    scale: 0.00390625
  }
  include: { phase: TEST }
}
layers {
  name: "cp1"
  type: IMPORT
  import_param {
    net: "examples/mnist/lenet_conv_pool.prototxt"
    var { name: "bottom" value: "/data" }
    var { name: "num_output" value: "20" }
  }
}
layers {
  name: "cp2"
  type: IMPORT
  import_param {
    net: "examples/mnist/lenet_conv_pool.prototxt"
    var { name: "bottom" value: "../cp1/pool" }
    var { name: "num_output" value: "50" }
  }
}
layers {
  name: "ip1"
  type: INNER_PRODUCT
  bottom: "cp2/pool"
  top: "ip1"
  blobs_lr: 1
  blobs_lr: 2
  inner_product_param {
    num_output: 500
    weight_filler {
      type: "xavier"
    }
    bias_filler {
      type: "constant"
    }
  }
}
layers {
  name: "relu1"
  type: RELU
  bottom: "ip1"
  top: "ip1"
}
layers {
  name: "ip2"
  type: INNER_PRODUCT
  bottom: "ip1"
  top: "ip2"
  blobs_lr: 1
  blobs_lr: 2
  inner_product_param {
    num_output: 10
    weight_filler {
      type: "xavier"
    }
    bias_filler {
      type: "constant"
    }
  }
}
layers {
  name: "accuracy"
  type: ACCURACY
  bottom: "ip2"
  bottom: "label"
  top: "accuracy"
  include: { phase: TEST }
}
layers {
  name: "loss"
  type: SOFTMAX_LOSS
  bottom: "ip2"
  bottom: "label"
  top: "loss"
}
