name: "LeNet-test"
layers {
  name: "mnist"
  type: DATA
  top: "data"
  top: "label"
  data_param {
    source: "mnist-test-leveldb"
    scale: 0.00390625
    batch_size: 100
  }
}
layers {
  name: "conv1"
  type: CONVOLUTION
  bottom: "data"
  top: "conv1"
  convolution_param {
    num_output: 20
    kernel_size: 5
    stride: 1
    weight_filler {
      type: "xavier"
    }
    bias_filler {
      type: "constant"
    }
  }
}
layers {
  name: "pool1"
  type: POOLING
  bottom: "conv1"
  top: "pool1"
  pooling_param {
    pool: MAX
    kernel_size: 2
    stride: 2
  }
}
layers {
  name: "conv2"
  type: CONVOLUTION
  bottom: "pool1"
  top: "conv2"
  convolution_param {
    num_output: 50
    kernel_size: 5
    stride: 1
    weight_filler {
      type: "xavier"
    }
    bias_filler {
      type: "constant"
    }
  }
}
layers {
  name: "pool2"
  type: POOLING
  bottom: "conv2"
  top: "pool2"
  pooling_param {
    pool: MAX
    kernel_size: 2
    stride: 2
  }
}
layers {
  name: "ip1"
  type: INNER_PRODUCT
  bottom: "pool2"
  top: "ip1"
  inner_product_param {
    num_output: 500
    weight_filler {
      type: "xavier"
    }
    bias_filler {
      type: "constant"
    }
  }
}
layers {
  name: "relu1"
  type: RELU
  bottom: "ip1"
  top: "ip1"
}
layers {
  name: "ip2"
  type: INNER_PRODUCT
  bottom: "ip1"
  top: "ip2"
  inner_product_param {
    num_output: 10
    weight_filler {
      type: "xavier"
    }
    bias_filler {
      type: "constant"
    }
  }
}
layers {
  name: "prob"
  type: SOFTMAX
  bottom: "ip2"
  top: "prob"
}
layers {
  name: "accuracy"
  type: ACCURACY
  bottom: "prob"
  bottom: "label"
  top: "accuracy"
}
